models/epoch_30/discriminator.pth (torch, 420232 bytes, 7 tensors)

network.0.weight f4 [256, 20]
0	0xbd25a117	-0.04043683
1	0x3d411990	0.04714352
2	0xbd8482a8	-0.06470233
3	0x3e581b5d	0.21104188
4	0x3e59ee7c	0.21282381
5	0xbe383289	-0.17988028
6	0x3dcd3b07	0.10021024
7	0xbd68799b	-0.056756597
8	0xbdf27637	-0.11838954
9	0x3d93c854	0.07215944
10	0xbde25a8b	-0.11052426
11	0x3e402e9e	0.18767783
12	0x3d47845c	0.048710212
13	0xbd1eec7f	-0.03879976
14	0xbd49b9b6	-0.049249373
15	0xbdff4873	-0.124649905
16	0xbdb8718a	-0.09006031
17	0xbd62a99b	-0.05533753
18	0x3b500eda	0.0031747133
19	0xbe66ac1f	-0.22526596
20	0x3d0fe932	0.0351345
21	0xbda40843	-0.08009388
22	0x3d2844b9	0.041081164
23	0xbc89fda9	-0.016844587
24	0x3d879e88	0.06622034
25	0xbdbd9a27	-0.09257918
26	0xbe312f2c	-0.17303151
27	0x3e0cb90e	0.13742468
28	0x3dced922	0.101000085
29	0x3c989718	0.018626735
30	0xbd79f72e	-0.061026745
31	0xbde50d3c	-0.11184165
32	0x3e0376d3	0.12838297
33	0x3e203692	0.15645817
34	0x3d8ce505	0.068796195
35	0xbe0793a7	-0.13239919
36	0x3d4464a1	0.04794753
37	0x3e9598f3	0.29218253
38	0x3e580949	0.21097292
39	0xbcae1fb9	-0.02125536
40	0x3e3114fd	0.17293163
41	0x3bbf9919	0.005847108
42	0xbcdc52ed	-0.02689501
43	0xbdc04e5d	-0.093899466
44	0x3c8b8ab2	0.017033909
45	0xbe077a93	-0.13230352
46	0xbcd74fed	-0.026283229
47	0xbd6110a1	-0.0549475
48	0xbde198a8	-0.11015445
49	0xbdb94e2e	-0.09048115
50	0xbc0cdd83	-0.008597734
51	0x3ec04994	0.37556136
52	0x3d32e8d3	0.04367907
53	0x3c363d04	0.011122946
54	0x3b9b4f87	0.004739705
55	0x3af64b7b	0.0018790805
56	0x3ddaf5ac	0.106913894
57	0x3d513d02	0.051083572
58	0xbc5130b0	-0.012767956
59	0xbe21140b	-0.15730302
60	0x3c7aa259	0.015297496
61	0xbcf7d1f3	-0.030251479
62	0x3c6e5c1e	0.01454833
63	0xbdf5e0ab	-0.12005743
64	0xbd459de6	-0.048246287
65	0x3e46d083	0.19415478
66	0x3db0429f	0.08606457
67	0x3e81efaf	0.25378177
68	0xbe04ce27	-0.12969266
69	0xbcff87bb	-0.031192651
70	0x3e40be9f	0.18822716
71	0x3d474b9f	0.048656102
72	0x3d054f01	0.032546047
73	0xbdd97a6d	-0.10619054
74	0x3dde5705	0.108564414
75	0x3c941d71	0.018080445
76	0x3e37f76b	0.17965476
77	0xbe2c96cb	-0.16854398
78	0x3e8011df	0.25013635
79	0x3e017831	0.12643506
80	0x3b3a04d0	0.0028384216
81	0x3d81aaff	0.06331443
82	0x3d98f787	0.07469087
83	0xbe159649	-0.1460811
84	0xbe008b5e	-0.12553164
85	0xbe359918	-0.17734182
86	0x3e5337da	0.20626774
87	0x3e72664b	0.23671834
88	0x3e7410a8	0.23834479
89	0xbdd1e54e	-0.102488145
90	0xbdf51b4b	-0.11968096
91	0xbc1c83a4	-0.00955287
92	0xbdc5bca8	-0.09655124
93	0x3d8f88a4	0.07008484
94	0x3e3b36bd	0.182826
95	0xbd8b63fe	-0.06806181
96	0xbd885066	-0.0665596
97	0xbdb2060e	-0.08692561
98	0xbe18ece1	-0.14934112
99	0x3db97929	0.090563126
100	0xbe020d68	-0.12700427
101	0x3de3eeaf	0.1112951
102	0xbc7bb6d1	-0.015363411
103	0x3d28bd55	0.041196186
104	0x3e048763	0.12942271
105	0x3da86751	0.08222831
106	0x3d06cd8a	0.03291086
107	0xbe1d1fd1	-0.15344168
108	0x3c3f6173	0.011680949
109	0xbe12eaa9	-0.14347328
110	0xbe25997d	-0.16171832
111	0xbd1cb3f1	-0.038257543
112	0x3e85a064	0.2609893
113	0xbe5526fb	-0.20815651
114	0xbe1778ff	-0.1479225
115	0x3d7a5325	0.06111445
116	0xbd318996	-0.043344103
117	0x3e31e9d7	0.17374359
118	0xbdcbec36	-0.09957163
119	0x3c70cb16	0.014696857
120	0x3e0b745c	0.13618606
121	0xbcaa6574	-0.02080033
122	0xbd95efcd	-0.07321129
123	0x3d9e39f5	0.07725898
124	0x3da32fe6	0.0796812
125	0x3e054e5a	0.1301817
126	0xbe12f867	-0.1435257
127	0x3cb4b39a	0.022058297
128	0xbccc416c	-0.02493354
129	0x3ca086da	0.019595552
130	0xbd409758	-0.047019333
131	0xbe1a518a	-0.15070167
132	0xbc669458	-0.014073454
133	0xbdeccd06	-0.115625426
134	0x3e9dd177	0.30823871
135	0x3da0a88d	0.078446485
136	0xbd87a210	-0.06622708
137	0xbddc9fb4	-0.107726485
138	0x3e67c20f	0.22632621
139	0x3e854776	0.26031083
140	0xbdf6cbf0	-0.12050617
141	0x3e17a02e	0.14807197
142	0xbd9285b3	-0.07154407
143	0xbd43cdb3	-0.047803592
144	0xbe0c5eb5	-0.13708003
145	0x3d5e179c	0.054221734
146	0xbe31e749	-0.17373385
147	0x3d889917	0.066698246
148	0xbde81c45	-0.11333517
149	0x3d594ee3	0.053053748
150	0xbdc0ae7c	-0.0940828
151	0xbdace269	-0.08441622
152	0x3de5ef9d	0.11227343
153	0x3d30982a	0.043113865
154	0x3da8e7fa	0.08247371
155	0x3e219415	0.15779145
156	0xbdfe8398	-0.12427443
157	0x3dbcff7a	0.09228416
158	0xbd2c82c5	-0.0421169
159	0x3dd610e2	0.10452439
160	0xbe2c398c	-0.16818827
161	0xbd996fda	-0.07492037
162	0xbc75f3f5	-0.015011777
163	0x3e003062	0.12518457
164	0xbc638c34	-0.0138884075
165	0x3ca862a3	0.020554846
166	0x3d2fc226	0.042909764
167	0xbe3a51b0	-0.18195224
168	0xbe2731b2	-0.16327551
169	0x3dfe2fc5	0.12411455
170	0x3debb146	0.115084216
171	0xbe1514a1	-0.1455865
172	0xbd96268c	-0.07331571
173	0xbc679f6f	-0.014137133
174	0xbd610d78	-0.054944485
175	0xbdbd7d39	-0.092524
176	0x3d481466	0.04884758
177	0xbdbd6ee4	-0.09249666
178	0xbdac6d61	-0.084193
179	0xbdd5a2dc	-0.104314536
180	0x3e1a014e	0.1503956
181	0xbb99cf13	-0.0046938746
182	0x3e26a19a	0.16272584
183	0x3e2f0dbd	0.17095084
184	0xbd3d91ae	-0.04628151
185	0x3dbd9db8	0.09258598
186	0x3ee4a9c3	0.44660768
187	0xbdb91239	-0.09036679
188	0x3d548f62	0.051894553
189	0xbd236916	-0.03989514
190	0x3c59b4d2	0.01328774
191	0x3ce3a028	0.02778633
192	0xbdc593de	-0.09647344
193	0x3c204048	0.009780951
194	0xbd0b5e37	-0.034025397
195	0xbd9abbfe	-0.07555388
196	0xbc443393	-0.011975187
197	0xbda54387	-0.080695204
198	0xbd8b2057	-0.06793278
199	0x3df88ca9	0.12136204
200	0xbd0bc5b9	-0.03412411
201	0xbd67d7c4	-0.056602255
202	0x3df4f5f2	0.11960973
203	0xbd78e920	-0.0607692
204	0x3d981068	0.07425004
205	0xbda9472a	-0.082655266
206	0xbe811062	-0.25207812
207	0x3e4a0c2b	0.19731204
208	0x3e30d877	0.17270075
209	0x3db888b5	0.0901045
210	0x3e2b0a81	0.16703226
211	0x3dd8d8c4	0.1058822
212	0xbe31817c	-0.1733455
213	0xbd4fcc61	-0.05073202
214	0xbd29d3fb	-0.041461926
215	0x3d92b3c3	0.07163193
216	0x3d476708	0.048682243
217	0x3cd1d19c	0.025612645
218	0x3da485e4	0.0803335
219	0xbe8155ce	-0.25260776
220	0x3d8857e0	0.06657386
221	0x3e6eb737	0.23312078
222	0x3dd2efe4	0.10299662
223	0xbd9ab54a	-0.075541094
224	0x3e24274f	0.1603062
225	0x3e34547d	0.17610355
226	0xbdae5036	-0.08511393
227	0xbd622fef	-0.055221494
228	0xbc9e5d0a	-0.019331474
229	0x3bbe3f58	0.005805891
230	0xbc8c7ae0	-0.017148435
231	0xbde62f24	-0.1123946
232	0x3d7e9cf7	0.062161412
233	0x3de4fe93	0.11181369
234	0x3aafe560	0.00134198
235	0xbdb56ff5	-0.08859245
236	0x3df64415	0.12024704
237	0x3de1a674	0.110180765
238	0x3d1daa72	0.038492627
239	0xbe10ea21	-0.14151813
240	0xbd3c68f7	-0.04599854
241	0x3e39e6fe	0.18154523
242	0x3bb8c78e	0.005639023
243	0xbd82ba8d	-0.06383238
244	0x3e1bf1fe	0.15229031
245	0xbdb22eb7	-0.087003164
246	0xbd3b7416	-0.045765005
247	0xbc14f7a8	-0.009092249
248	0xbdf261c4	-0.118350536
249	0x3d1ed083	0.03877307
250	0x3b7347ce	0.0037121656
251	0x3e9cec8d	0.30649224
252	0x3de9f4d8	0.11423653
253	0xbe0cdd03	-0.13756184
254	0x3d522199	0.051301572
255	0xbd66393c	-0.056206927

network.0.bias f4 [256]
0	0x3e79d901	0.24399187
1	0xbe868a7b	-0.26277527
2	0xbe751e05	-0.23937233
3	0xbde73655	-0.1128966
4	0xbea336e8	-0.31877828
5	0xbe961ad7	-0.29317352
6	0x3d76b573	0.060231637
7	0xbd85532d	-0.06510005
8	0x3e842eb7	0.2581689
9	0xbd869e8b	-0.065732084
10	0xbe3ed2ed	-0.1863515
11	0x3e8fc5a5	0.28080478
12	0xbcfc96c2	-0.030833606
13	0xbeb01d08	-0.3439715
14	0xbe543668	-0.2072388
15	0x3e1fbc1e	0.15599105
16	0x3da7dd0d	0.08196459
17	0xbe5fc9f1	-0.21854378
18	0xbe54765f	-0.2074828
19	0xbe99d848	-0.30047822
20	0x3e940613	0.28910884
21	0xbe372f50	-0.17889142
22	0xbe270585	-0.163107
23	0xbe6062fc	-0.2191276
24	0xbe8f0026	-0.279298
25	0x3e29cdfb	0.16582482
26	0x3e739727	0.23788129
27	0xbccb4ec6	-0.024817836
28	0xbe3d2577	-0.18471323
29	0xbeae28eb	-0.34015593
30	0xbe1d6109	-0.15369047
31	0xbccb94ea	-0.024851281
32	0xbe70e526	-0.23524913
33	0x3e992af2	0.29915577
34	0xbe952336	-0.29128426
35	0x3e51e512	0.2049754
36	0xbea30624	-0.31840622
37	0xbe9b632f	-0.3034911
38	0x3da42e4e	0.080166444
39	0xbe832bcf	-0.2561936
40	0xbe5bd5b9	-0.21468247
41	0x3e81f98c	0.25385702
42	0xbe91d286	-0.2848093
43	0xbdfae450	-0.122505784
44	0xbd34a603	-0.044103634
45	0xbe190ab3	-0.14945488
46	0x3e896276	0.26832932
47	0x3dba5f6b	0.09100231
48	0x3e886e1c	0.26646507
49	0x3e76408b	0.24048059
50	0xbe6c0209	-0.23047651
51	0xbe9f0342	-0.31057173
52	0xbd8f1597	-0.0698654
53	0xbe0d747e	-0.1381397
54	0xbea488a8	-0.3213551
55	0xbe2c7883	-0.16842847
56	0xbcedbec9	-0.029021638
57	0x3e05c3e1	0.13063003
58	0xbe403712	-0.18771008
59	0xbe19306f	-0.14959882
60	0xbe9e42af	-0.3091025
61	0x3cc686e6	0.024234246
62	0xbe9f671c	-0.31133354
63	0xbe1c3551	-0.15254714
64	0xbe18f282	-0.1493626
65	0xbe04fe77	-0.12987696
66	0x3b9cc6e5	0.0047844523
67	0xbe4ebeca	-0.20189968
68	0x3e62346e	0.22090313
69	0xbe9f2db8	-0.31089568
70	0xbe413740	-0.18868732
71	0x3e1106ac	0.14162701
72	0x3e0ca9a1	0.13736583
73	0xbe4afdc2	-0.19823363
74	0xbe7f6b88	-0.24943364
75	0xbe340f95	-0.17584069
76	0xbdfa25c4	-0.122142345
77	0xbe7b82d5	-0.24561627
78	0x3da78ec1	0.08181525
79	0x3c35752b	0.011075298
80	0xbe31f0c8	-0.17377007
81	0xbe81d456	-0.25357312
82	0xbe57d5f0	-0.21077704
83	0xbdb2133a	-0.086950734
84	0x3d78c100	0.060730934
85	0x3e995717	0.29949257
86	0xbe606e74	-0.21917135
87	0xbe887bfd	-0.26657096
88	0xbdaa7fce	-0.08325158
89	0xbbb180d5	-0.0054169693
90	0xbea514c1	-0.32242396
91	0x3e75ff18	0.24023092
92	0xbe98d820	-0.2985239
93	0xbe74b547	-0.23897277
94	0xbde3318a	-0.11093433
95	0xbe03a4ed	-0.12855883
96	0x3e7cf8a3	0.24704222
97	0x3e0044f3	0.12526302
98	0xbe67a46a	-0.22621313
99	0x3e904a23	0.28181562
100	0x3e4076cd	0.18795319
101	0xbd50a964	-0.050942793
102	0x3d66ee3d	0.056379545
103	0xbe4481c0	-0.1919012
104	0x3e7af50f	0.24507545
105	0xbeba5272	-0.36391026
106	0xbe6963f6	-0.22792038
107	0xbe875369	-0.26430824
108	0xbe81dbcc	-0.25363004
109	0xbe4259a1	-0.18979503
110	0xbdd2bb62	-0.10289647
111	0xbe346b60	-0.17619085
112	0xbd981648	-0.07426125
113	0xbdc89fb7	-0.09796088
114	0xbe82cb58	-0.25545764
115	0xbea8f30a	-0.32997924
116	0x3e2b6108	0.16736233
117	0xbe2e9d16	-0.17052111
118	0xbe506d8f	-0.20354293
119	0x3daf1677	0.08549207
120	0xbe5c5fd5	-0.21520932
121	0x3e96f2f8	0.29482245
122	0xbe77e277	-0.24207483
123	0xbe9b9a4c	-0.30391157
124	0xbe9536fc	-0.29143512
125	0x3ce27051	0.027641447
126	0x3d90b60d	0.070659734
127	0xbe3ebe6d	-0.18627329
128	0xbe5b140d	-0.21394368
129	0xbd7b17e3	-0.061302077
130	0xbddb5839	-0.107101865
131	0xbc8e20e4	-0.017349668
132	0xbe8f11f8	-0.27943397
133	0xbeae1d8f	-0.34006926
134	0xbe48f9ee	-0.1962659
135	0x3d98c9b1	0.074603446
136	0x3c341c8d	0.010993135
137	0xbe708c95	-0.23491128
138	0xbe17e6fb	-0.14834206
139	0xbe788f49	-0.24273409
140	0xbe409231	-0.18805768
141	0xbe82b19b	-0.25526127
142	0xbea8aece	-0.32945865
143	0xbd01805c	-0.031616554
144	0xbe548b20	-0.20756197
145	0xbd58f0ac	-0.052963898
146	0xbe764ee0	-0.24053526
147	0xbe2c1560	-0.16805029
148	0xbd85f79a	-0.06541367
149	0x3d93e036	0.07220499
150	0xbe1b9c51	-0.15196349
151	0x3e603563	0.21895365
152	0xbe046d65	-0.12932356
153	0xbe77be07	-0.24193583
154	0xbe8d6a8c	-0.2762035
155	0x3e84ec98	0.25961757
156	0xbe0a0c5e	-0.1348128
157	0xbe844877	-0.25836536
158	0x3e31f87a	0.17379943
159	0xbe80cf45	-0.25158134
160	0xbe5c7889	-0.21530356
161	0x3dfd6c13	0.12374129
162	0x3e39a032	0.18127516
163	0xbe75da47	-0.24009047
164	0x3e91ad40	0.28452492
165	0xbe963f8b	-0.29345354
166	0xbbde64d1	-0.0067869206
167	0xbe87651f	-0.26444337
168	0xbe2fc02b	-0.1716315
169	0xbe84cc5f	-0.25937173
170	0xbe6d1417	-0.23152195
171	0x3d3b7a80	0.045771122
172	0xbd6461d1	-0.055757347
173	0xbe32ec90	-0.17473054
174	0xbeadee79	-0.33971003
175	0xbd864f1e	-0.06558059
176	0x3c38d927	0.011282242
177	0xbe8d263e	-0.2756824
178	0xbeb0ae26	-0.34507865
179	0x3e83c3b5	0.2573525
180	0xbd3c3764	-0.045951262
181	0xbe2eb653	-0.17061739
182	0xbe4afdcc	-0.19823378
183	0xbe97ba4e	-0.29634327
184	0x3e37003e	0.17871186
185	0xbe5411d7	-0.2070993
186	0xbde46403	-0.11151888
187	0x3d9707f8	0.07374567
188	0xbea307e0	-0.31841946
189	0xbeb74950	-0.3579812
190	0xbe9c3e7d	-0.30516425
191	0xbc693528	-0.014233865
192	0xbeb50c4d	-0.35360947
193	0xbea6ecaa	-0.32602435
194	0xbe0e91f9	-0.13922872
195	0xbeaa3605	-0.3324434
196	0xbdb63749	-0.088972636
197	0xbdee8881	-0.1164713
198	0xbe606298	-0.2191261
199	0xbeab6546	-0.33475703
200	0x3ea64890	0.32477236
201	0xbe9e01f7	-0.30860874
202	0x3e5bb148	0.21454346
203	0xbea19b62	-0.3156386
204	0x3e4993cb	0.19685285
205	0xbda086d8	-0.078382194
206	0x3e087f31	0.1332977
207	0x3c74b2ed	0.014935237
208	0x3c06d19d	0.008228687
209	0x3e699f30	0.22814631
210	0x3e64e678	0.22353542
211	0xbc743170	-0.014904365
212	0x3dacb208	0.08432394
213	0xbeaa54f0	-0.33267927
214	0xbea2d5b6	-0.31803674
215	0x3d3745b0	0.044744194
216	0xbcf0638c	-0.029344343
217	0x3e876110	0.2644124
218	0xbd7a0a64	-0.061045066
219	0xbdf857e8	-0.12126142
220	0xbe9430ab	-0.2894338
221	0xbe85dd5b	-0.26145443
222	0xbe00018d	-0.12500592
223	0xbe8c275e	-0.27373785
224	0xbe575ffe	-0.21032712
225	0x3e6359be	0.22202203
226	0xbda7a402	-0.08185579
227	0x3ccc6917	0.024952454
228	0xbe040811	-0.12893702
229	0xbdae7529	-0.0851844
230	0xbe447892	-0.19186619
231	0x3e45bc3a	0.19310084
232	0xbd285bcb	-0.041103166
233	0x3c9e4ccc	0.019323729
234	0xbd80d495	-0.06290547
235	0x3d8dd4c7	0.0692535
236	0xbda01bd0	-0.07817805
237	0xbd5e6dd6	-0.054303966
238	0x3e9dcf53	0.30822238
239	0x3bd9c6a2	0.0066459933
240	0xbe698ced	-0.22807665
241	0xbe5b4ba1	-0.21415569
242	0xbd798180	-0.060914516
243	0xbea53a8b	-0.32271227
244	0x3e92f272	0.28700596
245	0xbd2fcff2	-0.04292292
246	0x3e371817	0.17880283
247	0x3e469a61	0.19394828
248	0xbe8ffb5e	-0.28121465
249	0xbe524d47	-0.20537291
250	0xbeb6f77b	-0.35735688
251	0xbe5dad34	-0.21648103
252	0xbe8d340d	-0.27578774
253	0x3d661665	0.0561737
254	0xbe8d7bca	-0.27633506
255	0xbeb08cc5	-0.344824

network.3.weight f4 [256, 256]
0	0xbbef5fed	-0.0073051364
1	0xbd89ece4	-0.067346364
2	0xbdc22211	-0.09479154
3	0x3cccd00b	0.025001546
4	0x3bef1ac5	0.0072968923
5	0xbd09cdf1	-0.033643667
6	0xbc7bd363	-0.015370223
7	0x3c89c73f	0.01681864
8	0xbd4fc8c1	-0.050728563
9	0xbd2d6e55	-0.04234155
10	0xbd8977ee	-0.06712328
11	0x3c833de1	0.016020717
12	0x3cbde2c1	0.023179414
13	0xbcf2720a	-0.029595394
14	0xbd02b6d7	-0.03191265
15	0xbcc1c37d	-0.023652786
16	0xbb298b45	-0.0025870365
17	0xbaab4f19	-0.0013069838
18	0xbd86e968	-0.065874875
19	0xbbcaa1b2	-0.0061838264
20	0x3c472421	0.01215461
21	0xbd226fa2	-0.039657243
22	0xbd762089	-0.06008962
23	0xbd90fe45	-0.07079748
24	0xbd1f9607	-0.038961437
25	0xbcd361bb	-0.025803437
26	0xbc548cfc	-0.012973066
27	0x3d2a9bfd	0.04165267
28	0xbd9e23cb	-0.07721671
29	0xbd830746	-0.06397872
30	0xbcaaa5b1	-0.020830961
31	0xbc3c2c1a	-0.011485124
32	0xbc1b1ec8	-0.009467788
33	0x3d1b0660	0.037847877
34	0xbc94ff30	-0.01818809
35	0xbd1453ee	-0.036212854
36	0xbcff0b08	-0.03113319
37	0xbcda5698	-0.02665262
38	0xbd11c4b2	-0.035587974
39	0x3c0100d8	0.007873736
40	0xbd571f26	-0.05251994
41	0xbd1594b0	-0.036518753
42	0xbd93bf6d	-0.07214246
43	0x3d41b9d8	0.047296375
44	0xbc236b7f	-0.00997436
45	0x3a1b1fb2	0.0005917504
46	0xbc8c9c0a	-0.017164249
47	0x3acc7317	0.0015598264
48	0xbc918e5d	-0.01776808
49	0x3c1e1f4b	0.0096510155
50	0xbd6a3247	-0.057176854
51	0x3bd98f9e	0.006639435
52	0xbcb3d961	-0.02195424
53	0xbc3eae46	-0.01163823
54	0xbcf1975f	-0.029491125
55	0x3994e998	0.000284028
56	0xbd763871	-0.06011242
57	0x3c834e1a	0.016028453
58	0xbd5125cb	-0.051061433
59	0xbda9d9ae	-0.08293472
60	0xbd56523b	-0.052324515
61	0xbda04085	-0.07824806
62	0xbdaba1b3	-0.08380451
63	0xbd615535	-0.0550129
64	0xbd2fcd52	-0.042920418
65	0x3cb685f5	0.022280673
66	0xbd57eb15	-0.052714426
67	0xbd7a4a5f	-0.061106082
68	0xbd0cc9f8	-0.0343723
69	0xbdaff0b0	-0.08590829
70	0xbd4896e6	-0.048972033
71	0xbd85e5e6	-0.0653799
72	0x3acd2e52	0.0015654063
73	0xbce9cc37	-0.02853976
74	0x3bdefa4f	0.0068047415
75	0xbca21f9c	-0.019790463
76	0x3bf4d250	0.0074713603
77	0xbd0072d7	-0.03135952
78	0x3cd2cad2	0.025731478
79	0x3ce1c003	0.027557379
80	0xbab373bd	-0.0013691109
81	0xbda3721e	-0.079807505
82	0xbaa9130a	-0.0012899351
83	0xbc88a8ea	-0.016682107
84	0xbda04450	-0.078255296
85	0xbc8b262f	-0.01698598
86	0xbdb1e168	-0.08685571
87	0xbdaa28e0	-0.083085775
88	0xbddd374a	-0.10801561
89	0x3cefab1d	0.029256398
90	0xbbdf85a3	-0.0068213507
91	0xbd34e444	-0.044163004
92	0xbcc43a79	-0.023953663
93	0xbd7a2631	-0.06107158
94	0xbc2d9895	-0.01059546
95	0xbd4e81e9	-0.05041686
96	0xbc1fcb38	-0.009753041
97	0x3cc22276	0.023698073
98	0x3cb59faf	0.02217087
99	0xbc87906f	-0.016548363
100	0x3cf771dd	0.030205661
101	0xbd2704df	-0.04077613
102	0xbc94916c	-0.018135749
103	0x3ad4e28c	0.0016241833
104	0x3d0106e7	0.031500723
105	0xbd878cd4	-0.06618658
106	0xbd3ccc4d	-0.046093274
107	0xbd23ed5a	-0.040021278
108	0x3cc34ba0	0.023839772
109	0xbd43f3a5	-0.04783978
110	0xbd0cb2f7	-0.03435036
111	0x3d1e916d	0.038712908
112	0xbd1d8b87	-0.03846314
113	0xbda2e6b7	-0.079541616
114	0x3b3420dc	0.0027485406
115	0xbd0e581b	-0.034751993
116	0x3c7e621a	0.015526319
117	0xbd92c990	-0.07167351
118	0xbd9da3a0	-0.076972246
119	0x3d814527	0.06312018
120	0x3cc1fd57	0.023680372
121	0x3ce0fc0f	0.02746394
122	0x3cf75eb6	0.030196529
123	0xbc642bce	-0.0139264595
124	0xbd9e6955	-0.07734934
125	0x3cb64b82	0.022252802
126	0xbd7e6840	-0.06211114
127	0xbdb812d8	-0.08987969
128	0xbcf322ca	-0.029679675
129	0x3c0a868b	0.008454929
130	0xbd30010b	-0.042969745
131	0x3d239c49	0.039943967
132	0xbc48689d	-0.012231973
133	0xbd36d8bc	-0.044640288
134	0xbd721dd1	-0.059110466
135	0x3ca35042	0.01993573
136	0x3cc57c2f	0.024107067
137	0xbd3d8d5a	-0.04627738
138	0xbd7ea018	-0.062164396
139	0xbc1d75bb	-0.009610589
140	0xbb83417f	-0.0040056105
141	0xbd3a2b02	-0.04545117
142	0x3c488474	0.012238611
143	0x3c079421	0.008275063
144	0xbd7e98b7	-0.06215736
145	0xbdc1cc9e	-0.09462856
146	0x3d2be9b6	0.04197093
147	0xbba95488	-0.0051675476
148	0xbd16aaac	-0.03678386
149	0xbd60181d	-0.054710496
150	0x3ca03062	0.01955432
151	0xbd172618	-0.036901563
152	0xbd83deb7	-0.06438964
153	0x3bedd329	0.0072578383
154	0xbd5080b3	-0.050903987
155	0xbcf3fa0e	-0.029782321
156	0xbd23337f	-0.039844032
157	0xbd8864e0	-0.066598654
158	0xbc907c20	-0.017637312
159	0xbcb9f931	-0.022701832
160	0xbc481390	-0.012211695
161	0xbd3cedb4	-0.04612513
162	0xbd1dc5ae	-0.0385186
163	0xbd2e6b68	-0.0425829
164	0x3cd0a076	0.025467139
165	0xbd00da6f	-0.031458315
166	0x3d212a11	0.03934676
167	0xbd5ce0f1	-0.05392546
168	0x3b085dda	0.0020807893
169	0x3b1d1fe5	0.002397531
170	0xbb904111	-0.004402288
171	0x3d3f8bd2	0.046764202
172	0xbd0cfb73	-0.03441949
173	0xbb729277	-0.003701357
174	0xbc810647	-0.015750064
175	0x3d294d55	0.041333515
176	0xbcbf8c95	-0.023382464
177	0xbd056549	-0.032567296
178	0xbcc16ecd	-0.023612404
179	0x3d06e8bd	0.0329368
180	0x3c457267	0.012051201
181	0xbd8ace59	-0.06777639
182	0xbcb92a29	-0.022603111
183	0xbd4bee8e	-0.04978805
184	0x3d30834e	0.043093972
185	0xbd9aa330	-0.07550657
186	0x3d315cd5	0.043301422
187	0x3d18a2da	0.037264682
188	0xbbd0bbcc	-0.0063700434
189	0xbdc0ba14	-0.094104916
190	0x3b4ba421	0.003107317
191	0xbabe2b04	-0.0014508669
192	0xbd92dbce	-0.07170831
193	0xbd52d76d	-0.051474977
194	0xbd5803e2	-0.052738078
195	0xbd8027f6	-0.06257622
196	0x3cb2a464	0.021806903
197	0xbd3a177f	-0.045432564
198	0xbc5ecae4	-0.013598178
199	0xbceb168b	-0.028697273
200	0xbc7abc52	-0.015303688
201	0xbd99c44f	-0.07508146
202	0xbc3e84c6	-0.011628335
203	0xbcb5c50e	-0.02218869
204	0xbc26fddf	-0.0101923635
205	0xbd3747c6	-0.044746183
206	0xbd4193e0	-0.047260165
207	0xbd17acb9	-0.037029956
208	0x3c430564	0.011903141
209	0xbd66878b	-0.056281608
210	0xba5a0175	-0.0008316257
211	0x3c81c486	0.01584078
212	0xbc693995	-0.01423492
213	0xbc9f6f5f	-0.019462286
214	0xbd0c286f	-0.034218248
215	0x3c2e6abc	0.010645565
216	0x3caab092	0.020836148
217	0x3c6f9fef	0.0146255335
218	0xbc9dbaf9	-0.019254195
219	0xbd92fd37	-0.07177203
220	0xbd4145b9	-0.047185633
221	0xbd07fbc7	-0.033199098
222	0xbda3a97a	-0.079913095
223	0xbda58bca	-0.08083303
224	0x3b1e7919	0.0024181067
225	0x3b88ab3a	0.0041708024
226	0xbd020b1b	-0.031748872
227	0xbd77b968	-0.06047955
228	0xbcd0487b	-0.025425186
229	0xbcee3852	-0.02907959
230	0xbd97237c	-0.07379815
231	0xbcb811b6	-0.022469383
232	0xbccfc9ba	-0.025364745
233	0xbc39b20a	-0.011333952
234	0xbd9695cb	-0.073527895
235	0x3c12f457	0.008969388
236	0x3c7e352e	0.015515609
237	0xbd947158	-0.07248181
238	0xbcadf4e3	-0.021234935
239	0xbcd99d47	-0.026564253
240	0x3be4fc84	0.00698811
241	0xbd5dc457	-0.054142322
242	0xbc309222	-0.010777028
243	0xbc3c6f52	-0.01150115
244	0xbca2d9d5	-0.019879261
245	0xbc6e0c68	-0.014529325
246	0x3d005b56	0.031337105
247	0x3c4929d1	0.012278036
248	0xbde2f695	-0.11082188
249	0xbd9a8577	-0.07544988
250	0xbd936690	-0.071972966
251	0xb8d28957	-0.00010039162
252	0xbdc3bf55	-0.09557978
253	0xbd5f54bc	-0.05452417
254	0xbc23e532	-0.010003375
255	0xbc6ce706	-0.014459377

network.3.bias f4 [256]
0	0x3e1cb0f7	0.15301882
1	0xbe5873fd	-0.21137996
2	0xbd745933	-0.05965538
3	0xbe3b845e	-0.18312213
4	0xbe37fa1d	-0.17966504
5	0xbe369734	-0.17831117
6	0xbde89fe7	-0.11358624
7	0x3d8a5e5b	0.06756278
8	0xbe062bd9	-0.13102664
9	0xbe1477cb	-0.14498822
10	0x3d9e78ce	0.077378854
11	0x3c60385b	0.013685311
12	0x3dc630e9	0.096772976
13	0x3e104b58	0.14091241
14	0xbd3c3df6	-0.045957528
15	0xbdd4839d	-0.10376666
16	0x3e12368c	0.1427862
17	0x3db6168d	0.0889102
18	0xbe40b358	-0.18818414
19	0xbe33f878	-0.17575252
20	0xbdf54b76	-0.11977284
21	0xbe00e97e	-0.1258907
22	0xbe55bc6d	-0.2087266
23	0xbe46049e	-0.19337699
24	0xbe5f136c	-0.21784753
25	0xbdf0560d	-0.11735163
26	0xbe1cd41e	-0.15315291
27	0xbe4ac4ec	-0.19801682
28	0xbe3c7b8e	-0.18406507
29	0xbe17b257	-0.14814125
30	0x3bcf3689	0.00632364
31	0x3e161b07	0.14658748
32	0xbd845a2f	-0.06462514
33	0xbdb168d9	-0.08662576
34	0x3d97dafc	0.07414815
35	0x3e22675d	0.15859742
36	0x3d05f696	0.032705866
37	0xbe247cf0	-0.16063285
38	0xbe1e18b8	-0.15439117
39	0xbd2274b0	-0.039662063
40	0x3d15be8c	0.036558673
41	0x3d2ad2e7	0.04170504
42	0xbe115622	-0.14193013
43	0xbe0cc6d0	-0.13747716
44	0x3de7f730	0.11326444
45	0xbe404e17	-0.18779789
46	0xbe2a84ea	-0.16652265
47	0xbe1e5c4c	-0.15464896
48	0xbda0f45f	-0.0785911
49	0x3ce9ae5c	0.028525524
50	0x3e1d5273	0.15363483
51	0xbcabbd38	-0.02096425
52	0xbe4ac307	-0.1980096
53	0x3d3a796a	0.045525946
54	0x3bbe1519	0.005800855
55	0x3d620fce	0.055190854
56	0xbe48b51f	-0.19600342
57	0x3d8ac63f	0.06776094
58	0xbd791976	-0.060815297
59	0xbe24dc60	-0.16099691
60	0xbe2d9c5a	-0.16954175
61	0x3dde3dd2	0.10851635
62	0xbd7cc7ab	-0.061713856
63	0xbe5038e4	-0.20334202
64	0x3da87662	0.08225705
65	0x3d6475fe	0.05577659
66	0xbe2eee33	-0.17083053
67	0xbe426537	-0.18983923
68	0xbda5e0a5	-0.08099488
69	0x3c987bc5	0.018613705
70	0xbe0f8377	-0.14014994
71	0xbd5ea9eb	-0.054361265
72	0x3de472d9	0.11154718
73	0x3d2286db	0.03967939
74	0xbcb9ce26	-0.022681307
75	0xbe2a7063	-0.16644435
76	0xbe03525f	-0.12824391
77	0x3d4b602f	0.049652275
78	0xbd98ee2f	-0.07467305
79	0xbe1ae4d2	-0.1512635
80	0x3d672b34	0.056437686
81	0xbe25da51	-0.16196562
82	0xbd310191	-0.043214384
83	0xbe495db0	-0.19664645
84	0x3db87413	0.090065144
85	0x3d7430c3	0.059616815
86	0xbc192154	-0.009346325
87	0xbdf4425c	-0.119267195
88	0xbe210cee	-0.15727589
89	0xbe2364ae	-0.15956375
90	0xbe210810	-0.15725732
91	0xbe234053	-0.15942506
92	0xbdc074c3	-0.093972705
93	0xbd99f00f	-0.07516491
94	0xbd9419bf	-0.07231473
95	0xbd5a955b	-0.053365093
96	0xbe12c6ca	-0.14333645
97	0x3e1e4854	0.15457278
98	0xbe5488e5	-0.20755346
99	0xbe57e752	-0.21084335
100	0xbe094496	-0.1340507
101	0xbdb03ab9	-0.086049505
102	0xbe12e6c8	-0.14345849
103	0x3d8f4698	0.069958866
104	0x3cca8878	0.024723276
105	0xbaff82ff	-0.0019493996
106	0x3daa3393	0.08310618
107	0xbe571313	-0.2100337
108	0xbe5ac5ea	-0.2136456
109	0xbc7f7fac	-0.015594404
110	0xbe34f279	-0.17670621
111	0x3c8d3b87	0.017240299
112	0xbe218622	-0.15773824
113	0xbd996356	-0.0748965
114	0xbd8fb0b2	-0.07016124
115	0xbd933c9e	-0.07189296
116	0xbc17c5ca	-0.009263465
117	0xbc22c445	-0.00993449
118	0x3dd6bb35	0.10484926
119	0xbd88c628	-0.0667842
120	0x3df82242	0.12115909
121	0x3aad153d	0.0013205182
122	0x3c2f29a6	0.010691082
123	0xbc293964	-0.010328624
124	0xbd180dbb	-0.03712247
125	0x3d99f46d	0.07517324
126	0xbd9e0509	-0.07715804
127	0xbe2aa56a	-0.16664663
128	0xbdaaca2d	-0.08339343
129	0xbb155d1c	-0.0022791093
130	0x3dae9429	0.08524353
131	0xbe104122	-0.14087346
132	0xbd899246	-0.067173526
133	0xbe1f702e	-0.15570137
134	0xbe0d981c	-0.13827556
135	0xbe19fcb0	-0.15037799
136	0x3ddf5276	0.109044
137	0x3d5f6cef	0.054547247
138	0xbe016ba8	-0.12638724
139	0x3bb2bfe1	0.0054550027
140	0xbdfec481	-0.12439824
141	0xbde8806d	-0.1135262
142	0x3d892ddd	0.06698201
143	0x3df7d177	0.12100499
144	0x3d27822c	0.040895626
145	0xbdd06672	-0.1017579
146	0xbe1052c5	-0.14094074
147	0xbe544a98	-0.2073158
148	0xbe415955	-0.18881734
149	0xbd56f278	-0.05247733
150	0x3d3defaa	0.04637114
151	0x3dc87676	0.0978822
152	0x3be9db45	0.0071367347
153	0x3d9ead6e	0.07747923
154	0xbdacfa0d	-0.08446131
155	0xbe1f318e	-0.15546247
156	0xbe160bd3	-0.14652948
157	0x3d8e48fc	0.069475144
158	0xbdf36c37	-0.11885875
159	0xbc11abba	-0.00889104
160	0xbe302f8f	-0.17205642
161	0xbdd75ce8	-0.10515767
162	0x3dc0b4c8	0.09409481
163	0xbd91b30a	-0.07114227
164	0x3d0276ff	0.031851765
165	0xbe0b31aa	-0.13593164
166	0xbe33598f	-0.17514633
167	0xbdbea6f0	-0.093091846
168	0xbe3baa31	-0.18326642
169	0xbe1b608b	-0.15173547
170	0x3dff02c0	0.124516964
171	0xbe31d5cc	-0.17366713
172	0xbe058310	-0.13038278
173	0xbe25d334	-0.16193849
174	0xbe458cb5	-0.19291957
175	0xbe431880	-0.19052315
176	0x3d1aed2b	0.037823837
177	0xbdb4969a	-0.088177875
178	0xbe3bfbef	-0.18357824
179	0x3d011d3f	0.031522032
180	0xbdf71220	-0.12064004
181	0x3e151fd8	0.14562929
182	0xbe091f48	-0.13390839
183	0xbe399a44	-0.18125254
184	0xbe370a34	-0.17874986
185	0xbe000576	-0.12502083
186	0x3d75666c	0.05991213
187	0xbe05b4fc	-0.13057321
188	0x3e152f6a	0.14568868
189	0xbddbb44b	-0.107277475
190	0xbdd0b579	-0.10190863
191	0x3dd97edc	0.106199
192	0xbe2393c8	-0.15974343
193	0xbdd9bcca	-0.10631712
194	0xbe084d01	-0.13310625
195	0xbe17353f	-0.14766406
196	0xbd7f2a20	-0.062296033
197	0xbe0bd1e4	-0.13654286
198	0x3dc4fa29	0.09618027
199	0xbe5c6eed	-0.2152669
200	0xbdc78ad0	-0.09743273
201	0x3e04bace	0.12961885
202	0xbe63c64f	-0.22243617
203	0x3d3a14b1	0.04542989
204	0xbcd6f262	-0.026238624
205	0xbd068adf	-0.03284728
206	0x3d9006de	0.0703256
207	0x3db0e6fb	0.08637806
208	0x3e0772c4	0.13227373
209	0xbdda900f	-0.10672008
210	0xbe31cbb5	-0.17362864
211	0xbdc151af	-0.09439408
212	0xbdef2a2a	-0.11677964
213	0xbe0b7403	-0.13618474
214	0xbd12318c	-0.035691783
215	0x3dd0e3bb	0.10199686
216	0xbdcbf11f	-0.099580996
217	0x3cb7df7f	0.022445438
218	0xbe043fac	-0.12914914
219	0x3df9f6ec	0.122053
220	0xbc6c9050	-0.014438704
221	0xbe09f1e2	-0.13471177
222	0xbd265a8a	-0.04061369
223	0xbe12d375	-0.14338477
224	0xbdd034f6	-0.101663515
225	0xbdb73f40	-0.08947611
226	0xbe18c32a	-0.14918199
227	0xbe38c785	-0.1804486
228	0xbdc36091	-0.09539903
229	0x3d1bebee	0.038066797
230	0xbe485a0b	-0.19565599
231	0xbdb52df8	-0.088466585
232	0xbd25304e	-0.04032927
233	0x3db1c643	0.086803935
234	0xbded3bc6	-0.115836665
235	0xbe1ae337	-0.15125738
236	0xbe6fe943	-0.23428826
237	0xbe270094	-0.16308814
238	0x3de890eb	0.11355766
239	0xbe3b2dca	-0.18279186
240	0xbe4626ff	-0.19350813
241	0x3dcf77b5	0.10130254
242	0xbe0baf37	-0.13641058
243	0x3cbf4442	0.023347978
244	0xbe3610b2	-0.17779806
245	0xbe387d3e	-0.18016526
246	0xbd912629	-0.070873566
247	0xbe3ad328	-0.18244612
248	0xbe39df74	-0.18151647
249	0xbe4457b3	-0.1917408
250	0xbd73c75c	-0.059516296
251	0xbe504d69	-0.2034203
252	0xbe2d1226	-0.16901454
253	0x3da7d46e	0.081948146
254	0xbdbbee01	-0.09176255
255	0x3df2bab3	0.11852016

network.6.weight f4 [128, 256]
0	0x3d06233b	0.032748442
1	0x3cc53a94	0.024075784
2	0x3ceff48e	0.029291417
3	0x3dec6d74	0.11544314
4	0x3db416d8	0.087934196
5	0x3db4e671	0.08833016
6	0x3bb30220	0.0054629
7	0xbd306da7	-0.043073323
8	0x3ce1725e	0.027520355
9	0x3d36c3ce	0.044620328
10	0xbbbd7c8b	-0.005782669
11	0x3d7bd286	0.061480068
12	0x3d4a8c1d	0.04945003
13	0x3c310f8f	0.010806932
14	0x3c332f9f	0.010936647
15	0x3da5e294	0.08099857
16	0xbdb9f939	-0.090807386
17	0xbcec5e49	-0.028853552
18	0x3ca88a55	0.020573774
19	0x3d7bfa0b	0.061517756
20	0x3d1b2886	0.037880443
21	0x3c9906e1	0.018680038
22	0x3e191650	0.14949918
23	0x3da425d1	0.080150254
24	0x3d82a0b3	0.06378307
25	0x3d3e0ab9	0.046396945
26	0x3d5484be	0.051884405
27	0x3d9e90db	0.07742473
28	0x3d8da24d	0.06915722
29	0x3d8e800d	0.069580175
30	0xbcc0f082	-0.023552183
31	0xbd3e2690	-0.046423495
32	0xbd084fe2	-0.033279307
33	0x3cdd7d50	0.027037293
34	0xbd1e6e69	-0.038679514
35	0x3d35fab3	0.04442854
36	0xbda64158	-0.08117932
37	0x3c733cfa	0.014846081
38	0x3d3849d6	0.04499229
39	0xbce2ffcd	-0.027709866
40	0x3d1c362b	0.038137596
41	0xbdacc580	-0.08436108
42	0x3db94d46	0.09047942
43	0x3d87fe68	0.06640321
44	0xbcde56d1	-0.027141007
45	0x3d89f7df	0.06736731
46	0x3e1ad543	0.15120415
47	0x3d45490e	0.048165374
48	0x3d4aff91	0.049560133
49	0xbda68834	-0.081314474
50	0x3d0fa331	0.03506774
51	0x3cb9d481	0.022684338
52	0x3e34267f	0.1759281
53	0xbd20a165	-0.039216418
54	0xbd44ac86	-0.048016094
55	0xbccd5c69	-0.025068479
56	0x3d90f654	0.07078233
57	0xbc6b1761	-0.014348836
58	0x3d0dc391	0.034610335
59	0xbb8c05ea	-0.004273166
60	0x3c1484a2	0.009064825
61	0x3d07d164	0.033158675
62	0xbc7b4b61	-0.015337796
63	0x3dc34f4a	0.095366076
64	0x3c605522	0.013692172
65	0x3cbced43	0.023062354
66	0x3d99606c	0.07489094
67	0x3d713820	0.058891416
68	0x3d3cea48	0.046121866
69	0xbccb5763	-0.024821943
70	0x3be516f2	0.0069912607
71	0x3d28139a	0.04103432
72	0xbc086309	-0.008324393
73	0xbb2c9cbe	-0.0026338543
74	0x3d8954d2	0.06705631
75	0x3d9ba954	0.07600656
76	0x3b94fa1f	0.0045464183
77	0xbd4c2ce3	-0.049847495
78	0x3d92560e	0.0714532
79	0x3e162c18	0.14665258
80	0xbdd74580	-0.10511303
81	0x3e0e183c	0.13876432
82	0x3d399c7e	0.04531526
83	0x3d7ccd93	0.06171949
84	0xbd584530	-0.052800357
85	0xbc2193fd	-0.009861943
86	0x3c8da467	0.017290307
87	0x3be464ef	0.00697004
88	0x3c3e784f	0.0116253635
89	0x3d0ff6e1	0.03514755
90	0xbcd95898	-0.026531503
91	0x3d9d2ccd	0.07674561
92	0xbcc3daba	-0.023908008
93	0x3d907952	0.0705439
94	0x3b824c81	0.003976405
95	0x3c322431	0.0108728865
96	0x3c3fb17a	0.011700029
97	0x3d0b6087	0.034027603
98	0x3e311003	0.17291264
99	0x3e13e6b1	0.1444347
100	0x3d4b86ea	0.04968921
101	0x3cb58b75	0.022161225
102	0xbcd8238d	-0.02638414
103	0xbba7603c	-0.0051079076
104	0x380f0ebe	3.4107587e-05
105	0x3d840768	0.06446725
106	0x3d3488e8	0.044075876
107	0x3ddc8e9f	0.1076939
108	0x3c557f86	0.013030892
109	0x3cc70e40	0.024298787
110	0x3db53bc4	0.0884929
111	0xbcf1ca69	-0.029515462
112	0x3cb1359a	0.021632005
113	0xbc0b04f7	-0.00848507
114	0x3ccc2fb7	0.024925096
115	0x3c8e8d93	0.017401492
116	0xbbae93cc	-0.0053276774
117	0x3b9b2e20	0.004735723
118	0xbd1c3b51	-0.038142506
119	0x3d272d71	0.04081482
120	0x3bf6cf79	0.007532057
121	0xbd82084e	-0.0634924
122	0x3da5e98a	0.08101185
123	0xbbdb6396	-0.006695221
124	0xbd3a0a9e	-0.04542028
125	0x3ca42ee4	0.02004189
126	0xbc33360b	-0.010938178
127	0x3de74b2e	0.11293636
128	0x3c8df5de	0.017329153
129	0x3daa708b	0.08322247
130	0x3d4d5be3	0.050136458
131	0x3bf4ed16	0.007474552
132	0x3d9c99eb	0.07646545
133	0x3cb78b66	0.022405338
134	0x3cd65777	0.026164753
135	0xbb75d3cd	-0.0037510276
136	0xb9674a65	-0.00022057591
137	0x3d0cdc37	0.0343897
138	0xbcb13567	-0.02163191
139	0x3d7acc17	0.06122979
140	0x3c92462b	0.017855724
141	0x3c142670	0.009042367
142	0x3c190d1d	0.009341505
143	0x3cfde029	0.030990677
144	0xbd5b47b7	-0.05353519
145	0x3d4fa961	0.05069864
146	0xbb67118a	-0.0035258257
147	0x3e3e0f71	0.18560578
148	0x3d846bae	0.06465851
149	0xbd25eb79	-0.040507767
150	0xbd145b46	-0.036219858
151	0xbca9b212	-0.020714793
152	0xbd90ccd5	-0.070703186
153	0xbd900815	-0.070327915
154	0x3d0b544c	0.03401594
155	0x3e0d24b4	0.13783532
156	0xbc474a5b	-0.012163724
157	0xbbaa4f98	-0.0051974766
158	0xbc77476d	-0.015092713
159	0x3cc34a1d	0.02383905
160	0x3d91435f	0.07092928
161	0x3b98f903	0.0046683564
162	0xbca7a489	-0.020464199
163	0xbb5a9942	-0.003335551
164	0x3cae5c55	0.021284262
165	0x3cf05d28	0.029341295
166	0x3d524b1d	0.051341165
167	0x3d3d63d5	0.046237785
168	0x3e1d5f88	0.15368474
169	0x38eb46fe	0.000112188965
170	0xbd46e607	-0.048559215
171	0x3d7caf25	0.06169047
172	0x3d9a6b0e	0.0753995
173	0x3d807066	0.06271438
174	0x3cb826a2	0.022479359
175	0x3ce64b16	0.028111976
176	0xbcb3a446	-0.021928918
177	0x3d54f2be	0.05198931
178	0x3c93030e	0.017945793
179	0xbdaad042	-0.08340503
180	0xbb80a579	-0.003925976
181	0xba951676	-0.0011374492
182	0x3e26854a	0.16261783
183	0x3da13df2	0.07873143
184	0x3dbc6d61	0.0920055
185	0x3d04b55d	0.032399524
186	0xbc28d30b	-0.010304223
187	0xbca792c6	-0.02045573
188	0x3d63f4f1	0.055653516
189	0x3d9ee029	0.07757599
190	0x3d54f969	0.05199567
191	0xbcdc04a7	-0.026857687
192	0xbc8cc797	-0.017185016
193	0x3d13c871	0.036079828
194	0xbbfc5882	-0.0077009806
195	0x3cd1e2a0	0.025620759
196	0x3d2548bb	0.040352564
197	0x3c2ab357	0.0104187345
198	0xbd905a27	-0.07048445
199	0x3e07b3e8	0.13252223
200	0x3dac574d	0.08415089
201	0x3d34ad7f	0.04411077
202	0x3dca4a72	0.098774806
203	0xbbd3238c	-0.0064434465
204	0xbb9db566	-0.004812884
205	0x3d8f132b	0.06986078
206	0xbd4490ee	-0.04798978
207	0xbba46199	-0.0050165174
208	0xbdd36ed3	-0.103238724
209	0xbc5fdeb2	-0.013663935
210	0x3d1d4e9c	0.038405046
211	0x3d5b34a0	0.053516984
212	0x3d698b89	0.057017837
213	0x3d8419e1	0.064502485
214	0x3d913f1c	0.07092115
215	0xbd1299c4	-0.035791174
216	0x3d069ba4	0.032863274
217	0xbcd12f16	-0.025535148
218	0x3ced6515	0.028978864
219	0x3c95d367	0.018289281
220	0xbd226ed0	-0.03965646
221	0x3bff07d1	0.007782914
222	0x3d0c5234	0.034258083
223	0x3b1784f4	0.0023120018
224	0x3cf3acda	0.029745508
225	0x3d8fbb9d	0.07018206
226	0x3dba4a55	0.09096209
227	0x3dcc909c	0.099885195
228	0x3d1e5e85	0.03866436
229	0xbce5134b	-0.027963301
230	0x3daf8c41	0.08571673
231	0xbc207e15	-0.009795685
232	0x3db41c48	0.08794457
233	0x3a502c27	0.00079411495
234	0x3d9fa33a	0.07794805
235	0x3c67dc04	0.014151577
236	0x3d71f08d	0.059067298
237	0xbcfe99e0	-0.031079233
238	0xbdacc055	-0.08435122
239	0x3d05a3e7	0.032627013
240	0xbae65a3b	-0.0017574498
241	0xbd5fc67f	-0.05463266
242	0x3d663bfb	0.056209546
243	0x3bf3c68b	0.0074394397
244	0x3ce62a4e	0.028096344
245	0x3c29bc14	0.010359783
246	0xbcc9c410	-0.024629623
247	0x3e0e49e1	0.1389537
248	0x3db3e1d3	0.08783307
249	0x3c44b231	0.012005375
250	0xbcc31b4e	-0.02381673
251	0x3da25543	0.07926419
252	0x3deda4c1	0.1160369
253	0xbd9cbae2	-0.076528326
254	0xb9d2d079	-0.00040209646
255	0x3b97fae6	0.0046380637

network.6.bias f4 [128]
0	0xbde3ee2c	-0.11129412
1	0xbc2f1482	-0.010686042
2	0xbe07408a	-0.13208213
3	0x3a27a9c3	0.0006395841
4	0xbd3b6bfa	-0.04575727
5	0x3d45d214	0.04829605
6	0xbde0606a	-0.109558895
7	0xbd95a11c	-0.0730612
8	0xbcc60caa	-0.02417596
9	0xbddf6fc2	-0.10909988
10	0xbb72d7ff	-0.0037055013
11	0xbdecd006	-0.11563115
12	0xbc8532b2	-0.016259525
13	0x3d0055fe	0.03133201
14	0x3cf0181a	0.029308368
15	0xbbe3e97f	-0.006955325
16	0x3d025099	0.031815145
17	0x3cec276c	0.028827392
18	0xbe09bf95	-0.13451989
19	0x3c5b6f66	0.013393259
20	0xbe17e0d5	-0.1483186
21	0xbd97866a	-0.07398684
22	0x3d0b2587	0.033971336
23	0xbd389bb3	-0.04507036
24	0xbd0c4f4a	-0.034255303
25	0xbdb11cce	-0.08648072
26	0xbe0d1262	-0.13776544
27	0xbdc93dec	-0.09826264
28	0x3c9fee4b	0.019522807
29	0xbd5774c6	-0.0526016
30	0xbdbf3d86	-0.093379065
31	0xbdb9fc3e	-0.090813145
32	0xbc6af0ec	-0.014339667
33	0xbd1532f6	-0.036425553
34	0xbc1110c7	-0.008854098
35	0xbc9c1c7c	-0.019056551
36	0xbdb0603c	-0.08612105
37	0x3c54b8a0	0.012983471
38	0x3d28b3c0	0.041187048
39	0xbd82d5a5	-0.06388406
40	0xbe02218f	-0.12708114
41	0xbda7d309	-0.08194549
42	0xbca02be2	-0.019552175
43	0x3aba8169	0.0014229241
44	0xbdf13ae2	-0.11778809
45	0xbe07673a	-0.13222972
46	0xbd0482f8	-0.032351464
47	0xbd3ff294	-0.0468622
48	0x3d4250a7	0.047440197
49	0x3a83cc53	0.00100554
50	0x3bf785fc	0.007553814
51	0x3dd1368c	0.10215482
52	0x3d3d4d4a	0.046216287
53	0x3c87010e	0.016479995
54	0xbe0054a8	-0.12532294
55	0xbd6c7f48	-0.057738572
56	0xbd3ab163	-0.045579325
57	0xbd8ac2bf	-0.06775426
58	0xbd7dd143	-0.061967146
59	0xbdd43180	-0.10361004
60	0xbd029470	-0.031879842
61	0xbd006de5	-0.031354804
62	0xbdd4da5c	-0.10393211
63	0xbc8899e7	-0.016674949
64	0xbd8b1009	-0.06790168
65	0xbd9decc3	-0.07711174
66	0xbca9b4d8	-0.020716116
67	0xbd762746	-0.060096048
68	0xbdcd6316	-0.10028665
69	0xbd42d640	-0.047567606
70	0x3c6cc97d	0.014452335
71	0xbdaf0138	-0.08545154
72	0x3d2e3213	0.042528223
73	0xbd486daa	-0.04893271
74	0x3d3a0c30	0.04542178
75	0xbe35ff24	-0.1777311
76	0x3cfde27f	0.03099179
77	0x3bcd4e42	0.0062654326
78	0x3bcc7f76	0.0062407805
79	0xbdc977b1	-0.098372824
80	0xbda1d8c3	-0.07902672
81	0x3c01c62f	0.007920786
82	0x3c32c611	0.0109114805
83	0xbd4d2fb7	-0.050094333
84	0xbc08c3ce	-0.008347465
85	0xbca8d768	-0.020610526
86	0xbd6c271e	-0.057654493
87	0xbcdd09f6	-0.026982289
88	0xbdda6d9a	-0.10665436
89	0xbe15acd7	-0.14616714
90	0x3a8e8615	0.00108737
91	0x3c8ea419	0.017412232
92	0xbd2f799f	-0.042840596
93	0x3d062c46	0.032757066
94	0xbdf52161	-0.11969257
95	0x3c0df0d9	0.00866338
96	0xbdcb2446	-0.09919028
97	0x3ba9168d	0.005160159
98	0x3c1541e7	0.009109951
99	0x3b88a6f5	0.0041702935
100	0xbce2ece5	-0.02770085
101	0x3e11e524	0.14247566
102	0x3ce81ebe	0.028334972
103	0xbe0d2741	-0.13784505
104	0xbcadd2d3	-0.021218693
105	0x3c856977	0.016285641
106	0xbcc79f34	-0.024367906
107	0xbd8d6cc6	-0.069055125
108	0xbdae9eb4	-0.08526364
109	0xbe019a5e	-0.12656543
110	0x3bf4d6e5	0.0074719065
111	0xbbb4d20f	-0.005518205
112	0xbcaadf34	-0.020858385
113	0x3d014088	0.031555682
114	0xbcfa4bf5	-0.030553797
115	0x3d0feac4	0.035136
116	0xbe06257d	-0.13100238
117	0x3cf4e0d5	0.029892365
118	0x3d3677e3	0.044547927
119	0xbdbea0ae	-0.09307991
120	0xbc3dee0f	-0.011592402
121	0xbd50af3e	-0.050948374
122	0xbe1ba3b8	-0.15199172
123	0xbddc461f	-0.10755562
124	0xbe06033a	-0.13087168
125	0x3e1a7bb6	0.15086254
126	0xbdc17ab5	-0.09447233
127	0x3d0d3178	0.034471005

network.9.weight f4 [1, 128]
0	0x3e5618fb	0.20907967
1	0xbe155467	-0.14582978
2	0x3e61f3c5	0.22065647
3	0xbdfc1a2e	-0.12309681
4	0x3e44d138	0.19220436
5	0xbd799956	-0.06093725
6	0x3e351487	0.17683612
7	0x3e475221	0.19464923
8	0xbe00e211	-0.12586237
9	0xbe270f8e	-0.16314527
10	0xbe23f537	-0.16011511
11	0x3e4aa175	0.19788153
12	0xbe1a8448	-0.15089524
13	0xbdd1d908	-0.102464736
14	0xbd8c556e	-0.06852232
15	0xbdbb568c	-0.09147367
16	0xbdcea176	-0.1008939
17	0xbd7f950d	-0.062398005
18	0x3e4b189d	0.19833608
19	0xbddc4664	-0.107556134
20	0x3e3da385	0.18519409
21	0x3e3eef68	0.18646014
22	0xbd819dbb	-0.06328913
23	0xbdd9e310	-0.10639012
24	0x3e733b89	0.2375318
25	0x3e2e38af	0.1701381
26	0x3e664cba	0.22490206
27	0x3e34a81f	0.17642258
28	0xbddf255c	-0.108957976
29	0x3e53c7fe	0.2068176
30	0x3e5d685a	0.21621838
31	0x3e422e97	0.18963085
32	0xbdc57438	-0.096413076
33	0xbe2c05da	-0.16799107
34	0xbd708b96	-0.05872687
35	0x3e348eb6	0.17632565
36	0x3e4a402d	0.19751044
37	0xbd8b3901	-0.06797982
38	0xbd83b366	-0.06430702
39	0xbdc8222d	-0.097721435
40	0x3e8153ab	0.25259146
41	0x3e56eadf	0.20988034
42	0x3e764303	0.24049
43	0x3e4a32c9	0.19745935
44	0x3e68fb06	0.22752008
45	0xbe3e6a41	-0.1859522
46	0x3e798b92	0.24369648
47	0x3e5ccbb6	0.21562085
48	0xbd875854	-0.06608644
49	0xbdd2a95b	-0.10286208
50	0x3e557e21	0.20848896
51	0x3ea36542	0.3191319
52	0xbdc131a8	-0.09433299
53	0xbdf26790	-0.11836159
54	0x3e37962b	0.17928378
55	0x3e7dc783	0.24783139
56	0x3e311697	0.17293774
57	0x3e648e58	0.22319925
58	0x3e639294	0.22223884
59	0x3e881401	0.26577762
60	0xbdd82369	-0.10553629
61	0x3e6c664f	0.23085903
62	0x3e55fab2	0.20896414
63	0x3e560392	0.208998
64	0x3e81dfcb	0.25366053
65	0x3e7ee415	0.24891694
66	0xbda8f35f	-0.08249544
67	0x3e77915c	0.24176544
68	0x3e5d1870	0.21591353
69	0x3e4cb313	0.19990186
70	0xbdaa13ac	-0.08304533
71	0x3e746e7f	0.23870276
72	0xbd538dc0	-0.051648855
73	0x3e513eec	0.20434159
74	0xbdc0ee4d	-0.09420452
75	0xbe357d30	-0.17723536
76	0xbde93c22	-0.113884225
77	0x3e34ddf7	0.17662798
78	0xbd46c9b9	-0.04853222
79	0x3e471787	0.19442569
80	0x3e790b53	0.24320726
81	0xbd540be4	-0.051769152
82	0xbdd5f69b	-0.10447427
83	0xbdb26702	-0.087110534
84	0xbe14afd3	-0.14520197
85	0xbe115782	-0.14193538
86	0x3e48bb97	0.1960281
87	0xbdcfa19f	-0.10138249
88	0x3e76e4ca	0.24110714
89	0x3e34c7f1	0.17654397
90	0xbda168e5	-0.07881335
91	0xbd59fafc	-0.053217873
92	0xbdf271a1	-0.11838079
93	0xbe2458c4	-0.16049486
94	0x3e6b927f	0.23005103
95	0xbdde0592	-0.10840906
96	0x3e2e1a9e	0.17002341
97	0x3e582420	0.2110753
98	0xbdb23724	-0.087019235
99	0x3e64d9c2	0.22348693
100	0x3e4f2bd3	0.20231561
101	0x3eef10bb	0.46692452
102	0x3e9e49e8	0.3091576
103	0x3e5559f5	0.20835097
104	0xbdfce0d4	-0.1234757
105	0xbdbfc056	-0.09362857
106	0x3e293d1c	0.16527218
107	0x3e5a8136	0.21338353
108	0x3e640fbc	0.22271627
109	0x3e33f0dc	0.1757235
110	0xbde9987e	-0.11406039
111	0x3e73191f	0.23740052
112	0xbe1f9197	-0.15582882
113	0xbdba309e	-0.09091304
114	0xbe1d4ec3	-0.15362076
115	0xbd887fc8	-0.06664997
116	0x3e492e19	0.19646491
117	0xbdb426e7	-0.087964825
118	0xbe0bd723	-0.13656287
119	0x3e703088	0.23456013
120	0x3e508379	0.20362653
121	0x3e485725	0.19564493
122	0x3e740f52	0.23833969
123	0x3e613e91	0.21996523
124	0x3e4edd7f	0.20201682
125	0x3e9e0bb7	0.30868313
126	0x3e157db4	0.14598733
127	0xbd81f363	-0.063452505
