models/epoch_30/generator.pth (torch, 485191 bytes, 20 tensors)

network.0.weight f4 [128, 100]
-0.08763724 0.039528947 0.06978379 -0.014141428 -0.01781628 0.0301286 -0.08716514 -0.055970225
-0.04674462 -0.0014266168 -0.056245152 -0.027198693 -0.073266305 0.018871637 -0.029926028 -0.0071615153
-0.09236371 -0.07227012 0.035477374 -0.068841726 -0.0790619 -0.04483123 0.0068011717 -0.082556844
0.0335169 -0.023359759 -0.058583647 -0.10561828 0.0039198617 -0.10861926 -0.082316436 -0.038602103
-0.025465786 0.10664907 -0.030889079 -0.049913898 -0.057091735 -0.0014680973 -0.035733942 -0.0846799
0.06683906 0.053663455 -0.08141441 -0.02773731 0.0010667386 0.09138943 0.070504 -0.026124284
-0.02490024 0.08303911 -0.009532344 -0.012677766 -0.029943466 -0.10237704 -0.060749307 0.064086564
-0.024082629 0.0659139 -0.11634251 0.09992926 -0.014827068 -0.051963564 -0.026537513 0.0024257042
-0.046335693 0.052966934 0.07786386 0.05957262 -0.010060576 0.068949424 -0.112622574 0.0012293333
0.0677051 -0.0791918 0.008841027 0.12749729 -0.05822179 0.037535414 0.043323085 0.06760491
-0.031999063 0.09069854 -0.06434995 -0.016147556 -0.09335401 0.06294692 0.0019909507 0.1085738
0.025357084 0.0077618053 -0.0611119 0.08924092 -0.041878443 0.011555354 0.03109375 -0.019160615
-0.0029266966 -0.098577894 0.06586402 0.07012395 0.05546254 -0.031756446 -0.053271074 -0.043969423
-0.0021275077 -0.04721613 0.031070163 -0.080334485 0.034528933 0.041218 0.09248617 -0.09001193
0.036767736 0.084990256 -0.044497598 -0.024615046 -0.06636391 0.06102506 0.020156395 0.009949228
-0.022727735 -0.061695427 -0.054236874 -0.05555106 0.028409109 -0.003095994 -0.027646244 0.030266065
0.08474085 0.079474345 0.08247567 -0.07826745 0.04905949 0.07426778 -0.0073096678 0.07543252
-0.061832346 0.014965231 0.08995839 -0.011068009 0.033708956 -0.09917586 -0.018995948 -0.04251896
0.076023996 -0.11301304 0.011721411 -0.067142956 0.08447944 0.09075761 0.08931658 -0.02650191
0.090799876 -0.051825833 0.05324103 0.06327425 -0.07764023 0.08483194 -0.043025065 0.0811097
-0.033205584 0.003048476 -0.098776296 -0.015431184 -0.041938484 -0.07790825 0.027077215 -0.024315387
0.048389353 0.06848304 0.0918987 -0.08429589 -0.022638131 0.06876623 0.008724905 0.053903077
0.052448764 -0.05823325 0.059682723 -0.037641115 0.0660917 0.014927679 0.10126868 -0.035376605
-0.064383134 -0.06509474 -0.016919903 0.053925306 -0.08818488 -0.1145168 -0.052660927 0.060183518
-0.087879 0.049670264 -0.11710307 -0.022090739 -0.007899981 0.121445596 0.037172534 -0.018031303
-0.0036403923 0.069177546 -0.02410262 -0.046789795 -0.048595313 0.0053711375 0.034899794 0.07376128
-0.087144665 -0.0155651085 -0.053314716 0.05002969 0.080271766 0.08857062 0.019323451 0.042513672
0.044356484 -0.09732986 -0.0043708193 0.002985512 -0.08902176 0.006496868 -0.085688874 0.054463945
0.06914081 -0.089044176 -0.13182661 -0.08453418 0.088345714 -0.004155701 0.05659257 -0.04820487
0.067862056 -0.01016206 -0.10361004 0.027350497 0.029673092 -0.080053344 -0.07580907 0.042857908
0.07072588 -0.035516128 -0.0060493634 -0.09503982 0.013911546 -0.040283863 -0.100650005 0.11940983
0.043610282 0.00012633408 0.0083961645 -0.07913793 -0.034142844 0.0114601515 0.07618486 0.119760856
00000000: 277b b3bd 1be9 213d ceea 8e3d 73b1 67bc
00000010: 72f3 91bc 41d0 f63c a383 b2bd 0941 65bd
00000020: 4977 3fbd 51fd baba 5161 66bd cbcf debc
00000030: a50c 96bd b198 9a3c 6e27 f5bc 25ab eabb
00000040: 2f29 bdbd 5b02 94bd b950 113d e4fc 8cbd
00000050: 35eb a1bd f4a0 37bd 5ddc de3b 9013 a9bd
00000060: 0449 093d f75c bfbc 68f5 6fbd 664e d8bd
00000070: 2f72 803b c673 debd 8595 a8bd 3d1d 1ebd
00000080: a09d d0bc d46a da3d 180b fdbc 8472 4cbd
00000090: 06d9 69bd 2c6d c0ba c15d 12bd a86c adbd
000000a0: ebe2 883d 36ce 5b3d 99bc a6bd 5b39 e3bc
000000b0: cfd1 8b3a 622a bb3d 6764 903d 9802 d6bc
000000c0: 97fb cbbc 6910 aa3d 8c2d 1cbc 68b6 4fbc
000000d0: 004c f5bc 0eab d1bd 44d4 78bd d13f 833d
000000e0: ef48 c5bc defd 863d fb44 eebd b6a7 cc3d
000000f0: 3bed 72bc bfd7 54bd 3365 d9bc 90f8 1e3b
00000100: 7fca 3dbd dbf3 583d 1677 9f3d 6b02 743d
00000110: 1dd5 24bc 5b35 8d3d aaa6 e6bd 9521 a13a
00000120: f9a8 8a3d 4f2f a2bd f4d9 103c a68e 023e
00000130: f979 6ebd bcbe 193d 8c73 313d 7174 8a3d
00000140: 7311 03bd 28c0 b93d e8c9 83bd e147 84bc
00000150: 6330 bfbd 51ea 803d 9c7a 023b f15b de3d
00000160: a9b9 cf3c be56 fe3b 7950 7abd f2c3 b63d
00000170: bb88 2bbd ab52 3d3c 52b8 fe3c b9f6 9cbc
00000180: d2cd 3fbb 35e3 c9bd b7e3 863d 259d 8f3d
00000190: b02c 633d 0c13 02bd c532 5abd 4819 34bd
000001a0: a86d 0bbb b365 41bd db86 fe3c 6886 a4bd
000001b0: 366e 0d3d 35d4 283d 6469 bd3d 2d58 b8bd
000001c0: c499 163d 5f0f ae3d 1d43 36bd 7ea5 c9bc
000001d0: cde9 87bd 6af5 793d 061f a53c 1602 233c
000001e0: 842f babc 58b4 7cbd 7c27 5ebd 8289 63bd
000001f0: 38ba e83c 29e6 4abb 607a e2bc 8af0 f73c
00000200: 9c8c ad3d 72c3 a23d 01e9 a83d af4a a0bd
00000210: 9bf2 483d b519 983d f085 efbb 5d7c 9a3d
00000220: ea43 7dbd ba30 753c 1b3c b83d 9856 35bc
00000230: 6712 0a3d b71c cbbd 649d 9bbc 5c28 2ebd
00000240: 78b2 9b3d 6173 e7bd 290b 403c 3f82 89bd
00000250: 8e03 ad3d 20df b93d 9ceb b63d 891a d9bc
00000260: 49f5 b93d 5347 54bd 4413 5a3d ee95 813d
00000270: d701 9fbd 5ebc ad3d 0d3b 30bd d81c a63d
00000280: 9402 08bd f1c8 473b 3a4b cabd 14d3 7cbc
00000290: b0c7 2bbd 5c8e 9fbd 09d1 dd3c 1031 c7bc
000002a0: ea33 463d d640 8c3d 6335 bc3d 53a3 acbd
000002b0: 9a73 b9bc 4fd5 8c3d e7f2 0e3c 79c9 5c3d
000002c0: 84d4 563d fd85 6ebd df75 743d 922d 1abd
000002d0: 165b 873d 3993 743c f465 cf3d 0fe7 10bd
000002e0: 4edb 83bd 6450 85bd 9c9b 8abc c8e0 5c3d
000002f0: 469a b4bd c987 eabd fcb2 57bd fe82 763d
00000300: e8f9 b3bd 0c73 4b3d bcd3 efbd a3f7 b4bc
00000310: ec6e 01bc 78b8 f83d 3a42 183d 62b6 93bc
00000320: a693 6ebb f5ac 8d3d dc72 c5bc a8a6 3fbd
00000330: e10b 47bd 5e00 b03b 16f3 0e3d 2710 973d
00000340: e778 b2bd cc04 7fbc 8860 5abd efeb 4c3d
00000350: 8665 a43d 8364 b53d 374c 9e3c d122 2e3d
00000360: 25af 353d e154 c7bd 1739 8fbb 94a8 433b
00000370: 0a51 b6bd aee3 d43b a67d afbd 9615 5f3d
00000380: b299 8d3d cb5c b6bd 8efd 06be 4220 adbd
00000390: 99ee b43d 8c2c 88bb 9ccd 673d 7872 45bd
000003a0: 43fb 8a3d c57e 26bc 8031 d4bd 260e e03c
000003b0: fc14 f33c 02f3 a3bd c941 9bbd c68b 2f3d
000003c0: bbd8 903d 5c79 11bd bd39 c6bb 3da4 c2bd
000003d0: 41ed 633c b100 25bd 9721 cebd 248d f43d
000003e0: b2a0 323d 8c78 0439 1190 093c 1113 a2bd
000003f0: 5ed9 0bbd 5cc3 3b3c cf06 9c3d 2e45 f53d

network.0.bias f4 [128]
-0.10846904 0.08767829 0.08838462 0.024652964 0.05804872 0.03487583 0.104057536 0.1020884
0.02238024 0.02527374 -0.09617745 -0.008444055 0.06313562 0.09888921 0.03128662 0.07054277
-0.09580639 -0.031219454 -0.052378133 0.053218544 0.0019700688 -0.06416751 0.020957312 -0.11464746
0.022746423 -0.030171683 -0.05939245 -0.04499293 -0.052334677 -0.029513387 0.01899601 -0.06690537
-0.042576443 0.08188457 0.051037706 0.08663895 -0.032173973 -0.01917198 0.10782318 -0.06298863
0.022438345 -0.067057006 -0.09719169 0.034464817 0.0057442775 -0.010761304 0.03955723 -0.0075187585
-0.07420476 0.030755656 0.08429366 0.11860457 0.10181016 -0.100988515 0.04989109 0.00035263048
-0.024860345 -0.005062481 0.014980487 0.011913547 0.100968175 -0.057300486 0.015303479 -0.10538834
0.0005717125 -0.08662238 -0.03966529 -0.021381997 -0.089440286 0.017228859 0.06447907 -0.024770861
0.0398109 -0.052871276 0.020625357 -0.03228459 0.022344297 -0.031248285 -0.081139736 -0.061968606
-0.08806069 0.071790405 -0.008199275 -0.07026093 0.091593236 0.03119165 0.08714956 -0.021267543
-0.014890108 0.009146809 -0.060756844 0.014102106 0.0531819 -0.0556399 -0.10859115 0.018686304
-0.029101342 0.0014921636 -0.07442657 0.06832165 -0.017805485 -0.006579679 -0.047575243 -0.043240484
-0.04031527 0.08345933 -0.073308885 -0.047498338 -0.03128758 -0.09003499 0.0029223517 -0.030389337
-0.066081405 -0.09448282 -0.08210709 0.0676846 -0.041965406 0.021672022 0.07764094 -0.023020264
0.023895673 -0.04365881 -0.091697186 0.062016726 0.116269454 0.1277666 0.041962933 -0.023789672
00000000: 0425 debd ad90 b33d ff02 b53d 03f5 c93c
00000010: 7fc4 6d3d f5d9 0e3d 1e1c d53d b913 d13d
00000020: c456 b73c e00a cf3c aff8 c4bd ef58 0abc
00000030: 3f4d 813d 6d86 ca3d 6626 003d ba78 903d
00000040: 2436 c4bd f1bf ffbc 748a 56bd b0fb 593d
00000050: 451c 013b 416a 83bd abae ab3c 4acc eabd
00000060: b556 ba3c 9b2a f7bc 7f45 73bd 824a 38bd
00000070: e35c 56bd 0fc6 f1bc 859d 9b3c af05 89bd
00000080: a364 2ebd 19b3 a73d ea0c 513d c36f b13d
00000090: dbc8 03bd 8e0e 9dbc 66d2 dc3d 2f00 81bd
000000a0: 9fd0 b73c 2f55 89bd 700c c7bd fb2a 0d3d
000000b0: 7e3a bc3b 2e50 30bc c306 223d eb5f f6bb
000000c0: aaf8 97bd 49f3 fb3c 28a2 ac3d f4e6 f23d
000000d0: d881 d03d 11d3 cebd 995a 4c3d 43e1 b839
000000e0: eca7 cbbc 2be3 a5bb b770 753c 0a31 433c
000000f0: 67c8 ce3d eab3 6abd 71bb 7a3c d8d5 d7bd
00000100: fade 153a 1367 b1bd 1278 22bd 4c29 afbc
00000110: 782c b7bd 8923 8d3c 9a0d 843d 43ec cabc
00000120: c110 233d 8d8f 58bd 82f6 a83c d93c 04bd
00000130: 630b b73c 67fc ffbc 972c a6bd cbd2 7dbd
00000140: 2a59 b4bd d906 933d 4056 06bc f6e4 8fbd
00000150: 3c95 bb3d a285 ff3c 787b b23d 4539 aebc
00000160: a4f5 73bc 7fdc 153c 2bdc 78bd 850c 673c
00000170: 44d5 593d aae6 63bd 0965 debd 0514 993c
00000180: f065 eebc b494 c33a f56c 98bd 39ec 8b3d
00000190: cfdc 91bc 599a d7bb 42de 42bd ef1c 31bd
000001a0: a021 25bd baec aa3d f822 96bd 9e8d 42bd
000001b0: 6827 00bd 4464 b8bd ed84 3f3b 0ff3 f8bc
000001c0: b055 87bd 3580 c1bd c327 a8bd 399e 8a3d
000001d0: ebe3 2bbd 8689 b13c 3702 9f3d fe94 bcbc
000001e0: dcc0 c33c 95d3 32bd bccb bbbd 4005 7e3d
000001f0: ae1e ee3d 3fd5 023e 53e1 2b3d 8fe2 c2bc

network.2.weight f4 [128]
1.0255419 0.9935547 1.0018978 1.0197555 0.9727747 1.0157479 1.0318435 1.0035121
0.9697429 1.0287206 0.97614676 1.0037891 0.9808726 1.0320058 1.0098804 1.0091428
0.9956074 1.0190604 1.0127705 1.0254328 0.9982047 0.98282623 0.9525976 1.011969
1.0158248 1.0016848 0.9956974 0.9869098 0.98591757 1.0068562 0.9905132 0.9494287
0.9967574 0.9984999 1.03151 1.024622 0.9951379 1.0267293 0.9900979 0.96085525
0.99225837 0.9626806 0.9780833 0.9981891 1.0014933 0.98061883 1.0320395 1.0243185
1.0023798 0.98388696 0.9837565 1.0123111 0.9817563 0.9457808 1.0111717 1.0245271
1.0094708 1.005512 1.0279608 0.97010833 1.0088017 0.9521672 1.0223393 0.9332904
0.99626994 0.985997 0.97731185 0.9941753 1.0276811 0.97622097 0.9970075 1.0126865
1.0321684 0.9835543 0.9555345 0.9577092 0.98156345 1.0047435 1.0113287 1.0034869
0.97941136 1.0057439 0.99027556 0.9738235 1.0134639 0.9637792 1.0195389 0.977946
0.99383336 1.0376414 0.95977306 1.0043098 0.99816847 1.0108236 0.97687775 0.97004896
0.9775861 1.0459895 1.027874 0.9989184 0.9891538 1.0549939 0.988092 1.0013016
0.9580025 1.0345781 0.99464214 1.0503412 1.0072097 1.0197864 1.0050529 1.0233121
0.9679379 0.9843854 1.0220193 1.0259532 1.0031242 0.9933658 0.9893847 1.0453227
1.0234817 0.986695 1.0286199 1.0342277 1.0354137 0.98325855 1.020847 1.0325644
00000000: f544 833f 9a59 7e3f 303e 803f 5987 823f
00000010: c307 793f 0704 823f 7313 843f 1673 803f
00000020: 1241 783f 1ead 833f c1e4 793f 297c 803f
00000030: 771a 7b3f c418 843f c343 813f 972b 813f
00000040: 20e0 7e3f 9270 823f 77a2 813f 6241 833f
00000050: 588a 7f3f 809a 7b3f 70dd 733f 3388 813f
00000060: 8c06 823f 3537 803f 06e6 7e3f 1fa6 7c3f
00000070: 1865 7c3f aae0 803f 4692 7d3f c20d 733f
00000080: 7e2b 7f3f b09d 7f3f 8508 843f d026 833f
00000090: 5bc1 7e3f de6b 833f 0e77 7d3f 9cfa 753f
000000a0: a504 7e3f 3c72 763f ab63 7a3f 5289 7f3f
000000b0: ef30 803f d609 7b3f df19 843f de1c 833f
000000c0: fb4d 803f 04e0 7b3f 77d7 7b3f 6993 813f
000000d0: 6254 7b3f b11e 723f 136e 813f b423 833f
000000e0: 5736 813f 9eb4 803f 3894 833f 0559 783f
000000f0: 6a20 813f 3bc1 733f 04dc 823f 1fec 6e3f
00000100: 8c0b 7f3f 4d6a 7c3f 1c31 7a3f 4682 7e3f
00000110: 0e8b 833f 9ee9 793f e23b 7f3f b69f 813f
00000120: 181e 843f 37ca 7b3f e99d 743f 6e2c 753f
00000130: be47 7b3f 6f9b 803f 3873 813f 4272 803f
00000140: b4ba 7a3f 37bc 803f b382 7d3f 7f4c 793f
00000150: 2fb9 813f 3cba 763f 4080 823f ab5a 7a3f
00000160: dd6b 7e3f 6fd1 843f b0b3 753f 398d 803f
00000170: f887 7f3f ab62 813f a914 7a3f 2155 783f
00000180: 1543 7a3f fce2 853f 6091 833f 1eb9 7f3f
00000190: 2f39 7d3f 0a0a 873f 99f3 7c3f a72a 803f
000001a0: a73f 753f 0e6d 843f dea0 7e3f 9571 863f
000001b0: 3fec 803f 5c88 823f 93a5 803f e4fb 823f
000001c0: c7ca 773f ae00 7c3f 87d1 823f 6f52 833f
000001d0: 6066 803f 394d 7e3f 5148 7d3f 22cd 853f
000001e0: 7301 833f 0b98 7c3f d1a9 833f 9361 843f
000001f0: 7088 843f d5b6 7b3f 1dab 823f 122b 843f

network.2.bias f4 [128]
-0.01064395 0.06445766 -0.018823171 0.011712553 -0.015193406 -0.06557535 -0.045149744 0.056720283
0.05062265 -0.008500696 0.04354957 -0.016370406 0.0019456684 0.052050464 0.08048605 0.03558742
0.019090965 -0.0009640716 0.038959417 -0.078832686 -0.052593622 -0.012633588 -0.029886696 0.00013689557
0.050893497 0.004275738 -0.0063146446 0.021287238 -0.03543931 -0.0388129 -0.022734994 0.022545844
-0.009708006 -0.035708014 0.018878719 0.0031400835 0.036638673 -0.035010785 0.028714087 0.014199282
-0.08554076 0.040885758 -0.032593235 0.015409191 -0.02943144 -0.04323029 0.15095519 -0.0053497585
-0.044562053 0.0020960078 -0.033484716 -0.03132184 -0.021322342 -0.01628448 -0.041382954 0.04023023
-0.020526715 -0.027665159 -0.014829692 -0.042966157 0.064048566 -0.0071026664 0.04455552 0.03926391
0.030773606 -0.034994837 0.014730302 -0.06573626 -0.04108661 0.034627352 0.06270255 0.10184743
-0.04184536 0.039754126 0.059331194 0.0136039425 -0.01764874 -0.017862324 0.021701388 -0.089861296
-0.033706635 -0.044195846 0.051966306 -0.0021128498 -0.032529756 0.0353689 -0.00768442 0.020356085
0.010161479 -0.031047545 -0.06963421 -0.009951733 0.08587997 -0.042947516 0.05994385 -0.0023835455
0.035365436 0.055984773 -0.08867398 -0.036427986 -0.03883332 -0.082269914 0.00014580262 -0.05130544
0.017062932 0.0742533 -0.0063031726 -0.058885634 -0.063221395 -0.025077973 -0.007137323 0.046243496
0.03921728 -0.024657171 -0.05368404 -0.030102674 0.01829459 0.019854762 0.037625015 -0.03681842
-0.04933632 0.07303634 -0.052541975 -0.032612976 0.096400216 0.035989694 -0.031597354 -0.06588156
00000000: f663 2ebc 6102 843d 0d33 9abc 02e6 3f3c
00000010: c3ed 78bc 5e4c 86bd f0ee 38bd 8753 683d
00000020: b259 4f3d 8146 0bbc 0961 323d 3b1b 86bc
00000030: cc05 ff3a de32 553d dfd5 a43d 1dc4 113d
00000040: a864 9c3c c0b9 7cba e993 1f3d 0873 a1bd
00000050: 696c 57bd 1cfd 4ebc f2d4 f4bc a08b 0f39
00000060: b375 503d 7d1b 8c3b 14eb cebb 9362 ae3c
00000070: cf28 11bd 47fa 1ebd bd3e babc 10b2 b83c
00000080: 540e 1fbc 9142 12bd 8ba7 9a3c dcc9 4d3b
00000090: 6f12 163d 7867 0fbd ce39 eb3c 1ba4 683c
000000a0: fe2f afbd d377 273d 7c80 05bd d576 7c3c
000000b0: 341a f1bc 3f12 31bd ff93 1a3e 074d afbb
000000c0: b386 36bd 2d5d 093b 4527 09bd 544b 00bd
000000d0: 31ac aebc 0867 85bc 2c81 29bd 74c8 243d
000000e0: a427 a8bc 0ba2 e2bc 3df8 72bc 48fd 2fbd
000000f0: e52b 833d 7cbd e8bb d97f 363d 32d3 203d
00000100: ee18 fc3c bf56 0fbd 5d57 713c bba0 86bd
00000110: 6f4a 28bd 69d5 0d3d 326a 803d 6395 d03d
00000120: 0a66 2bbd 39d5 223d 4405 733d 12e3 5e3c
00000130: 1794 90bc 0254 92bc 1cc7 b13c 3309 b8bd
00000140: f80f 0abd b406 35bd 9fda 543d bd77 0abb
00000150: ec3d 05bd fbde 103d 96cd fbbb cec1 a63c
00000160: 557c 263c 6c57 febc 619c 8ebd 980c 23bc
00000170: d6e1 af3d bce9 2fbd af87 753d 4235 1cbb
00000180: 59db 103d 4a50 653d b49a b5bd 8335 15bd
00000190: b00f 1fbd 217d a8bd 98e2 1839 a725 52bd
000001a0: 90c7 8b3c 1d12 983d d88a cebb 1032 71bd
000001b0: 387a 81bd 5270 cdbc 34e0 e9bb d269 3d3d
000001c0: 4ca2 203d d6fd c9bc cce3 5bbd e299 f6bc
000001d0: 89de 953c 74a6 a23c b01c 1a3d e9ce 16bd
000001e0: e214 4abd 1494 953d 4136 57bd 2f95 05bd
000001f0: 7a6d c53d ee69 133d 3a6c 01bd e9ec 86bd

network.2.running_mean f4 [128]
0.12717593 0.26507354 0.2388638 0.22059035 0.21984911 0.23265637 0.2766086 0.25543314
0.19582124 0.20047945 0.13625091 0.16981608 0.24689609 0.22947656 0.2152121 0.25079244
0.15612222 0.17199568 0.16003352 0.23695199 0.21460803 0.14381066 0.22658111 0.13526566
0.21323462 0.1912939 0.1367872 0.14923033 0.18401136 0.15492284 0.22269389 0.15413757
0.15157938 0.24541675 0.22353722 0.24230862 0.16463536 0.19241647 0.2737222 0.14118104
0.20685974 0.1329217 0.14349388 0.20714743 0.19555825 0.19274807 0.1973874 0.18569793
0.15045112 0.23094505 0.2329083 0.26036122 0.26187623 0.14700487 0.2216673 0.20031829
0.19148391 0.20677744 0.18061651 0.18555108 0.25564694 0.13813703 0.18243703 0.14855024
0.18383373 0.13853842 0.18041593 0.18948893 0.14191222 0.21279927 0.23439226 0.19761334
0.21233162 0.15147439 0.2189169 0.1650013 0.18042022 0.17797902 0.13076131 0.15877944
0.1448254 0.22487773 0.18678422 0.14596225 0.25736693 0.19427544 0.25483304 0.18210398
0.18842715 0.2004078 0.15489054 0.1819858 0.2197813 0.17131372 0.12285664 0.2162462
0.17202222 0.1718106 0.14128383 0.23119971 0.19390143 0.19618002 0.14769533 0.15694812
0.16787419 0.22883052 0.1419453 0.17835253 0.16905761 0.12678681 0.19558105 0.1616875
0.16022941 0.13074939 0.16480494 0.23527078 0.16149935 0.19750309 0.23852026 0.18899088
0.18502747 0.18299323 0.14395282 0.23282933 0.26759315 0.2701592 0.23254561 0.16001119
00000000: 683a 023e b8b7 873e b698 743e 70e2 613e
00000010: 2020 613e 793d 6e3e a49f 8d3e 22c8 823e
00000020: 5d85 483e 7c4a 4d3e 5c85 0b3e 44e4 2d3e
00000030: 54d2 7c3e e7fb 6a3e 9060 5c3e de67 803e
00000040: 81de 1f3e a31f 303e d4df 233e 8ba3 723e
00000050: 35c2 5b3e 1a43 133e e104 683e 1583 0a3e
00000060: 2d5a 5a3e 8ce2 433e f211 0c3e d6cf 183e
00000070: 796d 3c3e 18a4 1e3e de09 643e 3dd6 1d3e
00000080: a037 1b3e 874e 7b3e f1e6 643e c01f 783e
00000090: 2c96 283e d308 453e 5125 8c3e c391 103e
000000a0: 0ad3 533e a01c 083e 0ff0 123e 751e 543e
000000b0: 6c40 483e c05f 453e ec1f 4a3e 9927 3e3e
000000c0: dc0f 1a3e dc7c 6c3e 837f 6e3e 114e 853e
000000d0: a414 863e 7288 163e c1fc 623e 3d20 4d3e
000000e0: 5c14 443e 77bd 533e 89f3 383e 1a01 3e3e
000000f0: 28e4 823e cb73 0d3e c6d0 3a3e 8e1d 183e
00000100: e93e 3c3e 04dd 0d3e f4be 383e 6309 423e
00000110: 7051 113e 0de8 593e 8604 703e 275b 4a3e
00000120: 766d 593e 1a1c 1b3e c02b 603e 1af6 283e
00000130: 14c0 383e 2240 363e 4be6 053e 1497 223e
00000140: 1c4d 143e 5946 663e 5d44 3f3e 2177 153e
00000150: 99c5 833e 24f0 463e 7a79 823e 7779 3a3e
00000160: 0cf3 403e b437 4d3e a09b 1e3e 7c5a 3a3e
00000170: 590e 613e dd6c 2f3e 439c fb3d a56f 5d3e
00000180: 9826 303e 1eef 2f3e b5ac 103e 9ebf 6c3e
00000190: 198e 463e 6ae3 483e 723d 173e 02b7 203e
000001a0: 36e7 2b3e 8c52 6a3e 1c5a 113e 0ca2 363e
000001b0: 701d 2d3e 67d4 013e 6646 483e 6891 253e
000001c0: 2e13 243e 2be3 053e a0c2 283e d3ea 703e
000001d0: 1660 253e 403e 4a3e a83e 743e d386 413e
000001e0: d777 3d3e 9462 3b3e 5e68 133e d06a 6e3e
000001f0: f801 893e 4f52 8a3e 7020 6e3e f9d9 233e

network.2.running_var f4 [128]
0.11927616 0.19552279 0.17161462 0.17939687 0.168836 0.18619148 0.19177638 0.1712454
0.13971598 0.13140085 0.12786557 0.13414326 0.17183463 0.16417769 0.17136025 0.19657235
0.14110999 0.14099386 0.1542183 0.17827764 0.16234292 0.120373905 0.17909253 0.13933194
0.17365777 0.16596302 0.11579455 0.11752155 0.16132554 0.10945242 0.18927127 0.13483275
0.12419528 0.17154133 0.17531681 0.17218393 0.1329966 0.1504687 0.17848068 0.12699154
0.14134283 0.11970384 0.12733214 0.16574477 0.15303466 0.1576681 0.13478902 0.14541814
0.13022037 0.1814753 0.14009684 0.1889324 0.18118086 0.1367588 0.16682975 0.14945325
0.15612862 0.17435105 0.12914038 0.1373226 0.16636251 0.115812965 0.1291574 0.13910536
0.13954084 0.12564339 0.1438686 0.14726178 0.12394098 0.17106979 0.16935839 0.14288138
0.17803356 0.12214144 0.18560338 0.14933413 0.1390542 0.14070563 0.111909986 0.139556
0.13136111 0.16476728 0.15884498 0.125944 0.18364644 0.15382846 0.16492444 0.16201891
0.15760826 0.14777572 0.13417797 0.117968515 0.15062672 0.14734048 0.12826213 0.16835369
0.14069942 0.14011934 0.13627063 0.17637996 0.17501062 0.15474418 0.124515384 0.13250028
0.13828401 0.15239999 0.121290095 0.14517544 0.13392428 0.1126271 0.16105439 0.14645807
0.12480081 0.12170369 0.15090536 0.19792564 0.1256331 0.14209454 0.17495206 0.15761843
0.13562644 0.18209323 0.13902172 0.16845098 0.17163554 0.17649522 0.19171326 0.12687762
00000000: 0f47 f43d 2037 483e bebb 2f3e d0b3 373e
00000010: 58e3 2c3e fba8 3e3e 0761 443e f45a 2f3e
00000020: b511 0f3e f28d 063e 31ef 023e da5c 093e
00000030: 6bf5 2f3e 321e 283e 1079 2f3e 434a 493e
00000040: 237f 103e b260 103e 67eb 1d3e 6a8e 363e
00000050: 393d 263e 9886 f63d 0864 373e 08ad 0e3e
00000060: 58d3 313e 36f2 293e b125 ed3d 23af f03d
00000070: 8632 253e 9728 e03d 54d0 413e 9911 0a3e
00000080: 185a fe3d 88a8 2f3e 4086 333e fc50 303e
00000090: 4330 083e 7814 1a3e a4c3 363e 120a 023e
000000a0: 2dbc 103e 4927 f53d 5b63 023e ffb8 293e
000000b0: 1eb5 1c3e bf73 213e 2206 0a3e 7ee8 143e
000000c0: 7d58 053e a9d4 393e 8c75 0f3e 7f77 413e
000000d0: 7a87 393e 800a 0c3e 6bd5 2a3e 460a 193e
000000e0: 2ee0 1f3e 1589 323e 603d 043e 4c9e 0c3e
000000f0: ef5a 2a3e 592f ed3d d641 043e a371 0e3e
00000100: cbe3 0e3e a9a8 003e 4a52 133e cbcb 163e
00000110: c5d4 fd3d eb2c 2f3e 496c 2d3e 7f4f 123e
00000120: 6e4e 363e 4b25 fa3d d00e 3e3e 0ceb 183e
00000130: 3964 0e3e 2315 103e 1031 e53d c5e7 0e3e
00000140: 8783 063e c1b8 283e 42a8 223e 77f7 003e
00000150: d00d 3c3e 3585 1d3e f4e1 283e 49e8 253e
00000160: 0f64 213e 8552 173e f365 093e 7a99 f13d
00000170: e43d 1a3e 6ce0 163e 2657 033e e964 2c3e
00000180: 8213 103e 727b 0f3e 878a 0b3e f39c 343e
00000190: fc35 333e 4275 1e3e ec01 ff3d 27ae 073e
000001a0: 539a 0d3e be0e 1c3e f166 f83d dfa8 143e
000001b0: 7223 093e 09a9 e63d 71eb 243e 1bf9 153e
000001c0: 9197 ff3d c93f f93d ef86 1a3e 05ad 4a3e
000001d0: f7a5 003e 3b81 113e a226 333e ba66 213e
000001e0: a8e1 0a3e a676 3a3e b65b 0e3e 6a7e 2c3e
000001f0: 3ac1 2f3e 2abb 343e 7b50 443e 35ec 013e

network.3.weight f4 [256, 128]
-0.03186716 0.075304255 -0.026767578 0.01713169 -0.09925746 0.03123605 0.097442165 -0.035390195
-0.0011022891 0.061412174 0.044032563 -0.05866818 -0.019408384 -0.032712787 0.050641716 0.0392914
0.081824474 0.01585922 -0.039943848 0.05398901 -0.023295112 -0.0637674 -0.07874058 -0.09035215
-0.041928466 0.0033138567 -0.05827782 -0.072539926 0.02365572 0.0009960602 0.06675983 0.049012523
0.048484303 0.023115363 -0.03826984 -0.092731684 0.05546889 0.020586852 0.013656557 -0.0578335
0.057639074 -0.013269018 -0.06009213 0.043491434 0.07810239 0.07936056 -0.030143507 0.009923672
-0.08344747 -0.0577904 -0.0026157857 0.014314473 0.04465434 0.01652953 -0.040170446 -0.025237257
-0.0108937295 0.084130265 -0.062883355 -0.05744412 -0.04846178 0.010094545 -0.02390276 -0.018289294
-0.061153013 0.026031874 -0.027312396 -0.024345346 0.05774022 0.034791052 0.06584552 -0.019591061
-0.022203404 0.04267094 0.028543312 -0.07500208 -0.022562344 -0.007720404 0.014360921 -0.01240133
-0.09033391 -0.047804773 0.040673725 0.009778564 0.07176055 0.05096877 -0.08513 -0.018837573
-0.07231485 -0.069710486 0.056573667 0.061215222 -0.013568225 0.037746266 0.020675797 0.019245243
0.025227705 -0.11482989 0.03481974 0.021963177 0.06607235 0.0516589 0.015803462 0.08686779
-0.031415477 0.024249405 0.013840452 0.04331692 -0.0716913 -0.06653012 -0.033965584 0.07739369
-0.034291305 -0.019268204 0.07345506 -0.1102261 -0.027757777 -0.06691325 0.07938772 0.02625739
0.024169184 -0.071306035 0.09944575 -0.0015084873 0.048895765 -0.06914205 -0.016388578 -0.03427073
-0.038515367 -0.0018543904 0.07231798 0.041958515 -0.003016547 -0.018735386 -0.0047873226 0.095805936
0.068732865 0.09201897 -0.012013147 0.07788911 0.086363144 -0.024421407 0.051604327 0.07815449
-0.02091261 0.056097373 -0.015621779 -0.08339772 -0.008291858 0.0041751773 -0.0076168 0.08322101
0.09695683 0.085085936 -0.07534635 0.017758697 -0.119986996 -0.051289264 0.033369154 0.0032786834
-0.026985204 -0.0017156015 -0.020562707 0.035107605 0.0037276852 0.059531577 0.040771633 0.030478645
-0.058474306 -0.036712248 -0.015173076 0.07253331 0.06459882 0.044074718 -0.037610993 -0.012758586
-0.065156534 -0.08388424 -0.05332016 0.041983325 -0.026644887 0.048957665 0.02655074 -0.005066921
0.025326632 0.041884243 0.0673707 0.054281864 -0.031344004 0.00079043047 0.05509244 0.09152687
-0.10275588 -0.011235769 0.004592577 -0.051846325 0.04230538 -0.001155177 -0.026437944 -0.07088163
0.05445685 0.08979549 0.04922094 -0.028375281 0.026664902 0.008605176 0.003901228 0.060397867
-0.013496724 0.048031416 -0.05877068 -0.089660555 -0.024973452 0.10460968 -0.09367106 0.002647867
0.034646653 0.060333766 0.023163734 -0.026138023 0.05925041 0.032726157 -0.075260885 -0.02324259
-0.009635545 -0.059502844 -0.12811069 -0.101190254 0.0021712347 0.08097817 -0.07936889 -0.021485774
-0.062477063 -0.005571544 -0.06372039 -0.09763145 -0.011702087 0.0899582 0.01511247 0.10689895
0.017938241 -0.10452182 0.02984114 0.035707384 -0.009717902 0.045536373 -0.097231075 -0.039501946
-0.05877479 -0.070163935 -0.059146848 -0.024225615 -0.07659715 0.011808257 0.06290056 -0.0914182
00000000: 2487 02bd 1e39 9a3d ae47 dbbc c257 8c3c
00000010: 7f47 cbbd bfe2 ff3c c28f c73d 4ff5 10bd
00000020: af7a 90ba 558b 7b3d 7d5b 343d 0c4e 70bd
00000030: 55fe 9ebc d8fd 05bd b06d 4f3d 05f0 203d
00000040: 9793 a73d 32eb 813c 299c 23bd 9523 5d3d
00000050: 64d5 bebc 7c98 82bd be42 a1bd 8c0a b9bd
00000060: 2fbd 2bbd 4a2d 593b b9b4 6ebd d08f 94bd
00000070: a4c9 c13c 3c8e 823a 61b9 883d 5bc1 483d
00000080: 7a97 463d 6e5c bd3c d6c0 1cbd 1cea bdbd
00000090: 5933 633d c2a5 a83c c0bf 5f3c d2e2 6cbd
000000a0: f316 6c3d 4c66 59bc 2a23 76bd 1324 323d
000000b0: 25f4 9f3d ca87 a23d 84ef f6bc e696 223c
000000c0: 82e6 aabd a0b5 6cbd 9a6d 2bbb 4087 6a3c
000000d0: 78e7 363d f068 873c c489 24bd 5dbe cebc
000000e0: 9d7b 32bc 7d4c ac3d fdc8 80bd 874a 6bbd
000000f0: dc7f 46bd 9763 253c b9cf c3bc 6ed3 95bc
00000100: 957b 7abd cc40 d53c 3fbe dfbc e46f c7bc
00000110: 0281 6c3d 1081 0e3d 04da 863d 6f7d a0bc
00000120: eae3 b5bc b9c7 2e3d aad3 e93c b19a 99bd
00000130: aad4 b8bc 71fb fcbb 124a 6b3c f32e 4bbc
00000140: fc00 b9bd f0ce 43bd 7e99 263d 4536 203c
00000150: 32f7 923d a1c4 503d a358 aebd 4151 9abc
00000160: cf19 94bd 5fc4 8ebd cab9 673d d0bc 7a3d
00000170: 434d 5ebc d49b 1a3d 4a60 a93c 33a8 9d3c
00000180: 55aa ce3c ef2b ebbd 259f 0e3d 1fec b33c
00000190: f150 873d 4898 533d 4376 813c bde7 b13d
000001a0: 84ad 00bd b0a6 c63c 10c3 623c 156d 313d
000001b0: e3d2 92bd f240 88bd 7f1f 0bbd 9580 9e3d
000001c0: 0a75 0cbd 5ad8 9dbc 9b6f 963d 39be e1bd
000001d0: 4764 e3bc d009 89bd 0796 a23d bd19 d73c
000001e0: 74fe c53c e608 92bd 37aa cb3d 6fb8 c5ba
000001f0: ed46 483d 599a 8dbd 5741 86bc 775f 0cbd
00000200: 4ac2 1dbd 040f f3ba 731b 943d b1dc 2b3d
00000210: 43b1 45bb f47a 99bc f9de 9cbb e735 c43d
00000220: d1c3 8c3d 7174 bc3d cad2 44bc 5384 9f3d
00000230: 29df b03d 670f c8bc 0f5f 533d 760f a03d
00000240: ec50 abbc 5cc6 653d 7df2 7fbc 6ccc aabd
00000250: 93da 07bc edcf 883b 5996 f9bb c76f aa3d
00000260: 4d91 c63d 8941 ae3d 304f 9abd b07a 913c
00000270: bebb f5bd b114 52bd 18ae 083d 2edf 563b
00000280: 1310 ddbc 09de e0ba 1f73 a8bc fecc 0f3d
00000290: 2e4c 743b 62d7 733d 2800 273d 5aae f93c
000002a0: c182 6fbd 955f 16bd 7e98 78bc 588c 943d
000002b0: 634c 843d b187 343d fc0d 1abd 6309 51bc
000002c0: ca70 85bd 80cb abbd 3d66 5abd b5f6 2b3d
000002d0: 6146 dabc d587 483d f080 d93c 6a08 a6bb
000002e0: cc79 cf3c d08e 2b3d a6f9 893d a956 5e3d
000002f0: 9262 00bd e434 4f3a 9ca8 613d 7172 bb3d
00000300: ad71 d2bd 3b16 38bc 547d 963b d05c 54bd
00000310: 6848 2d3d 4f69 97ba 6394 d8bc 632a 91bd
00000320: 250e 5f3d b3e6 b73d e59b 493d 4773 e8bc
00000330: 5a70 da3c b9fc 0c3c bfab 7f3b c163 773d
00000340: 5d21 5dbc 97bc 443d 86b9 70bd f49f b7bd
00000350: 2095 ccbc 9a3d d63d 9dd6 bfbd d687 2d3b
00000360: a6e9 0d3d 8a20 773d dfc1 bd3c 681f d6bc
00000370: 8fb0 723d dd0b 063d 6122 9abd 3e67 bebc
00000380: 68de 1dbc 41b9 73bd 732f 03be d63c cfbd
00000390: 464b 0e3b e2d7 a53d 288c a2bd ef02 b0bc
000003a0: f3e7 7fbd 8091 b6bb d67f 82bd fff2 c7bd
000003b0: 1cba 3fbc 013c b83d 4b9a 773c d6ed da3d
000003c0: 38f3 923c 890f d6bd 6875 f43c e841 123d
000003d0: d637 1fbc 5984 3a3d 1621 c7bd cbcc 21bd
000003e0: d6bd 70bd 1cb2 8fbd f743 72bd cc74 c6bc
000003f0: f7de 9cbd 6b77 413c 02d2 803d 7739 bbbd

network.3.bias f4 [256]
0.038862098 0.0007874395 -0.00065293215 0.004499479 0.05112649 0.059300408 -0.10637941 -0.029312767
-0.07667739 0.026621263 0.033167485 -0.0076195467 0.10995352 0.028189188 0.114307955 0.058791928
-0.019533046 0.021242091 0.042262834 0.025242884 0.14460126 -0.052745823 -0.051231667 0.06774017
-0.087030485 0.06304865 -0.032152597 0.04459451 0.047259472 0.027651802 -0.0014847959 0.090012774
0.09847295 -0.018359646 -0.083184965 -0.036895514 0.03965558 0.02330043 -0.01876087 0.018544897
-0.045181707 -0.009589704 -0.0049436763 0.07094913 -0.0824798 -0.035703685 -0.08381798 -0.022444932
0.16363364 -0.030382708 0.073481366 -0.05685087 -0.0881333 0.054260474 0.046399742 -0.060155235
0.021690233 -0.06419922 -0.05142544 -0.10453311 -0.048498355 -0.059846904 -0.04348381 0.0031430353
-0.014971632 0.001996117 0.08446749 0.0056311996 -0.06856176 0.050334726 -0.025483951 0.074875265
0.02179554 -0.011028821 -0.049678355 -0.033423863 0.010146168 0.019506939 -0.059374344 -0.06753055
0.017028118 0.028908966 0.06639365 -0.06825262 0.015777322 -0.08014088 0.06413045 0.07383883
-0.059385493 -0.0071278387 0.05439741 0.024239255 0.070033774 0.06251503 -0.04976712 -0.0174522
0.048150524 0.07244174 0.05857453 0.045065533 0.0075578275 0.06261332 0.061345365 0.048534404
-0.04382745 -0.02782076 -0.011563175 0.07300859 -0.022332164 -0.10734046 0.06729262 0.06195612
0.058105372 0.013582153 -0.092390776 -0.03713928 -0.020576637 -0.024252638 -5.651512e-05 -0.036494404
-0.061912216 0.066702545 -0.037965596 -0.037241995 -0.03543711 -0.02757155 0.028565492 0.06054182
-0.055213522 -0.015683888 0.07072896 -0.08235386 0.033670917 -0.002561619 -0.024353644 0.0511869
-0.041123316 0.07374668 0.012000999 0.025220593 0.07086416 0.0010620954 0.14943516 0.06488984
0.09142397 0.06477021 0.07096183 0.09172812 -0.017432673 0.050931472 0.06907917 -0.03542241
0.027414974 0.15786368 -0.012866826 0.020677295 0.0698318 0.034576975 0.10561311 -0.019266723
-0.06726515 0.03238582 -0.007884973 0.055036284 -0.025777442 0.056809813 -0.06895733 -0.11660164
0.0012132489 -0.015414625 0.00899186 -0.061191708 0.08107603 0.024061713 -0.05942622 0.095578656
-0.13606605 -0.06408459 -0.010059707 -0.06382236 -0.025398454 -0.052349277 -0.07407078 -0.0026847061
0.048460178 0.05740448 -0.072746076 -0.11261623 0.05233537 0.023112271 0.0021744268 0.0028584038
-0.015738863 -0.01772437 0.08072135 -0.0357256 0.06363796 -0.06776657 0.045357887 -0.027517725
0.039275095 -0.03768617 0.025110453 -0.041713227 0.12782419 0.052457303 0.03061327 0.058981422
-0.0061694337 -0.016511727 0.04248519 -0.07409937 -0.029892946 0.039571386 -0.101514846 -0.017951302
0.012878256 -0.073421545 0.10729756 -0.0040056133 -0.0033398028 0.0011899575 -0.08404389 0.03913237
-0.008563675 -0.03592141 0.06668405 -0.00091565296 -0.014374136 0.004146232 -0.009640616 -0.049741894
-0.046488706 0.06769325 -0.020107772 -0.024491202 0.010283334 0.055443995 -0.030202601 0.00013480948
0.056876544 0.07535464 -0.10039284 -0.0212641 -0.06357357 -0.030582394 0.0015189947 0.008591117
-0.049842037 0.08696106 0.11557527 -0.024960106 -0.034247123 0.03489094 -0.04224906 -0.00888316
00000000: dd2d 1f3d 2c6c 4e3a 8929 2bba 5e70 933b
00000010: 036a 513d fce4 723d 73dd d9bd 5421 f0bc
00000020: 0909 9dbd d614 da3c a1da 073d 64ad f9bb
00000030: 502f e13d 03ed e63c 4a1a ea3d cecf 703d
00000040: c403 a0bc e503 ae3c cb1b 2d3d 2aca ce3c
00000050: 5a12 143e 010c 58bd 4cd8 51bd 5cbb 8a3d
00000060: 0a3d b2bd a71f 813d 71b2 03bd bca8 363d
00000070: 2693 413d 0886 e23c 7c9d c2ba 9e58 b83d
00000080: 30ac c93d f866 96bc e15c aabd c01f 17bd
00000090: e46d 223d 8be0 be3c 65b0 99bc 78eb 973c
000000a0: 7410 39bd 221e 1dbc 90fe a1bb c74d 913d
000000b0: 2beb a8bd 073e 12bd c3a8 abbd 6fde b7bc
000000c0: 948f 273e 28e5 f8bc 667d 963d 75dc 68bd
000000d0: 3b7f b4bd 3b40 5e3d a80d 3e3d 5665 76bd
000000e0: b7af b13c e17a 83bd 7ba3 52bd 7515 d6bd
000000f0: 36a6 46bd 0722 75bd 141c 32bd 62fb 4d3b
00000100: 934b 75bc 49d1 023b 4bfd ac3d ed85 b83b
00000110: 1c6a 8cbd c92b 4e3d b8c3 d0bc 3458 993d
00000120: 8f8c b23c 3ab2 34bc 887b 4bbd 76e7 08bd
00000130: 1d3c 263c 04cd 9f3c 8332 73bd 754d 8abd
00000140: 8d7e 8b3c 7fd2 ec3c 65f9 873d 08c8 8bbd
00000150: 713f 813c e720 a4bd d356 833d d038 973d
00000160: 343e 73bd a590 e9bb d2cf 5e3d 6791 c63c
00000170: de6d 8f3d e107 803d 9cd8 4bbd ebf7 8ebc
00000180: 7c39 453d 565c 943d d9eb 6f3d a396 383d
00000190: a7a7 f73b 6a3b 803d 4745 7b3d 03cc 463d
000001a0: 6a84 33bd 5de8 e3bc 7973 3dbc 8785 953d
000001b0: f1f1 b6bc 51d5 dbbd b7d0 893d b3c5 7d3d
000001c0: e6ff 6d3d ae87 5e3c 6037 bdbd 5c1f 18bd
000001d0: 5690 a8bc 78ad c6bc a60a 6db8 287b 15bd
000001e0: aa97 7dbd 589b 883d d081 1bbd 108b 18bd
000001f0: 8126 11bd bbdd e1bc 2e02 ea3c b3fa 773d
00000200: 9327 62bd 7f7b 80bc 58da 903d 24a9 a8bd
00000210: 84ea 093d d6e0 27bb 4b81 c7bc 5ba9 513d
00000220: ec70 28bd 8008 973d d79f 443c 6b9b ce3c
00000230: 3b21 913d 0236 8b3a 8805 193e f7e4 843d
00000240: 7e3c bb3d 3ea6 843d 7054 913d f4db bb3d
00000250: f7ce 8ebc 859d 503d 6179 8d3d 1717 11bd
00000260: 5e95 e03c 04a7 213e 61cf 52bc 6e63 a93c
00000270: fa03 8f3d 96a0 0d3d b04b d83d 3fd5 9dbc
00000280: 50c2 89bd fea6 043d f92f 01bc ba6d 613d
00000290: 372b d3bc 68b1 683d 8039 8dbd d7cc eebd
000002a0: e105 9f3a a08d 7cbc 9852 133c 28a4 7abd
000002b0: 310b a63d 121d c53c e868 73bd bebe c33d
000002c0: e654 0bbe c83e 83bd 78d1 24bc 4cb5 82bd
000002d0: 6b10 d0bc 326c 56bd 6cb2 97bd e5f1 2fbb
000002e0: 2e7e 463d f620 6b3d e5fb 94bd 57a3 e6bd
000002f0: 9d5d 563d f255 bd3c d480 0e3b 0f54 3b3b
00000300: caee 80bc b332 91bc 3c51 a53d 0255 12bd
00000310: 9e54 823d 33c9 8abd 31c9 393d da6c e1bc
00000320: ecde 203d d05c 1abd 70b4 cd3c 7ddb 2abd
00000330: 58e4 023e 78dd 563d aec8 fa3c 8196 713d
00000340: f628 cabb 9a43 87bc f304 2e3d 69c1 97bd
00000350: 0de2 f4bc 9b15 223d 04e7 cfbd 9c0e 93bc
00000360: 52ff 523c 095e 96bd d3be db3d 8541 83bb
00000370: 98e0 5abb 59f8 9b3a 341f acbd 4449 203d
00000380: a84e 0cbc 5422 13bd a691 883d 6e08 70ba
00000390: 7f81 6bbc 1ddd 873b adf3 1dbc 28be 4bbd
000003a0: f16a 3ebd c2a2 8a3d 0eb9 a4bc c6a1 c8bc
000003b0: 6e7b 283c 3e19 633d 726b f7bc a55b 0d39
000003c0: 61f7 683d 8953 9a3d c39a cdbd 0d32 aebc
000003d0: dc32 82bd ee87 fabc 0119 c73a c2c1 0c3c
000003e0: 2a27 4cbd a418 b23d bab2 ec3d 2379 ccbc
000003f0: b646 0cbd cde9 0e3d 5a0d 2dbd ac8a 11bc

network.5.weight f4 [256]
1.0190047 0.970613 0.995075 0.9910093 0.9689316 1.0123371 0.98348665 0.99131364
0.9938197 1.049347 1.011486 0.99321055 1.0192736 1.0134656 0.9730134 1.0046284
0.98793024 0.9732006 1.0148511 1.020263 1.001225 0.9860285 1.0426809 0.99787205
0.9691291 1.0244488 0.97182316 0.99801314 1.0196888 0.9726869 1.0433323 0.9861009
1.0189974 0.98586994 1.0079409 0.9930409 1.0003043 0.98308426 0.9692362 1.0094537
1.0231643 1.0062485 1.0518723 1.0056036 1.0096215 1.006949 0.99686056 0.9980771
1.0049995 1.027584 0.96748704 1.0215933 1.0250825 1.0046103 0.99234176 0.9899726
1.0219734 1.0306901 0.9975296 0.9576231 1.0303202 1.018829 1.015234 0.9864429
1.0240601 1.006257 1.0309099 0.9744159 1.0068312 0.9969423 0.9794316 0.98844767
1.010656 1.0389643 0.98672354 1.0110319 0.9610166 1.0163019 0.98897094 1.0189787
1.0232131 1.0117874 1.0103356 0.9785845 0.9926172 1.015245 1.0235517 0.968019
0.93744695 1.0105609 1.0303131 1.0159439 1.0101968 1.0184928 0.9920467 0.9941695
0.98561466 1.0339882 0.9835753 0.96228397 1.0138785 0.9825769 1.0093273 0.9750831
0.9923404 1.0332075 0.9792004 0.986694 1.0013517 0.96371484 1.003387 1.0262278
0.9637877 0.9870915 1.0454288 1.0413944 1.0145665 1.0179969 0.98754394 0.98731434
0.942432 1.0448548 0.9781646 1.0470357 0.95620894 0.99904317 1.0138409 1.0071038
1.009779 0.95823896 0.97201616 0.98660934 1.0082937 1.0310231 1.0445381 1.035529
0.999402 0.95110583 0.9981657 0.9738423 1.0126013 1.0082772 0.9636849 1.023514
1.0265118 0.9986248 0.98513484 0.991563 1.0313334 0.99502796 1.0169054 0.9915179
1.0316001 0.980997 0.99432456 1.0105473 1.0120143 0.989679 1.001592 1.039058
1.0052549 1.0049108 1.0059804 0.99433154 0.9932476 0.97618216 1.0018921 1.0186868
1.042723 1.010408 1.0123357 0.9576623 0.9838773 1.001736 1.0264292 0.98537976
1.0068426 1.0175755 1.0179446 0.99614114 1.0028313 1.007901 0.9991633 1.0050474
0.9834775 1.0257792 0.95765483 0.99489266 0.99580425 0.9971144 0.9911216 0.9412118
0.9742235 0.9924071 0.97058773 1.0145355 1.0211338 1.0187767 0.97131234 0.99826753
0.99154776 0.96009487 0.98590535 0.9518843 0.99285185 1.0503244 1.0031736 0.9390357
0.96358776 1.0043681 1.0000205 0.9939538 0.979839 0.99370474 1.0148729 1.0100949
0.97736055 0.9687758 1.0029696 1.0254043 1.0151284 1.0279331 1.0427771 1.0144651
0.99330807 1.0084391 1.0067308 0.99326605 0.9972241 0.97800297 1.0189306 1.0486629
0.96105593 0.9894155 1.0168391 0.9940791 0.98947364 1.0364566 0.9689708 0.9811852
0.9846145 1.0317607 0.971032 0.99549854 1.0036594 0.9549855 1.0350357 1.0049071
1.0113564 1.0084834 1.0060643 1.0029685 0.9995942 1.0036472 1.0064069 1.0299765
00000000: bf6e 823f 187a 783f 3cbd 7e3f c9b2 7d3f
00000010: e70b 783f 4394 813f c8c5 7b3f bbc6 7d3f
00000020: f86a 7e3f 0151 863f 6078 813f 0c43 7e3f
00000030: 8f77 823f 3eb9 813f 6817 793f aa97 803f
00000040: ffe8 7c3f ad23 793f a4e6 813f fa97 823f
00000050: 2428 803f 5d6c 7c3f 9176 853f 8b74 7f3f
00000060: d818 783f 2321 833f 67c9 783f ca7d 7f3f
00000070: 2a85 823f 0202 793f ea8b 853f 1c71 7c3f
00000080: 826e 823f f961 7c3f 3504 813f ee37 7e3f
00000090: f909 803f 69ab 7b3f dd1f 783f c735 813f
000000a0: 0cf7 823f c0cc 803f c0a3 863f 9eb7 803f
000000b0: 473b 813f b4e3 803f 4132 7f3f fb81 7f3f
000000c0: d3a3 803f df87 833f 3bad 773f 92c3 823f
000000d0: e735 833f 1297 803f 1c0a 7e3f d86e 7d3f
000000e0: 06d0 823f a7ed 833f 1a5e 7f3f ca26 753f
000000f0: 88e1 833f fd68 823f 30f3 813f 8687 7c3f
00000100: 6714 833f 08cd 803f dbf4 833f 5273 793f
00000110: d8df 803f 9c37 7f3f 08bc 7a3f e80a 7d3f
00000120: 2d5d 813f c8fc 843f ea99 7c3f 7e69 813f
00000130: 2f05 763f 2e16 823f 332d 7d3f e56d 823f
00000140: a6f8 823f 4082 813f ad52 813f 8484 7a3f
00000150: 291c 7e3f 8cf3 813f be03 833f 18d0 773f
00000160: 86fc 6f3f 0f5a 813f 4de1 833f 730a 823f
00000170: 214e 813f f95d 823f c6f6 7d3f e481 7e3f
00000180: 3e51 7c3f ba59 843f 97cb 7b3f 3e58 763f
00000190: c5c6 813f 298a 7b3f a331 813f 0c9f 793f
000001a0: 050a 7e3f 2540 843f e1ac 7a3f fa97 7c3f
000001b0: 4b2c 803f 04b6 763f fc6e 803f 6f5b 833f
000001c0: caba 763f 07b2 7c3f 9cd0 853f 694c 853f
000001d0: 51dd 813f b94d 823f aecf 7c3f a2c0 7c3f
000001e0: 3943 713f cdbd 853f ff68 7a3f 4405 863f
000001f0: 1cca 743f 4bc1 7f3f 8ac5 813f c7e8 803f
00000200: 7040 813f 264f 753f 0dd6 783f 6e92 7c3f
00000210: c50f 813f 91f8 833f 6db3 853f 378c 843f
00000220: cfd8 7f3f ac7b 733f ca87 7f3f bb4d 793f
00000230: eb9c 813f 3a0f 813f 0eb4 763f 8202 833f
00000240: bd64 833f e0a5 7f3f cc31 7c3f 13d7 7d3f
00000250: bc02 843f 27ba 7e3f f529 823f 1ed4 7d3f
00000260: 790b 843f 9f22 7b3f 0e8c 7e3f 9d59 813f
00000270: af89 813f 9a5b 7d3f 2b34 803f daff 843f
00000280: 31ac 803f eba0 803f f7c3 803f 838c 7e3f
00000290: 7a45 7e3f 13e7 793f 003e 803f 5464 823f
000002a0: f277 853f 0d55 813f 3794 813f 5b29 753f
000002b0: 62df 7b3f e338 803f 0862 833f d941 7c3f
000002c0: 38e0 803f ea3f 823f 024c 823f 1b03 7f3f
000002d0: c75c 803f e602 813f 2bc9 7f3f 65a5 803f
000002e0: 2ec5 7b3f bc4c 833f de28 753f 49b1 7e3f
000002f0: 07ed 7e3f e442 7f3f 25ba 7d3f 42f3 703f
00000300: b666 793f 640e 7e3f 7078 783f 4ddc 813f
00000310: 83b4 823f 4667 823f eda7 783f 768e 7f3f
00000320: 13d6 7d3f c7c8 753f 4b64 7c3f b1ae 733f
00000330: 8a2b 7e3f 0871 863f fe67 803f a564 703f
00000340: b0ad 763f 228f 803f ac00 803f c273 7e3f
00000350: bbd6 7a3f 6f63 7e3f 5be7 813f ca4a 813f
00000360: 4d34 7a3f b101 783f 4f61 803f 7340 833f
00000370: baef 813f 5093 833f b879 853f fed9 813f
00000380: 7049 7e3f 8814 813f 8edc 803f af46 7e3f
00000390: 144a 7f3f 675e 7a3f 516c 823f 963a 863f
000003a0: c307 763f 564a 7d3f c927 823f f87b 7e3f
000003b0: 254e 7d3f 9caa 843f 780e 783f f42e 7b3f
000003c0: b20f 7c3f bc10 843f 8e95 783f fed8 7e3f
000003d0: e977 803f ee79 743f 0d7c 843f cca0 803f
000003e0: 2074 813f fc15 813f b7c6 803f 4661 803f
000003f0: 68e5 7f3f 8377 803f f1d1 803f 45d6 833f

network.5.bias f4 [256]
-0.059133794 0.0049565267 0.04305934 0.062227115 0.1325196 -0.11025391 0.03695735 0.113568954
-0.009022506 -0.0018869527 0.045549378 0.068098515 -0.050424334 -0.01605493 0.057608943 -0.080083616
0.06960842 -0.048731267 -0.07939375 0.08161847 0.11748974 -0.04503609 -0.024813436 0.0071201916
0.026353206 -0.024065062 0.095839344 0.08205983 -0.0823213 0.034542233 0.052082796 0.058930635
0.08944284 0.0064371573 -0.14221174 -0.005283711 -0.04848209 0.048659347 0.0865105 -0.039054323
-0.13217157 -0.0042273435 -0.13279061 -0.02868416 -0.0936913 -0.14587422 -0.06882206 -0.10442509
0.18990938 0.07876972 0.11283218 -0.0872444 -0.0077981683 -0.08156987 -0.031448796 -0.14373972
-0.050747942 -0.08173169 0.08281102 -0.0063648834 -0.034961693 -0.12748998 -0.033538386 0.094393834
-0.006349977 0.022308696 -0.04909058 0.041699715 -0.074800886 0.07703048 -0.015096186 0.0728638
0.03762069 -0.070670545 -0.08910431 -0.026571268 0.080322504 -0.006433837 -0.022423819 -0.12283931
0.0992244 -0.012413263 0.07702639 0.0004344349 -0.061966058 0.009123698 0.016048497 -0.0038758775
0.09885179 -0.16919316 -0.031315915 0.018611748 -0.02069322 -0.0659387 -0.038052198 -0.035760175
0.045688037 0.014514915 -0.010890604 0.027895063 0.03883957 0.060833756 0.07152305 -0.008426993
0.071757294 -0.056778543 0.047222443 -0.0017348933 -0.1380429 0.016914396 0.1342218 -0.09067257
0.09442883 -0.12816662 -0.162225 -0.07732955 0.12601551 -0.10921057 -0.074543536 -0.014326228
0.04632536 -0.11343649 0.017863851 -0.12949604 -0.031014767 0.026758503 -0.027540445 0.022927627
0.01685674 0.0151674105 -0.03854387 -0.035254035 0.0023574685 -0.01874905 -0.12364407 -0.01385869
-0.09000797 0.072332315 -0.023071919 -0.040904634 -0.09780299 0.072446674 0.047955498 -0.115228385
-0.011054678 -0.008141136 0.030270105 0.085495085 -0.12751816 0.0038728197 0.031705912 -0.10036126
-0.07214607 0.13170823 0.0062051923 0.0514625 -0.047687322 0.020644905 0.06978939 -0.07748773
-0.18119575 -0.034447197 -0.08763517 -0.052559778 -0.033997886 -0.0151323415 -0.06308963 -0.067500465
-0.056136675 -0.12082318 -0.09302822 0.028803306 0.071018785 0.007313751 -0.04116939 0.07628605
-0.08108786 -0.10122378 -0.039773047 0.021152588 0.105138935 -0.09063215 -0.06495693 -0.07869438
0.049222432 -0.0131508745 0.0074799974 -0.08659621 -0.09458767 0.0089595085 -0.031783726 0.08140628
0.03841741 -0.05763877 -0.023123683 -0.027536398 0.03878228 -0.099611744 -0.07129205 0.06271001
-0.021881593 0.07791293 0.0009325738 0.03860333 -0.01680184 0.097327255 -0.15052648 -0.05547758
-0.016523972 0.021691738 -0.021088582 -0.010382728 -0.03186688 -0.21064006 -0.09081692 -0.027555728
0.054240867 0.044078898 0.044568066 -0.09471882 0.00058153644 -0.06759749 -0.14086328 -0.031056557
-0.1244663 -0.055474617 -0.016008848 -0.089693606 -0.004432498 0.079213016 -0.010107505 0.0049196314
0.03576093 0.007053999 -0.09767537 -0.03607119 -0.09570339 0.039055843 0.043793727 0.069456965
-0.004790486 -0.059186995 -0.029878406 0.06438576 0.01588192 0.0087647075 0.064785615 -0.08678157
-0.026669836 0.04409124 0.03368664 -0.04884172 0.07971822 0.07793498 -0.066643566 -0.055084683
00000000: 4736 72bd 5c6a a23b fe5e 303d dce1 7e3d
00000010: 38b3 073e cdcc e1bd 9760 173d d796 e83d
00000020: 22d3 13bc a053 f7ba fc91 3a3d 3c77 8b3d
00000030: bf89 4ebd a185 83bc 5bf7 6b3d e102 a4bd
00000040: dc8e 8e3d 709a 47bd 3199 a2bd 9627 a73d
00000050: 769e f03d c377 38bd 8c45 cbbc 7f50 e93b
00000060: aee2 d73c 1824 c5bc 6b47 c43d fc0e a83d
00000070: 1298 a8bd 287c 0d3d c554 553d 4061 713d
00000080: cf2d b73d caee d23b f49f 11be fb22 adbb
00000090: 2895 46bd 064f 473d 6b2c b13d 6df7 1fbd
000000a0: fc57 07be 8785 8abb 43fa 07be 0bfb eabc
000000b0: 39e1 bfbd 0d60 15be 95f2 8cbd d2dc d5bd
000000c0: 9b77 423e 0552 a13d 8f14 e73d 31ad b2bd
000000d0: c787 ffbb 1b0e a7bd 74d0 00bd 8130 13be
000000e0: 13dd 4fbd f262 a7bd d398 a93d 8390 d0bb
000000f0: fe33 0fbd bc8c 02be 8c5f 09bd 8e51 c13d
00000100: 7813 d0bb bac0 b63c 3413 49bd 52cd 2a3d
00000110: 3531 99bd 28c2 9d3d fe55 77bc 9e39 953d
00000120: 2718 1a3d b8bb 90bd 527c b6bd fdab d9bc
00000130: 2080 a43d f0d2 d2bb 28b2 b7bc 2d93 fbbd
00000140: 2a36 cb3d 0061 4bbc 03c0 9d3d dec4 e339
00000150: 1fd0 7dbd 907b 153c 2378 833c 6f02 7ebb
00000160: cf72 ca3d f940 2dbe 1e45 00bd aa77 983c
00000170: d484 a9bc df0a 87bd 9fdc 1bbd 4379 12bd
00000180: 6123 3b3d f7cf 6d3c 816e 32bc 3084 e43c
00000190: 3e16 1f3d d12c 793d ad7a 923d 5f11 0abc
000001a0: 7df5 923d 9e90 68bd 526c 413d 5c65 e3ba
000001b0: 1e5b 0dbe 0f90 8a3c 7171 093e 8ab2 b9bd
000001c0: e763 c13d 1c3e 03be 4f1e 26be f55e 9ebd
000001d0: 360a 013e cba9 dfbd 48aa 98bd 8eb8 6abc
000001e0: a9bf 3d3d 6451 e8bd 3657 923c 9c9a 04be
000001f0: ae12 febc a634 db3c 809c e1bc b8d2 bb3c
00000200: 2517 8a3c bb80 783c 2de0 1dbd 8966 10bd
00000210: c27f 1a3b 9c97 99bc 1a39 fdbd 8f0f 63bc
00000220: 1956 b8bd f722 943d 5201 bdbc 9e8b 27bd
00000230: ef4c c8bd ec5e 943d fc6c 443d dcfc ebbd
00000240: ae1e 35bc 6662 05bc 03f9 f73c 0c18 af3d
00000250: 1f94 02be 22cf 7d3b 0fde 013d 348a cdbd
00000260: 52c1 93bd 86de 063e ed54 cb3b 58ca 523d
00000270: c853 43bd 811f a93c bded 8e3d e3b1 9ebd
00000280: 618b 39be 8118 0dbd 117a b3bd ec48 57bd
00000290: 5e41 0bbd a4ed 77bc 2335 81bd af3d 8abd
000002a0: 92ef 65bd 2572 f7bd 9485 bebd e9f4 eb3c
000002b0: 4c72 913d 31a8 ef3b 3ca1 28bd dc3b 9c3d
000002c0: 6411 a6bd 6a4e cfbd 10e9 22bd 3148 ad3c
000002d0: 1553 d73d 599d b9bd 2408 85bd 852a a1bd
000002e0: 769d 493d c476 57bc c41a f53b 5b59 b1bd
000002f0: 2eb7 c1bd e7ca 123c a72f 02bd 56b8 a63d
00000300: 935b 1d3d a216 6cbd e16d bdbc 0394 e1bc
00000310: 2bda 1e3d 3e01 ccbd 9101 92bd 1b6e 803d
00000320: 0741 b3bc d090 9f3d f877 743a 861e 1e3d
00000330: 03a4 89bc 8353 c73d 9d23 1abe 753c 63bd
00000340: 485d 87bc dfb2 b13c f6c1 acbc 511c 2abc
00000350: d886 02bd 07b2 57be 39fe b9bd 8dbc e1bc
00000360: ac2b 5e3d 138c 343d 018d 363d f1fb c1bd
00000370: 4072 183a 8e70 8abd 773e 10be 526a febc
00000380: 30e8 febd 5a39 63bd fd24 83bc 48b1 b7bd
00000390: 7d3e 91bb 6f3a a23d f399 25bc dc34 a13b
000003a0: 0e7a 123d 3c25 e73b 060a c8bd 62bf 13bd
000003b0: 2400 c4bd 05f9 1f3d 0d61 333d 743f 8e3d
000003c0: 82f9 9cbb 106e 72bd 8fc3 f4bc aedc 833d
000003d0: cd1a 823c d999 0f3c 52ae 843d 89ba b1bd
000003e0: b37a dabc 0499 343d 01fb 093d 410e 48bd
000003f0: 4e43 a33d 609c 9f3d 6c7c 88bd 7aa0 61bd
