models/epoch_50/discriminator.pth (torch, 420232 bytes, 7 tensors)

network.0.weight f4 [256, 20]
00000000: 6141 f2bc 1fd2 79bb c434 81bd 5dc3 5d3e
00000010: 7745 413e af6f 1bbe 034e c53d 697e a2bd
00000020: be1b a0bd c2a4 0d3d 1b97 9ebd 3aeb 773e
00000030: b032 cc3c e936 18bd 8384 3fbd 092c f9bd
00000040: 9787 b8bd 58f0 98bd 7331 333a d99c 70be
00000050: 9e6f 153d 5b58 83bd ad1e d23c c298 9cbb
00000060: 1057 183d 8d45 8dbd ffc4 23be 2e88 013e
00000070: e5f5 ab3d 1467 c53c c819 82bd ebeb a9bd
00000080: 8db1 d73d fa67 0f3e 63ab 833d c1e7 dbbd
00000090: b0ff 3f3d 0e26 a83e 05ce 4d3e ffb7 babc
000000a0: e65f c23d 83f9 e73c 7102 0a3d 3cca 9e3b
000000b0: 6f45 283d e148 43bc a613 82bb 0485 2dbc
000000c0: 756b cfbc 9fe5 b3bc e424 3eba 5821 003f
000000d0: e62f 333a b534 e93b 46fe 30bc 7760 00bc
000000e0: 116c a13c d16f b13c 4ef3 e93a 7f11 61be
000000f0: 1aaa e939 2286 ccbc 781e 143d aa42 ecbd
00000100: aec8 1dbd 731d 063e d3ea 823d 7e2d 8b3e
00000110: 94bc d4bd ba17 06bc 57cc 2e3e 0252 503d
00000120: 0b31 9b3c e7db a8bd da85 c83d 4e2a ba37
00000130: d207 323e dff6 18be 3ac3 923e 4bc8 063e
00000140: e51e 8dbc 5111 673d baac 2b3d d421 0dbe
00000150: 3973 ddbd 7013 0fbe a69b 563e 6639 8f3e
00000160: ceae 533e 0591 b0bd 6ddf bfbd 2dc9 70ba
00000170: 3f60 c1bd 53c4 903d 5e7e 3f3e aabf 8abd
00000180: 5def 96bd feef bdbd fdf6 0ebe bab9 b83d
00000190: 03fd 9fbd bc5b 9a3d 6d01 90bc 6bfb 343d
000001a0: 1625 e13d 8ef3 763d 41cc 073d 3243 04be
000001b0: b43d 8cbb a89b e7bd 893c 0ebe 5f9f fcbc
000001c0: cae3 a73e d179 39be 0446 05be 64ca 5e3d
000001d0: a7e4 08bd 191e 3c3e 9bb2 fcbd 242a 15bb
000001e0: c7cb e83d 6263 a13b 091f 30bd 23e1 f73d
000001f0: 030e cc3d c706 e93d c0e6 14be 2da7 8ebb
00000200: 851c 35bc afec 7c3c d093 46bd 85d2 dcbd
00000210: d9f4 92bc be15 9ebd cb58 d53e 508f 583d
00000220: 8ec4 7ebd 0aa1 bfbd f463 2f3e c6a7 5f3e
00000230: 0a3b b0bd 1644 053e f699 98bd 420d 1ebd
00000240: 1143 e4bd 52c0 3a3d 329b 45be 4b99 903d
00000250: b8d9 c0bd 5659 313d fbe2 96bd 9843 8fbd
00000260: d20e ec3d 4c9c 253d b4ee af3d b76c 413e
00000270: def7 d9bd 3a84 a63d b1bd e8bc 69da c73d
00000280: c008 19be e3f5 abbd 8ee9 b6bc a8f5 f13d
00000290: 6121 f8bb 0c73 ff3c f310 833d 68ed 3abe
000002a0: 5706 14be 42ad 0a3e a96a ca3d 01af 24be
000002b0: ff87 b4bd e7c8 84bc 1826 8ebd 8273 f2bd
000002c0: 9cd4 243d b4d8 c3bd 4c6a b6bd 1201 fdbd
000002d0: 0366 eb3d d155 0e3c ee02 b23d 47be 113e
000002e0: d12b df3b 9476 9e3d 4f8a 113f 6a7e d6bc
000002f0: e4ea cc3b 9896 d9bb 3af8 9aba bfcc 5bbc
00000300: 2f27 21bd a5ee 04bc 57be cabc e3c1 2bbd
00000310: c139 81bc a7ba eebc 35cc 08bd 9396 c23d
00000320: 3b6a 9cbc f136 44bd dda2 893d bfc4 6ebd
00000330: d41c 373d 983b 8abd f153 88be e655 4f3e
00000340: 66dd 363e 88bc a13d 5afd 2f3e 1d7e c83d
00000350: 5f03 1fbe 4bdd 92bd ab43 20bd f7cf a53d
00000360: fded 673d a5a2 853d 2c4a ad3d c899 80be
00000370: c250 513d 4c57 663e 7bcf c03d 3cae 8cbd
00000380: 68e3 293e 74e1 2d3e b9ee ecbd 62bf 89bd
00000390: aa43 d9bc af67 023d 7252 abbc c2b3 e4bd
000003a0: 8f81 653d 1e14 a43d 2b2a 9cbc 7184 b1bd
000003b0: e862 e43d f5f1 d83d 7aba 293d b879 27be
000003c0: 622c e2bc 847e 283e 9742 4e3d 3f2f 9dbc
000003d0: 2d7e f93d be78 45bd 74ee 0dbd c4dd a3bb
000003e0: 13f4 9dbd 436c 763c b698 343c 29e0 c83e
000003f0: 00c3 a13d 1eb2 c3bd 63a2 513b f739 27bd
-0.02957219 -0.0038119627 -0.06308892 0.21656556 0.18874155 -0.15179323 0.0963402 -0.07934267
-0.078177914 0.034580953 -0.07743665 0.24210826 0.024926513 -0.03716174 -0.046757232 -0.12166602
-0.09010237 -0.07467717 0.00068356766 -0.23497333 0.0364834 -0.06413337 0.025649393 -0.0047789523
0.037192404 -0.068980314 -0.15993117 0.12649605 0.0839651 0.024097003 -0.06352574 -0.08296951
0.10531912 0.14004508 0.06429174 -0.10737563 0.046874702 0.32841533 0.20098121 -0.022792814
0.094909474 0.028317219 0.033693735 0.0048458856 0.041081842 -0.011919231 -0.0039696274 -0.010590795
-0.025319794 -0.021960078 -0.0007253422 0.5005088 0.00068354455 0.007116879 -0.010802811 -0.007835499
0.01970485 0.021659764 0.0017849 -0.2197933 0.0004456796 -0.024966303 0.03616187 -0.11536153
-0.03852146 0.13097171 0.063924454 0.27183145 -0.10387531 -0.008184368 0.17070137 0.05085946
0.018944284 -0.08245068 0.09791155 2.2192628e-05 0.17385796 -0.14937924 0.2866457 0.13162343
-0.017226646 0.056413 0.04191277 -0.13782436 -0.108129926 -0.13972259 0.20957813 0.2797348
0.20672151 -0.0862141 -0.09368787 -0.0009185251 -0.094421856 0.07068696 0.18700549 -0.06774838
-0.07369874 -0.092742905 -0.13961406 0.090197995 -0.0781193 0.07537028 -0.017578805 0.044185083
0.10993402 0.060290866 0.033153776 -0.12916258 -0.0042798165 -0.11308986 -0.1389028 -0.030837713
0.32790977 -0.18112876 -0.1301499 0.054392233 -0.033421185 0.18370856 -0.12338754 -0.0022760713
0.113669924 0.0049251774 -0.042998347 0.12103488 0.0996361 0.11378246 -0.14541149 -0.004353425
-0.011054163 0.015437289 -0.04848081 -0.10782341 -0.017939018 -0.07718991 0.41669306 0.05287105
-0.062199168 -0.09356888 0.17127973 0.21841344 -0.08605011 0.13014254 -0.07451241 -0.038586862
-0.111456044 0.045593567 -0.19297484 0.07060488 -0.094165266 0.043298088 -0.07367512 -0.06995314
0.11526264 0.04043226 0.08590451 0.18889128 -0.1064298 0.08130689 -0.028410764 0.09758455
-0.14944744 -0.083965085 -0.022328164 0.11814433 -0.0075723385 0.031182788 0.06399717 -0.18254626
-0.14455543 0.13542655 0.09883625 -0.16082384 -0.08815002 -0.016209079 -0.069408596 -0.118384376
0.040241823 -0.09562817 -0.08906993 -0.1235372 0.114940666 0.008687452 0.08691965 0.14232741
0.0068106432 0.07737461 0.5685167 -0.026183326 0.006253587 -0.0066402666 -0.0011823245 -0.0134155145
-0.03934401 -0.008113538 -0.024748964 -0.04193295 -0.01577461 -0.029141737 -0.033397872 0.09501376
-0.019093623 -0.04790396 0.06720517 -0.0582931 0.044705227 -0.06749648 -0.26626542 0.20247611
0.17857894 0.078972876 0.1718649 0.09789679 -0.1552863 -0.071711145 -0.039127033 0.08096307
0.056623448 0.065251626 0.08461413 -0.25117326 0.051102407 0.22494239 0.09414574 -0.0686917
0.16590655 0.16980535 -0.1156897 -0.067259565 -0.026521523 0.03183716 -0.020913336 -0.111670986
0.05603176 0.080116495 -0.019063076 -0.08667839 0.11151677 0.10593025 0.041437604 -0.16355026
-0.027609054 0.16454512 0.050356474 -0.019187568 0.12182269 -0.04821085 -0.034651235 -0.0050008018
-0.07712569 0.01504046 0.011022737 0.3923352 0.078985214 -0.095554575 0.003198766 -0.040826764

network.0.bias f4 [256]
00000000: b54e 823e 757e 8abe 38a0 a8be 4256 efbd
00000010: 463f a6be 65ff 91be 0434 1b3c ac30 98bd
00000020: 39da 813e 164b f1bd 9d98 45be 1fb3 8a3e
00000030: ebdd 96bd 8041 bcbe 547f 57be 0d36 223e
00000040: f8d3 463d 9b3b 67be 718a 4ebe bf3d a1be
00000050: e29b 873e 8675 43be 1217 39be e380 6abe
00000060: 920e 96be 9599 2c3e 26f4 593e adb6 b7bc
00000070: c794 3fbe 5253 b2be 97da 38be b219 21bc
00000080: 4b73 76be d0a4 943e a063 94be fb81 323e
00000090: a94f a1be 07ea a0be 2529 2d3d 083d 87be
000000a0: 066d 6bbe bbe9 873e 915a 9dbe 9c39 05be
000000b0: 41e1 8ebd 0b29 24be cb02 813e 271b 843d
000000c0: bda6 7e3e 3711 653e f9ae 6dbe 1cd0 a2be
000000d0: 2e38 a0bd b980 2cbe d9c7 a6be 8876 21be
000000e0: 355d 6bbd 0264 0f3e 530f 4cbe cb35 0dbe
000000f0: 057d a9be 317f 963c 85bb 93be 36e3 1bbe
00000100: e634 1cbe 5da0 fdbd 2cc2 31bd 6de2 3dbe
00000110: f8d5 393e d724 9fbe 5df3 4fbe 596e fa3d
00000120: 42fb ff3d 5e77 51be 4c0d 8cbe 1b09 35be
00000130: b6fb 0ebe 2af7 87be bb0e a83d 42b4 bf3c
00000140: f228 43be 78a1 85be 3586 4ebe 1569 e4bd
00000150: 7d4e febc 4c69 953e 2578 74be af5d 90be
00000160: cc6e 25be e28d 48bc ee3a a6be 0705 6b3e
00000170: 216d a4be ac01 82be 0314 eabd 3475 09be
00000180: 20d7 683e 893e c13d d7e4 77be b865 8d3e
00000190: f672 473e 9a84 54bd 3c6e 883d 7647 48be
000001a0: 8017 7c3e 3de7 babe 5163 76be 7432 8abe
000001b0: 5949 89be 7274 3cbe 9aa1 00be 37af 66be
000001c0: 305b c9bd 641c c3bd a1c6 81be fd46 aebe
000001d0: 2501 243e 4a14 33be 6774 4dbe 1e33 5a3d
000001e0: 3a7f 60be 4066 973e aa9b 77be 1cbe a1be
000001f0: f3b5 94be 4e77 c43c 8cff 613d a67d 6abe
00000200: 9d62 54be 330f 9bbd f535 dcbd 4333 72bd
00000210: 9167 91be c98c afbe 57f3 51be 7430 1d3d
00000220: 947c 27bc 5ab5 6ebe bb2e 23be 5da7 82be
00000230: 7fbd 44be 81ed 8bbe 5859 acbe 70e4 8ebd
00000240: e12a 68be 5098 4dbd b435 70be 73c1 2fbe
00000250: 5e79 e9bd db1a a4bb c7c9 1cbe dcbe 553e
00000260: 37df 1fbe 9171 78be 06fc 8fbe 1326 7f3e
00000270: 593a 0cbe 1a0b 89be 79f5 223e 0ca6 8abe
00000280: d51d 5fbe 628a f03d 17e4 423e 4e22 8cbe
00000290: 142b 863e 435a acbe 93d4 30bd 34fc 94be
000002a0: 0bea 35be 9995 8bbe 1413 8fbe 9982 f23c
000002b0: 3560 e5bd d8d2 48be fc35 b0be 7cd5 83bd
000002c0: ca64 593c f6ee 98be e365 afbe 9504 353e
000002d0: 86b4 8abd f368 3cbe 0406 5dbe 4d4d 9cbe
000002e0: e61a 433e 9a8a 71be fe76 ecbd 962d 813d
000002f0: 474c a6be f4a8 bfbe 7dad c7be f852 ad3b
00000300: 28b9 b9be 4780 aabe c535 19be 7347 adbe
00000310: 47af a8bd 92f0 e5bd a69d 78be 3f55 b1be
00000320: 5433 a03e f08f a3be 9f68 433e b4be a2be
00000330: 5290 5b3e d522 0ebe c01d b23d 935b f9bb
00000340: 0c5b 5bbb 943c 6c3e 80ac 303e 6a41 26bd
00000350: 4071 ca3c 6e1d acbe 62c6 a4be 01c9 5f3d
00000360: fffb 29bd 5c7b 7c3e d217 77bd fbfc 12be
00000370: ded5 9abe 03a5 91be 5a30 f5bd 78a1 86be
00000380: 364c 5ebe 1bc8 6b3e e71b d5bd c972 52bd
00000390: 70b3 f4bd 8c16 a2bd 2c61 35be 83b9 233e
000003a0: 3b52 87bd 4a43 f43c 20f7 a3bd ae73 0e3d
000003b0: 6154 b9bd 8803 8bbd 4c9f 963e 5411 90bc
000003c0: 44cc 65be 5869 73be 06ad 86bd b9dd b3be
000003d0: df17 923e 30ab 51bd 6926 263e f94c 4f3e
000003e0: 270c 9abe 2b05 53be 2787 c0be 3186 75be
000003f0: 8258 98be bfd5 d43c 6a80 98be 7392 b0be
0.25450674 -0.27049604 -0.32934737 -0.11686374 -0.3247015 -0.28515163 0.009472851 -0.074311584
0.25361803 -0.117819 -0.19296499 0.27089784 -0.07366546 -0.36768723 -0.21044666 0.15840931
0.048541993 -0.22581331 -0.20169999 -0.3149242 0.26486117 -0.190878 -0.18075207 -0.22900729
-0.2930799 0.16855462 0.21284541 -0.022425974 -0.18709098 -0.34829193 -0.18052135 -0.009832786
-0.24067418 0.29031992 -0.28982258 0.17432396 -0.31506088 -0.3142855 0.042275567 -0.2641375
-0.22990808 0.2654551 -0.3073316 -0.13010257 -0.069765575 -0.16031282 0.25197443 0.064504914
0.24868293 0.22369848 -0.23211278 -0.317994 -0.078232154 -0.16845979 -0.32574347 -0.15767872
-0.057461936 0.14002994 -0.1992772 -0.13790052 -0.33103195 0.018371196 -0.28854004 -0.15223393
-0.15254554 -0.123841025 -0.043398067 -0.18543406 0.18148029 -0.31082794 -0.2030768 0.122280784
0.124990955 -0.20455691 -0.27353895 -0.17679255 -0.13963208 -0.2655576 0.082059346 0.023401383
-0.19058588 -0.26099753 -0.20168383 -0.11152855 -0.031043286 0.29181898 -0.23873957 -0.28196475
-0.16155547 -0.012240859 -0.32466835 0.22951137 -0.3211451 -0.253919 -0.11429598 -0.13423616
0.22738314 0.09435756 -0.24208389 0.27616668 0.19477448 -0.05188427 0.066616505 -0.1955851
0.2461834 -0.36504546 -0.24061324 -0.26991618 -0.26813772 -0.18403795 -0.12561646 -0.22527777
-0.09831846 -0.095268995 -0.25346854 -0.34038535 0.16016062 -0.17488208 -0.20063935 0.053271405
-0.21923533 0.29570198 -0.24180475 -0.31590354 -0.29045066 0.02398267 0.05517535 -0.22899494
-0.20740743 -0.075712584 -0.10752479 -0.05913092 -0.28399327 -0.34287098 -0.20502983 0.038376287
-0.010222573 -0.23311368 -0.15935795 -0.25518313 -0.19212912 -0.2732964 -0.33661914 -0.06977165
-0.22672607 -0.050194085 -0.23457986 -0.17163639 -0.11400102 -0.0050080842 -0.15311347 0.20873588
-0.15612493 -0.24262072 -0.28121966 0.24916868 -0.13694133 -0.26766282 0.15913953 -0.2707981
-0.21788724 0.117451444 0.19032322 -0.27369922 0.2620474 -0.33662614 -0.043171477 -0.29098666
-0.17765062 -0.2726257 -0.27944243 0.02960329 -0.11199991 -0.1961168 -0.34416187 -0.06437203
0.013268659 -0.29869813 -0.3425742 0.17677529 -0.06772713 -0.1839941 -0.21584326 -0.30527726
0.1905323 -0.23588029 -0.115461335 0.06307523 -0.3248007 -0.37433589 -0.3899955 0.0052894317
-0.36274076 -0.33300993 -0.14961918 -0.33843574 -0.082365565 -0.11227526 -0.24278888 -0.3463535
0.3128916 -0.31945753 0.19082879 -0.3178612 0.21441773 -0.13880475 0.086970806 -0.0076097935
-0.0033471016 0.23069984 0.17253304 -0.040589727 0.024712205 -0.33616203 -0.32182604 0.05463505
-0.041500088 0.24656433 -0.06032545 -0.14354317 -0.30241293 -0.28446206 -0.11972113 -0.26295066
-0.2170876 0.23025553 -0.104057126 -0.051379 -0.119482875 -0.07914457 -0.1771285 0.15988736
-0.06607481 0.029817242 -0.0800612 0.03477829 -0.09049297 -0.06787783 0.2941841 -0.017586388
-0.22441202 -0.23770654 -0.0657597 -0.35130098 0.28533837 -0.051188648 0.1622559 0.20244206
-0.30087397 -0.2060744 -0.37603113 -0.23976971 -0.29755026 0.025980828 -0.29785472 -0.34486732

network.3.weight f4 [256, 256]
00000000: b81e b1bc dd4d 7abd 4413 b6bd c9b7 503c
00000010: 05ac 213c 4a3c 9dbc af92 f7bc 99c4 1d3c
00000020: 4576 81bd fa49 14bd 5b07 7ebd 178c 0c3c
00000030: e4ba a43c f28e 4dbc 7c6a fbbc 8e43 34bd
00000040: e6a5 18bc 3318 683c 3887 47bd 5620 7f3b
00000050: d82e c0bb 9b3d 3abd e85e 73bd 1898 93bd
00000060: cf1a 8ebc e2b1 23bd c546 a7bc 7701 373d
00000070: be70 76bd 3bab 62bd 6007 9ebc 95e0 7bbc
00000080: 4e5f 8cbc 971c c23c 0c69 b1bb d636 2fbd
00000090: 6f56 c7bc 28e6 f8bb 58a0 3abd c0e0 933c
000000a0: 4e63 43bd 264c 5fbd bf28 88bd c776 4c3d
000000b0: 514a cfbb f2db b53b e5ee dcbc 4b83 e1bb
000000c0: 1af1 d7bc e621 6dbc 7f65 3fbd 9866 923c
000000d0: 83e2 8cbc c721 7cbc fd17 e3bc 88a5 533c
000000e0: 1c50 6cbd 0ad0 3f3c 99d6 37bd b852 88bd
000000f0: 8088 4fbd d695 aabd 2aec 93bd 3bf9 76bd
00000100: 8e2f 12bd 4b3a b03c c80a 67bd 2faa 4ebd
00000110: d0dd 4dbd ba4d 97bd 4d77 36bd 7ee2 93bd
00000120: 2ced e0bb 9b53 9ebc c7da 0b3c 9631 01bc
00000130: 6034 5d3c f54d c5bc 40a4 3a3c e1a4 0e3d
00000140: 9037 0f3c 3df0 8cbd e855 89ba 189a f8bc
00000150: ba3f a9bd 7041 c6bc a8d7 a8bd 27aa a8bd
00000160: c162 eabd 90f0 d73c 249a 85ba 4c64 51bd
00000170: acad 68bc d94a 62bd 29b4 af39 fac2 16bd
00000180: b189 a6bc 89b9 733b 155e 103d 1dc9 00bd
00000190: 8410 d73b bab5 30bd ac57 94bc cc9d 143c
000001a0: 39b7 ac3c 7f03 89bd c962 33bd 7d21 8fbc
000001b0: d637 e53c eae0 2cbd 9f68 1fbd c817 563d
000001c0: 0180 3abd a8d3 66bd 66d5 983c 8b20 cfbc
000001d0: 69c2 623c f7b9 9abd 0593 65bd 3003 6c3d
000001e0: 8204 fb3c 32b0 7e3c a5bd 403d 3eba c7bb
000001f0: 95ca 85bd c2a8 4e3c fcd5 97bd 4f43 a7bd
00000200: 7900 8abc eb56 653c bba1 37bd 93b5 163d
00000210: c3a5 a2bb 47e2 0dbd e296 6bbd 2afe 283c
00000220: cc5f 653c 0c6d 16bd 4536 5bbd 57e3 0a3c
00000230: 6177 1c3b e1a3 20bd ff08 b33c f167 e43a
00000240: d89b 58bd bfaf a3bd a6cd 5f3d 0f8f f93b
00000250: 4873 34bd 8673 7ebd bdaf 063d faf3 5ebd
00000260: 43e8 8bbd b531 963c 0dd8 37bd f768 28bd
00000270: 54f7 11bd ffcb 82bd 4c1e e0bc d9f2 35bc
00000280: c84c 64bc 7a91 49bd 1027 5abd 5fd0 1dbd
00000290: 3d3a 7d3c c859 a8bc 6fe1 f13c cead 52bd
000002a0: 81c3 d43a 6426 573b f303 e6bb 3bfd 4b3d
000002b0: 81b6 01bd 5048 c5bb 9c47 77bc 4069 7e3d
000002c0: 5cb1 99bc cf61 b0bc f070 7ebc b9ae a43c
000002d0: a48f d638 532c 8bbd 4353 f7bb 24af 28bd
000002e0: 4d42 2a3d 31c6 a7bd aebd 343d 5cb5 b53c
000002f0: 9b7e 35bb 47f0 adbd fee0 913c c9f7 4ebc
00000300: 4361 8bbd da8d 3cbd fc80 5bbd d350 52bd
00000310: 9017 b83c 9fb5 16bd 1b38 afbc bea7 23bc
00000320: 9a6e d0bc dcab 84bd f19a dcbc 2c71 68bc
00000330: d782 32bc 286d 36bd 8734 57bd 7d0b 43bd
00000340: edb2 8fb9 b3f1 89bd dd35 53bc e792 563c
00000350: 8a1e 4dbc e40a a1bb 6cf8 cebc 452e 3c3c
00000360: db41 613c 8486 203c ca90 afbc 0ccd 9ebd
00000370: 871a 2cbd 2e17 a3bc 2e78 9fbd 0d01 84bd
00000380: ca3d 583c 5637 9bba 3dd8 dfbc 3bf7 88bd
00000390: 1839 7ebc 03ad e9bc c59d 84bd 2b3f 1dbd
000003a0: 523e fdbc 2064 e7ba 4af9 b0bd 5aae 2b39
000003b0: 53b9 593c 9060 adbd 6271 13bd cbed 10bd
000003c0: 3ea1 df3b 6ad0 52bd 666d b2bb 415c 2bbc
000003d0: 18df ffbc 1b12 fdbb b899 2b3c 6771 a5bb
000003e0: 053b bebd 92f7 8bbd f8d2 8fbd e8fd cebb
000003f0: ec2f a6bd 3629 89bd 01cf 8fbb 5b19 57bc
-0.021621093 -0.061109412 -0.088903934 0.01273913 0.009867673 -0.019193787 -0.030221311 0.009629392
-0.06321386 -0.036203362 -0.062018733 0.008578322 0.020108648 -0.012546288 -0.030690424 -0.044009738
-0.009316897 0.014165926 -0.04871294 0.0038929186 -0.005864959 -0.045468908 -0.05941668 -0.07206744
-0.017346768 -0.039964564 -0.020419488 0.04467913 -0.060166113 -0.05533908 -0.019290626 -0.015373369
-0.017135289 0.023695273 -0.005414134 -0.042776905 -0.024333207 -0.007595796 -0.045563072 0.018051505
-0.047702126 -0.05451598 -0.06648397 0.049917962 -0.006325998 0.005549901 -0.026969383 -0.0068821064
-0.026360083 -0.014473414 -0.046727654 0.017871186 -0.017197853 -0.0153889125 -0.0277214 0.012917884
-0.057693586 0.011707315 -0.04488239 -0.06656402 -0.050667286 -0.0832936 -0.07222779 -0.06029628
-0.035689883 0.021512171 -0.056406766 -0.05045527 -0.050260365 -0.07387872 -0.044547368 -0.07220934
-0.0068642106 -0.019326976 0.008536047 -0.007885357 0.013501257 -0.024085024 0.011391699 0.03482521
0.0087412745 -0.06881759 -0.0010477873 -0.030346915 -0.08264108 -0.024201125 -0.08244258 -0.08235579
-0.11444617 0.026359826 -0.0010193032 -0.05112104 -0.014201563 -0.05524716 0.0003351283 -0.036807038
-0.020329328 0.0037189445 0.035245974 -0.031441797 0.006563248 -0.043142058 -0.018108211 0.009070825
0.021083461 -0.0669012 -0.04379538 -0.017472023 0.027980726 -0.042206682 -0.038918134 0.052268773
-0.04553223 -0.056354195 0.018656444 -0.025284072 0.013840296 -0.07555001 -0.056048412 0.057620227
0.030641798 0.015544938 0.04705586 -0.0060952 -0.0653278 0.012613477 -0.07413861 -0.08167135
-0.016845929 0.013997774 -0.044831973 0.036794256 -0.004963608 -0.034639623 -0.05751694 0.010314504
0.013999891 -0.03672509 -0.053518552 0.008477054 0.0023874866 -0.039218787 0.021854876 0.0017425996
-0.052883 -0.07992505 0.05463948 0.007615931 -0.044055253 -0.06212189 0.03288244 -0.054431893
-0.0683141 0.018334249 -0.044883776 -0.041115727 -0.03563626 -0.063865654 -0.027358197 -0.011105263
-0.013934322 -0.049211003 -0.05325991 -0.038528796 0.01545578 -0.020550624 0.02952644 -0.051435284
0.0016232581 0.003282928 -0.0070195138 0.049802046 -0.03166819 -0.006020583 -0.015092757 0.062112093
-0.01876133 -0.021531014 -0.015529856 0.020102846 0.0001023107 -0.067955635 -0.0075477674 -0.041182652
0.041567136 -0.08192099 0.044126205 0.022181205 -0.002769387 -0.08493095 0.01780748 -0.012632319
-0.068056606 -0.046033718 -0.053589806 -0.05134661 0.022472173 -0.0367943 -0.021389058 -0.009988723
-0.025443364 -0.06478092 -0.02692935 -0.0141871385 -0.010895452 -0.044537693 -0.05254033 -0.047618378
-0.00027408396 -0.067355536 -0.01289126 0.013096548 -0.012519488 -0.0049146283 -0.025264941 0.011485641
0.013748611 0.009797696 -0.021431345 -0.07753953 -0.042017486 -0.019908514 -0.07786594 -0.06445513
0.013198325 -0.0011842053 -0.02732479 -0.066877805 -0.015516542 -0.028524881 -0.06475405 -0.03839032
-0.030913506 -0.0017653741 -0.08641298 0.00016372782 0.013288814 -0.084656835 -0.035996802 -0.035383027
0.0068246415 -0.05146829 -0.00544517 -0.010459007 -0.03123431 -0.0077231056 0.010473661 -0.005048919
-0.09288601 -0.0683433 -0.07022661 -0.006316889 -0.08114609 -0.066973135 -0.0043886905 -0.013128604

network.3.bias f4 [256]
00000000: a847 ed3d a6b6 6cbe b9b9 a2bd a0bf 4dbe
00000010: 2f35 36be 37cb 52be b492 ebbd 8b68 7b3d
00000020: 9a17 00be cb5a 2abe 952f aa3d 2a24 0a3c
00000030: dd87 c73d fffd 033e 7a4a 93bc e33d 26be
00000040: f155 113e 3e27 923d 523c 4fbe 190c 46be
00000050: 3415 12be 6a5f 13be 232b 66be d6d6 4ebe
00000060: c990 6dbe 9cbd 09be f7af 1fbe 59aa 55be
00000070: 03f7 3abe 2174 23be 1657 c63a ef8f 103e
00000080: 34f5 78bd 8027 c6bd d8f0 8e3d 8761 f83d
00000090: 7d3f fa3c 3d39 19be 5bc1 37be 4427 65bd
000000a0: 6e09 d23c 1871 303d cd59 20be b423 20be
000000b0: d932 ce3d 4d8e 46be eb38 3fbe 1a2a 04be
000000c0: 0757 98bd 105a a13c bed3 e53d 98ef d5bb
000000d0: 2128 60be 895d 233d d289 f3bb ea1b 913c
000000e0: 78e6 4dbe 581e 663d f4d2 57bc a203 1dbe
000000f0: 26ea 2ebe 66a8 893d edaa adbd c795 64be
00000100: ba74 893d c0cc 2f3d e0f9 46be 523f 54be
00000110: d4a2 9fbd 6e5e c23a 1772 0bbe 3795 89bd
00000120: 46a2 d53d 7195 a13c b60d 03bd 09a2 37be
00000130: 9fcf 02be 3b95 da3c 54e4 9fbd 4aca 2ebe
00000140: c008 673d fe82 37be 21cb 47bd 7df4 62be
00000150: 0882 ac3d f184 573d c78b 553d ed90 28be
00000160: a76b 55be 0d8b 2abe 70f7 2cbe 78db 2ebe
00000170: 5e5f e1bd fd33 97bd be97 8dbd dd3f 98bd
00000180: bde5 07be 2091 f13d 294e 68be 007f 67be
00000190: 0db8 08be 57ce a5bd a2d4 22be 09eb 783d
000001a0: 426f b9bb fdbb 7fbc 9735 973d 62fc 64be
000001b0: cc5f 71be e2a0 30bc c812 4cbe 2671 ed3b
000001c0: 746f 36be d6b9 94bd 4e7c a1bd 463e 89bd
000001d0: 5041 4e3a 882b 09bd 52c1 b93d 2e2d 98bd
000001e0: a791 bc3d 4486 5fbc d664 64bc 7445 4dbb
000001f0: 1220 2abd 1dca 893d 0884 a6bd 3995 38be
00000200: b4ac 90bd a2fa 4dbc 0a52 963d 99ae 28be
00000210: 0b4d dcbd ac7c 21be 0d45 12be 8d25 13be
00000220: 9821 c63d fb2e 4a3d 6b5f 02be cae3 66ba
00000230: 5390 f9bd d7e1 20be 9117 b63c 7b82 e23d
00000240: b19a dd3c 131a fabd 536f 04be dc12 6dbe
00000250: 2c9a 57be 2da5 b6bc a9ba 393d 0df3 c53d
00000260: f33a 2f3c e086 8f3d 68be e2bd e4bb 44be
00000270: d678 12be fbff 5d3d cf48 f7bd 3f76 0f3d
00000280: 6090 42be 0c30 eebd 11ab ca3d f9e0 a8bd
00000290: e4a5 4e3b 94ec 11be 04ca 3fbe a409 bebd
000002a0: ffef 51be cc0d 1dbe 3e4b c53d e21b 47be
000002b0: 7c68 16be 7be9 22be a91c 59be fe21 4cbe
000002c0: 6f63 383d 4ef6 92bd 4717 4ebe f21b 013d
000002d0: 7776 06be 7676 e93d 4262 1cbe 3673 50be
000002e0: f29b 39be 676c 12be 3f29 a93b 38a1 1cbe
000002f0: 1043 163e 5dc4 0ebe 9a5d d2bd 5be7 cf3d
00000300: 7531 27be 8fd4 c8bd bc61 0ebe 3dbc 11be
00000310: 7480 6fbd bee5 fabd 89d0 c53d 06db 6cbe
00000320: 1f59 c1bd 793c cf3d 2013 7ebe f857 613d
00000330: 94b9 2ebd 80ff ecbc 42b6 8c3d 01ec 963d
00000340: 3b63 f63d d969 02be f56c 40be f60f abbd
00000350: 369c febd 3005 0ebe 1b09 0ebd e7f3 a43d
00000360: 1933 f0bd ccfd 8f3c 3f91 eebd 3fa2 013e
00000370: d314 9abc a654 0ebe aace 98bc 9ce0 0ebe
00000380: 6897 e9bd dfc2 b9bd 1f85 03be 25fa 45be
00000390: 2e7a c8bd 94ef 153d e789 62be 5d0c b6bd
000003a0: 4f9e a7bd 079e a23d 77aa febd 847e 04be
000003b0: 8429 7fbe d8c3 38be 40f7 f53d 3e6e 41be
000003c0: 829b 59be 422c bc3d a26c 19be 117f c33c
000003d0: 7171 4fbe abb7 53be c7b9 a2bd 2518 4dbe
000003e0: 4482 44be 28bb 43be 5343 50bd ae47 70be
000003f0: f7ad 42be 697f 913d e497 c3bd 9a1a b33d
0.11585933 -0.2311655 -0.0794558 -0.2009263 -0.17793725 -0.20585333 -0.11502591 0.061378997
-0.12509003 -0.16636197 0.08309857 0.008431474 0.09742711 0.1288986 -0.01797985 -0.16234545
0.1419294 0.07136391 -0.20237854 -0.19340552 -0.14265901 -0.14391866 -0.22477393 -0.20199141
-0.23199762 -0.13451236 -0.15594469 -0.20865764 -0.1825829 -0.15962268 0.0015132155 0.14117406
-0.06078072 -0.09675503 0.06979531 0.12127977 0.030547852 -0.14963241 -0.17944853 -0.05594565
0.025639262 0.043076605 -0.15659256 -0.1563862 0.10068292 -0.19390221 -0.18674056 -0.12906685
-0.07438474 0.019696265 0.11222027 -0.006528806 -0.21890308 0.039884124 -0.007432201 0.017713506
-0.20107448 0.05618128 -0.013172854 -0.15333417 -0.17081508 0.067215726 -0.08479867 -0.2232276
0.06711717 0.042919874 -0.19431257 -0.2072728 -0.07794729 0.0014829168 -0.1361774 -0.067179136
0.10431342 0.01972458 -0.031995498 -0.17932905 -0.12774514 0.026682487 -0.07807222 -0.17069355
0.05640483 -0.17921063 -0.048777703 -0.22163577 0.08423239 0.052617017 0.052135255 -0.16461535
-0.20841847 -0.16654606 -0.16891265 -0.17075908 -0.11004518 -0.07382963 -0.06913708 -0.07434056
-0.13271232 0.117952585 -0.22686066 -0.2260704 -0.1335146 -0.08095997 -0.15901425 0.060771022
-0.005659015 -0.015608785 0.07383268 -0.22361901 -0.235717 -0.010780545 -0.1992904 0.0072461544
-0.17815953 -0.07262008 -0.07885037 -0.06701331 0.00078680087 -0.03348878 0.09070076 -0.07430492
0.092074685 -0.013642851 -0.013940057 -0.0031321915 -0.04153449 0.06728003 -0.08130652 -0.18025674
-0.070641905 -0.012571963 0.073398665 -0.16472854 -0.10756882 -0.15770215 -0.14284153 -0.14369793
0.09674376 0.04936121 -0.12731712 -0.0008807747 -0.12185731 -0.15711151 0.022228034 0.110600434
0.027051302 -0.122120045 -0.12933092 -0.23151726 -0.21054906 -0.022295559 0.04534403 0.09665499
0.010695207 0.07008147 -0.11071473 -0.192123 -0.14303908 0.0541992 -0.12074434 0.035024878
-0.19000387 -0.11630258 0.098959096 -0.08246035 0.0031531984 -0.14250404 -0.18729407 -0.092791826
-0.20501707 -0.15337294 0.09633492 -0.1944423 -0.14688295 -0.15909378 -0.21202339 -0.19934842
0.045016702 -0.07175885 -0.20126067 0.03152079 -0.13131128 0.11399548 -0.15271857 -0.2035645
-0.18125895 -0.14299165 0.0051623876 -0.15295875 0.1467402 -0.13942094 -0.10271759 0.101515494
-0.1632746 -0.09806167 -0.1390447 -0.14231963 -0.05847211 -0.12250851 0.096589155 -0.23130426
-0.094408266 0.10118956 -0.24811983 0.055015534 -0.04265745 -0.028930426 0.068707004 0.07369233
0.120306455 -0.1273569 -0.18791564 -0.08352654 -0.124321386 -0.13869166 -0.034676652 0.08054333
-0.11728496 0.017577074 -0.11648797 0.12659548 -0.018808758 -0.13899478 -0.018653233 -0.13952869
-0.114058316 -0.09070372 -0.1284375 -0.19333704 -0.09788929 0.036605433 -0.22122918 -0.08889077
-0.08184492 0.079402976 -0.12434857 -0.12938887 -0.2491818 -0.18043458 0.1201005 -0.1888971
-0.21250728 0.09188129 -0.14982846 0.0238643 -0.20258118 -0.20675533 -0.079455905 -0.20028742
-0.19190317 -0.19114363 -0.050845455 -0.23464844 -0.19011675 0.0710438 -0.09550455 0.08745308

network.6.weight f4 [128, 256]
00000000: 6a77 813b d111 e2b9 e053 dc3c 396c 253e
00000010: a44e 773d fffd 9d3d 40c8 febc ea31 46bd
00000020: e23a e83c c8c7 c93d 8bde acbb 37ff 5c3d
00000030: d356 8e3d cbdf f5bb 01fe 6f3c fd43 d63a
00000040: cd7c d4bd 4b41 b4bc bd52 843b 9b88 483d
00000050: 9d9d d43c e4e0 9a3d d92a 383e 8b62 873d
00000060: 6126 2d3d 3b98 1e3d f94e 253d 7bce 243d
00000070: 656d db3c a975 6d3d 1a96 11bd 6fca b1bd
00000080: b740 b8bc 0398 e73c 2176 4dbd 4347 c33c
00000090: 1745 babd 4e68 ba3c 6459 4e3d 62b1 acbc
000000a0: edb5 1f3d 1bac 9fbd 1871 9c3d fcfd 763d
000000b0: 858e 27bd 9f3c 663d 078b 543e 0804 2f3d
000000c0: fdf2 213d bd45 73bd 6810 9e3c 0800 853c
000000d0: d044 5d3e 4c95 1dbd 0aed 8bbd 24c1 2ebd
000000e0: ee1a 203d d9f6 163b 7881 7f3d 2fde b43b
000000f0: 7812 323c 9fd6 813c 3f99 cfbc 4d32 8e3d
00000100: ac4f 7c3b 3222 4b3c c139 8f3d 7bdb d93c
00000110: e0e0 313d 355d cdbc e13e 8bbb 5d83 303d
00000120: a2fc 16bd b312 10bc 5709 b63d e7d5 5b3d
00000130: 6a47 07bd 2465 5fbd f98e 893d e16a 583e
00000140: 2d78 c4bd 447b 453e 3b17 7e3d 72ac 263d
00000150: 9d86 4bbd a842 3bbc c894 0c3d 1be8 acbc
00000160: 7f8f 81bd f1a7 083d ed8e 80bd 8a94 8c3d
00000170: 5c1a 42bd 6900 3c3d c65a 0f3c d4b8 a73c
00000180: f13d eb3a c4cb b53c 6440 0e3e 8e37 483e
00000190: ced5 8b3d ed70 c33c 5b9a 0bbd d005 0bbc
000001a0: e269 a2bc d31a 7a3d 3bd7 913d 0511 263e
000001b0: 7a85 5a3b 510c ec3c baf4 1f3e e938 30bd
000001c0: 4dcf 843c 3fbc 1ebd 3903 323d e47c a83b
000001d0: c815 b4bc dee3 fc3c 0b3d 97bd 7781 9d3c
000001e0: 76c6 ef3b b3a6 90bd c5ab a13d 4530 9bbb
000001f0: d229 09bd 5f7d d83c bb85 e8bb 0580 d73d
00000200: 541e 80bc 6899 b43d e818 973d 9431 8cbd
00000210: 287b 1e3e 31ce 823c 0ea9 a83c 3478 98bb
00000220: 51c6 21bc cfed 073d 5ad4 36bc ae8f 1b3d
00000230: 57e6 c33b 2d74 84bd 0185 e73c 35cc 813d
00000240: 8240 45bd 24a4 783d 33f0 9fbc 6eb9 253e
00000250: b28c a0bb 6a80 a8bd edc0 0dbd 41d1 18bc
00000260: 10ba 85bd e80d 64bd adfb 993d 3530 143e
00000270: ac53 0cbc 22f5 d8bc 7be7 2a3a 547e f73c
00000280: 0260 8a3d fe88 ef3c be37 253c 4ad5 713c
00000290: 7b73 a03b 096c bc3c b272 133d 2265 133d
000002a0: eb05 3d3e 65b4 9abb 2f3c 78bd 6b8a 313d
000002b0: 0b76 913d 4de7 153d 261e 1d3c f690 003c
000002c0: fa1b 07bd 2ea9 2f3d c4e7 883c f71f a8bd
000002d0: 8238 4f3d e2c9 16bc 2063 593e 8774 253d
000002e0: 0d33 853d c421 743c bdf0 813c b0b4 c5bd
000002f0: 54a6 233d c2fb ac3d ee3c 2c3d 69f6 85bc
00000300: 8eec a4bc 3d3d d43c f121 353c 109b 183c
00000310: cf97 373d 529a c4bb 5d58 9dbd 79c7 2f3e
00000320: 6cc4 bd3d 46fb 0e3d fae3 c43d 497f 98bc
00000330: b1d5 8a3c f004 a93d 1b79 46bd 5203 f0bc
00000340: 942d d6bd 85ec 08bb 72c6 ed3c af6e 1e3d
00000350: aa62 343d 973d 823d c1c1 a93d ddf7 05bd
00000360: bc66 b63c 01db 10bd ba8f 1c3d 6738 b03c
00000370: ff80 2dbd 020c c1bb 48c6 da3c 6244 c7bb
00000380: 356f 1a3d 4044 9f3d a871 d83d ce1c b23d
00000390: 7271 303d 4ee1 a5bd 6f8f 973d 0eb6 bdb8
000003a0: acc7 333e d3a5 d5bb 56fb 943d f41f e93c
000003b0: aa5a ce3c 978b 79bd 1f48 e0bd ec7d aa3c
000003c0: 1499 afbc 2765 75bd 9ee1 3f3d 63e3 b9bc
000003d0: fe0b 9a3d f26a 673c aaf3 99bc d0ab 463e
000003e0: b592 9f3d 79df 5fbc 5e43 5ebc eaa8 a2ba
000003f0: c19c 333e ddb2 7abd 25d2 a03a 3449 56bc
0.003951003 -0.00043119353 0.026895463 0.16154565 0.060377732 0.077144615 -0.031101346 -0.048387446
0.02834839 0.098525584 -0.0052755526 0.05395433 0.06950154 -0.007503485 0.014647962 0.0016347166
-0.10375366 -0.02200379 0.0040381835 0.048958402 0.025954062 0.07562426 0.17985095 0.066105925
0.04227293 0.038719397 0.040358517 0.040235978 0.026785562 0.057973538 -0.03554354 -0.08681189
-0.022491796 0.028270727 -0.050161485 0.023837691 -0.09095209 0.022754814 0.05037822 -0.021080676
0.038991857 -0.077964984 0.076387584 0.060300812 -0.0409074 0.056210157 0.2075616 0.042728454
0.039538372 -0.05939268 0.019294932 0.016235366 0.21608281 -0.03847246 -0.06832321 -0.042664662
0.039088182 0.0023035316 0.06237933 0.0055196504 0.010868661 0.01584941 -0.025341628 0.06943188
0.0038499637 0.0123982895 0.069934376 0.026593914 0.043427348 -0.025068859 -0.004249439 0.043094028
-0.036862023 -0.008793521 0.088885 0.05367079 -0.03302709 -0.054539815 0.06716723 0.21134521
-0.09593234 0.19285303 0.062033873 0.0406918 -0.049688924 -0.011429466 0.034321576 -0.02110677
-0.06326198 0.033363286 -0.06277261 0.06864269 -0.04738842 0.04589883 0.008749669 0.020473875
0.0017947537 0.02219189 0.1389175 0.19552442 0.068278894 0.023857558 -0.03408275 -0.0084852725
-0.01982588 0.061060738 0.0712113 0.1621743 0.0033343718 0.028814467 0.156207 -0.043023024
0.01621213 -0.038753744 0.043460105 0.0051418412 -0.021983042 0.030870374 -0.0738469 0.019226773
0.0073173596 -0.07063045 0.078940906 -0.004735979 -0.03348715 0.02642697 -0.00709602 0.10522465
-0.015639462 0.088183224 0.07377797 -0.06845394 0.15476668 0.01596746 0.020588424 -0.004653001
-0.0098739425 0.033185776 -0.011159027 0.03797882 0.0059783864 -0.06467471 0.028261663 0.063377775
-0.048157223 0.06070341 -0.019523716 0.16184017 -0.0048995847 -0.08227618 -0.034607816 -0.009327234
-0.06529629 -0.055677325 0.075187065 0.14471515 -0.008564871 -0.026484076 0.00065194786 0.030211605
0.06756593 0.029240128 0.010084091 0.014760325 0.004896579 0.023000734 0.035998054 0.03598512
0.18459289 -0.0047212117 -0.06060427 0.043344896 0.07102593 0.03659754 0.0095897075 0.007847061
-0.032985665 0.04288595 0.016712077 -0.08209222 0.050591 -0.009203406 0.2122922 0.040394332
0.06503878 0.0149006285 0.015861863 -0.09653604 0.039953545 0.084464565 0.042050295 -0.01635285
-0.02013233 0.025908107 0.011055456 0.0093143135 0.04482251 -0.0059998417 -0.076828696 0.17165937
0.0926598 0.0349076 0.096137956 -0.018615382 0.0169476 0.08252895 -0.04845534 -0.029298458
-0.10457912 -0.002089293 0.02902529 0.038679775 0.044039406 0.063594036 0.08288909 -0.032707084
0.022265784 -0.03536511 0.038223006 0.02151127 -0.04235935 -0.005891324 0.026705876 -0.00608115
0.03770371 0.077766895 0.10568553 0.086969 0.04307694 -0.08099614 0.07400405 -9.0461326e-05
0.17556638 -0.006520012 0.07274501 0.02845762 0.025189716 -0.06092414 -0.10951256 0.020811997
-0.021435298 -0.05991092 0.046846025 -0.022691434 0.075218186 0.014124619 -0.018792946 0.19401479
0.07791654 -0.01366412 -0.013565866 -0.001240996 0.17540266 -0.061205734 0.0012269659 -0.013078976

network.6.bias f4 [128]
00000000: 24f9 84bd 951f 27bd 369c f8bd f565 fdbc
00000010: 2354 fcba 6285 c73b e2a7 85bd 33b3 68bd
00000020: e396 67bd 607d 1abe d696 3fbc aa6d aabd
00000030: 7280 f3bc 586c 25bc 7614 babc 4210 a3bc
00000040: 66e9 fabb 3cf3 88bc 23b1 dabd eac1 a9bb
00000050: 0f62 05be ef08 17bd ae26 52bc a14e 92bd
00000060: 7560 dc3c 5a8c 55bd e52e e2bd 7cbf a2bd
00000070: c447 b5bc 70ac 01bd 5b84 2ebd 5f46 65bd
00000080: 29e5 48bd ecb0 2ebd 9ec5 b5bc b1b3 563c
00000090: bd5c 45bd da37 3ebc 9f8f 2939 d69f a0bd
000000a0: a4ef b2bd 16d8 16bd a8da d83c 064a 343d
000000b0: 0802 e4bd 9da8 1fbe 539e 6e3b 8a3f 03bc
000000c0: f224 2c3d 275b 45bc b3e7 283d ab67 cb3d
000000d0: 8cc5 f03c 1706 83bb 8eb5 ecbd 841b f5bc
000000e0: 0063 17bc e0cf 05bd cc8e 25bd 7f61 50bd
000000f0: ee17 4bbd dc2f 453c 012f 8cbd 686d d73c
00000100: 02e1 22bd 56e4 2abd eca0 80bd 2e01 afbc
00000110: ed48 73bd 9a2d a7bc 1a33 d2bc 4a77 5abd
00000120: 0897 f4ba 73f0 b8bb 5da9 853a 9d30 5abe
00000130: f0cf 0b3c 37c1 4c3d 32d6 39bc 3616 56bd
00000140: 808d 17bd f536 33bd c00e da3a cd57 c9bd
00000150: 6338 02bd 76ec 40bd 012e 08bc 225f 95bd
00000160: 452e a8bd 226d 0fbe 6fcf 92bc ddb8 3cbc
00000170: 2147 85bd 667f 2e3c 7b20 b7bd 4258 07bd
00000180: 620f 96bd f80b 423d c669 82bc 25a3 3a3d
00000190: 5409 6939 ef6a 813d c0ca 2c3d 1f78 edbd
000001a0: 3a26 6bbd c350 c0bc a670 c6bc 36f4 1fbd
000001b0: 4cd2 2cbd d9ad eebd dfa4 d6bc 381a da3c
000001c0: 3d33 49bd 0899 4abc da66 5abd 85ba a93c
000001d0: 26f8 e5bd e4bf acb9 636e 333b 6416 93bd
000001e0: 70e0 953c 7028 81bb be47 1cbe bfad 70bd
000001f0: 328c c0bd 536e e23d dc1e bcbd 868a a63c
-0.06492832 -0.040801603 -0.1213917 -0.030932406 -0.0019251149 0.0060888985 -0.06526162 -0.056811523
-0.05654038 -0.1508689 -0.011693677 -0.08321698 -0.029724333 -0.010096632 -0.022714835 -0.019905213
-0.007657218 -0.016717546 -0.106783174 -0.005180587 -0.13025688 -0.036873754 -0.012826605 -0.071439035
0.026901463 -0.052135803 -0.11044101 -0.07946679 -0.022128947 -0.03165859 -0.042606693 -0.055975314
-0.04904667 -0.042649195 -0.022188958 0.013104365 -0.048184145 -0.011609996 0.00016170599 -0.07842986
-0.08737114 -0.03682717 0.02647145 0.044015907 -0.111332 -0.15591665 0.0036410287 -0.008010754
0.04202742 -0.012045658 0.04123659 0.099318825 0.029391073 -0.0039985287 -0.11558066 -0.029920347
-0.009239912 -0.03266895 -0.040419385 -0.05087423 -0.049583368 0.012035336 -0.06844903 0.026297286
-0.039765365 -0.041721664 -0.062806934 -0.021362867 -0.05939572 -0.020407487 -0.025659133 -0.05333642
-0.0018660733 -0.005643898 0.0010197569 -0.21307607 0.008533463 0.04998895 -0.011342572 -0.052267276
-0.03700018 -0.043753583 0.0016636476 -0.098312 -0.031792056 -0.047100507 -0.008311749 -0.07293536
-0.0821195 -0.14006475 -0.017921178 -0.011518684 -0.065077074 0.010650491 -0.08941742 -0.033043154
-0.07327153 0.047374696 -0.015919577 0.045565743 0.00022224087 0.06319224 0.042185545 -0.11595177
-0.057409503 -0.02347601 -0.024223637 -0.039051257 -0.042192742 -0.116542526 -0.026201664 0.02662383
-0.04912113 -0.012365587 -0.053320743 0.020718822 -0.11228971 -0.00032949366 0.0027379028 -0.07182005
0.018295497 -0.003941588 -0.15261742 -0.058759447 -0.0940174 0.11056199 -0.091855735 0.020329725

network.9.weight f4 [1, 128]
00000000: e052 8c3e 11df 19be 3ad4 8b3e 524f efbd
00000010: a7fb 803e 673f 5abd 37d1 843e e177 8d3e
00000020: 0cd5 0ebe 745e 38be 2d0b 5cbe b9e5 8f3e
00000030: 50cc 3dbe edce c3bd 531a 9fbd b3ef e0bd
00000040: 4d00 afbd 59df 90bd deff 803e 9f8d c4bd
00000050: bd74 883e 3cdd 8e3e 7e74 4ebd 2fb7 d4bd
00000060: 80a4 b33e 2119 843e c8eb 9a3e f594 863e
00000070: fcc2 e9bd 07ff 9b3e 5a23 9a3e e9b1 8e3e
00000080: cd94 bbbd f4d3 5cbe 99b1 97bd 4fc6 883e
00000090: 0891 983e 54a9 83bd 0519 90bd 7d56 d2bd
000000a0: 3e04 ad3e 74fe 9d3e ee3c b63e b75e 9d3e
000000b0: a538 903e 318c 3ebe 620d b83e eb0e a93e
000000c0: d26a 9abd 1a23 dfbd 8ff5 a73e f9c6 cd3e
000000d0: 3c37 a6bd 76bb eabd d1ef 8a3e 37dc 9a3e
000000e0: 307b 863e e0ff 933e f2f4 9a3e cc46 c93e
000000f0: 9110 06be cdb5 933e 761e 9a3e 3e3e ca3e
00000100: 46ec a53e e98c aa3e 9f77 d0bd 983d b13e
00000110: 0d45 b03e 225c 9f3e 971e 9abd d3bc 903e
00000120: 2d8e 5abd 71d1 923e ab79 94bd d5b2 3fbe
00000130: aa83 ccbd 46d0 ab3e e616 5dbd cce6 893e
00000140: 6883 9c3e 6134 85bd 1659 e6bd d371 b6bd
00000150: 835f 1dbe a6e1 22be ff50 963e 8090 d6bd
00000160: c652 993e b7df 763e f132 b7bd 1820 7ebd
00000170: 49de e4bd 2b1d 44be 8c9a 8f3e a167 d9bd
00000180: d924 8c3e 4409 b23e 6251 99bd a21a a53e
00000190: 5dd9 a63e 43ee a93e 1d55 f03e d53f 8e3e
000001a0: 1847 3bbe 2eb5 d8bd afcb 7f3e 3548 a03e
000001b0: d71f 8d3e 0ab5 6a3e 0d01 e1bd f76d cc3e
000001c0: 8125 1ebe e144 9abd be95 14be c0c0 98bd
000001d0: 527a 893e 3b72 e3bd 64f9 f1bd 80ca 943e
000001e0: 41bd bf3e 57c6 983e 207c 9c3e 35a3 8b3e
000001f0: 5d80 893e 4f6b 763e 3e7f 6e3e eede 7fbd
0.2740698 -0.150265 0.27310354 -0.11685051 0.25191996 -0.05328312 0.25940868 0.27630523
-0.13948458 -0.18004781 -0.21488638 0.28104952 -0.1853497 -0.09560952 -0.07768693 -0.10983219
-0.08544979 -0.0707385 0.2519521 -0.095973246 0.26651564 0.27903163 -0.050404064 -0.10386502
0.3508644 0.25800422 0.30258012 0.2628552 -0.114141434 0.30468008 0.30105096 0.2787011
-0.09159241 -0.21565229 -0.07406921 0.26713797 0.2979815 -0.06428781 -0.07036022 -0.102704026
0.337923 0.30858195 0.3559336 0.30736324 0.28168216 -0.18608166 0.3594771 0.33019194
-0.075399056 -0.10895367 0.32804534 0.40190867 -0.08116004 -0.114615366 0.2713609 0.30246136
0.2626586 0.28906155 0.30265003 0.39311826 -0.13092257 0.2884964 0.30101365 0.39500612
0.32406825 0.3331063 -0.10179066 0.34617305 0.34427682 0.3112498 -0.07525366 0.2826906
-0.053358246 0.28675416 -0.07249769 -0.18720563 -0.099860504 0.33557338 -0.053976916 0.26933897
0.30569005 -0.06504131 -0.112474605 -0.08908429 -0.15368466 -0.1590639 0.2935867 -0.1047678
0.29945964 0.24108778 -0.08945263 -0.062042326 -0.1117521 -0.19151752 0.28047597 -0.10615469
0.27371863 0.34772694 -0.07486226 0.32246882 0.3258771 0.33189592 0.46939936 0.27783075
-0.18288839 -0.10581432 0.24980043 0.3130509 0.27563354 0.22920623 -0.109865285 0.39927647
-0.15443994 -0.07532669 -0.14510247 -0.07458639 0.26851135 -0.11105772 -0.118151456 0.29060745
0.37449077 0.2983882 0.3056345 0.27272955 0.26855746 0.24064372 0.23290727 -0.06246846
