models/epoch_50/generator.pth (torch, 485191 bytes, 20 tensors)

network.0.weight f4 [128, 100]
-0.10253075 0.024021126 0.07804968 -0.025088314 -0.012303452 0.027093595 -0.086447045 -0.061878625
-0.051249642 0.005590995 -0.041249868 -0.0338815 -0.07340471 0.022714192 -0.028358577 -0.0032824525
-0.0748778 -0.068856135 0.032473367 -0.06752218 -0.06935805 -0.03518673 -0.002482925 -0.06576394
0.044294924 -0.01650471 -0.0691909 -0.10005237 -0.008991579 -0.09657025 -0.091226436 -0.023949955
-0.023059037 0.10482319 -0.019514918 -0.038524024 -0.03775962 0.006205419 -0.043516714 -0.07246269
0.06712541 0.05056869 -0.08622981 -0.02453626 -0.00045620755 0.10161909 0.058985192 -0.0048852633
-0.026400134 0.092025 0.010443936 -0.0058385674 -0.025851166 -0.117335595 -0.06557532 0.052014988
-0.029661248 0.05272502 -0.12452082 0.098093204 -0.013174999 -0.04399455 -0.03304252 -0.019141402
-0.06002283 0.057292808 0.08786312 0.07285725 -0.00084041915 0.067732394 -0.13966963 0.0011462031
0.0645666 -0.06010431 0.0076660058 0.12630409 -0.064998776 0.020833625 0.06286192 0.07458391
-0.038693435 0.10481451 -0.05579189 -0.010923277 -0.09236764 0.06532229 -0.004456759 0.09742613
0.0434702 0.026358142 -0.0717924 0.08135793 -0.039252896 -0.0028760072 0.048329074 -0.027602376
0.0015122747 -0.11238446 0.052758954 0.08700492 0.0466555 -0.024115903 -0.05375438 -0.04383822
-0.00080461614 -0.04568732 0.037765823 -0.09245643 0.026289826 0.028286645 0.11466266 -0.093418136
0.030367078 0.07667332 -0.048334647 -0.018864503 -0.07422219 0.062417977 0.031291455 0.0071744025
-0.024107339 -0.07323543 -0.044960644 -0.06807707 0.015691496 0.0021707101 -0.052846167 0.028161312
0.11107042 0.079438716 0.07027475 -0.08018277 0.04930331 0.07996846 -0.014856577 0.066662244
-0.057759546 0.0074991914 0.083502986 -0.015408586 0.042554222 -0.08641229 0.00718705 -0.035355963
0.07808879 -0.111950435 0.013064263 -0.0797086 0.08116872 0.091172054 0.09493699 -0.021998301
0.083069585 -0.029530622 0.070669346 0.062156845 -0.07415224 0.10202139 -0.036478147 0.06196107
-0.03158411 0.0034199944 -0.10256424 -0.018442018 -0.03614568 -0.0694638 0.029101029 -0.037115656
0.05184813 0.05744137 0.11103739 -0.09150843 -0.03752754 0.08170802 0.020309532 0.06687277
0.047138695 -0.0634253 0.07316223 -0.029266402 0.060183994 0.02358384 0.09041276 -0.025047269
-0.05944577 -0.05621694 -0.023924006 0.043858986 -0.07718617 -0.10362516 -0.0647344 0.058465164
-0.084814616 0.06365094 -0.112011045 -0.02623671 -0.0056375493 0.1191932 0.0448921 -0.005617414
0.001606298 0.054205023 -0.015628092 -0.06373683 -0.050596103 -0.005813917 0.049277794 0.06831018
-0.08533119 -0.011276493 -0.043039724 0.03441622 0.08801848 0.09159567 0.018239599 0.04338111
0.02963411 -0.11750949 -0.0010133476 0.005089388 -0.09218528 0.023946324 -0.08795669 0.059531935
0.07625028 -0.096472315 -0.13721761 -0.0816156 0.07808574 0.0014697325 0.053147037 -0.035319153
0.04139672 -0.0012573974 -0.11969868 0.042323776 0.037690572 -0.09334582 -0.087472335 0.0568094
0.077996194 -0.056604713 -0.020526225 -0.084304035 0.0021148005 -0.030518478 -0.11581454 0.10166325
0.0648198 0.00062270585 0.01028162 -0.06335607 -0.038003333 -0.0016295519 0.06738947 0.12550716
00000000: a4fb d1bd f4c7 c43c 83d8 9f3d 0286 cdbc
00000010: 6b94 49bc 63f3 dd3c 260b b1bd 7174 7dbd
00000020: 25eb 51bd aa34 b73b 9ff5 28bd 54c7 0abd
00000030: 3555 96bd 1d13 ba3c 3f50 e8bc 6a1e 57bb
00000040: 8859 99bd 7204 8dbd cb02 053d 1249 8abd
00000050: 980b 8ebd f61f 10bd 92b8 22bb 3faf 86bd
00000060: 986e 353d e334 87bc f5b3 8dbd 42e8 ccbd
00000070: 6a51 13bc a0c6 c5bd edd4 babd b232 c4bc
00000080: 4ee6 bcbc 8aad d63d c0dd 9fbc 5ecb 1dbd
00000090: d5a9 1abd d456 cb3b 953e 32bd 5267 94bd
000000a0: 0c79 893d 1d21 4f3d 4199 b0bd 4400 c9bc
000000b0: 242f efb9 ab1d d03d 759a 713d 8f14 a0bb
000000c0: 1845 d8bc 9a77 bc3d 0b1d 2b3c 7451 bfbb
000000d0: d3c5 d3bc a54d f0bd 5a4c 86bd ab0d 553d
000000e0: 25fc f2bc 31f6 573d c604 ffbd 17e5 c83d
000000f0: f3db 57bc a133 34bd 9857 07bd 6ece 9cbc
00000100: 80da 75bd ddab 6a3d 94f1 b33d 2f36 953d
00000110: 934f 5cba 48b7 8a3d 8e05 0fbe 323c 963a
00000120: 7e3b 843d f02f 76bd 1e33 fb3b dc55 013e
00000130: 141e 85bd 47ab aa3c c0bd 803d 73bf 983d
00000140: 027d 1ebd fda8 d63d 0986 64bd 8bf7 32bc
00000150: 3f2b bdbd b1c7 853d 010a 92bb 5a87 c73d
00000160: cf0d 323d 08ed d73c e507 93bd fd9e a63d
00000170: a5c7 20bd 657b 3cbb b5f4 453d 611e e2bc
00000180: 8537 c63a d329 e6bd c619 583d a32f b23d
00000190: d619 3f3d b78e c5bc 8e2d 5cbd b58f 33bd
000001a0: e0ec 52ba a122 3bbd 56b0 1a3d cc59 bdbd
000001b0: c35d d73c 65b9 e73c 42d4 ea3d 0252 bfbd
000001c0: 61c4 f83c e706 9d3d 8dfa 45bd bb89 9abc
000001d0: ce01 98bd fea9 7f3d 782b 003d 4017 eb3b
000001e0: c17c c5bc 75fc 95bd a728 38bd fe6b 8bbd
000001f0: 748b 803c 7942 0e3b 3975 58bd 8db2 e63c
00000200: e378 e33d c4b0 a23d 35ec 8f3d dd36 a4bd
00000210: 45f2 493d 81c6 a33d 0069 73bc 3786 883d
00000220: 4695 6cbd c7bb f53b 9d03 ab3d 4b74 7cbc
00000230: 564d 2e3d edf8 b0bd 5881 eb3b 6ad1 10bd
00000240: 04ed 9f3d 4546 e5bd 7e0b 563c 433e a3bd
00000250: c93b a63d 6ab8 ba3d 536e c23d c835 b4bc
00000260: 6320 aa3d 34ea f1bc 17bb 903d 2d98 7e3d
00000270: 21dd 97bd 97f0 d03d 1c6a 15bd e4ca 7d3d
00000280: 575e 01bd fc21 603b 330d d2bd b713 97bc
00000290: 7e0d 14bd 0943 8ebd 4865 ee3c 9606 18bd
000002a0: b45e 543d a447 6b3d 9267 e33d c668 bbbd
000002b0: 7ab6 19bd 8956 a73d 2d60 a63c 97f4 883d
000002c0: 8114 413d 20e5 81bd 14d6 953d 18c0 efbc
000002d0: 7e83 763d e632 c13c 532a b93d ee2f cdbc
000002e0: 687d 73bd bc43 66bd 47fc c3bc 7ba5 333d
000002f0: c813 9ebd 6e39 d4bd 7893 84bd 2b79 6f3d
00000300: 49b3 adbd 6d5b 823d 0c66 e5bd 5eee d6bc
00000310: 31bb b8bb 901b f43d c7e0 373d 4912 b8bb
00000320: 6b8a d23a 1606 5e3d 7c06 80bc 7588 82bd
00000330: dc3d 4fbd ac82 bebb 83d7 493d 35e6 8b3d
00000340: 1ec2 aebd 0ac1 38bc 6c4a 30bd 06f8 0c3d
00000350: 0843 b43d 8396 bb3d 366b 953c 64b0 313d
00000360: 3cc3 f23c d1a8 f0bd 4ed2 84ba e2c4 a63b
00000370: a3cb bcbd 152b c43c a322 b4bd c2d7 733d
00000380: 1b29 9c3d 4793 c5bd c682 0cbe 1426 a7bd
00000390: 6beb 9f3d 0aa4 c03a b5b0 593d d1aa 10bd
000003a0: 9b8f 293d 41cf a4ba 9524 f5bd b25b 2d3d
000003b0: 6e61 1a3d 182c bfbd b224 b3bd f9b0 683d
000003c0: 78bc 9f3d 58da 67bd 9d26 a8bc 98a7 acbd
000003d0: 7798 0a3b e301 fabc 2c30 edbd d234 d03d
000003e0: 3ec0 843d 153d 233a 3d74 283c d4c0 81bd
000003f0: 62a9 1bbd b096 d5ba 7e03 8a3d f384 003e

network.0.bias f4 [128]
-0.11302177 0.11499546 0.07482212 0.006311777 0.057596475 0.022893969 0.09236465 0.09810756
0.024899572 0.016039122 -0.10051566 -0.028329376 0.048360016 0.1148044 0.05638198 0.07823858
-0.08964887 -0.009985895 -0.034364007 0.0640893 -0.0132238725 -0.06436986 0.010633611 -0.11421187
0.028432084 -0.04542526 -0.04188071 -0.041912835 -0.044796813 -0.04163497 0.015871247 -0.081256025
-0.03793438 0.058731798 0.075040966 0.08866157 -0.02796747 -0.050340593 0.11744814 -0.06526164
0.024275493 -0.034598224 -0.09244611 0.01846271 0.015521319 -0.0090283025 0.1062818 -0.021633474
-0.0870752 0.016072964 0.07428624 0.118939884 0.06995307 -0.11311139 0.051118247 0.019154856
-0.027390819 -0.0052016336 0.005281153 0.021305546 0.1059401 -0.06841986 0.014858135 -0.10541338
-0.0067910915 -0.09304223 -0.048929542 0.022817003 -0.09778446 0.019341666 0.0940388 -0.023186246
0.047516853 -0.05660152 0.0324729 -0.039306723 0.01605292 -0.06131963 -0.086051635 -0.06311091
-0.07867995 0.08556986 -0.0045377715 -0.06188727 0.07796146 0.008119526 0.100764476 -0.015755758
-0.0018237478 -0.019765673 -0.04589533 0.01578776 0.06467913 -0.04342206 -0.09031346 0.025112476
-0.027971318 0.02749786 -0.0675183 0.080363326 -0.004183995 0.004708292 -0.040613554 -0.06465213
-0.016272375 0.072210275 -0.07138129 -0.04048221 -0.04587956 -0.12029591 0.0144084785 -0.010903583
-0.060664173 -0.09817361 -0.07476214 0.069196455 -0.06121826 0.018450534 0.056031365 -0.022250054
0.039439302 -0.058907237 -0.1057063 0.04725907 0.12253488 0.12013881 0.03469037 -0.030308917
00000000: f577 e7bd bd82 eb3d 573c 993d 06d3 ce3b
00000010: 48ea 6b3d 228c bb3c ad29 bd3d 9eec c83d
00000020: 30fa cb3c 7a64 833c 28db cdbd 0213 e8bc
00000030: 2715 463d 921e eb3d cbf0 663d 8c3b a03d
00000040: d499 b7bd e19b 23bc 46c1 0cbd 4041 833d
00000050: f1a8 58bc 58d4 83bd 9938 2e3c eae7 e9bd
00000060: 67ea e83c d60f 3abd 1b8b 2bbd cbac 2bbd
00000070: dd7c 37bd 6e89 2abd 6b04 823c 8f69 a6bd
00000080: 1561 1bbd c190 703d 14af 993d 3294 b53d
00000090: 091c e5bc f031 4ebd a788 f03d e5a7 85bd
000000a0: 66dd c63c deb6 0dbd 6354 bdbd 1c3f 973c
000000b0: 214d 7e3c 72eb 13bc 46aa d93d af38 b1bc
000000c0: 7c54 b2bd 73ab 833c 6223 983d c196 f33d
000000d0: 8e43 8f3d f2a6 e7bd 5e61 513d a5ea 9c3c
000000e0: b662 e0bc 7772 aabb 860d ad3b f888 ae3c
000000f0: 20f7 d83d b61f 8cbd 896f 733c f8e2 d7bd
00000100: ce87 debb ed8c bebd 586a 48bd b9ea ba3c
00000110: 3843 c8bd 6a72 9e3c 6a97 c03d 15f1 bdbc
00000120: 08a1 423d ffd6 67bd 4e02 053d 1600 21bd
00000130: 6a81 833c 4b2a 7bbd d73b b0bd 4b40 81bd
00000140: f422 a1bd 403f af3d 96b1 94bb 827d 7dbd
00000150: 42aa 9f3d c307 053c 9b5d ce3d 3812 81bc
00000160: d20a efba 9feb a1bc befc 3bbd 5555 813c
00000170: 7e76 843d 54db 31bd 43f6 b8bd aeb8 cd3c
00000180: 1b24 e5bc 3143 e13c 0947 8abd 8795 a43d
00000190: e519 89bb 0448 9a3b 665a 26bd 5668 84bd
000001a0: a54d 85bc fbe2 933d 5b30 92bd add0 25bd
000001b0: 35ec 3bbd b45d f6bd 8a11 6c3c f1a4 32bc
000001c0: ff7a 78bd 3f0f c9bd e51c 99bd dfb6 8d3d
000001d0: 00c0 7abd 9325 973c 2581 653d bf45 b6bc
000001e0: 1b8b 213d b748 71bd 8b7c d8bd ba92 413d
000001f0: 91f3 fa3d 560b f63d 7d17 0e3d 684a f8bc

network.2.weight f4 [128]
1.009717 0.98094916 0.9800804 1.0318118 0.9480221 1.0520622 1.0438064 1.0187396
0.95899206 1.0180761 0.9792899 0.99582916 0.9601699 1.0187562 1.008915 1.0048336
1.0031378 1.0127755 1.0114751 1.0489391 0.99613625 0.97806364 0.9576707 1.0099784
1.0049795 0.9977943 0.98517644 0.9683764 0.96920025 1.0148878 1.0087489 0.93504244
0.9938159 1.0054325 1.0346493 1.020199 0.9744646 1.032226 0.97415537 0.9803928
0.989229 0.9802226 0.97134674 0.9934908 1.0043489 0.96097726 1.1312973 1.0186167
0.9844905 0.98347026 0.9807954 1.0013555 1.0153692 0.9537328 1.0056685 1.0293852
1.0144491 0.9986922 1.0225875 0.99092066 1.0222577 0.95486516 1.0197723 0.93407583
0.98768616 1.0242547 0.97072786 0.9861999 1.0086813 0.9685506 1.0063561 0.9980632
1.0352799 0.9709483 0.9302109 0.9613903 0.9728112 1.007442 0.9953469 1.0060197
0.95823985 1.0283796 0.9765068 0.9868894 1.0043643 0.99149245 1.0041882 0.97061455
0.99877965 1.0539963 0.9854398 1.008404 1.0164926 0.99076605 0.9717974 0.9773172
0.96204686 1.0664217 1.0309105 0.9795092 0.989191 1.0564116 0.96349764 0.9960696
0.9357148 1.0437376 0.9674346 1.0544089 1.0399349 1.068212 0.9979654 1.0044106
0.95054543 0.9716578 1.0404611 1.0319797 1.0080533 0.96768636 0.98000747 1.0280104
1.0118505 0.9781404 1.0316882 1.0497214 1.0335346 0.9967575 1.0027887 1.0379035
00000000: 683e 813f 7c1f 7b3f 8de6 7a3f 6912 843f
00000010: 94b1 723f f9a9 863f 739b 853f 0f66 823f
00000020: 8180 753f 5150 823f beb2 7a3f a9ee 7e3f
00000030: b2cd 753f 9a66 823f 2024 813f 639e 803f
00000040: d266 803f a1a2 813f 0478 813f a343 863f
00000050: c902 7f3f 6162 7a3f e829 753f f946 813f
00000060: 2ba3 803f 726f 7f3f 8634 7c3f 84e7 773f
00000070: 821d 783f d8e7 813f af1e 813f f15e 6f3f
00000080: b86a 7e3f 03b2 803f 636f 843f e195 823f
00000090: 8376 793f fb1f 843f 3f62 793f 06fb 7a3f
000000a0: 1d3e 7d3f deef 7a3f 2eaa 783f 6a55 7e3f
000000b0: 818e 803f 9b02 763f 5ace 903f 0862 823f
000000c0: 9207 7c3f b5c4 7b3f 6815 7b3f 6b2c 803f
000000d0: 9ef7 813f d527 743f bfb9 803f e5c2 833f
000000e0: 78d9 813f 4baa 7f3f 26e4 823f faac 7d3f
000000f0: 57d9 823f 0b72 743f e687 823f 981f 6f3f
00000100: 00d9 7c3f c71a 833f 9f81 783f 9977 7c3f
00000110: 781c 813f eff2 773f 47d0 803f 1281 7f3f
00000120: 0d84 843f 1190 783f 4d22 6e3f ad1d 763f
00000130: 280a 793f dcf3 803f 0ecf 7e3f 41c5 803f
00000140: 354f 753f f1a1 833f 5afc 793f c9a4 7c3f
00000150: 028f 803f 73d2 7d3f 3d89 803f 327a 783f
00000160: 06b0 7f3f 5ae9 863f c845 7c3f 6213 813f
00000170: 6e1c 823f d8a2 7d3f b7c7 783f 7631 7a3f
00000180: b448 763f 8280 883f e0f4 833f 1dc1 7a3f
00000190: 9f3b 7d3f 7f38 873f c8a7 763f 6bfe 7e3f
000001a0: 018b 6f3f 3299 853f cba9 773f dff6 863f
000001b0: 961c 853f 2cbb 883f a97a 7f3f 8790 803f
000001c0: f256 733f 91be 783f d42d 853f e917 843f
000001d0: e407 813f 4bba 773f c5e1 7a3f d895 833f
000001e0: 5184 813f 6967 7a3f 5c0e 843f 455d 863f
000001f0: dd4a 843f 802b 7f3f 615b 803f 06da 843f

network.2.bias f4 [128]
0.0051514334 0.043199606 -0.025249379 0.021236753 -0.018950379 -0.13697895 -0.08357962 0.080404274
0.050686922 -0.018849883 0.0013630871 -0.042244386 0.0073788413 0.0785038 0.12277913 -0.0030981072
-0.01865054 0.016059874 0.09439351 -0.13274752 -0.0867972 -0.0077155363 -0.07193705 -0.00881461
0.07090477 -0.042479474 0.03641493 0.022022137 -0.02987205 -0.048699114 -0.08547718 0.031784292
-0.026528852 -0.023605336 0.07657151 0.017423078 0.073549874 -0.06779494 0.041253354 0.02097005
-0.13118848 0.076361716 -0.058402296 -0.008682747 -0.07344076 -0.07170061 0.24879058 -0.032521274
-0.051894266 -0.01671873 -0.04926565 -0.029892638 -0.110888205 -0.035733003 -0.054870408 0.102955386
-0.044737563 -0.052751023 -0.008530199 -0.08663772 0.022956377 -0.044236187 0.07494247 -0.0018274828
0.0383251 -0.08705592 0.058332674 -0.08934219 -0.019524634 0.017477848 0.10988747 0.13785861
-0.04185457 0.035844844 0.073759906 0.018831022 -0.04658926 -0.04844991 0.041239712 -0.12944755
-0.03069075 -0.021014962 0.084193595 0.023448005 -0.081391424 0.0037702883 0.0075573293 -0.018818477
-0.017849183 -0.058605798 -0.08022895 -0.030885966 0.11717211 -0.070153154 0.06206634 -0.013502768
0.008486761 0.09856583 -0.113709204 -0.074827984 -0.08272189 -0.13449216 -0.0036613883 -0.08474628
0.013264038 0.112082824 0.028629217 -0.11771302 -0.11937926 -0.08455594 0.008124501 0.04944301
0.04520431 -0.07022934 -0.05255279 -0.06227567 0.029183453 0.011987842 0.05780749 -0.03860502
-0.021530882 0.09043708 -0.07544979 -0.050670836 0.11148375 0.009812168 -0.05180503 -0.0845742
00000000: 5bcd a83b 12f2 303d c9d7 cebc b3f8 ad3c
00000010: d33d 9bbc 3644 0cbe cb2b abbd ffaa a43d
00000020: 179d 4f3d 126b 9abc 9da9 b23a 7308 2dbd
00000030: 35ca f13b 9ac6 a03d a073 fb3d 9d09 4bbb
00000040: 04c9 98bc ff8f 833c 6251 c13d f7ee 07be
00000050: bbc2 b1bd 9cd2 fcbb bb53 93bd 276b 10bc
00000060: 8536 913d f5fe 2dbd d227 153d c567 b43c
00000070: 3bb6 f4bc b978 47bd a90e afbd 3f30 023d
00000080: 0953 d9bc fa5f c1bc 86d1 9c3d d8ba 8e3c
00000090: 51a1 963d 13d8 8abd 47f9 283d 62c9 ab3c
000000a0: 4656 06be 8863 9c3d 3f37 6fbd 1542 0ebc
000000b0: 1c68 96bd c5d7 92bd f5c2 7e3e 0735 05bd
000000c0: 158f 54bd b8f5 88bc c7ca 49bd 68e1 f4bc
000000d0: 5b19 e3bd c55c 12bd cbbf 60bd 46da d23d
000000e0: bc3e 37bd 7511 58bd 3fc2 0bbc 1e6f b1bd
000000f0: 030f bc3c 0131 35bd 707b 993d 2688 efba
00000100: c8fa 1c3d 604a b2bd 3eee 6e3d 0af9 b6bd
00000110: 20f2 9fbc b42d 8f3c af0c e13d cf2a 0d3e
00000120: b36f 2bbd 0bd2 123d 6f0f 973d 8443 9a3c
00000130: 61d4 3ebd 6a73 46bd f9ea 283d e68d 04be
00000140: 2b6b fbbc 9227 acbc b16d ac3d 0816 c03c
00000150: 8cb0 a6bd f116 773b 79a3 f73b 3529 9abc
00000160: 7338 92bc a20c 70bd 134f a4bd 9104 fdbc
00000170: eef7 ef3d 75ac 8fbd 4639 7e3d b73a 5dbc
00000180: 0e0c 0b3c e2dc c93d 5fe0 e8bd 6a3f 99bd
00000190: 186a a9bd 50b8 09be e7f3 6fbb 758f adbd
000001a0: 6851 593c ae8b e53d d287 ea3c 8613 f1bd
000001b0: 1d7d f4bd aa2b adbd a11c 053c c184 4a3d
000001c0: 2828 393d 66d4 8fbd 9841 57bd c614 7fbd
000001d0: 2312 ef3c a768 443c 8cc7 6c3d 4c20 1ebd
000001e0: 8861 b0bc 1337 b93d 6b85 9abd 398c 4fbd
000001f0: 9851 e43d 37c3 203c 8331 54bd 3d35 adbd

network.2.running_mean f4 [128]
0.13297124 0.27524835 0.2480055 0.19717687 0.24076042 0.21362288 0.2671709 0.25330588
0.19940604 0.1846 0.13764568 0.18205965 0.22417457 0.27404225 0.23785533 0.2702877
0.14571503 0.19561931 0.19631544 0.24681734 0.21361442 0.16051616 0.20684093 0.13189021
0.22390571 0.17686898 0.15124995 0.14852567 0.19304036 0.139577 0.22589579 0.16783935
0.163551 0.23128787 0.22992589 0.23414946 0.1905519 0.14576674 0.2812261 0.149817
0.18140684 0.18597384 0.1353159 0.19244765 0.20105037 0.17766973 0.2687723 0.18339211
0.12695378 0.19952993 0.22704095 0.27244923 0.23555696 0.14505106 0.22872452 0.21055177
0.18689233 0.20034875 0.20092787 0.1916491 0.28251722 0.13773654 0.1985149 0.1546245
0.18221705 0.1352609 0.16208144 0.20381647 0.13594173 0.20578986 0.27182183 0.18119285
0.22793776 0.16518562 0.23792791 0.20230858 0.1900995 0.18540034 0.12572758 0.15849654
0.15439564 0.2425338 0.1943081 0.16004089 0.23530924 0.19866805 0.2319288 0.21684611
0.22912827 0.18856645 0.16190025 0.17092766 0.22772434 0.18317908 0.1465318 0.21068758
0.1810548 0.2169315 0.15289643 0.24816072 0.20592183 0.18931644 0.17792895 0.16587703
0.19682568 0.23991413 0.13995555 0.187335 0.15581408 0.13107818 0.2122393 0.17724085
0.1497807 0.13875242 0.15571749 0.2404706 0.15940584 0.20012939 0.23465076 0.17725042
0.21988668 0.16870332 0.12541883 0.20000853 0.25940475 0.2692431 0.22698668 0.17039484
00000000: 9d29 083e 5aed 8c3e 27f5 7d3e bce8 493e
00000010: e689 763e f5bf 5a3e a0ca 883e 4fb1 813e
00000020: 1931 4c3e c807 3d3e fdf2 0c3e d86d 3a3e
00000030: 058e 653e 444f 8c3e 5990 733e 2663 8a3e
00000040: 5236 153e 6e50 483e ea06 493e afbd 7c3e
00000050: bdbd 5a3e 595e 243e 1cce 533e 3a0e 073e
00000060: 8a47 653e 241d 353e 44e1 1a3e 1d17 183e
00000070: 5fac 453e 46ed 0e3e 3a51 673e 14de 2b3e
00000080: ea79 273e bad6 6c3e b171 6b3e e0c4 6f3e
00000090: 0a20 433e e043 153e defc 8f3e a169 193e
000000a0: b7c2 393e ed6f 3e3e 4090 0a3e ff10 453e
000000b0: 26e0 4d3e 0eef 353e 869c 893e 24cb 3b3e
000000c0: 2c00 023e 9351 4c3e 6c7d 683e 777e 8b3e
000000d0: d835 713e 4488 143e c336 6a3e e29a 573e
000000e0: b460 3f3e 3928 4d3e 09c0 4d3e a93f 443e
000000f0: 19a6 903e cf0a 0d3e 7d47 4b3e e355 1e3e
00000100: 1b97 3a3e d581 0a3e adf8 253e 44b5 503e
00000110: 4f34 0b3e 94ba 523e 3b2c 8b3e 9e8a 393e
00000120: 8468 693e 6b26 293e 60a3 733e fb29 4f3e
00000130: 71a9 423e 96d9 3d3e bbbe 003e eb4c 223e
00000140: e419 1e3e c85a 783e b4f8 463e c2e1 233e
00000150: e8f4 703e a36f 4b3e be7e 6d3e e80c 5e3e
00000160: 9aa0 6a3e 9017 413e 2ec9 253e a907 2f3e
00000170: 9230 693e 4c93 3b3e 6f0c 163e 7cbe 573e
00000180: 6e66 393e 4b23 5e3e e290 1c3e d81d 7e3e
00000190: 2cdd 523e 2bdc 413e 0233 363e abdb 293e
000001a0: ac8c 493e 0dac 753e 8250 0f3e bfd4 3f3e
000001b0: ba8d 1f3e 5c39 063e 4255 593e a07e 353e
000001c0: 1d60 193e 1d15 0e3e 6874 1f3e ed3d 763e
000001d0: 493b 233e b8ee 4c3e 4a48 703e 2281 353e
000001e0: f929 613e 90c0 2c3e cb6d 003e 09cf 4c3e
000001f0: b3d0 843e 3bda 893e 326f 683e fc7b 2e3e

network.2.running_var f4 [128]
0.14372455 0.1866462 0.1764657 0.16234997 0.18501465 0.16765943 0.20011023 0.17542036
0.14848784 0.1342003 0.13270888 0.14625171 0.17198953 0.18799148 0.18104158 0.20632724
0.14917389 0.15865278 0.16941603 0.19756043 0.18637921 0.12947878 0.16606385 0.1300649
0.17135571 0.15929785 0.12756713 0.1185186 0.1725816 0.11647911 0.19720994 0.14860278
0.1480451 0.17447393 0.17654106 0.15962458 0.1512835 0.13944313 0.20180583 0.11732231
0.14038904 0.14302228 0.12479372 0.1610223 0.15552203 0.1517342 0.17429137 0.14428942
0.117052734 0.15991089 0.15656592 0.20505425 0.18588577 0.13669176 0.18660548 0.16414104
0.15900102 0.17868766 0.1483324 0.15152301 0.18699102 0.12203774 0.15018362 0.14725854
0.14956813 0.13112132 0.15589537 0.15774813 0.1320674 0.16550793 0.20258026 0.14589526
0.17917341 0.13747911 0.18562596 0.17515422 0.14681491 0.15872881 0.112577215 0.14631438
0.15096687 0.17668195 0.17174569 0.12827119 0.16818416 0.16060643 0.16322775 0.18472834
0.19565181 0.15196268 0.14564863 0.11352318 0.1543835 0.16245224 0.14105847 0.16698588
0.15188874 0.16998102 0.14185809 0.19145042 0.17777109 0.15550883 0.1537682 0.14368004
0.15102778 0.15037957 0.12171108 0.15144424 0.13454513 0.127475 0.16938107 0.13777265
0.12386505 0.13542192 0.15328512 0.2067158 0.13680092 0.15352406 0.17344 0.16307788
0.16936305 0.157864 0.12556608 0.14594233 0.17307769 0.189551 0.17516021 0.13086988
00000000: 872c 133e 2e20 3f3e 6db3 343e 123f 263e
00000010: 7b74 3d3e eaae 2b3e b2e9 4c3e 65a1 333e
00000020: 320d 183e ce6b 093e d6e4 073e 02c3 153e
00000030: 061e 303e d780 403e f762 393e 7347 533e
00000040: 0ac1 183e e075 223e 657b 2d3e 484d 4a3e
00000050: 31da 3e3e 1696 043e a40c 2a3e bc2f 053e
00000060: df77 2f3e fa1e 233e f5a0 023e e1b9 f23d
00000070: 3bb9 303e 9a8c ee3d 67f1 493e 542b 183e
00000080: 2299 173e 4ba9 323e 2ec7 343e a074 233e
00000090: 10ea 1a3e 2eca 0e3e 30a6 4e3e ae46 f03d
000000a0: 25c2 0f3e 6f74 123e da93 ff3d 08e3 243e
000000b0: 2b41 1f3e 3660 1b3e 7079 323e 9bc0 133e
000000c0: 58b9 ef3d aebf 233e d152 203e bef9 513e
000000d0: d758 3e3e edf8 0b3e 8215 3f3e 9714 283e
000000e0: 2ad1 223e e6f9 363e 73e4 173e d928 1b3e
000000f0: 937a 3f3e ecee f93d bcc9 193e f1ca 163e
00000100: 6328 193e ab44 063e 09a3 1f3e ba88 213e
00000110: ad3c 073e e97a 293e 3371 4f3e 9165 153e
00000120: 3c79 373e 53c7 0c3e bb14 3e3e a15b 333e
00000130: a656 163e ce89 223e e28e e63d 70d3 153e
00000140: 0f97 1a3e 1dec 343e 1ade 2f3e 8659 033e
00000150: 7838 2c3e 0376 243e 2d25 273e 6d29 3d3e
00000160: f358 483e 1b9c 1b3e ea24 153e d77e e83d
00000170: b516 1e3e e159 263e a271 103e 59fe 2a3e
00000180: b988 1b3e 810f 2e3e 3f43 113e 940b 443e
00000190: a009 363e b53d 1f3e 6975 1d3e dc20 133e
000001a0: 07a7 1a3e 1afd 193e a943 f93d 3314 1b3e
000001b0: 33c6 093e ce88 023e 3b72 2d3e 4614 0d3e
000001c0: f6ac fd3d 0bac 0a3e c6f6 1c3e 4fad 533e
000001d0: 8a15 0c3e 6935 1d3e 419a 313e e3fd 263e
000001e0: 826d 2d3e 1aa7 213e 6594 003e e871 153e
000001f0: 473b 313e a819 423e 335d 333e c102 063e

network.3.weight f4 [256, 128]
-0.023686549 0.072321005 -0.017401403 0.02832187 -0.1020189 0.03143848 0.10188591 -0.04191282
-0.012310326 0.07214979 0.051903695 -0.07300371 -0.015365 -0.04649157 0.05287553 0.03154662
0.10206062 0.014932988 -0.033036605 0.041572385 -0.01846003 -0.06778218 -0.080685966 -0.09214352
-0.050428692 0.0097795455 -0.07406819 -0.08283097 0.025766071 -0.003849831 0.05900853 0.05814238
0.0357697 0.03545469 -0.05894605 -0.08326275 0.047542155 0.01294234 0.028676542 -0.07295761
0.0684697 -0.00979176 -0.032146763 0.023339095 0.0752189 0.09178668 -0.04832379 0.0239013
-0.08503573 -0.057631016 0.013330671 0.0119054 0.045070328 0.039675023 -0.052946214 -0.03553869
0.01056467 0.10583444 -0.06225727 -0.03301553 -0.06076589 0.009640487 -0.018662738 -0.0018126057
-0.054636534 0.028586457 -0.014520604 -0.02392216 0.040926907 0.023848232 0.057213575 -0.016166415
-0.025766477 0.0335711 0.029933594 -0.06953558 -0.019464536 -0.013716256 0.025088599 -0.018688781
-0.07572005 -0.037030466 0.009637374 -0.009836549 0.06531506 0.055645652 -0.07712261 -0.026568614
-0.046468616 -0.07178096 0.050012697 0.07375019 -0.036316674 0.046373785 0.034637496 0.0062888563
0.030454338 -0.11889734 0.0640281 0.033547543 0.059651166 0.057034817 -0.003475322 0.07272477
-0.038422674 0.008137996 0.016218645 0.061098635 -0.08515758 -0.070001334 -0.03092573 0.076121904
-0.020752205 -0.0027491357 0.07134742 -0.11250112 -0.03781096 -0.06317218 0.087096885 0.024660852
0.02118551 -0.05367923 0.105379224 0.009925265 0.03433088 -0.075066164 -0.021013668 -0.04130117
-0.01821944 0.00414203 0.074249834 0.058768637 -0.030770652 -0.0037022922 0.03504927 0.09663009
0.07234793 0.11971499 -0.031382732 0.06471974 0.09164575 -0.047108818 0.060266107 0.09758068
-0.026343808 0.055567008 -0.010185805 -0.08110754 0.0035895074 0.040139455 0.0033010915 0.09091211
0.105267875 0.08970346 -0.08549218 0.011501684 -0.11449238 -0.05373007 0.057159286 0.0035778976
-0.003023202 0.005673834 -0.05519543 0.017426794 0.0014492072 0.045713857 0.03502875 0.03664957
-0.055580202 -0.031853195 -0.014237684 0.077265605 0.05965041 0.06644416 -0.058258582 -0.0026268319
-0.048750814 -0.104705624 -0.062225558 0.051143136 -0.011583557 0.06115833 0.032755658 -0.015336165
0.039404288 0.046093855 0.07707468 0.033478808 -0.017302133 0.00041761092 0.049691085 0.08346933
-0.10030784 0.007104709 -0.0041798935 -0.052448146 0.07089603 0.0045345244 -0.02728225 -0.058414094
0.076443166 0.093012236 0.046876177 -0.02557785 0.020133823 0.033178546 -0.00085550733 0.069637276
0.0029481768 0.04243307 -0.02949624 -0.08996966 -0.014471607 0.09548769 -0.093418695 -0.010921177
0.031804956 0.05871851 0.032718047 -0.018394383 0.049679972 0.042510428 -0.074139394 -0.023616739
0.0076508415 -0.055338334 -0.12375346 -0.08934032 0.0025184662 0.08623178 -0.06200376 -0.03479179
-0.07894593 -0.012576811 -0.055085264 -0.088720895 0.0004281461 0.08016777 0.016618859 0.10138556
0.027519038 -0.089890555 0.053368382 0.04264679 0.0028711413 0.057813723 -0.06864473 -0.018806824
-0.032708004 -0.074344866 -0.03808567 -0.015896516 -0.095348515 0.00454929 0.06698987 -0.08043003
00000000: 4b0a c2bc 091d 943d 638d 8ebc 4403 e83c
00000010: 49ef d0bd a3c5 003d 8fa9 d03d c7ac 2bbd
00000020: 40b1 49bc 45c3 933d f898 543d f882 95bd
00000030: 7bbd 7bbc f26d 3ebd 0394 583d 0737 013d
00000040: 2905 d13d 7ea9 743c 6451 07bd ce47 2a3d
00000050: 7d39 97bc 62d1 8abd af3e a5bd beb5 bcbd
00000060: 518e 4ebd 633a 203c 10b1 97bd 49a3 a9bd
00000070: 5e13 d33c 724d 7cbb eeb2 713d b426 6e3d
00000080: 4083 123d f038 113d 6a71 71bd a985 aabd
00000090: 90bb 423d 1c0c 543c 11eb ea3c cd6a 95bd
000000a0: d839 8c3d 9e6d 20bc 53ac 03bd a131 bf3c
000000b0: 5e0c 9a3d a8fa bb3d 2bef 45bd a9cc c33c
000000c0: 3627 aebd 800e 6cbd e368 5a3c de0e 433c
000000d0: aa9b 383d 4782 223d 21de 58bd 0491 11bd
000000e0: 7017 2d3c babf d83d 7b01 7fbd 4b3b 07bd
000000f0: a7e5 78bd 22f3 1d3c 99e2 98bc f494 edba
00000100: 8fca 5fbd 252e ea3c d4e7 6dbc 68f8 c3bc
00000110: f9a2 273d 5e5d c33c c858 6a3d 6e6f 84bc
00000120: 3814 d3bc da81 093d 4c37 f53c ac68 8ebd
00000130: 1774 9fbc 26ba 60bc 9b86 cd3c 3719 99bc
00000140: 1d13 9bbd 42ad 17bd 14e6 1d3c 7a29 21bc
00000150: e7c3 853d b2ec 633d 75f2 9dbd 6ca6 d9bc
00000160: e055 3ebd e501 93bd 1dda 4c3d 570a 973d
00000170: cbc0 14bd 70f2 3d3d 0ce0 0d3d c012 ce3b
00000180: 607b f93c 7380 f3bd 2a21 833d 2669 093d
00000190: c854 743d 579d 693d 3ac2 63bb b9f0 943d
000001a0: 1861 1dbd 3b55 053c f7dc 843c 9042 7a3d
000001b0: 1967 aebd dc5c 8fbd f557 fdbc cde5 9b3d
000001c0: 8700 aabc d82a 34bb 991e 923d fd66 e6bd
000001d0: aadf 1abd 6a60 81bd da5f b23d 8e05 ca3c
000001e0: 3c8d ad3c c1de 5bbd 10d1 d73d 949d 223c
000001f0: 899e 0c3d 4abc 99bd db24 acbc 6a2b 29bd
00000200: ef40 95bc deb9 873b 4c10 983d 62b7 703d
00000210: bc12 fcbc 28a2 72bb d38f 0f3d ffe5 c53d
00000220: 272b 943d 222d f53d 2e8b 00bd c88b 843d
00000230: c4b0 bb3d 2df5 40bd 98d9 763d 61d8 c73d
00000240: f8ce d7bc 3b9a 633d 5de2 26bc b61b a6bd
00000250: f13d 6b3b 4569 243d 2057 583b 2130 ba3d
00000260: af96 d73d 73b6 b73d 8616 afbd 8f71 3c3c
00000270: fb7a eabd 1014 5cbd db1f 6a3d 297b 6a3b
00000280: ea20 46bb 92eb b93b 9a14 62bd a3c2 8e3c
00000290: 53f3 bd3a 743e 3b3d 4e7a 0f3d dc1d 163d
000002a0: 11a8 63bd 7f78 02bd 2d45 69bc 6e3d 9e3d
000002b0: fd53 743d e013 883d 8da0 6ebd ed26 2cbb
000002c0: efae 47bd e76f d6bd 3ae0 7ebd 777b 513d
000002d0: f6c8 3dbc 2881 7a3d cc2a 063d 8a44 7bbc
000002e0: 6466 213d e9cc 3c3d 54d9 9d3d 1321 093d
000002f0: 34bd 8dbc caf2 da39 e188 4b3d f8f1 aa3d
00000300: 326e cdbd 9ece e83b 7df7 88bb ded3 56bd
00000310: f031 913d 5996 943b 067f dfbc 9e43 6fbd
00000320: 3c8e 9c3d 337d be3d 3c01 403d a488 d1bc
00000330: b0ef a43c 3ae6 073d 2044 60ba fd9d 8e3d
00000340: 3336 413b 4cce 2d3d 19a2 f1bc 0342 b8bd
00000350: 521a 6dbc 0d8f c33d 4d52 bfbd bdee 32bc
00000360: ea45 023d d282 703d 5c03 063d d1af 96bc
00000370: 3a7d 4b3d 6a1f 2e3d 65d6 97bd e477 c1bc
00000380: e9b3 fa3b 73aa 62bd 7472 fdbd 0ff8 b6bd
00000390: da0c 253b 4a9a b03d a8f7 7dbd d681 0ebd
000003a0: 67ae a1bd f80e 4ebc 16a1 61bd 4db3 b5bd
000003b0: cc78 e039 002f a43d 4624 883c 3ca3 cf3d
000003c0: 9b6f e13c 8a18 b8bd ce98 5a3d 67ae 2e3d
000003d0: c229 3c3b 15ce 6c3d 9c95 8cbd c510 9abc
000003e0: d4f8 05bd 1f42 98bd b8ff 1bbd 6939 82bc
000003f0: 1546 c3bd 3612 953b fc31 893d 80b8 a4bd

network.3.bias f4 [256]
0.00846363 0.002188599 0.002322702 -0.020939954 0.06347894 0.05649813 -0.112140566 -0.062862515
-0.092404805 -0.011665208 0.009475223 -0.016178733 0.07924723 0.022194484 0.13420641 0.079086415
0.0006665434 0.0072800703 0.04859769 -0.0051886463 0.14815423 -0.07637504 -0.063771695 0.044126965
-0.10430526 0.037135668 -0.02001861 0.008823392 0.04256309 0.048503295 0.014907195 0.10236814
0.10038059 -0.027219038 -0.05687286 -0.024565496 0.044020165 0.019377798 -0.017817227 0.03075004
-0.016832983 -0.008123435 -0.0033339346 0.03788489 -0.101140246 -0.032210294 -0.095540546 -0.058123942
0.18715003 -0.022292553 0.055070054 -0.0593609 -0.08924617 0.040206943 0.043851297 -0.05135487
0.004310537 -0.079607144 -0.04038842 -0.13937052 -0.067389354 -0.0474399 -0.028498124 0.0093419235
-0.01875165 0.023683444 0.08694375 0.016011236 -0.07964368 0.06337754 -0.048828874 0.061155822
0.0106722545 -0.041343447 -0.05315776 -0.04965602 -0.012475317 0.011801854 -0.0618557 -0.083268024
0.009995024 0.023239605 0.0872581 -0.07212324 0.014419877 -0.13706928 0.03783301 0.07758053
-0.07811707 0.009829549 0.04816768 0.011424007 0.023940288 0.046090797 -0.06855749 -0.008721705
0.034803957 0.06769553 0.01744468 0.04120185 -0.015601413 0.051277205 0.075646885 0.036570072
-0.048884187 -0.01776693 0.00091163686 0.038531113 0.0017898638 -0.106005006 0.08059078 0.08269746
0.061827477 0.007241341 -0.07752432 -0.044392064 -0.026210684 -0.027310101 -0.03814213 -0.04797193
-0.061037723 0.02641473 -0.035690725 -0.024347063 -0.039042443 -0.05492553 0.0059213024 0.062444046
-0.051922284 -0.010210575 0.05579446 -0.087560356 0.017526692 0.005579483 -0.019122304 0.040916413
-0.024669541 0.09473681 -0.013248651 0.0061062765 0.10153518 -0.035098877 0.18730587 0.08560795
0.07613531 0.062516235 0.056806482 0.07962559 -0.013822153 0.07125065 0.03391789 -0.061650045
0.023617418 0.18611567 0.024668962 0.03133292 0.067504086 0.017265363 0.1209092 -0.030316649
-0.074545614 -0.0039535863 -0.017776912 0.045368668 -0.034754295 0.032131307 -0.111551 -0.113455206
0.003332244 -0.02207693 -0.011712537 -0.051862385 0.07817182 0.010339649 -0.071112216 0.07662155
-0.13048463 -0.061119977 -0.022682302 -0.08744004 -0.0063702036 -0.062446486 -0.054381147 0.0044604116
0.03427252 0.038863387 -0.076955654 -0.10236241 0.043110553 0.039639704 -0.007624116 0.0054915147
-0.03310394 -0.048369065 0.08880478 -0.07322531 0.038415078 -0.05338105 0.02847508 -0.013736264
-0.015944991 -0.04040131 -0.006416669 -0.034230232 0.13870463 0.04712286 0.034481622 0.05708086
-0.0498218 -0.012655739 0.026914138 -0.058174577 -0.0355474 0.05858592 -0.09977331 -0.05244365
0.03559101 -0.10408962 0.11932796 0.006094093 -0.019525794 0.020924514 -0.08528958 0.07426526
0.0030781082 -0.026082018 0.025815826 -0.02422918 -0.030471535 -0.0020704397 -0.009960085 -0.07687606
-0.043835167 0.069250636 -0.016897468 -0.0444406 0.0064805965 0.015108891 -0.035496168 -0.01439259
0.008257627 0.08687852 -0.1030077 -0.0033940317 -0.07168484 -0.08162266 -0.0049263635 0.035114177
-0.05444953 0.04461987 0.12452543 -0.048812237 -0.06351146 0.0512035 -0.06159651 -0.0067861835
00000000: 0aab 0a3c 996e 0f3b 7938 183b 448a abbc
00000010: 3f01 823d 956a 673d f4a9 e5bd 10be 80bd
00000020: bb3e bdbd 6e1f 3fbc f73d 1b3c 4389 84bc
00000030: 5f4c a23d 35d1 b53c 686d 093e 0ff8 a13d
00000040: f8ba 2e3a a88d ee3b 5f0e 473d 8505 aabb
00000050: beb5 173e 846a 9cbd bc9a 82bd 7abe 343d
00000060: ff9d d5bd 921b 183d 11fe a3bc fd8f 103c
00000070: a256 2e3d 64ab 463d 4f3d 743c 63a6 d13d
00000080: 5794 cd3d 76fa debc 84f3 68bd 943d c9bc
00000090: 7d4e 343d 30be 9e3c 6ff5 91bc 82e7 fb3c
000000a0: 53e5 89bc 2818 05bc 247e 5abb 302d 1b3d
000000b0: 9e22 cfbd f1ee 03bd c3aa c3bd 5f13 6ebd
000000c0: 42a4 3f3e df9e b6bc 2391 613d 6a24 73bd
000000d0: b2c6 b6bd 09b0 243d 6b9d 333d 7c59 52bd
000000e0: 683f 8d3b 1209 a3bd 546e 25bd 25b7 0ebe
000000f0: 6e03 8abd 5750 42bd e674 e9bc de0e 193c
00000100: 0f9d 99bc c803 c23c 910f b23d ff29 833c
00000110: 3a1c a3bd 15cc 813d c900 48bd 877e 7a3d
00000120: aeda 2e3c bf57 29bd f4bb 59bd 1c64 4bbd
00000130: 4665 4cbc 905c 413c 675c 7dbd 6d88 aabd
00000140: 2bc2 233c fc60 be3c 60b4 b23d 59b5 93bd
00000150: 5941 6c3c e45b 0cbe c9f6 1a3d 8ae2 9e3d
00000160: d8fb 9fbd 1e0c 213c 794b 453d c22b 3b3c
00000170: 6c1e c43c b4c9 3c3d df67 8cbd 7be5 0ebc
00000180: 988e 0e3d f4a3 8a3d 25e8 8e3c 45c3 283d
00000190: 129d 7fbc 0c08 523d c1ec 9a3d 80ca 153d
000001a0: c93a 48bd f48b 91bc eafa 6e3a cdd2 1d3d
000001b0: dd99 ea3a 2719 d9bd c70c a53d 495d a93d
000001c0: cf3e 7d3d c548 ed3b 12c5 9ebd 74d4 35bd
000001d0: cab7 d6bc 6fb9 dfbc ec3a 1cbd 377e 44bd
000001e0: b102 7abd b463 d83c 7030 12bd 7e73 c7bc
000001f0: f8ea 1fbd 98f9 60bd 7c07 c23b 54c5 7f3d
00000200: 76ac 54bd 414a 27bc bb88 643d d852 b3bd
00000210: 2394 8f3c 19d4 b63b 61a6 9cbc f897 273d
00000220: c717 cabc 5f05 c23d df10 59bc 2917 c83b
00000230: adf1 cf3d d7c3 0fbd 1ccd 3f3e 3953 af3d
00000240: d4ec 9b3d 8308 803d eaad 683d be12 a33d
00000250: 5076 62bc dceb 913d 7ced 0a3d c284 7cbd
00000260: 5179 c13c 1b95 3e3e 9016 ca3c f356 003d
00000270: 953f 8a3d 1770 8d3c 3e9f f73d 9f5a f8bc
00000280: 5fab 98bd 168d 81bb e3a0 91bc 7fd4 393d
00000290: 855a 0ebd 1e9c 033d da74 e4bd 345b e8bd
000002a0: c761 5a3b aeda b4bc f1e5 3fbc a76d 54bd
000002b0: 8c18 a03d a267 293c 48a3 91bd c2eb 9c3d
000002c0: c39d 05be f158 7abd 3cd0 b9bc c413 b3bd
000002d0: 24bd d0bb e3c7 7fbd c4be 5ebd a528 923b
000002e0: 5861 0c3d 372f 1f3d ed9a 9dbd 62a3 d1bd
000002f0: b194 303d 3e5d 223d b8d3 f9bb 2af2 b33b
00000300: ff97 07bd a41e 46bd 48df b53d 27f7 95bd
00000310: 2159 1d3d 16a6 5abd 9244 e93c 110e 61bc
00000320: 129f 82bc d87b 25bd ec42 d2bb 0035 0cbd
00000330: 9608 0e3e e603 413d 9a3c 0d3d 9fcd 693d
00000340: f211 4cbd 045a 4fbc 0a7b dc3c 7748 6ebd
00000350: 279a 11bd caf7 6f3d f355 ccbd 27cf 56bd
00000360: e1c7 113d f02c d5bd 3862 f43d f5b0 c73b
00000370: 8ff4 9fbc e369 ab3c 4eac aebd 6218 983d
00000380: 16ba 493b f5a9 d5bc b67b d33c 467c c6bc
00000390: 719f f9bc 37b0 07bb a02f 23bc 3271 9dbd
000003a0: 818c 33bd 47d3 8d3d 8f6c 8abc 5907 36bd
000003b0: 2f5b d43b 488b 773c 6e64 11bd e6ce 6bbc
000003c0: ff4a 073c 5eed b13d b3f5 d2bd 676e 5ebb
000003d0: 80cf 92bd c829 a7bd 556d a1bb e2d3 0f3d
000003e0: 7806 5fbd 53c3 363d 3007 ff3d 57ef 47bd
000003f0: 4c12 82bd c3ba 513d 9f4c 7cbd a25e debb

network.5.weight f4 [256]
1.0172523 0.9418497 0.9786785 0.9937348 0.96117556 1.00322 0.97109777 0.97203475
0.98743653 1.0533649 1.0129623 0.9883549 1.0314679 1.0360752 0.9710974 0.98285306
0.9958267 0.9574364 1.005608 1.0157788 1.0156097 0.9819472 1.0401487 1.0083692
0.9808725 1.0162556 0.9937524 0.9826833 1.0215976 0.9663041 1.0051343 0.9529265
1.0246121 1.0165123 1.0060186 0.97006243 1.016493 0.95875245 0.9602327 1.0154591
1.0190476 0.99600995 1.0548311 0.99002576 1.0135654 1.0221515 0.9875441 0.98208666
1.0102439 1.0148726 0.97473294 1.0395206 1.020414 1.0242509 0.98309785 1.0196356
1.0398532 1.052724 1.0079143 0.9585401 1.041177 1.0546248 1.0050733 0.9833254
1.043111 0.99438345 1.0260997 0.97887903 0.99395543 0.9781439 0.96143144 0.9613579
1.0073154 1.0321745 0.9646279 1.0437131 0.9487378 1.016914 1.0447403 1.0526927
1.0031749 1.0251012 0.9930382 0.96933895 1.0031064 1.015154 1.0408423 0.960752
0.92449427 0.99548125 1.0382582 1.0049222 1.018981 1.0416346 1.0076573 1.0139135
0.9876336 1.0049106 0.9847295 0.9433842 1.0067334 0.9624553 0.9922638 0.98011786
0.9812617 1.035626 0.9699582 0.97647274 0.9993626 0.96526617 1.0117431 1.0308633
0.94260764 1.0152723 1.0406785 1.0330712 1.0449315 1.0398487 1.0314089 0.990936
0.92685574 1.0639106 0.97980905 1.0691043 0.9752986 1.0124482 1.0048085 1.009581
0.9751001 0.92489296 0.9731172 0.97165275 0.99730575 1.0387628 1.0303385 1.0330249
0.9966929 0.93321097 1.0040481 0.9691752 1.005898 1.0246456 0.954589 1.0015656
1.0270351 0.9964347 0.9758872 0.9725715 1.0257165 0.9840821 1.0276525 0.97511345
1.0615103 0.9635053 0.9837027 1.0002909 1.0319442 0.9639203 0.9780576 1.0472974
0.9862442 1.0017284 1.0247692 0.97995806 0.98339057 0.9735082 1.008382 1.0336221
1.0593694 1.0212185 1.0394756 0.96941173 0.9612958 0.99499863 1.0287907 0.978704
1.0006796 1.0357807 1.0045766 1.0126421 0.9876481 1.0045645 0.9850192 0.9837622
0.9866208 1.0326856 0.92878723 1.0084592 0.9963003 0.98556435 0.99530464 0.8981745
0.95672446 1.0267696 0.9619412 1.029909 1.0323521 1.0014777 0.9758371 0.9784733
0.98831457 0.93502927 0.97185695 0.94957757 0.99436337 1.0936188 0.9996957 0.92408156
0.9887015 0.99539334 0.9821168 0.9993259 0.9904751 1.0001757 1.0066006 1.0470003
0.9577516 0.97857434 1.0096648 1.0171115 1.0195754 1.0199072 1.0504878 0.9830652
1.0001878 0.98593163 1.0261211 1.0168121 0.99481505 0.9476167 1.0180576 1.0418802
0.93926704 0.9892312 1.0223835 1.0126435 1.0073001 1.0297884 0.9796764 0.97257775
0.97951734 1.0273943 0.98922724 0.9769166 0.9978589 0.979533 1.047174 1.0068226
0.9996333 1.015488 0.9976857 0.9921182 0.99003464 0.99802023 1.0235201 1.0441873
00000000: 5335 823f 101d 713f ad8a 7a3f 6765 7e3f
00000010: 9a0f 763f 8369 803f dd99 783f 45d7 783f
00000020: a4c8 7c3f a9d4 863f c0a8 813f d404 7d3f
00000030: 2407 843f 1d9e 843f d799 783f 429c 7b3f
00000040: 80ee 7e3f 8d1a 753f c3b7 803f 0a05 823f
00000050: 80ff 813f e460 7b3f 9823 853f 3e12 813f
00000060: 761a 7b3f aa14 823f 8f66 7e3f 2291 7b3f
00000070: b6c3 823f b55f 773f 3ea8 803f fef2 733f
00000080: 7d26 833f 131d 823f 38c5 803f 0356 783f
00000090: 711c 823f cd70 753f cfd1 753f 90fa 813f
000000a0: 2770 823f 82fa 7e3f b504 873f 5472 7d3f
000000b0: 83bc 813f dcd5 823f b1cf 7c3f 086a 7b3f
000000c0: ac4f 813f 58e7 813f 1988 793f 030f 853f
000000d0: ed9c 823f a71a 833f 4dac 7b3f 6b83 823f
000000e0: e919 853f a9bf 863f 5603 813f e262 753f
000000f0: 4a45 853f f2fd 863f 3ea6 803f 37bb 7b3f
00000100: a984 853f ea8f 7e3f 3c57 833f d197 7a3f
00000110: dd73 7e3f a367 7a3f 5f20 763f 8d1b 763f
00000120: b6ef 803f 4b1e 843f dbf1 763f 6498 853f
00000130: 7be0 723f 3d2a 823f 0dba 853f a2be 863f
00000140: 0968 803f 8436 833f c037 7e3f 9926 783f
00000150: ca65 803f 91f0 813f 523a 853f d8f3 753f
00000160: a8ab 6c3f dcd7 7e3f a5e5 843f 4aa1 803f
00000170: f86d 823f 4854 853f eafa 803f ebc7 813f
00000180: 8ed5 7c3f e9a0 803f 3c17 7c3f a081 713f
00000190: a4dc 803f 7863 763f 0005 7e3f 01e9 7a3f
000001a0: f733 7b3f 658f 843f 2e4f 783f 1efa 793f
000001b0: 3ad6 7f3f af1b 773f cc80 813f 54f3 833f
000001c0: bc4e 713f 71f4 813f f434 853f ad3b 843f
000001d0: 51c0 853f c319 853f 3505 843f fbad 7d3f
000001e0: 6b46 6d3f 392e 883f c4d4 7a3f 69d8 883f
000001f0: 2bad 793f e797 813f 919d 803f f339 813f
00000200: 29a0 793f c9c5 6c3f 351e 793f 3cbe 783f
00000210: 6e4f 7f3f 2ef6 843f 22e2 833f 293a 843f
00000220: 4427 7f3f eae6 6e3f a684 803f de1b 783f
00000230: 44c1 803f 9627 833f f25f 743f 4d33 803f
00000240: e375 833f 5816 7f3f bed3 793f 72fa 783f
00000250: ae4a 833f ceec 7b3f 1e8a 833f 09a1 793f
00000260: 92df 873f 49a8 763f f1d3 7b3f 8809 803f
00000270: bf16 843f 7bc3 763f fc61 7a3f d70d 863f
00000280: 807a 7c3f a338 803f a32b 833f 88de 7a3f
00000290: 7cbf 7b3f d537 793f a912 813f bb4d 843f
000002a0: 6b99 873f 4ab7 823f 890d 853f 5e2b 783f
000002b0: 7b17 763f 3bb8 7e3f 6aaf 833f 588c 7a3f
000002c0: 4516 803f 7694 843f f795 803f 429e 813f
000002d0: 82d6 7c3f 9295 803f 382a 7c3f d7d7 7b3f
000002e0: 2e93 7c3f 0b2f 843f 00c5 6d3f 3115 813f
000002f0: 890d 7f3f f24d 7c3f 49cc 7e3f c4ee 653f
00000300: e5eb 743f 306d 833f c741 763f 0fd4 833f
00000310: 1d24 843f 6c30 803f 76d0 793f 3a7d 7a3f
00000320: 2f02 7d3f 145e 6f3f 9ecb 783f 8417 733f
00000330: 998e 7e3f b3fb 8b3f 0fec 7f3f 9c90 6c3f
00000340: 8b1b 7d3f 19d2 7e3f 026c 7b3f d2d3 7f3f
00000350: c78f 7d3f c205 803f 4ad8 803f 1b04 863f
00000360: 352f 753f d983 7a3f b23c 813f b630 823f
00000370: 7281 823f 528c 823f 6276 863f 29aa 7b3f
00000380: 2706 803f 0466 7c3f f057 833f e626 823f
00000390: 33ac 7e3f 0297 723f b64f 823f 555c 853f
000003a0: ce73 703f 423e 7d3f 76dd 823f 4d9e 813f
000003b0: 36ef 803f 1bd0 833f 13cc 7a3f dbfa 783f
000003c0: a6c1 7a3f a881 833f ff3d 7d3f 3517 7a3f
000003d0: ae73 7f3f adc2 7a3f cc09 863f 90df 803f
000003e0: f8e7 7f3f 83fb 813f 5468 7f3f 75fb 7d3f
000003f0: e972 7d3f 417e 7f3f b502 833f eea7 853f

network.5.bias f4 [256]
-0.0533364 0.0011332079 0.06556153 0.060687818 0.16297506 -0.07372034 0.0072437753 0.11584892
0.0010765619 -0.04545069 0.0131093245 0.049232792 -0.09376454 -0.02469975 0.09490397 -0.10586123
0.13663082 -0.039042927 -0.053370886 0.04876873 0.19329622 -0.048331197 -0.016798597 -0.018087693
0.005785746 -0.02731211 0.09961665 0.09080412 -0.12673937 0.020974224 0.09614077 0.10482106
0.07031976 -0.063866705 -0.15595889 0.004488252 -0.089156784 0.066982314 0.068685025 -0.06049869
-0.17075874 0.0014820957 -0.1319805 -0.03781042 -0.11771474 -0.117823444 -0.11512427 -0.12979272
0.23333775 0.082844205 0.10598417 -0.082603134 0.004683915 -0.07565887 -0.013153046 -0.20159651
-0.043210622 -0.12512836 0.13012528 -0.0026461342 -0.07316694 -0.15640922 -0.05442894 0.15578519
-0.028647712 0.053568687 -0.048481725 0.06874677 -0.10927045 0.093541585 -0.028529167 0.04395873
0.0099041555 -0.07200363 -0.10191549 -0.03306168 0.07250708 -0.037337456 -0.055088956 -0.116700605
0.1232099 -0.0094581675 0.09126361 -0.0022605713 -0.09507397 -0.0020749036 -0.022970332 -0.007075691
0.10672416 -0.15552373 -0.05035748 -0.03428708 -0.041416015 -0.09780729 -0.052570798 -0.02467673
0.014607874 0.0121505 0.012332799 0.03201824 0.065333195 0.022506708 0.0761843 -0.045006745
0.09595029 -0.049279246 0.024830427 -0.0031222792 -0.1419318 0.0029893387 0.18756822 -0.07573427
0.09196663 -0.1610619 -0.16307266 -0.048799627 0.18626621 -0.08175009 -0.10754609 -0.053284496
0.0667657 -0.15556994 0.017152872 -0.14219922 -0.024842178 0.018850964 -0.037230417 0.09307963
0.03623403 0.018066078 -0.019955873 -0.036361787 -0.010607383 -0.022792408 -0.12741543 0.010814705
-0.0893193 0.08384545 -0.010821138 -0.0010005165 -0.12032164 0.028221667 0.090201825 -0.10143294
-0.06754659 -0.0045678816 0.020101516 0.10599643 -0.118839785 -0.0074547976 -0.036419705 -0.08417536
-0.13385092 0.19851495 0.021566309 0.068175875 -0.05599615 -0.004402647 0.09701871 -0.09348315
-0.14747092 -0.042655252 -0.12606923 -0.07093923 -0.005732154 -0.044146277 -0.074428044 -0.049867254
-0.070121534 -0.17039382 -0.12610571 0.06248513 0.05306775 -0.0042498284 -0.06640159 0.04897775
-0.024912512 -0.12113217 -0.07652687 0.019857284 0.10307138 -0.072909564 -0.041291468 -0.056476206
0.049519476 -0.015671294 -0.010427742 -0.051533036 -0.11216629 0.0054155877 -0.054186735 0.07416843
0.010862459 -0.028606907 -0.030800844 -0.024960522 -0.038373895 -0.11041044 -0.07655304 0.05926771
-0.06291307 0.08157283 0.035397716 0.041043095 -0.01938331 0.15607512 -0.1219231 -0.08855707
-0.00042058615 0.0021149039 -0.020463346 -0.00944088 -0.083649226 -0.25265512 -0.1044988 -0.08416755
0.10582027 0.011676681 0.106480256 -0.113642335 -0.0027876913 -0.042187825 -0.12225968 0.03299807
-0.12478669 -0.030120337 -0.038130768 -0.12397769 -0.008781982 0.09121583 -0.023254013 0.00304747
0.0465874 0.017673003 -0.13065827 -0.07433953 -0.13944682 0.032448094 0.09566089 0.065607354
0.01735089 -0.08860158 -0.06289808 0.061682846 0.008791848 -0.05939508 0.10171335 -0.12701683
-0.021649385 0.054668747 0.07593324 -0.07739115 0.035061534 0.1471367 -0.05339169 -0.09390334
00000000: 4577 5abd 2688 943a 2045 863d ca93 783d
00000010: efe2 263e b1fa 96bd 315d ed3b 3342 ed3d
00000020: 6c1b 8d3a 812a 3abd 7ec8 563c 53a8 493d
00000030: a007 c0bd 2157 cabc 035d c23d c6cd d8bd
00000040: f3e8 0b3e 7aeb 1fbd 6e9b 5abd b8c1 473d
00000050: 72ef 453e eff6 45bd 369d 89bc a42c 94bc
00000060: 5b96 bd3b a5bd dfbc d003 cc3d 83f7 b93d
00000070: f7c7 01be 23d2 ab3c 74e5 c43d 6dac d63d
00000080: ce03 903d 8ccc 82bd b0b3 1fbe 3012 933b
00000090: d597 b6bd 062e 893d bcaa 8c3d 79cd 77bd
000000a0: 61db 2ebe e142 c23a e525 07be 19df 1abd
000000b0: 6d14 f1bd 6b4d f1bd 46c6 ebbd 62e8 04be
000000c0: 17f0 6e3e 39aa a93d 3b0e d93d d52b a9bd
000000d0: 877b 993b 0af3 9abd e07f 57bc 516f 4ebe
000000e0: 9ffd 30bd a621 00be 903f 053e c46a 2dbb
000000f0: 8cd8 95bd bd29 20be e1f0 5ebd 2786 1f3e
00000100: 9bae eabc d76a 5b3d c694 46bd 1bcb 8c3d
00000110: 30c9 dfbd bb92 bf3d 00b6 e9bc 120e 343d
00000120: 0a45 223c a476 93bd 12b9 d0bd af6b 07bd
00000130: 987e 943d 29ef 18bd f5a4 61bd ba00 efbd
00000140: 7955 fc3d 6ef6 1abc 6ae8 ba3d 1826 14bb
00000150: 24b6 c2bd 1bfb 07bb 472c bcbc 33db e7bb
00000160: 3292 da3d 9d41 1fbe a543 4ebd 9c70 0cbd
00000170: d7a3 29bd 304f c8bd 7a54 57bd db26 cabc
00000180: dd55 6f3c e412 473c 820f 4a3c 8f25 033d
00000190: 69cd 853d fd5f b83c 8406 9c3d fe58 38bd
000001a0: 9681 c43d 09d9 49bd 2e69 cb3c 279f 4cbb
000001b0: 9256 11be c8e8 433b e211 403e 921a 9bbd
000001c0: 0059 bc3d 69ed 24be 85fc 26be 1ee2 47bd
000001d0: 92bc 3e3e 976c a7bd 2041 dcbd d840 5abd
000001e0: 75bc 883d ba4d 1fbe 2e84 8c3c ac9c 11be
000001f0: d381 cbbc 566d 9a3c ec7e 18bd 88a0 be3d
00000200: 226a 143d 50ff 933c 807a a3bc 19f0 14bd
00000210: 97ca 2dbc 25b7 babc 3179 02be 2930 313c
00000220: 0aed b6bd 2ab7 ab3d 244b 31bc c323 83ba
00000230: 316b f6bd 2031 e73c bcbb b83d 13bc cfbd
00000240: de55 8abd 2bae 95bb efab a43c a814 d93d
00000250: 4662 f3bd 6047 f4bb d42c 15bd 2264 acbd
00000260: 3710 09be 8147 4b3e d4ab b03c cb9f 8b3d
00000270: 385c 65bd 1444 90bb bfb1 c63d 1874 bfbd
00000280: 9e02 17be 46b7 2ebd 4b18 01be 9648 91bd
00000290: cbd4 bbbb bad2 34bd bb6d 98bd 9b41 4cbd
000002a0: e19b 8fbd b87b 2ebe db21 01be 68f0 7f3d
000002b0: 925d 593d 2542 8bbb 8ffd 87bd e59c 483d
000002c0: 5315 ccbc 2514 f8bd 1fba 9cbd beab a23c
000002d0: 1617 d33d 9c51 95bd 3e21 29bd 9853 67bd
000002e0: efd4 4a3d 1661 80bc 1fd9 2abc 4e14 53bd
000002f0: 71b7 e5bd 3e75 b13b e9f2 5dbd 9ee5 973d
00000300: 75f8 313c 0859 eabc 0d52 fcbc 027a ccbc
00000310: f22d 1dbd de1e e2bd d7c7 9cbd b3c2 723d
00000320: 91d8 80bd a80f a73d 32fd 103d ce1c 283d
00000330: bfc9 9ebc 28d2 1f3e d1b2 f9bd 695d b5bd
00000340: 1e82 dcb9 339a 0a3b bfa2 a7bc ecad 1abc
00000350: 4950 abbd 035c 81be 7803 d6bd 0960 acbd
00000360: 4cb8 d83d 8d4f 3f3c 5212 da3d 50bd e8bd
00000370: b3b1 36bb 24cd 2cbd 4863 fabd fc28 073d
00000380: 2a90 ffbd edbe f6bc 022f 1cbd 04e8 fdbd
00000390: 4de2 0fbc 5dcf ba3d 337f bebc 10b8 473b
000003a0: 6ed2 3e3d f9c6 903c 48cb 05be 533f 98bd
000003b0: 26cb 0ebe 4be8 043d dbe9 c33d 265d 863d
000003c0: 7423 8e3c bf74 b5bd b5d0 80bd 27a7 7c3d
000003d0: af0b 103c 4148 73bd 174f d03d b310 02be
000003e0: 0d5a b1bc 56ec 5f3d e382 9b3d 407f 9ebd
000003f0: af9c 0f3d 01ab 163e 3fb1 5abd 6550 c0bd
