models/epoch_20/discriminator.pth (torch, 420232 bytes, 7 tensors)

network.0.weight f4 [256, 20]
-0.053191535 0.0517052 -0.08239531 0.21434835 0.20191082 -0.19492157 0.11568787 -0.03669157
-0.13584396 0.0868325 -0.11930226 0.19345167 0.051338173 -0.058929563 -0.047727857 -0.12198964
-0.06383343 -0.0366831 0.0066622794 -0.1972765 0.059070166 -0.08464874 0.07644094 -0.001514047
0.094798364 -0.10852554 -0.18562621 0.14837112 0.100662395 0.033328537 -0.07326863 -0.1359256
0.13849987 0.15868731 0.07350051 -0.1466969 0.052187327 0.26398942 0.20400064 -0.020281501
0.20675036 -0.007841196 -0.018800931 -0.116198584 0.029331567 -0.16261524 -0.02790104 -0.08739617
-0.16693443 -0.10848118 -0.0047084847 0.3062954 0.04377662 0.015233252 -0.00430678 0.020265486
0.136988 0.061851002 -0.022202728 -0.15865822 0.011398364 -0.042317398 -0.0049279053 -0.1389074
-0.052120928 0.19220933 0.08084277 0.23468553 -0.14212269 -0.04053422 0.20992015 0.045994002
0.05580259 -0.13481183 0.11434118 0.03381261 0.17617837 -0.18046634 0.23386848 0.13079958
0.016783565 0.08643727 0.06868446 -0.14067294 -0.12848929 -0.18394181 0.20649981 0.21820308
0.24512243 -0.13431795 -0.11724902 -0.021583308 -0.1113309 0.06711245 0.19544621 -0.069090486
-0.059643183 -0.081152245 -0.16062269 0.07949421 -0.13101192 0.12831424 -0.0057004355 0.05710209
0.12730783 0.102063194 0.04660274 -0.15751678 0.018192803 -0.15312243 -0.17830126 -0.04107077
0.22690672 -0.2192275 -0.14913204 0.074672036 -0.051242355 0.16407584 -0.10164055 -0.0002664382
0.14047028 -0.033708364 -0.11355145 0.046905994 0.08275148 0.13978073 -0.16726863 0.035923008
-0.046215314 0.017124074 -0.05492161 -0.17016579 -0.012621571 -0.14026546 0.26768017 0.08578174
-0.04058162 -0.108949475 0.21792723 0.29530942 -0.15872964 0.17219773 -0.065706566 -0.0634333
-0.15094554 0.07616705 -0.18081604 0.06515585 -0.116462626 0.04909239 -0.09278811 -0.0976804
0.11550366 0.046064854 0.09314412 0.1428781 -0.09886771 0.088614814 -0.024795163 0.115680814
-0.19534379 -0.10914316 -0.0271126 0.10628896 -0.024531553 0.0015886227 0.066712275 -0.17285329
-0.17508669 0.15111744 0.1445525 -0.14419486 -0.08154499 -0.0105907 -0.05824495 -0.10221929
0.076915435 -0.06455872 -0.058091804 -0.07307239 0.15507445 -0.0035804452 0.17429416 0.18101262
-0.055413254 0.08193209 0.39167407 -0.112222426 0.07298725 -0.040607665 0.02473268 0.02519176
-0.122957304 0.020870924 -0.03438658 -0.08769017 0.0026280084 -0.103870176 -0.06873054 0.12692861
-0.03945548 -0.056335483 0.12922916 -0.074186765 0.0763713 -0.08808365 -0.25861192 0.18037963
0.18840794 0.08504563 0.18647897 0.113045506 -0.17584467 -0.06259054 -0.036979407 0.09507629
0.054861233 0.025416816 0.07367466 -0.23675708 0.07546914 0.21335256 0.0941914 -0.0871175
0.15831797 0.18244278 -0.08660751 -0.03554194 -0.015059298 0.008827777 -0.046444133 -0.11685049
0.054696616 0.13316119 0.019092916 -0.092861906 0.116252445 0.122548096 0.044448465 -0.11874815
-0.07129747 0.19741134 0.02046006 -0.10083632 0.16237077 -0.11269261 -0.045928877 -0.0057971384
-0.1372739 0.048987165 0.019409763 0.26465628 0.13212092 -0.14950119 0.049534705 -0.051903974
00000000: 5edf 59bd d5c8 533d dfbe a8bd 227e 5b3e
00000010: b6c1 4e3e 8599 47be c3ed ec3d e649 16bd
00000020: ae1a 0bbe 3dd5 b13d be54 f4bd 3218 463e
00000030: fa47 523d 2060 71bd 497e 43bd b4d5 f9bd
00000040: 1abb 82bd 0541 16bd 404f da3b da02 4abe
00000050: 8ff3 713d 525c adbd 118d 9c3d fd72 c6ba
00000060: a525 c23d a342 debd cc14 3ebe 99ee 173e
00000070: 1628 ce3d 8183 083d dd0d 96bd 1530 0bbe
00000080: e9d2 0d3e ed7e 223e 6f87 963d b637 16be
00000090: 61c2 553d 9f29 873e 8be5 503e 6425 a6bc
000000a0: 5eb6 533e 5c78 00bc 6904 9abc 86f9 edbd
000000b0: c148 f03c 9c84 26be b990 e4bc c3fc b2bd
000000c0: dcf0 2abe 622b debd a249 9abb c0d2 9c3e
000000d0: 1d4f 333d e494 793c e41f 8dbb ce03 a63c
000000e0: 9546 0c3e 7a57 7d3d 7fe2 b5bc 4d77 22be
000000f0: 34c0 3a3c 0255 2dbd 447a a1bb be3d 0ebe
00000100: c17c 55bd 86d2 443e e590 a53d 6751 703e
00000110: 9c88 11be 3607 26bd 4ff5 563e 3564 3c3d
00000120: 4291 643d 1d0c 0abe b52b ea3d 177f 0a3d
00000130: 1a68 343e 2bcc 38be 387b 6f3e 53f0 053e
00000140: b07d 893c 0606 b13d 70aa 8c3d 910c 10be
00000150: b292 03be 3e5b 3cbe b074 533e a170 5f3e
00000160: 6001 7b3e a58a 09be 4120 f0bd 7acf b0bc
00000170: 7401 e4bd 4172 893d 0d23 483e 507f 8dbd
00000180: 694c 74bd 2633 a6bd 467a 24be dccd a23d
00000190: fd27 06be cf64 033e b8ca babb e2e3 693d
000001a0: fc5c 023e 8206 d13d 84e2 3e3d 144c 21be
000001b0: 1309 953c 20cc 1cbe 9b94 36be d339 28bd
000001c0: 3c5a 683e 2c7d 60be 12b6 18be a7ed 983d
000001d0: 81e3 51bd 7f03 283e ec28 d0bd bbb0 8bb9
000001e0: 71d7 0f3e c811 0abd aa8d e8bd 8020 403d
000001f0: 9c79 a93d ae22 0f3e 7848 2bbe 0124 133d
00000200: 454c 3dbd c947 8c3c 7bf5 60bd f13f 2ebe
00000210: b5ca 4ebc c0a1 0fbe 600d 893e 56ae af3d
00000220: ea38 26bd e720 dfbd 5128 5f3e cc32 973e
00000230: 068a 22be 9a54 303e 2a91 86bd 51e9 81bd
00000240: 7891 1abe 78fd 9b3d d727 39be 6e70 853d
00000250: f583 eebd 1a15 493d b107 bebd a90c c8bd
00000260: 2f8d ec3d 80ae 3c3d 58c2 be3d a34e 123e
00000270: 277b cabd af7b b53d 3a1f cbbc 10ea ec3d
00000280: 3408 48be 7386 dfbd 3e1b debc 07ae d93d
00000290: 65f6 c8bc 5539 d03a 72a0 883d 7400 31be
000002a0: ed49 33be 88be 1a3e 9205 143e d1a7 13be
000002b0: 0f01 a7bd 9e84 2dbc 4292 6ebd 5958 d1bd
000002c0: d785 9d3d 5d37 84bd acf1 6dbd faa6 95bd
000002d0: d6cb 1e3e e7a5 6abb 2b7a 323e 5f5b 393e
000002e0: 02f9 62bd 03cc a73d 8189 c83e dfd4 e5bd
000002f0: 577a 953d 3954 26bd 309c ca3c f35e ce3c
00000300: 0ad1 fbbd 80f9 aa3c f1d8 0cbd e796 b3bd
00000310: aa3a 2c3b e3b9 d4bd 99c2 8cbd 93f9 013e
00000320: 129c 21bd 09c0 66bd a654 043e 3bef 97bd
00000330: 8e68 9c3d 3365 b4bd c868 84be 70b5 383e
00000340: 03ee 403e 672c ae3d 58f4 3e3e 6784 e73d
00000350: a010 34be 782f 80bd b877 17bd 5cb7 c23d
00000360: 2cb6 603d ed36 d03c bde2 963d 7370 72be
00000370: 918f 9a3d 1879 5a3e 6ce7 c03d a96a b2bd
00000380: 1b1e 223e 48d2 3a3e 475f b1bd 6d94 11bd
00000390: 46bb 76bc 61a2 103c 343c 3ebd 4f4f efbd
000003a0: 8f09 603d 685b 083e bf68 9c3c 622e bebd
000003b0: c315 ee3d 7ffa fa3d 980f 363d 3b32 f3bd
000003c0: 6804 92bd 3326 4a3e db9b a73c 4683 cebd
000003d0: 8644 263e 62cb e6bd eb1f 3cbd ecf5 bdbb
000003e0: 8791 0cbe c4a6 483d 3901 9f3c 0781 873e
000003f0: b54a 073e d716 19be e7e4 4a3d 4399 54bd

network.0.bias f4 [256]
0.25170177 -0.24632147 -0.21891938 -0.08225804 -0.30175728 -0.29210272 0.1082675 -0.035865396
0.26191133 -0.027765691 -0.1566006 0.2798462 -0.008075822 -0.33168805 -0.1852109 0.16747491
0.08374544 -0.2015221 -0.19247021 -0.27474207 0.30836266 -0.14999868 -0.14105438 -0.20061699
-0.26782975 0.16384163 0.24234614 -0.005908467 -0.1665633 -0.32422277 -0.12481827 0.011559455
-0.2192134 0.29336762 -0.27186468 0.21344045 -0.31018823 -0.30406505 0.10247286 -0.24863689
-0.18533203 0.26043913 -0.26733917 -0.09952918 -0.04666958 -0.1350608 0.26887628 0.12614544
0.25754544 0.24671732 -0.21505669 -0.28309456 -0.050284147 -0.10846841 -0.304245 -0.15611681
-0.008372653 0.12252831 -0.15581897 -0.14307152 -0.29563612 0.028996151 -0.29556677 -0.13136484
-0.13283989 -0.114341274 0.023277838 -0.18266109 0.2307288 -0.29557583 -0.185317 0.16546778
0.15832826 -0.18965364 -0.22466445 -0.16184185 -0.101226985 -0.22278714 0.11096488 0.028165761
-0.16285244 -0.22752923 -0.20124061 -0.060457584 0.12225031 0.30509627 -0.20894752 -0.252585
-0.0722417 0.023877224 -0.30782175 0.26277107 -0.28160834 -0.21497326 -0.10647398 -0.11423826
0.24862148 0.1551251 -0.21130763 0.2775914 0.21260089 -0.029935773 0.06667708 -0.16719738
0.2602619 -0.34512398 -0.21085705 -0.2541954 -0.23551115 -0.1737101 -0.08300087 -0.15946423
-0.057954516 -0.08888548 -0.24946137 -0.32258552 0.179021 -0.14639492 -0.19206561 0.09551871
-0.20265521 0.31391537 -0.23441844 -0.28896642 -0.2610283 0.0546915 0.08998598 -0.19875692
-0.19519094 -0.038292654 -0.082671925 0.00088669197 -0.2598612 -0.32797405 -0.17568162 0.10100506
0.024525259 -0.20953906 -0.13832131 -0.23975691 -0.1840286 -0.2388171 -0.30299258 0.0034223045
-0.21163297 -0.04971379 -0.2296368 -0.14856559 -0.035871163 0.10364142 -0.14349118 0.21192732
-0.10226661 -0.2549352 -0.2663282 0.2551776 -0.1196269 -0.225839 0.195227 -0.22418186
-0.18986055 0.13790712 0.1674569 -0.22461341 0.27441457 -0.27585533 0.019371323 -0.2521905
-0.15631983 -0.24946612 -0.1953833 0.07344029 -0.024199339 -0.15950875 -0.32676715 -0.06846852
0.042604167 -0.28117085 -0.3261458 0.2836579 -0.013473476 -0.15354943 -0.18483715 -0.26969612
0.18835798 -0.18009192 -0.09309774 0.079389706 -0.30690536 -0.34090167 -0.3015239 -0.022589378
-0.33351922 -0.30366987 -0.10855628 -0.32048705 -0.07548501 -0.09422375 -0.1967989 -0.3066477
0.3400061 -0.2924011 0.22231255 -0.29962182 0.17029531 -0.035725854 0.14474756 0.04811566
0.028200997 0.23502788 0.2337856 -0.015968567 0.11295996 -0.33180183 -0.30339953 0.072819375
-0.0012062305 0.27646267 -0.04464896 -0.08383 -0.28835207 -0.2320962 -0.10336004 -0.26993996
-0.19169903 0.23343153 -0.07126248 0.04852402 -0.10700951 -0.06561257 -0.19354339 0.21015361
-0.023862723 0.030328183 -0.036618993 0.104792185 -0.052331723 -0.02914738 0.32643837 0.044820536
-0.20812666 -0.19915223 -0.034051068 -0.3026547 0.2813247 -0.0329086 0.19662157 0.2043306
-0.26836404 -0.19994344 -0.34610716 -0.19465189 -0.27184758 0.09235345 -0.25388837 -0.32269695
00000000: 0edf 803e b23b 7cbe 672c 60be e776 a8bd
00000010: ee7f 9abe 7d8e 95be 5abb dd3d 98e7 12bd
00000020: 3e19 863e e074 e3bc e85b 20be 0048 8f3e
00000030: 7450 04bc 04d3 a9be eda7 3dbe 8b7e 2b3e
00000040: bb82 ab3d cf5b 4ebe e916 45be feaa 8cbe
00000050: b6e1 9d3e 4199 19be 8f70 10be 8a6e 4dbe
00000060: fb20 89be 1ac6 273e 9629 783e d09b c1bb
00000070: 928f 2abe 8700 a6be b9a0 ffbd de63 3d3c
00000080: 7a79 60be 4834 963e d931 8bbe 2290 5a3e
00000090: fed0 9ebe 6aae 9bbe 4add d13d ab9a 7ebe
000000a0: aec7 3dbe 4758 853e aee0 88be f4d5 cbbd
000000b0: 9a28 3fbd 614d 0abe 27aa 893e 452c 013e
000000c0: ffdc 833e 77a3 7c3e d237 5cbe c5f1 90be
000000d0: c0f6 4dbd b024 debd 00c6 9bbe 16dd 1fbe
000000e0: 742d 09bc 1ff0 fa3d 028f 1fbe 5781 12be
000000f0: 9e5d 97be 5689 ed3c 8754 97be 8184 06be
00000100: 2e07 08be c22b eabd 2ab1 be3c 820b 3bbe
00000110: 2c44 6c3e b755 97be bdc3 3dbe 6370 293e
00000120: ce20 223e 9034 42be 700e 66be dfb9 25be
00000130: 1850 cfbd 5022 64be 8e41 e33d e2bb e63c
00000140: cac2 26be 6cfd 68be 0512 4ebe 5fa2 77bd
00000150: 5f5e fa3d 9435 9c3e 57f6 55be d252 81be
00000160: 75f3 93bd 2b9a c33c d09a 9dbe ee89 863e
00000170: f82e 90be f321 5cbe 080f dabd c0f5 e9bd
00000180: a196 7e3e 1dd9 1e3e 0761 58be 7620 8e3e
00000190: 0cb4 593e de3b f5bc fe8d 883d ca35 2bbe
000001a0: 0c41 853e 17b4 b0be e9ea 57be e625 82be
000001b0: d629 71be 0fe1 31be 5cfc a9bd 974a 23be
000001c0: b761 6dbd 9709 b6bd cd72 7fbe ee29 a5be
000001d0: 4851 373e 8de8 15be d9ac 44be 509f c33d
000001e0: d984 4fbe 84b9 a03e 630b 70be 68f3 93be
000001f0: 80a5 85be 3204 603d 924a b83d ef86 4bbe
00000200: 22e0 47be c2d8 1cbd e64f a9bd e470 683a
00000210: 870c 85be 37ec a7be e2e5 33be bedb ce3d
00000220: 32e9 c83c 6891 56be 1aa4 0dbe d682 75be
00000230: fe71 3cbe 788c 74be d821 9bbe be48 603b
00000240: 50b6 58be b0a0 4bbd e925 6bbe 9421 18be
00000250: a4ed 12bd f441 d43d 5aef 12be 7a03 593e
00000260: 2871 d1bd de86 82be 2b5c 88be a3a6 823e
00000270: f3fe f4bd 5742 67be 96e9 473e ee8f 65be
00000280: ce6a 42be 8637 0d3e d279 2b3e 0f01 66be
00000290: 1180 8c3e e93c 8dbe 9cb0 9e3c 1d1f 81be
000002a0: 4e12 20be 0c74 7fbe 8f12 48be dd67 963d
000002b0: b13d c6bc 4356 23be 064e a7be 3939 8cbd
000002c0: b581 2e3d a0f5 8fbe 95fc a6be 9c3b 913e
000002d0: dbbf 5cbc 103c 1dbe f345 3dbe 9c15 8abe
000002e0: eae0 403e 046a 38be 07aa bebd 1297 a23d
000002f0: b322 9dbe aa8a aebe 5761 9abe 5c0d b9bc
00000300: 08c3 aabe 9e7a 9bbe c152 debd e116 a4be
00000310: e397 9abd 62f8 c0bd a785 49be ed00 9dbe
00000320: 4815 ae3e 99b5 95be e7a5 633e 0868 99be
00000330: e561 2e3e 4655 12bd b438 143e ed14 453d
00000340: c705 e73c 26ab 703e 7e65 6f3e 83d0 82bc
00000350: 8d57 e73d eee1 a9be 2f57 9bbe 5322 953d
00000360: 611a 9eba 848c 8d3e d4e1 36bd 10af abbd
00000370: e2a2 93be a0aa 6dbe 6eae d3bd 9235 8abe
00000380: c04c 44be ad08 6f3e 10f2 91bd 1fc1 463d
00000390: cd27 dbbd e25f 86bd 3d30 46be 8232 573e
000003a0: c27b c3bc cf72 f83c ccfd 15bd 499d d63d
000003b0: ca59 56bd 7cc6 eebc ee22 a73e bd95 373d
000003c0: 281f 55be 90ee 4bbe 2279 0bbd 8ff5 9abe
000003d0: cb09 903e 2bcb 06bd 2a57 493e 0a3c 513e
000003e0: 0367 89be f9bd 4cbe f534 b1be d352 47be
000003f0: 9b2f 8bbe ce23 bd3d a8fd 81be 8938 a5be

network.3.weight f4 [256, 256]
0.0107839545 -0.06520045 -0.07926327 0.039367653 0.015860438 -0.04257752 0.0103617925 0.037468135
-0.03482319 -0.048500277 -0.069614306 0.022482049 0.045460124 -0.02584423 -0.034868453 -0.007491478
0.007854545 0.017863253 -0.063886754 -0.010894316 0.02363448 -0.03874482 -0.061063744 -0.06667966
-0.038568288 -0.019332618 0.002073227 0.027778756 -0.061504945 -0.059604995 -0.008883087 0.0024857533
0.024864785 0.0503394 -0.022132786 -0.026197778 -0.047371235 -0.02036435 -0.024219614 0.010986628
-0.06507552 -0.026599811 -0.08063481 0.04334444 -0.0011586375 -0.009000647 -0.007776209 0.022018593
0.0025550548 0.012472801 -0.06979278 -0.0004326406 -0.014920146 0.008013735 -0.04378484 0.01076191
-0.04899275 0.023919843 -0.056979053 -0.07319027 -0.030221058 -0.06810369 -0.08580758 -0.016240776
-0.031189408 0.011567419 -0.037922453 -0.06613842 -0.020787813 -0.08706648 -0.03646945 -0.047451746
0.018490462 -0.03009195 0.0056422194 -0.013722329 0.0151195 -0.019582463 0.032540247 0.04421532
-0.0063216453 -0.068707496 0.017724818 0.004129367 -0.025337586 -0.007033602 -0.07815615 -0.06687451
-0.04925026 0.036214296 0.0042599826 -0.021912927 -0.04076654 -0.0659323 -0.01584672 -0.0374429
0.018554378 0.027478702 0.015928278 -0.0028361941 0.0388116 -0.040721267 -0.015769932 0.008414859
0.048237633 -0.062347908 -0.025025375 -0.040335175 0.017621199 -0.06721714 -0.012614049 0.011107444
-0.031691678 -0.0703471 -0.0017786948 -0.03894629 0.025027497 -0.06874461 -0.07478814 0.06053842
0.01536697 0.04064919 0.039967295 -0.012177166 -0.06758949 0.03550034 -0.041673556 -0.072991475
-0.02660893 0.00947803 -0.04691242 0.047171135 0.01663565 -0.058705557 -0.05671225 0.03987814
0.039916687 -0.040132113 -0.05785373 -0.010708597 0.019146297 -0.06165922 -0.0016791864 0.03851702
-0.055621162 -0.080374666 0.042976394 0.0057300376 -0.022141023 -0.04139471 0.014313272 -0.04089929
-0.055864457 0.02434897 -0.060608845 -0.013307301 -0.018624987 -0.07946735 0.00816306 -0.010473988
0.002536859 -0.02569738 -0.029338578 -0.018035423 0.038482014 -0.023586756 0.0536296 -0.0475619
0.00016580283 0.02015863 -0.008878339 0.05934083 -0.05522034 -0.017320547 -0.023757441 0.04526629
-0.024588114 -0.026607107 -0.023713151 0.061172884 0.019480353 -0.07630551 -0.037100237 -0.032846525
0.059162997 -0.04862586 0.041582163 0.053574532 -0.00574977 -0.07277297 -0.012125539 0.018822018
-0.060481817 -0.052653745 -0.04210361 -0.054748718 0.016507007 -0.0399127 -0.00422738 -0.031095505
0.0008289388 -0.06697235 -0.0026783033 -0.022725074 0.018425565 -0.0467416 -0.031872734 -0.03443189
0.022634687 -0.05056174 0.021550244 0.030881098 -0.0049273055 -0.009074087 -0.0442141 0.0405185
0.033464044 0.02882942 0.0019183009 -0.057903506 -0.03174676 -0.017628178 -0.08144355 -0.085154854
0.008955095 0.017317772 -0.03902594 -0.051312514 -0.028575579 -0.02462854 -0.050949045 -0.010634311
-0.009100617 -0.0070555266 -0.06720768 0.017700905 0.020930968 -0.06295913 0.0033302251 -0.014147163
0.011116389 -0.04898801 -0.017062284 0.018942352 0.0010155122 -0.0085203 0.04958572 0.03247172
-0.10371175 -0.084032334 -0.053688508 0.013311023 -0.08935617 -0.04948181 -0.0020954006 -0.026012784
00000000: 2faf 303c d087 85bd c854 a2bd fa3f 213d
00000010: c0ed 813c c465 2ebd 82c4 293c 3078 193d
00000020: c3a2 0ebd 3aa8 46bd f291 8ebd 462c b83c
00000030: 6534 3a3d 47b7 d3bc 39d2 0ebd 137b f5bb
00000040: 59b0 003c f555 923c 0fd7 82bd 137e 32bc
00000050: 199d c13c e3b2 1ebd fa1d 7abd 588f 88bd
00000060: c8f9 1dbd 705f 9ebc fade 073b 4690 e33c
00000070: 9cec 7bbd 5e24 74bd 5e8a 11bc 05e8 223b
00000080: 3cb1 cb3c b030 4e3d d14f b5bc b99c d6bc
00000090: 5708 42bd 23d3 a6bc 3668 c6bc 4201 343c
000000a0: 5046 85bd d9e7 d9bc dd23 a5bd f189 313d
000000b0: 6cdd 97ba 7377 13bc 92cf febb 5660 b43c
000000c0: b572 273b b85a 4c3c 84ef 8ebd 0ad4 e2b9
000000d0: a173 74bc 0a4c 033c bb57 33bd b952 303c
000000e0: 9fac 48bd 8cf3 c33c de62 69bd c8e4 95bd
000000f0: 2792 f7bc f379 8bbd e2bb afbd 600b 85bc
00000100: ee80 ffbc 4685 3d3c 9354 1bbd 9473 87bd
00000110: 344b aabc e94f b2bd fd60 15bd c35c 42bd
00000120: 4f79 973c 6583 f6bc 5ee2 b83b 9fd3 60bc
00000130: c8b7 773c 676b a0bc ec48 053d 201b 353d
00000140: ce25 cfbb 84b6 8cbd a333 913c a44f 873b
00000150: c590 cfbc 217a e6bb 5510 a0bd 81f5 88bd
00000160: a4ba 49bd 7155 143d 5397 8b3b bd82 b3bc
00000170: d1fa 26bd 8407 87bd fbd0 81bc ba5d 19bd
00000180: 5aff 973c 041b e13c 057c 823c 71df 39bb
00000190: eaf8 1e3d 58cb 26bd f22f 81bc 7ade 093c
000001a0: d394 453d 8560 7fbd 0402 cdbc 7f36 25bd
000001b0: 555a 903c 24a9 89bd 28ab 4ebc fffb 353c
000001c0: 22cf 01bd 2412 90bd 1823 e9ba 2586 1fbd
000001d0: 7706 cd3c f9c9 8cbd 862a 99bd 22f7 773d
000001e0: bec5 7b3c c47f 263d bfb4 233d bc82 47bc
000001f0: 5c6c 8abd ce68 113d e4b1 2abd 8e7c 95bd
00000200: f9fa d9bc bd49 1b3c 3d27 40bd 8536 413d
00000210: 7d47 883c 3d75 70bd 1b4b 68bd 4357 233d
00000220: ae7f 233d 9261 24bd 08f8 6cbd 1c73 2fbc
00000230: b2d8 9c3c 618e 7cbd 2518 dcba 06c4 1d3d
00000240: 04d3 63bd 799b a4bd 0408 303d 0ac3 bb3b
00000250: 1761 b5bc 808d 29bd 3782 6a3c 0486 27bd
00000260: 21d2 64bd 7e77 c73c fb40 78bd de06 5abc
00000270: 6e93 98bc c7bf a2bd 5bbe 053c 179b 2bbc
00000280: 6e41 263b 5083 d2bc 7557 f0bc 06bf 93bc
00000290: 519f 1d3d 0339 c1bc b6aa 5b3d 44d0 42bd
000002a0: 5cdb 2d39 b623 a53c 7476 11bc 5f0f 733d
000002b0: b92e 62bd d2e3 8dbc f79e c2bc 2569 393d
000002c0: 036d c9bc 26f7 d9bc 1542 c2bc 6b90 7a3d
000002d0: 4395 9f3c 1046 9cbd 6bf6 17bd 148a 06bd
000002e0: e654 723d e92b 47bd 0f52 2a3d f870 5b3d
000002f0: 9168 bcbb ff09 95bd 32aa 46bc a230 9a3c
00000300: c8bb 77bd 74ab 57bd d674 2cbd 3140 60bd
00000310: b439 873c 807b 23bd d585 8abb 00bc febc
00000320: 244d 593a cd28 89bd 7986 2fbb ef29 babc
00000330: 36f1 963c 1f74 3fbd fc8c 02bd 7408 0dbd
00000340: 616c b93c d419 4fbd 238a b03c 5bfa fc3c
00000350: 3c75 a1bb 7bab 14bc d819 35bd baf6 253d
00000360: 9811 093d ad2b ec3c 7f6f fb3a 3a2c 6dbd
00000370: e408 02bd f868 90bc e0cb a6bd ab65 aebd
00000380: 64b8 123c 00de 8d3c aad9 1fbd 122d 52bd
00000390: 5517 eabc cbc1 c9bc f2af 50bd 883b 2ebc
000003a0: c11a 15bc 0c32 e7bb 2ea4 89bd 7d01 913c
000003b0: 6c77 ab3c b7f0 80bd e83f 5a3b 81c9 67bc
000003c0: 8421 363c a7a7 48bd 34c6 8bbc fe2c 9b3c
000003d0: ef1a 853a ba98 0bbc 651a 4b3d 1101 053d
000003e0: d366 d4bd 2519 acbd 7be8 5bbd 7a16 5a3c
000003f0: 5e00 b7bd 70ad 4abd fd52 09bb c318 d5bc

network.3.bias f4 [256]
0.16659002 -0.18351257 -0.050435945 -0.1698783 -0.1684088 -0.14752764 -0.096229844 0.071103945
-0.11647419 -0.12022925 0.072083525 0.0078031183 0.10614304 0.15611956 -0.06333376 -0.06667214
0.13539839 0.08859016 -0.1648639 -0.16046907 -0.09025056 -0.11701258 -0.18082605 -0.17227983
-0.19532566 -0.08804565 -0.13132535 -0.17553023 -0.17488748 -0.12479089 0.0036665052 0.13340944
-0.057163257 -0.080219224 0.07307572 0.17282668 0.027239613 -0.16242072 -0.12859564 -0.02861968
0.040953096 0.04192435 -0.1202608 -0.13040814 0.116791055 -0.18452223 -0.14905527 -0.1575023
-0.06746574 0.024014039 0.16772455 -0.02100802 -0.17703702 0.033130873 0.016336648 0.05889039
-0.18574025 0.06900401 -0.05630958 -0.14586554 -0.15243088 0.13025112 -0.064389095 -0.18025848
0.075959615 0.05963519 -0.14555171 -0.16101404 -0.07579578 0.03114741 -0.13048035 -0.0450314
0.10591511 0.03253471 -0.022875534 -0.14583898 -0.10826547 0.047976907 -0.073759556 -0.123275496
0.05653198 -0.13063182 -0.040159337 -0.17253011 0.08556218 0.061554894 -0.015647896 -0.10799143
-0.13288383 -0.14288084 -0.13666025 -0.14165507 -0.08853864 -0.066962995 -0.061621767 -0.050903566
-0.12996876 0.17388241 -0.18507329 -0.19477047 -0.113138095 -0.081700966 -0.12269974 0.07309344
0.039305538 0.0026496493 0.0713723 -0.19907929 -0.18978193 -0.018530942 -0.14159763 0.0192476
-0.1391825 -0.065918185 -0.068958886 -0.059463814 -0.015771903 0.0032244208 0.10239328 -0.042568084
0.1336647 -0.006114307 0.02802013 -0.010081363 -0.036146075 0.08821104 -0.058915805 -0.15132935
-0.08343303 0.0026474737 0.07924919 -0.10029017 -0.030977214 -0.13716315 -0.14097013 -0.125569
0.107565664 0.04245954 -0.11180505 0.005706096 -0.11159422 -0.08999939 0.086627305 0.10992652
0.03337578 -0.09074156 -0.121521175 -0.1798727 -0.14595568 -0.05735642 0.040964264 0.09120911
-0.00086004793 0.07492112 -0.07121249 -0.11310612 -0.13725731 0.08544896 -0.12126648 -0.021121921
-0.15518452 -0.104116306 0.10514075 -0.057134446 0.046371296 -0.12519988 -0.1497533 -0.083745904
-0.15292206 -0.14200845 0.13080591 -0.14641157 -0.09965384 -0.14518012 -0.17491472 -0.17807633
0.046760567 -0.096147366 -0.16712494 0.018472178 -0.101437934 0.1544013 -0.11196363 -0.15268444
-0.15811706 -0.10654993 0.0691798 -0.0995046 0.15220189 -0.07685491 -0.09527656 0.08974517
-0.14447291 -0.087540895 -0.12001596 -0.13746564 -0.06381744 -0.12649615 0.101019666 -0.19801679
-0.073092945 0.14651509 -0.19649361 0.043674767 -0.013998295 -0.026380826 0.07079372 0.09243462
0.1336049 -0.09802516 -0.15274464 -0.097226456 -0.10532419 -0.122987494 -0.018055871 0.100132145
-0.07582361 0.021622991 -0.11465851 0.11583928 -0.012363038 -0.10450923 -0.06139101 -0.1258982
-0.081022926 -0.08312479 -0.1318484 -0.16567971 -0.07280963 0.029678103 -0.16941917 -0.068822585
-0.010960246 0.09227038 -0.100797 -0.14560159 -0.21234688 -0.1447692 0.100244336 -0.16987024
-0.165253 0.09487109 -0.13724667 0.027645607 -0.15771239 -0.15980023 -0.06650839 -0.15820079
-0.16669337 -0.19790043 -0.04735924 -0.18919684 -0.13875279 0.08510775 -0.07001989 0.122184515
00000000: 9396 2a3e b8ea 3bbe ec95 4ebd 94f4 2dbe
00000010: 5b73 2cbe 7c11 17be 2714 c5bd f29e 913d
00000020: 058a eebd c13a f6bd 87a0 933d 4db1 ff3b
00000030: 8661 d93d cedd 1f3e 21b5 81bd 678b 88bd
00000040: e0a5 0a3e c26e b53d 15d2 28be 0152 24be
00000050: 49d5 b8bd 4ba4 efbd 772a 39be 206a 30be
00000060: 7303 48be 4751 b4bd 277a 06be 32be 33be
00000070: b415 33be 5e92 ffbd c049 703b 7c9c 083e
00000080: 0524 6abd fa49 a4bd b9a8 953d 7af9 303e
00000090: 9c25 df3c 9e51 26be 93ae 03be d273 eabc
000000a0: 6fbe 273d deb8 2b3d 4b4b f6bd b689 05be
000000b0: 2630 ef3d 65f3 3cbe f2a1 18be 4848 21be
000000c0: 7a2b 8abd 17b9 c43c fcbf 2b3e 0319 acbc
000000d0: 3149 35be 3db4 073d 6fd4 853c 0d37 713d
000000e0: b132 3ebe f951 8d3d e0a4 66bd c75d 15be
000000f0: d716 1cbe 8d60 053e 6ede 83bd ae95 38be
00000100: b790 9b3d 0744 743d 820b 15be dde0 24be
00000110: d13a 9bbd da28 ff3c a49c 05be d872 38bd
00000120: 05ea d83d 1e43 053d 7965 bbbc d056 15be
00000130: 49ba ddbd 6f83 443d 400f 97bd dd77 fcbd
00000140: 148e 673d 59c4 05be 1e7e 24bd bcab 30be
00000150: 393b af3d fc20 7c3d 0430 80bc 9c2a ddbd
00000160: b312 08be 5b4f 12be aaf0 0bbe 070e 11be
00000170: bf53 b5bd e523 89bd 1b67 7cbd 4280 50bd
00000180: 8816 05be 3b0e 323e da83 3dbe e971 47be
00000190: f2b4 e7bd d652 a7bd 004a fbbd 03b2 953d
000001a0: d8fe 203d bda5 2d3b a42b 923d 71db 4bbe
000001b0: 3256 42be 34ce 97bc f8fe 10be 25ad 9d3c
000001c0: db85 0ebe 1d00 87bd 513a 8dbd 5490 73bd
000001d0: 1434 81bc ce50 533b 91b3 d13d df5b 2ebd
000001e0: 66df 083e 865a c8bb 798a e53c 4d2c 25bc
000001f0: e80d 14bd fda7 b43d b351 71bd 15f6 1abe
00000200: f0de aabd 3d81 2d3b 664d a23d ef64 cdbd
00000210: edc3 fdbc 7f74 0cbe 795a 10be 2995 00be
00000220: 634b dc3d 0eea 2d3d 0cfa e4bd 34fa ba3b
00000230: 838b e4bd 9a51 b8bd a869 b13d 2821 e13d
00000240: 0bb5 083d b6d6 b9bd 18e0 f8bd 8d30 38be
00000250: 6875 15be 91ee 6abd 25ca 273d d8cb ba3d
00000260: d774 61ba 3f70 993d dbd7 91bd 2ea4 e7bd
00000270: 2e8d 0cbe ddff ae3d 8f5a f8bd e107 adbc
00000280: b1e8 1ebe ee3a d5bd 0954 d73d cf05 6abd
00000290: d4ef 3d3d 6634 00be ee58 19be f982 abbd
000002a0: 9a97 1cbe aa6a 11be fcf1 053e eaec 15be
000002b0: 5017 ccbd 19aa 14be d81c 33be a459 36be
000002c0: 0288 3f3d e9e8 c4bd cd22 2bbe f752 973c
000002d0: b1be cfbd 601b 1e3e 304d e5bd 4f59 1cbe
000002e0: 70e9 21be da36 dabd 24ae 8d3d 11c9 cbbd
000002f0: d0da 1b3e 1b66 9dbd 5b20 c3bd 51cc b73d
00000300: b5f0 13be a448 b3bd edca f5bd cbc3 0cbe
00000310: b8b2 82bd 3588 01be 66e3 ce3d eac4 4abe
00000320: c1b1 95bd 0d08 163e 9f35 49be 50e4 323d
00000330: 1b59 65bc 9a1c d8bc 4cfc 903d 5d4e bd3d
00000340: b9cf 083e 6ac1 c8bd 1769 1cbe aa1e c7bd
00000350: 35b4 d7bd dee0 fbbd e8e9 93bc 1512 cd3d
00000360: 6949 9bbd b322 b13c 15d2 eabd 253d ed3d
00000370: 578e 4abc ef08 d6bd 2475 7bbd 75eb 00be
00000380: 59ef a5bd 543d aabd 4403 07be f1a7 29be
00000390: 371d 95bd 7e1f f33c 387c 2dbe dbf2 8cbd
000003a0: 9b92 33bc 41f8 bc3d a86e cebd 9518 15be
000003b0: 7671 59be 613e 14be e74c cd3d 77f2 2dbe
000003c0: 1538 29be c64b c23d 648a 0cbe 0a79 e23c
000003d0: 5b7f 21be aca2 23be 8d35 88bd 63ff 21be
000003e0: abb1 2abe 69a6 4abe c3fb 41bd d1bc 41be
000003f0: 3615 0ebe f94c ae3d 9766 8fbd e03b fa3d

network.6.weight f4 [128, 256]
0.0068354513 0.02222952 0.033179548 0.100150645 0.09432783 0.06758691 0.0095539875 -0.03592197
0.027525736 0.009598828 0.005773043 0.054713894 0.026905779 -0.01945446 0.0037701144 0.061520696
-0.080540776 -0.033212718 0.009788071 0.07609919 0.04488472 0.0019034713 0.0947607 0.08269447
0.07311042 0.043252394 0.054963745 0.0865876 0.06324845 0.07736005 -0.016196229 -0.0475346
-0.030383626 0.028465815 -0.027857767 0.025431098 -0.07750757 0.017325176 0.04883717 -0.017617727
0.027763903 -0.074008346 0.08947986 0.053221922 -0.028267885 0.04500887 0.1383016 0.05536197
0.04412123 -0.07422333 0.015646959 0.007931161 0.12970275 -0.02427605 -0.044616252 -0.019251855
0.07464557 -0.009481594 0.03268034 0.008515153 0.016488694 0.028040146 -0.015108347 0.099447906
0.011418735 0.023979148 0.06642435 0.030265847 0.0339725 -0.022024946 0.0069553633 0.054481946
-0.00082929886 -0.004526083 0.059783515 0.08371175 0.006564349 -0.041506838 0.0623271 0.10427896
-0.06684542 0.08517723 0.030658677 0.055979043 -0.062583454 -0.0077068736 0.01714362 0.011921147
0.038245726 0.046176728 -0.023364421 0.07848391 -0.0060426905 0.060967885 0.012706606 0.006791977
-0.007914284 0.017795864 0.16766705 0.13490057 0.03987843 0.024645329 -0.024335822 -0.002309012
-0.011389232 0.06028539 0.037191857 0.09903679 0.010667203 0.022339495 0.018006662 -0.0229656
0.03773231 0.0015893691 0.027544815 0.013819975 -0.007505941 -0.00010834078 -0.03643665 0.05748503
-0.010866456 -0.052399717 0.06571656 -0.018463617 -0.0397215 -0.0070947744 -0.008318493 0.11265199
0.012639073 0.07816189 0.020551348 0.023882 0.036319677 0.013956297 0.016770063 -0.00047778687
-0.002121118 0.03547622 -0.0054095467 0.05560105 0.032357067 0.050238486 -0.014818173 0.012757131
-0.05334413 0.044216957 -0.0016466916 0.15133525 0.082752086 -0.020481758 -0.031563677 -0.026538033
-0.05798417 -0.064212635 0.018420527 0.08821682 -0.010949233 -0.0065891347 -0.02376377 0.010688699
0.074765615 -0.006709043 -0.033562478 0.009172885 0.022135297 0.03143126 0.042052664 0.052306976
0.10761328 0.006471738 -0.040943936 0.052180998 0.072828874 0.06250228 0.025134891 0.020142945
-0.021956792 0.064137846 0.009787875 -0.08425822 -0.010189927 -0.0040912814 0.14123711 0.055009853
0.08527956 0.04065374 -0.026582096 0.026264876 0.01667519 0.060013052 0.05200097 -0.008198593
-0.009182047 0.047208607 0.00083816494 0.025466356 0.026147682 -0.0060739005 -0.067102 0.11012425
0.09026903 0.029253611 0.10429999 0.00072643685 -0.011957789 0.07881615 -0.051301375 -0.0030559874
-0.101871304 -0.01636716 0.05274249 0.0336217 0.06673259 0.080847576 0.064721644 -0.027171785
0.048854552 -0.02284336 0.022686854 0.025777126 -0.0344663 0.0033578305 0.047820546 -0.0021285794
0.043292426 0.081854634 0.09659968 0.0985573 0.04338854 -0.024467112 0.07919235 -0.0027375405
0.05125398 0.0104856575 0.080031104 0.005246409 0.054655552 -0.024171568 -0.07215321 0.02266306
2.2973945e-05 -0.055743247 0.06913826 0.005716521 0.023824094 0.021595232 -0.015818367 0.1118829
0.09041791 0.015404042 -0.013380643 0.11175833 0.036296137 -0.07064976 -0.010678982 0.0017315517
00000000: ecfb df3b af1a b63c 47e7 073d c81b cd3d
00000010: f32e c13d 026b 8a3d 5488 1c3c ea22 13bd
00000020: a77d e13c 6744 1d3c cb2b bd3b ad1b 603d
00000030: 8269 dc3c f65e 9fbc 0614 773b 20fd 7b3d
00000040: 90f2 a4bd 0f0a 08bd 255e 203c e4d9 9b3d
00000050: 0ad9 373d e67d f93a e611 c23d b85b a93d
00000060: eaba 953d 6c29 313d aa21 613d d754 b13d
00000070: 6788 813d f26e 9e3d f4ad 84bc a4b3 42bd
00000080: 15e7 f8bc 2431 e93c f935 e4bc e154 d03c
00000090: 4abc 9ebd 87ed 8d3c 7c09 483d 0d53 90bc
000000a0: 2071 e33c b091 97bd 3841 b73d 3bff 593d
000000b0: 0d92 e7bc 395b 383d ef9e 0d3e 3cc3 623d
000000c0: 76b8 343d 6702 98bd 0d2e 803c b3f1 013c
000000d0: ccd0 043e 91de c6bc 88bf 36bd 11b6 9dbc
000000e0: c7df 983d b058 1bbc d2db 053d 2483 0b3c
000000f0: 4c13 873c 73b4 e53c 0089 77bc 58ab cb3d
00000100: a515 3b3c eb6f c43c 7d09 883d 15f0 f73c
00000110: c026 0b3d a96d b4bc d1e9 e33b 7628 5f3d
00000120: 4e65 59ba 894f 94bb 8fdf 743d 1171 ab3d
00000130: c019 d73b 1303 2abd b44a 7f3d 3590 d53d
00000140: 40e6 88bd 6671 ae3d e827 fb3c 484a 653d
00000150: c12b 80bd f189 fcbb c770 8c3c ea50 433c
00000160: 8da7 1c3d cf23 3d3d be66 bfbc 2cbc a03d
00000170: c301 c6bb 76b9 793d 5e2f 503c 3c8f de3b
00000180: eaaa 01bc a2c8 913c e9b0 2b3e 6023 0a3e
00000190: 9157 233d 00e5 c93c eb5b c7bc cb52 17bb
000001a0: e799 3abc d0ed 763d 7d56 183d cdd3 ca3d
000001b0: 7ec5 2e3c 5101 b73c b582 933c 5b22 bcbc
000001c0: 328d 1a3d 6152 d03a aaa5 e13c 2d6d 623c
000001d0: 66f4 f5bb 0335 e3b8 993e 15bd 6c75 6b3d
000001e0: 3809 32bc 16a1 56bd 6796 863d 0341 97bc
000001f0: 03b3 22bd 487b e8bb 4a4a 08bc 16b6 e63d
00000200: 1d14 4f3c 5713 a03d 4d5b a83c 2fa4 c33c
00000210: f1c3 143d f4a8 643c 5f61 893c 787f fab9
00000220: 7402 0bbb 834f 113d 9142 b1bb edbd 633d
00000230: d888 043d dfc6 4d3d ecc7 72bc 4903 513c
00000240: 607f 5abd d71c 353d cdd5 d7ba a1f7 1a3e
00000250: ed79 a93d 5cc9 a7bc ea48 01bd 4a66 d9bc
00000260: cf80 6dbd ea81 83bd a5e6 963c 05ab b43d
00000270: 6964 33bc abe9 d7bb 3dac c2bc a71f 2f3c
00000280: b71e 993d 88d7 dbbb cf78 09bd de49 163c
00000290: 1555 b53c 11be 003d 6a3f 2c3d d73f 563d
000002a0: 5a64 dc3d e010 d43b d4b4 27bd bebb 553d
000002b0: 4e27 953d 3201 803d b0e7 cd3c d102 a53c
000002c0: bbde b3bc b45a 833d 535d 203c 938f acbd
000002d0: a7f3 26bc 2810 86bb 76a0 103e 0352 613d
000002e0: 0da7 ae3d 8984 263d b2c2 d9bc 7029 d73c
000002f0: 689a 883c 3fd0 753d f8fe 543d 6453 06bc
00000300: 4c70 16bc d05d 413d 4cb8 5b3a d29e d03c
00000310: aa33 d63c 9207 c7bb c66c 89bd d388 e13d
00000320: f8de b83d 45a5 ef3c 3c9b d53d 5a6e 3e3a
00000330: 9aea 43bc 5d6a a13d 6421 52bd f646 48bb
00000340: e7a1 d0bd 6c14 86bc 8208 583d e8b6 093d
00000350: 19ab 883d 6a93 a53d c88c 843d 5d97 debc
00000360: b61b 483d 0022 bbbc c8d9 b93c 8d2a d33c
00000370: 892c 0dbd 0c0f 5c3b 7adf 433d a37f 0bbb
00000380: 6653 313d 67a3 a73d 0ed6 c53d 69d8 c93d
00000390: 2fb8 313d 416f c8bc 992f a23d 4f68 33bb
000003a0: b1ef 513d 09cc 2b3c 59e7 a33d 12ea ab3b
000003b0: 80de 5f3d 7403 c6bc 10c5 93bd e2a7 b93c
000003c0: 2cb8 c037 0853 64bd 5c98 8d3d a751 bb3b
000003d0: bf2a c33c 7ce8 b03c 8595 81bc dd22 e53d
000003e0: 062d b93d 3c61 7c3c 7c3a 5bbc 8de1 e43d
000003f0: 42ab 143d d2b0 90bd e6f6 2ebc 3cf5 e23a

network.6.bias f4 [128]
-0.12076184 0.0022032813 -0.13005792 0.010833154 -0.06555669 0.06806321 -0.10226921 -0.0712966
-0.0043246187 -0.07034304 -0.0031047133 -0.12607566 0.0022596915 0.05240579 0.05039468 0.0017509402
0.049688615 0.05034815 -0.13549282 0.02874515 -0.15844584 -0.08416766 0.052409574 -0.026130741
-0.053570308 -0.09259663 -0.13865255 -0.105982296 0.040556397 -0.055141248 -0.09951716 -0.10418728
0.007185212 -0.013381392 -0.002501653 -0.033951644 -0.09997605 0.034263946 0.054917037 -0.04732045
-0.13019204 -0.0895266 -0.031973466 -0.010074064 -0.12524581 -0.0939098 -0.059265167 -0.060447056
0.056043517 0.008948287 -0.01874806 0.045204766 0.06119859 0.037148375 -0.12864146 -0.07451996
-0.058786415 -0.08302152 -0.055682298 -0.13003053 -0.015210769 -0.043431748 -0.124419756 -0.036624484
-0.07040886 -0.08799987 0.007784914 -0.08184468 -0.10473524 -0.060216933 0.03214813 -0.09548082
0.06721834 -0.05317059 0.06411393 -0.12661187 0.037549686 -0.017103488 0.024609793 -0.10656334
-0.09205782 0.030180823 0.018829446 -0.03738481 -0.000249183 -0.012145407 -0.06810701 -0.004482448
-0.09778017 -0.15213454 0.014448192 0.036831524 -0.023858707 0.04717902 -0.12570523 0.03952177
-0.097273976 -0.029193718 0.027886312 -0.021186199 -0.053787768 0.17818275 -0.0090149455 -0.1471911
-0.0063663376 0.043679852 -0.027980028 -0.0782651 -0.10428339 -0.13158631 0.030744135 -0.03790487
0.008945453 0.054795984 -0.012092445 0.057383813 -0.12922512 0.049277455 0.06774426 -0.09451639
-0.044184994 -0.062247295 -0.14302719 -0.12687397 -0.14230007 0.1321533 -0.10572886 0.04801979
00000000: fc51 f7bd ed64 103b e72d 05be 8b7d 313c
00000010: 9642 86bd b964 8b3d 8572 d1bd f403 92bd
00000020: 88b5 8dbb 0310 90bd 7278 4bbb fa19 01be
00000030: 5517 143b 74a7 563d a76a 4e3d ce7f e53a
00000040: 4a86 4b3d dd39 4e3d a1be 0abe f37a eb3c
00000050: a03f 22be 1860 acbd 6cab 563d 2310 d6bc
00000060: 8a6c 5bbd 4da3 bdbd effa 0dbe 3f0d d9bd
00000070: 771e 263d cadb 61bd a7cf cbbd 2460 d5bd
00000080: ed71 eb3b a03d 5bbc c6f2 23bb e110 0bbd
00000090: 3ec0 ccbd 5a58 0c3d b0f0 603d 17d3 41bd
000000a0: 1051 05be b959 b7bd 9cf6 02bd b00d 25bc
000000b0: 7040 00be c853 c0bd 08c0 72bd 5597 77bd
000000c0: e38d 653d d69b 123c 8895 99bc a228 393d
000000d0: 5fab 7a3d e528 183d 96ba 03be ec9d 98bd
000000e0: 06ca 70bd 3007 aabd 1f13 64bd b926 05be
000000f0: 9736 79bc 7de5 31bd c9cf febd 8e03 16bd
00000100: 8532 90bd 4739 b4bd 9818 ff3b 2f9e a7bd
00000110: 6e7f d6bd 08a6 76bd c2ad 033d 738b c3bd
00000120: c5a9 893d 68c9 59bd 2a4e 833d 8ba6 01be
00000130: b3cd 193d 9d1c 8cbc 7a9a c93c e13d dabd
00000140: cf88 bcbd c63d f73c 3640 9a3c d120 19bd
00000150: c7a4 82b9 87fd 46bc b07b 8bbd 80e1 92bb
00000160: f840 c8bd 28c9 1bbe 1cb8 6c3c a7dc 163d
00000170: 5673 c3bc ca3e 413d dfb8 00be 94e1 213d
00000180: 9437 c7bd aa27 efbc d671 e43c ae8e adbc
00000190: 9050 5cbd 8a75 363e 6cb3 13bc 44b9 16be
000001a0: b69c d0bb a5e9 323d 5f36 e5bc 7449 a0bd
000001b0: 8892 d5bd 90be 06be 20db fb3c 2342 1bbd
000001c0: f38f 123c c171 603d 641f 46bc 4a0b 6b3d
000001d0: 9753 04be 28d7 493d 81bd 8a3d cf91 c1bd
000001e0: 53fb 34bd 05f7 7ebd b875 12be 40eb 01be
000001f0: 1cb7 11be 3253 073e 5f88 d8bd 66b0 443d

network.9.weight f4 [1, 128]
0.15641919 -0.12095089 0.1911702 -0.1285281 0.13804738 -0.06673414 0.13964045 0.15522204
-0.13790548 -0.13307051 -0.09979475 0.14352259 -0.12821455 -0.09958339 -0.082627885 -0.07239482
-0.11770649 -0.086090155 0.16160803 -0.10356956 0.14462811 0.12347028 -0.081969485 -0.11690454
0.1579836 0.1201099 0.18056391 0.13136218 -0.13187408 0.16417821 0.15647033 0.13302429
-0.11007446 -0.15141955 -0.072285734 0.11548974 0.15044518 -0.08322508 -0.08124555 -0.11153486
0.20502444 0.13332847 0.1769789 0.12209273 0.18044814 -0.16152224 0.1523903 0.14870712
-0.077362105 -0.09923013 0.12842122 0.1716475 -0.10086135 -0.114579394 0.13477555 0.19987506
0.10901977 0.16972871 0.18653603 0.18442906 -0.11235356 0.18576305 0.14798321 0.11074442
0.19805601 0.19992617 -0.10372858 0.16875176 0.1794088 0.15503848 -0.09773616 0.18083479
-0.06432341 0.16976966 -0.11120427 -0.1424398 -0.121455416 0.066187374 -0.059226934 0.15082496
0.19517726 -0.07967134 -0.10801181 -0.09711745 -0.14397037 -0.122561745 0.14226453 -0.108948946
0.21075715 0.14294352 -0.089946 -0.06431127 -0.11167283 -0.13655272 0.1811593 -0.13690113
0.13326913 0.11267846 -0.107326716 0.148379 0.101415604 0.4920637 0.15015164 0.15326394
-0.12072948 -0.11341524 0.124891296 0.14604841 0.1709032 0.15409575 -0.10992948 0.13440253
-0.16274375 -0.105398364 -0.15667091 -0.07365666 0.15820993 -0.09968748 -0.16738267 0.19635977
0.06792873 0.1254309 0.19696331 0.15827183 0.13949315 0.24270977 0.10831621 -0.06827106
00000000: 5a2c 203e 1ab5 f7bd 1fc2 433e df9c 03be
00000010: 4b5c 0d3e e9ab 88bd e8fd 0e3e 87f2 1e3e
00000020: 1837 0dbe a343 08be 3161 ccbd 96f7 123e
00000030: ad4a 03be 60f2 cbbd cf38 a9bd bc43 94bd
00000040: 1a10 f1bd 0950 b0bd 937c 253e 471c d4bd
00000050: 6419 143e fcdd fc3d 9edf a7bd a66b efbd
00000060: 74c6 213e 2efc f53d bfe5 383e cf83 063e
00000070: 000a 07be 551e 283e c239 203e 8537 083e
00000080: b86e e1bd ba0d 1bbe 8b0a 94bd e385 ec3d
00000090: 4d0e 1a3e e971 aabd 1164 a6bd 646c e4bd
000000a0: edf1 513e 4287 083e f539 353e c10b fa3d
000000b0: 66c7 383e 1666 25be 340c 1c3e ae46 183e
000000c0: 0670 9ebd 2b39 cbbd da80 033e 5dc4 2f3e
000000d0: 6590 cebd 9aa8 eabd 9a02 0a3e 0cac 4c3e
000000e0: c245 df3d 5dcd 2d3e 4d03 3f3e f9da 3c3e
000000f0: a019 e6bd ab38 3e3e e988 173e f8cd e23d
00000100: 32cf 4a3e 72b9 4c3e a66f d4bd 43cd 2c3e
00000110: f1b6 373e 68c2 1e3e e529 c8bd c12c 393e
00000120: febb 83bd 19d8 2d3e 10bf e3bd bddb 11be
00000130: 9ebd f8bd 3f8d 873d f197 72bd dc71 1a3e
00000140: 8cdc 473e ba2a a3bd 4c35 ddbd 83e5 c6bd
00000150: f86c 13be a701 fbbd cbad 113e a020 dfbd
00000160: b9d0 573e c95f 123e 9c35 b8bd a1b5 83bd
00000170: bab4 e4bd 7ad4 0bbe d381 393e cf2f 0cbe
00000180: b477 083e f7c3 e63d 1cce dbbd aaf0 173e
00000190: fcb2 cf3d c6ef fb3e 5ac1 193e 39f1 1c3e
000001a0: 0541 f7bd 4046 e8bd 02c7 ff3d b78d 153e
000001b0: 4001 2f3e 47cb 1d3e b522 e1bd d1a0 093e
000001c0: 4ca6 26be 19db d7bd 576e 20be 4ed9 96bd
000001d0: c901 223e f328 ccbd 5d66 2bbe 8912 493e
000001e0: 381e 8b3d f570 003e c0b0 493e 0312 223e
000001f0: 4bd7 0e3e e988 783e e4d4 dd3d b3d1 8bbd
