models/epoch_20/generator.pth (torch, 485191 bytes, 20 tensors)

network.0.weight f4 [128, 100]
-0.08819574 0.014469927 0.06630119 -0.013518039 -0.033887807 0.031103078 -0.063433684 -0.060468677
-0.039087806 -0.0076032346 -0.058552254 -0.0511663 -0.084496014 0.03656529 -0.032830656 -0.0019665966
-0.0818599 -0.05771796 0.022005703 -0.08249853 -0.079212464 -0.061103143 -0.0004944293 -0.087562844
0.048594743 -0.04160979 -0.06264829 -0.11327799 -0.0037857795 -0.10187302 -0.06227657 -0.026356284
-0.01659779 0.113245554 -0.052560873 -0.03351077 -0.053008363 -0.021344364 -0.01710547 -0.0803024
0.06970745 0.056425598 -0.08489042 -0.012974183 -0.0074803936 0.07570168 0.08017104 -0.0032797102
-0.015061867 0.076120764 -0.017915059 -0.012313741 -0.04881798 -0.10336752 -0.077107765 0.061434053
-0.029081536 0.056649696 -0.09580236 0.09833723 -0.03286726 -0.04612601 -0.020428747 0.0001229557
-0.02760332 0.0511856 0.068402305 0.072290696 -0.009485199 0.07959676 -0.09880607 0.0010966872
0.059151392 -0.07794318 0.012109269 0.12164238 -0.057406627 0.036885206 0.034134813 0.06415219
-0.028554931 0.09030053 -0.06229562 -0.01833293 -0.10948151 0.057456437 0.0015227853 0.099107146
0.015585319 0.0058084973 -0.047990415 0.10732032 -0.032585885 0.023162581 0.03040313 -0.00070054363
-0.022602081 -0.09552444 0.057519857 0.0837111 0.0420759 -0.052960888 -0.055930693 -0.050210204
0.0024912523 -0.054494873 0.033696048 -0.09472847 0.020819211 0.047426216 0.100235745 -0.080893196
0.04048577 0.08286381 -0.030601772 -0.023239598 -0.071606055 0.07258642 0.04167256 0.027686708
-0.016291384 -0.05880678 -0.0488338 -0.04851439 0.02220811 0.009673967 -0.03435858 0.02978225
0.08315854 0.0759401 0.07551348 -0.07166508 0.053133268 0.084517494 -0.0061224666 0.083171606
-0.06391226 0.0121926125 0.08709677 -0.029123733 0.03167636 -0.10751526 -0.011034422 -0.027878951
0.06479119 -0.113402955 0.0057588723 -0.06768846 0.09292467 0.081179105 0.08020312 -0.042838402
0.0823108 -0.05469095 0.057373453 0.054448415 -0.08118246 0.089777514 -0.031147223 0.07296034
-0.047381323 0.0058684857 -0.076311834 -0.011037385 -0.023991337 -0.07486934 0.030768296 -0.02909083
0.05177744 0.053569328 0.089740515 -0.07997587 -0.025270313 0.06703299 0.010004458 0.053835213
0.06742551 -0.059384797 0.051641878 -0.03401041 0.05643215 0.018100752 0.10366652 -0.04038578
-0.068104774 -0.052754715 -0.025824577 0.043463167 -0.08972349 -0.10249217 -0.05918053 0.0658417
-0.08703072 0.051299594 -0.112499155 -0.018772101 -0.0059986287 0.11948842 0.030768193 -0.008756388
0.00030734862 0.06162671 -0.01643498 -0.04364007 -0.061846025 -0.002231787 0.032683346 0.07875056
-0.09444958 -0.0064023295 -0.06608625 0.04562306 0.09258537 0.09400765 0.031088741 0.042920426
0.045685414 -0.07420067 0.014373311 0.015025049 -0.08490502 -0.0061894213 -0.07530598 0.050175518
0.06282286 -0.081271626 -0.11622774 -0.08539596 0.07886739 -0.00083131104 0.05218272 -0.042533018
0.08318573 -0.002259769 -0.09991656 0.029807888 0.028753407 -0.07020626 -0.084034905 0.04264711
0.062210213 -0.0354502 -0.0028585678 -0.09683152 -0.00062255794 -0.054261956 -0.11856766 0.11014207
0.028491974 0.0012640049 -0.005858612 -0.07784989 -0.034299187 0.01770565 0.06747384 0.11411874
00000000: f89f b4bd 4613 6d3c ebc8 873d c47a 5dbc
00000010: f1cd 0abd e2cb fe3c 85e9 81bd 01ae 77bd
00000020: 891a 20bd 8e24 f9bb 7dd4 6fbd c193 51bd
00000030: 3f0c adbd 7cc5 153d 7079 06bd 04e2 00bb
00000040: 2aa6 a7bd ab69 6cbd 4e45 b43c fdf4 a8bd
00000050: 253a a2bd 4a47 7abd 979c 01ba 2654 b3bd
00000060: 480b 473d 076f 2abd bf4d 80bd 4afe e7bd
00000070: d71a 78bb cda2 d0bd b715 7fbd 22e9 d7bc
00000080: 17f8 87bc 49ed e73d 124a 57bd 9742 09bd
00000090: 4c1f 59bd 60da aebc c520 8cbc 9675 a4bd
000000a0: c8c2 8e3d 871e 673d 07db adbd ab91 54bc
000000b0: 171e f5bb 7b09 9b3d b730 a43d 68f0 56bb
000000c0: 0dc6 76bc 34e5 9b3d 9ac2 92bc 93bf 49bc
000000d0: 5df5 47bd 5ab2 d3bd adea 9dbd 46a2 7b3d
000000e0: 673c eebc 8309 683d 0734 c4bd 0865 c93d
000000f0: d29f 06bd a1ee 3cbd 305a a7bc abed 0039
00000100: 5c20 e2bc fea7 513d 8216 8c3d 250d 943d
00000110: cf67 1bbc a003 a33d d65a cabd b7be 8f3a
00000120: bb48 723d ada0 9fbd f565 463c a41f f93d
00000130: 3623 6bbd f114 173d f2d0 0b3d 3962 833d
00000140: 08ec e9bc 7cef b83d b129 7fbd f12e 96bc
00000150: d837 e0bd 7157 6b3d 3298 c73a b0f8 ca3d
00000160: 9159 7f3c 3555 be3b 9991 44bd c2ca db3d
00000170: c778 05bd 74bf bd3c fc0f f93c b0a4 37ba
00000180: 0028 b9bc 51a2 c3bd f199 6b3d ba70 ab3d
00000190: c757 2c3d 84ed 58bd 9517 65bd 37a9 4dbd
000001a0: 4744 233b 0436 5fbd de04 0a3d 0001 c2bd
000001b0: 0d8d aa3c fe41 423d 6648 cd3d 55ab a5bd
000001c0: 68d4 253d 80b4 a93d 91b0 fabc f860 bebc
000001d0: 32a6 92bd 30a8 943d d9b0 2a3d 3ccf e23c
000001e0: 8275 85bc 61df 70bd f305 48bd 06b7 46bd
000001f0: c8ed b53c 8f7f 1e3c 95bb 0cbd e8f9 f33c
00000200: 064f aa3d 7c86 9b3d d0a6 9a3d 24c5 92bd
00000210: 45a2 593d 8217 ad3d f99e c8bb e055 aa3d
00000220: 6ee4 82bd 86c3 473c cb5f b23d e594 eebc
00000230: 12bf 013d f630 dcbd b8c9 34bc 6662 e4bc
00000240: 3eb1 843d cf3f e8bd ecb4 bc3b 3fa0 8abd
00000250: 4a4f be3d 3b41 a63d 8941 a43d 5277 2fbd
00000260: 9192 a83d 9e03 60bd 6d00 6b3d 4d05 5f3d
00000270: fd42 a6bd 46dd b73d 7628 ffbc 3b6c 953d
00000280: eb12 42bd 6d4c c03b 6149 9cbd 26d6 34bc
00000290: 7b89 c4bc 1955 99bd cb0d fc3c e44f eebc
000002a0: 9514 543d 836b 5b3d e0c9 b73d 64ca a3bd
000002b0: b003 cfbc 9848 893d bde9 233c 5082 5c3d
000002c0: 6316 8a3d 793d 73bd 6f86 533d 804e 0bbd
000002d0: 6625 673d 0748 943c 1d4f d43d 8f6b 25bd
000002e0: 847a 8bbd 5415 58bd 108e d3bc 6f06 323d
000002f0: f3c0 b7bd 6ae7 d1bd 4967 72bd 03d8 863d
00000300: 2a3d b2bd 861f 523d f565 e6bd f3c7 99bc
00000310: 2590 c4bb 58b6 f43d 940d fc3c f476 0fbc
00000320: a223 a139 4a6c 7c3d a7a2 86bc eebf 32bd
00000330: 4252 7dbd 2c43 12bb f9de 053d f947 a13d
00000340: c86e c1bd a2ca d1bb 3a58 87bd 3fdf 3a3d
00000350: 669d bd3d 1587 c03d d1ad fe3c 54cd 2f3d
00000360: a120 3b3d 85f6 97bd 097e 6b3c a02b 763c
00000370: afe2 adbd a1d0 cabb 063a 9abd d884 4d3d
00000380: 46a9 803d bd71 a6bd cf08 eebd 14e4 aebd
00000390: 3a85 a13d 57ec 59ba 8cbd 553d 1a37 2ebd
000003a0: 485d aa3d a218 14bb 0ea1 ccbd ac2f f43c
000003b0: 448c eb3c 4dc8 8fbd 7e1a acbd bcae 2e3d
000003c0: 23d0 7e3d 3b34 11bd cf56 3bbb 9b4f c6bd
000003d0: 2833 23ba c941 5ebd 9ad3 f2bd 2a92 e13d
000003e0: 0068 e93c f7ac a53a 99f9 bfbb c36f 9fbd
000003f0: 4e7d 0cbd 700b 913c ba2f 8a3d 16b7 e93d

network.0.bias f4 [128]
-0.08105524 0.09483257 0.10531791 0.03477644 0.058299508 0.034828935 0.10556713 0.08747668
0.003759009 0.063199095 -0.082749784 -0.0064676027 0.07182993 0.08129523 0.013883798 0.06642851
-0.08801854 -0.015361328 -0.061535764 0.062017597 0.01384256 -0.07363376 0.028956361 -0.11395953
0.014228964 -0.024009475 -0.064692505 -0.041350793 -0.043280724 -0.028358769 0.028991368 -0.07370949
-0.037631452 0.09249462 0.05308692 0.09084911 -0.018711988 0.0019015725 0.10390949 -0.080084145
0.027059441 -0.06567617 -0.07173275 0.02170796 0.0020033936 0.011746029 0.0025706422 0.0028049191
-0.06314176 0.033713736 0.08394234 0.10892492 0.09940187 -0.09017793 0.0545615 -0.0035301533
-0.014928277 -0.011200919 0.00922783 0.01583084 0.09284245 -0.053833235 -0.0018362447 -0.096804336
0.006802653 -0.06855599 -0.029470287 -0.013927442 -0.07920519 0.012413059 0.041098613 -0.024073347
0.032157496 -0.039376963 0.016761709 -0.013861147 0.031284112 -0.025545357 -0.07427194 -0.06739561
-0.08958003 0.07540267 -0.017895835 -0.07254578 0.11433764 0.022021817 0.085682206 -0.032496735
-0.022416336 0.017916529 -0.05953158 0.005290847 0.026359186 -0.042087622 -0.08779189 0.011350897
-0.02858456 -0.018325938 -0.059830952 0.071830936 -0.023779852 -0.00042856985 -0.04680688 -0.031680793
-0.046527963 0.06468262 -0.064197294 -0.03356223 -0.027777985 -0.082856536 0.011543578 -0.026908403
-0.053890042 -0.08449978 -0.07052118 0.070934966 -0.035140913 0.024618922 0.09152638 -0.0076845004
0.0290654 -0.040266905 -0.08083793 0.07816659 0.099609666 0.13043714 0.034908842 -0.012696656
00000000: 4a00 a6bd 9437 c23d ebb0 d73d be71 0e3d
00000010: 77cb 6e3d c9a8 0e3d 9433 d83d f926 b33d
00000020: b559 763b 876e 813d b878 a9bd 2fee d3bb
00000030: 921b 933d 1d7e a63d df78 633c ac0b 883d
00000040: 1043 b4bd 14ae 7bbc ed0c 7cbd 2a06 7e3d
00000050: e8cb 623c 4ccd 96bd e435 ed3c 9d63 e9bd
00000060: 9a20 693c 85af c4bc 817d 84bd 735f 29bd
00000070: 2147 31bd a650 e8bc 4e7f ed3c 00f5 96bd
00000080: 7023 1abd d26d bd3d ac71 593d 190f ba3d
00000090: e249 99bc 2f3e f93a 80ce d43d 2803 a4bd
000000a0: c3ab dd3c 3a81 86bd 9fe8 92bd e4d4 b13c
000000b0: 5e4b 033b 6b72 403c 3878 283b bcd2 373b
000000c0: 7850 81bd 6a17 0a3d f6e9 ab3d 0714 df3d
000000d0: 3593 cb3d 35af b8bd e17b 5f3d 255a 67bb
000000e0: bb95 74bc 0f84 37bc 5330 173c aeaf 813c
000000f0: 2f24 be3d 3d80 5cbd 26ae f0ba 5a41 c6bd
00000100: cae8 de3b 1567 8cbd ac6b f1bc ed2f 64bc
00000110: 5536 a2bd 2560 4b3c 0557 283d 7835 c5bc
00000120: 94b7 033d bd49 21bd da4f 893c dd19 63bc
00000130: c523 003d 7f44 d1bc e31b 98bd b606 8abd
00000140: bc75 b7bd b76c 9a3d 499a 92bc e292 94bd
00000150: da29 ea3d 1967 b43c 277a af3d 4c1b 05bd
00000160: 77a2 b7bc afc5 923c 63d7 73bd d75e ad3b
00000170: 38ef d73c 1264 2cbd 3ccc b3bd 1df9 393c
00000180: 2b2a eabc 4720 96bc 4d11 75bd 191c 933d
00000190: f7cd c2bc acb1 e0b9 92b8 3fbd b8c3 01bd
000001a0: 1b94 3ebd 5278 843d df79 83bd 8d78 09bd
000001b0: a88e e3bc b0b0 a9bd 4621 3d3c 036f dcbc
000001c0: cebb 5cbd 380e adbd 696d 90bd 5a46 913d
000001d0: ebef 0fbd 9fad c93c 2f72 bb3d 43ce fbbb
000001e0: 901a ee3c e9ee 24bd 5b8e a5bd ce15 a03d
000001f0: 2700 cc3d 5091 053e 93fc 0e3d a305 50bc

network.2.weight f4 [128]
1.0163761 1.0006766 1.0044284 1.0188497 0.9741992 1.0114776 1.0373241 1.0016551
0.97868174 1.0149851 0.97221506 0.9990558 0.99071944 1.034349 1.0069557 1.001308
0.9849091 1.0204973 1.0173185 0.9944295 1.0059925 0.99734724 0.96823 1.0126554
1.0193655 1.0067605 1.0009254 0.9996717 0.9862723 0.99584126 0.9717741 0.96184015
1.0016896 0.98664516 1.0151243 1.0330024 0.9860338 1.0301163 0.98935413 0.99468046
0.9806466 0.9730546 0.9709921 0.99864316 1.0057473 0.9838202 0.9960082 1.0163144
0.98825765 0.9687286 0.9907422 1.0060182 0.9694463 0.9686079 1.0174927 1.0212764
1.0095913 1.0022941 1.0366195 0.9795926 1.0192045 0.95782524 1.0356984 0.95776004
0.99308443 0.9776466 0.98701286 0.9712875 1.0238955 0.98532397 1.0046215 1.0013294
1.0229958 1.0014619 0.9818437 0.97641593 1.004603 1.0085583 1.0262831 0.9926268
0.9735278 1.0144955 1.0055841 0.980041 0.99261093 0.9866065 1.0279222 0.9760387
0.99676347 1.0348082 0.9600736 1.005951 1.0040423 1.0009212 0.99613804 0.9830092
0.99302846 1.0416437 1.0139099 0.9917967 0.98102486 1.0177749 0.99712867 1.0104777
0.96432364 1.0367895 0.9929746 1.0164082 0.9807261 0.99432963 1.0296603 1.0189443
0.9835588 0.9825194 1.0105021 0.9933636 1.0179446 0.9989479 0.9940349 1.0357989
1.0115985 0.9926371 1.0210944 1.0261205 1.0189037 0.9837794 1.0095813 1.0301461
00000000: 9d18 823f 2c16 803f 1c91 803f ab69 823f
00000010: 1e65 793f 1978 813f 09c7 843f 3c36 803f
00000020: e38a 7a3f 08eb 813f 16e3 783f 1fc2 7f3f
00000030: ca9f 7d3f 8c65 843f ede3 803f dc2a 803f
00000040: 0123 7c3f a89f 823f 7e37 823f ef92 7e3f
00000050: 5dc4 803f 2652 7f3f ecdd 773f b19e 813f
00000060: 927a 823f 87dd 803f 531e 803f 7cea 7f3f
00000070: 577c 7c3f 74ef 7e3f 30c6 783f 283b 763f
00000080: 5d37 803f c794 7c3f 98ef 813f 6c39 843f
00000090: b66c 7c3f dada 833f 5046 7d3f 61a3 7e3f
000000a0: a80b 7b3f 1b1a 793f f092 783f 14a7 7f3f
000000b0: 54bc 803f a4db 7b3f 65fa 7e3f 9716 823f
000000c0: 74fe 7c3f 99fe 773f 48a1 7d3f 34c5 803f
000000d0: a22d 783f b0f6 773f 333d 823f 2fb9 823f
000000e0: 4a3a 813f 2c4b 803f f3af 843f 95c6 7a3f
000000f0: 4b75 823f 0934 753f c491 843f c32f 753f
00000100: c83a 7e3f 0c47 7a3f e0ac 7c3f 4ca6 783f
00000110: 020f 833f 313e 7c3f 7097 803f 902b 803f
00000120: 87f1 823f e72f 803f 1c5a 7b3f 65f6 793f
00000130: d596 803f 7018 813f 3f5d 833f ca1c 7e3f
00000140: 1e39 793f fdda 813f fbb6 803f f8e3 7a3f
00000150: c01b 7e3f 3e92 7c3f f492 833f acdd 793f
00000160: e42b 7f3f 9874 843f 62c7 753f 01c3 803f
00000170: 7584 803f 301e 803f e702 7f3f 7ea6 7b3f
00000180: 1d37 7e3f 9554 853f cdc7 813f 63e6 7d3f
00000190: 7224 7b3f 7346 823f d343 7f3f 5557 813f
000001a0: eadd 763f 85b5 843f 9533 7e3f aa19 823f
000001b0: de10 7b3f 638c 7e3f e9cb 833f c46c 823f
000001c0: 82ca 7b3f 6486 7b3f 2258 813f 144d 7e3f
000001d0: 024c 823f 0dbb 7f3f 1279 7e3f 0f95 843f
000001e0: 0f7c 813f 771d 7e3f 39b3 823f eb57 833f
000001f0: 706b 823f f7d8 7b3f f639 813f d4db 833f

network.2.bias f4 [128]
0.0022668394 0.03349263 -0.00769013 0.009376249 -0.018291043 -0.0014142356 -0.03095688 0.007246733
0.017884584 0.0051984563 0.047903944 0.014120906 -0.0012035571 0.011864273 0.029415002 0.03015835
0.040380083 0.017300077 -0.028108755 -0.00086881104 -0.03952272 -0.0066756625 -0.00093333196 -0.017621348
0.009538829 0.013797403 -0.04163186 0.010470009 -0.012656852 0.011756315 0.017257217 0.0032612612
0.018512772 -0.011446291 -0.024121357 -0.022733752 -0.014806565 -0.029699296 0.021831833 -0.0094215255
-0.015955403 -0.010384678 -0.0032239042 0.036025442 0.0028916902 -0.01677417 0.034828357 0.019007828
-0.021922264 -0.0021155796 -0.01245884 -0.009273179 0.018249396 0.00017707805 -0.0075593614 -0.0331179
0.001571117 0.016648633 -0.014114835 -0.01808299 0.022663329 -0.0062811887 0.009962165 0.023715235
-0.017833194 -0.0026731212 -0.0024537048 -0.006639432 0.00516503 0.0029860006 0.01645481 0.03293799
-0.015837392 -0.024554955 0.045946393 0.038064092 0.020360757 0.011441574 -0.001279207 -0.037010204
-0.03836538 -0.06267706 0.009869667 -0.033808094 0.0045558573 0.017361509 -0.010649483 -0.0027996746
-0.019447982 -0.015320163 -0.030668095 -0.033227623 0.028154114 -0.025540724 0.026949298 0.015095364
0.03174263 0.016051047 -0.038417697 -0.002314732 0.011644108 -0.015819443 -0.00044299595 -0.050585598
9.6491625e-05 0.005433842 -0.01005089 -0.009270332 -0.007775563 0.002203076 -0.023465933 -0.023223482
0.022576066 -0.014985655 -0.014801295 0.0103036 -0.0020471027 0.007722937 0.032996893 -0.010309483
-0.0095501235 0.02602224 -0.012988653 -0.00043668033 0.004004878 0.0282644 0.013267674 -0.05063397
00000000: 418f 143b 912f 093d 7cfd fbbb d79e 193c
00000010: 19d7 95bc df5d b9ba 4899 fdbc 0176 ed3b
00000020: b182 923c d057 aa3b ed36 443d 5f5b 673c
00000030: adc0 9dba 5e62 423c bbf7 f03c a50e f73c
00000040: 9665 253d e4b8 8d3c 5544 e6bc ecc0 63ba
00000050: 93e2 21bd 84bf dabb d9aa 74ba a55a 90bc
00000060: c048 1c3c 810e 623c 2b86 2abd 678a 2b3c
00000070: af5e 4fbc 8f9d 403c 025f 8d3c e2ba 553b
00000080: 19a8 973c 3989 3bbc 279a c5bc 223c babc
00000090: 3c97 72bc f04b f3bc acd8 b23c be5c 1abc
000000a0: e8b4 82bc 7f24 2abc 2348 53bb 6a8f 133d
000000b0: 8382 3d3b fc69 89bc 2ea8 0e3d 4eb6 9b3c
000000c0: 5296 b3bc 89a5 0abb 2a20 4cbc 88ee 17bc
000000d0: c27f 953c 07ae 3939 85b4 f7bb a3a6 07bd
000000e0: f0ed cd3a b762 883c e941 67bc c722 94bc
000000f0: 72a8 b93c 6ed2 cdbb 5938 233c 7446 c23c
00000100: eb16 92bc 882f 2fbb 56ce 20bb 988f d9bb
00000110: 693f a93b c7b0 433b 3dcc 863c fce9 063d
00000120: 6bbd 81bc 7927 c9bc 4932 3c3d 18e9 1b3d
00000130: 9acb a63c 7175 3b3c 10ab a7ba 0398 17bd
00000140: 0425 1dbd d55c 80bd 62b4 213c 5b7a 0abd
00000150: 4d49 953b b939 8e3c 2b7b 2ebc bf7a 37bb
00000160: 6051 9fbc 6c01 7bbc a83b fbbc b019 08bd
00000170: 75a3 e63c c83a d1bc c6c4 dc3c 8c52 773c
00000180: 8f04 023d 7c7d 833c e05b 1dbd c2b2 17bb
00000190: eec6 3e3c c797 81bc e941 e8b9 d832 4fbd
000001a0: 8c5b ca38 5f0e b23b 7dac 24bc 97e2 17bc
000001b0: 26ca febb 7b61 103b a13b c0bc 2c3f bebc
000001c0: 71f1 b83c 6586 75bc 2181 72bc 6ed0 283c
000001d0: af28 06bb b110 fd3b c027 073d 1be9 28bc
000001e0: 1f78 1cbc 982c d53c 5cce 54bc 3ef2 e4b9
000001f0: 5a3b 833b be8a e73c a860 593c 9165 4fbd

network.2.running_mean f4 [128]
0.13223226 0.27221334 0.2591152 0.20197251 0.21338992 0.22654176 0.28876123 0.2177631
0.18004952 0.19829181 0.14892898 0.16619492 0.24908295 0.23262319 0.1955643 0.22800411
0.14146703 0.18958406 0.15169884 0.24923635 0.19580238 0.1286327 0.21730801 0.12418767
0.21706463 0.2014978 0.14797755 0.14831434 0.1878594 0.14783329 0.23315282 0.14611043
0.16554879 0.25826392 0.22300309 0.26844108 0.19468655 0.20409761 0.25298822 0.12815537
0.19685306 0.14514984 0.14559104 0.21010533 0.17348431 0.18181613 0.16874515 0.20352131
0.1329471 0.22047994 0.21437812 0.26002103 0.25361603 0.13835268 0.2468877 0.18199827
0.20521979 0.20628697 0.18375123 0.16296995 0.25951874 0.14428696 0.16891079 0.13431396
0.18620147 0.14487216 0.18448 0.17716558 0.15463063 0.195638 0.20168918 0.15296513
0.23564449 0.17415926 0.20388857 0.19505931 0.21056058 0.1677955 0.11915358 0.15640849
0.13659285 0.24583726 0.19116858 0.13735981 0.26902878 0.21472827 0.23628843 0.16158448
0.17154348 0.18170683 0.14618057 0.18692099 0.19842723 0.15899152 0.1402016 0.20528679
0.17705598 0.17931452 0.13429609 0.24076366 0.19420445 0.17015763 0.15544885 0.17471336
0.14987113 0.21840262 0.15373704 0.16904962 0.17051585 0.15312608 0.20420428 0.15625948
0.14275281 0.14024721 0.17538475 0.2405292 0.16708948 0.20474908 0.26142606 0.20276004
0.1990317 0.2000811 0.15496907 0.22090232 0.26786175 0.30294746 0.21948783 0.17806901
00000000: e567 073e 8c5f 8b3e bfaa 843e e2d1 4e3e
00000010: e382 5a3e 90fa 673e 83d8 933e 4afd 5e3e
00000020: e75e 383e 020d 4b3e d780 183e 002f 2a3e
00000030: 9a0f 7f3e c634 6e3e 0242 483e e979 693e
00000040: bcdc 103e 5322 423e f156 1b3e d037 7f3e
00000050: 6b80 483e 4ab8 033e fe85 5e3e 1b56 fe3d
00000060: 3146 5e3e 7055 4e3e 6d87 173e b7df 173e
00000070: 375e 403e 9c61 173e 9dbf 6e3e f99d 153e
00000080: 9f85 293e 2b3b 843e ec5a 643e 1c71 893e
00000090: e95b 473e f7fe 503e ac87 813e 293b 033e
000000a0: d993 493e 29a2 143e d115 153e da25 573e
000000b0: dfa5 313e 022e 3a3e 87cb 2c3e e467 503e
000000c0: 4923 083e 7ec5 613e f085 5b3e 7a21 853e
000000d0: f6d9 813e 53ac 0d3e 21d0 7c3e c15d 3a3e
000000e0: 2325 523e e43c 533e 4829 3c3e 98e1 263e
000000f0: a4df 843e f6bf 133e f3f6 2c3e 9989 093e
00000100: 99ab 3e3e 5e59 143e 53e8 3c3e e56a 353e
00000110: 7e57 1e3e 5455 483e 9c87 4e3e e4a2 1c3e
00000120: ca4c 713e ce56 323e 2ac8 503e a1bd 473e
00000130: 319d 573e 95d2 2b3e cb06 f43d 8c29 203e
00000140: ffde 0b3e c3bc 7b3e b2c1 433e 0da8 0c3e
00000150: 24be 893e bae1 5b3e 98f5 713e 6776 253e
00000160: 18a9 2f3e 5b11 3a3e 5cb0 153e 3768 3f3e
00000170: 8230 4b3e acce 223e 0291 0f3e b336 523e
00000180: 2a4e 353e 3a9e 373e ea84 093e c08a 763e
00000190: 88dd 463e cd3d 2e3e fc2d 1f3e 0fe8 323e
000001a0: d177 193e f0a4 5f3e 3e6d 1d3e 581b 2d3e
000001b0: b59b 2e3e 15cd 1c3e ed1a 513e 7c02 203e
000001c0: cb2d 123e f79c 0f3e 0f98 333e 494d 763e
000001d0: 8119 2b3e bea9 513e a3d9 853e 54a0 4f3e
000001e0: f7ce 4b3e 0fe2 4c3e 36b0 1e3e 3834 623e
000001f0: 2d25 893e ee1b 9b3e 6bc1 603e b957 363e

network.2.running_var f4 [128]
0.13157217 0.18785764 0.17821963 0.16053006 0.16205241 0.16436434 0.21693462 0.15468968
0.13589472 0.121992484 0.14203617 0.14137019 0.18121992 0.15653177 0.15551223 0.16523625
0.14166752 0.14356606 0.13558212 0.180727 0.15334003 0.10728545 0.164101 0.13042943
0.17725112 0.1694747 0.12584223 0.119205296 0.17175996 0.1043966 0.1827443 0.13283265
0.13771805 0.18675417 0.15442897 0.16708124 0.1502664 0.16037287 0.17775913 0.1098462
0.14907755 0.116257645 0.13556488 0.16622482 0.12955579 0.15430786 0.12701003 0.15338826
0.10712194 0.1768382 0.13941613 0.17885986 0.1815233 0.11697433 0.18091424 0.13848452
0.15862577 0.17201935 0.12822495 0.122061156 0.17942503 0.11798734 0.12981077 0.13113172
0.13886859 0.120503284 0.1440701 0.13026665 0.13918602 0.16772248 0.16932556 0.13098688
0.18024011 0.14318551 0.16203493 0.15993907 0.14618024 0.14111796 0.10241024 0.13321279
0.1250467 0.1585137 0.157286 0.115771964 0.1721384 0.15357113 0.16719401 0.14556518
0.15704316 0.13376841 0.118879795 0.11477953 0.13725227 0.14307778 0.1304075 0.15741429
0.15083592 0.14691561 0.124456055 0.17121729 0.1622111 0.13738692 0.1289089 0.14185773
0.1320006 0.14626826 0.12550224 0.13830167 0.14096813 0.13229471 0.16160397 0.13235146
0.12474611 0.12685385 0.15102497 0.19931073 0.13492103 0.14760396 0.17854981 0.16875091
0.1345098 0.16832614 0.13750994 0.1533716 0.18702532 0.19180538 0.16828786 0.12964134
00000000: dbba 063e c15d 403e 357f 363e fe61 243e
00000010: 11f1 253e 204f 283e 1c24 5e3e f966 1e3e
00000020: fc27 0b3e 32d7 f93d ee71 113e 59c3 103e
00000030: b791 393e dd49 203e 993e 1f3e b133 293e
00000040: 4a11 113e fb02 133e 0ad6 0a3e 8010 393e
00000050: 2b05 1d3e 79b8 db3d 180a 283e 4b8f 053e
00000060: 5181 353e c78a 2d3e c9dc 003e e821 f43d
00000070: d8e1 2f3e e2cd d53d 5221 3b3e 4805 083e
00000080: f605 0d3e 7c3c 3f3e a122 1e3e 5817 2b3e
00000090: 6fdf 193e c938 243e 7d06 363e 0bf7 e03d
000000a0: c9a7 183e 7d18 ee3d 85d1 0a3e d736 2a3e
000000b0: 46aa 043e e102 1e3e eb0e 023e d011 1d3e
000000c0: bf62 db3d 1315 353e 1ac3 0e3e 0a27 373e
000000d0: 3ee1 393e 3d90 ef3d 9541 393e e3ce 0d3e
000000e0: cb6e 223e d725 303e 674d 033e 33fb f93d
000000f0: 32bb 373e 59a3 f13d 1ded 043e 6547 063e
00000100: 9133 0e3e 6dca f63d 1d87 133e 9f64 053e
00000110: c886 0e3e 71bf 2b3e ae63 2d3e 6d21 063e
00000120: dd90 383e 399f 123e 7cec 253e 11c7 233e
00000130: 46b0 153e 3a81 103e 76bc d13d ef68 083e
00000140: 3e0c 003e 6a51 223e 950f 213e da19 ed3d
00000150: 0c45 303e c041 1d3e e834 2b3e 0a0f 153e
00000160: eccf 203e 96fa 083e 4077 f33d 8811 eb3d
00000170: dc8b 0c3e fb82 123e 8b89 053e 3631 213e
00000180: bb74 1a3e 0c71 163e d1e2 fe3d 9653 2f3e
00000190: ab1a 263e 28af 0c3e b200 043e 2743 113e
000001a0: 2a2b 073e 59c7 153e a983 003e f49e 0d3e
000001b0: f359 103e 4478 073e 837b 253e 2487 073e
000001c0: e37a ff3d fae5 013e 4aa6 1a3e 1d18 4c3e
000001d0: bd28 0a3e 7e25 173e c3d5 363e 0acd 2c3e
000001e0: f0bc 093e b05d 2c3e 68cf 0c3e 720d 1d3e
000001f0: 9183 3f3e a168 443e a753 2c3e b3c0 043e

network.3.weight f4 [256, 128]
-0.045778878 0.07531375 -0.0322983 0.0009191046 -0.085175835 0.02337056 0.09029776 -0.025945498
0.016608872 0.037246134 0.056455903 -0.050087154 -0.03314126 -0.026696172 0.053887863 0.029512761
0.06588134 0.010243892 -0.036972 0.041981608 -0.028199594 -0.09158627 -0.07438763 -0.10702466
-0.020760903 0.0019518324 -0.038564473 -0.08461059 0.01710542 0.005764328 0.061929714 0.042969294
0.050303318 0.0070459954 -0.013827905 -0.09302282 0.055697646 0.019012196 0.033204988 -0.056987442
0.03353777 -0.009216306 -0.06403669 0.03768717 0.06991577 0.06091197 -0.015912423 0.0031807777
-0.08938513 -0.04809457 -0.024487477 0.0054889177 0.03324226 0.02564307 -0.04089051 -0.020492233
-0.01607224 0.0833065 -0.08410808 -0.048057552 -0.038078394 0.010311179 -0.02816471 -0.025069818
-0.0635296 0.00600451 -0.022313545 -0.03934019 0.048866436 0.034980845 0.0640554 -0.018499581
-0.031864055 0.054786596 0.026862308 -0.072949946 -0.03428365 -0.029094048 0.014742337 -0.025987798
-0.086834945 -0.05782563 0.0495113 0.03586631 0.05198831 0.04003487 -0.09439903 -0.018370219
-0.061108325 -0.073745444 0.034924004 0.07596382 0.00072624866 0.010672772 0.014477589 0.014068947
0.038019102 -0.11236919 0.012671058 0.027652884 0.05183272 0.03512477 0.017004611 0.084763266
-0.01643357 0.049117193 0.017882144 0.025139082 -0.088527456 -0.06825085 -0.038138576 0.0724607
-0.056625992 -0.036567084 0.05036943 -0.107472025 -0.03597508 -0.083028354 0.076446384 0.01623076
0.0053325105 -0.061894983 0.08684697 -0.019686924 0.07670706 -0.07614285 -0.02131556 -0.03921247
-0.033549774 0.004846615 0.07538012 0.022385275 -0.021406079 -0.019996205 -0.002022948 0.101042576
0.074499086 0.08832663 -0.015375692 0.06152922 0.095474824 -0.02394039 0.054420404 0.06503423
-0.016335903 0.05319936 -0.012451444 -0.08571447 -0.012476996 0.0074090953 -0.023478495 0.090766355
0.08442937 0.09048257 -0.07932394 0.015624542 -0.10619781 -0.049196508 0.035308015 -0.007032043
-0.048051212 -0.0035039766 -0.029877108 0.03637658 0.0018654368 0.053756364 0.04265032 0.025194207
-0.046978395 -0.05171324 -0.008190325 0.06706366 0.07212984 0.03973767 -0.035692684 -0.0038975857
-0.06227857 -0.0765115 -0.046620425 0.0414404 -0.046171766 0.06323388 0.03481155 -0.018802162
0.015003322 0.038980786 0.08008556 0.029476352 -0.030062571 0.0035716027 0.06090902 0.08335974
-0.10030883 -0.00760016 0.0049458835 -0.06860471 0.030145079 -0.012853386 -0.013149513 -0.047935788
0.055084262 0.07357353 0.05307922 -0.018489687 0.010131274 0.014413351 0.009833409 0.055834476
-0.023656784 0.06292742 -0.06496067 -0.09713533 -0.039966427 0.11148551 -0.07214428 0.0060958453
0.020328907 0.05299063 0.020092877 -0.040171735 0.058466926 0.036787685 -0.051041394 -0.02921495
-0.0047547533 -0.05829705 -0.11448215 -0.10312636 0.015837336 0.068398684 -0.08125631 -0.025167422
-0.06640566 -0.012441194 -0.069501154 -0.09521308 -0.017671978 0.086553596 0.019889703 0.11168904
0.020001419 -0.08617333 0.050873157 0.0473647 0.0067459038 0.050658982 -0.08631316 -0.026438396
-0.06502347 -0.08473664 -0.050689794 -0.026290298 -0.07971395 0.018483588 0.042559057 -0.09900592
00000000: a282 3bbd 183e 9a3d 394b 04bd 11f0 703a
00000010: ab70 aebd 9e73 bf3c 08ee b83d a78b d4bc
00000020: 540f 883c 678f 183d 4e3e 673d 3028 4dbd
00000030: 21bf 07bd eeb1 dabc 85b9 5c3d bfc4 f13c
00000040: ccec 863d ffd5 273c f46f 17bd e8f4 2b3d
00000050: d602 e7bc 9591 bbbd 8b58 98bd bf2f dbbd
00000060: c512 aabc a1d4 ff3a c8f5 1dbd 5148 adbd
00000070: aa20 8c3c b0e2 bc3b 03aa 7d3d 9200 303d
00000080: da0a 4e3d 18e2 e63b 708e 62bc c082 bebd
00000090: 3723 643d 77bf 9b3c f401 083d aa6b 69bd
000000a0: e75e 093d fdff 16bc ab25 83bd dd5d 1a3d
000000b0: 0030 8f3d d47e 793d c55a 82bc 9874 503b
000000c0: 8d0f b7bd d0fe 44bd f699 c8bc 61dc b33b
000000d0: 0929 083d 6a11 d23c cf7c 27bd 54df a7bc
000000e0: eea9 83bc 999c aa3d db40 acbd ffd7 44bd
000000f0: 17f8 1bbd 38f0 283c aeb9 e6bc 385f cdbc
00000100: cf1b 82bd 7bc1 c43b e5ca b6bc 2e23 21bd
00000110: 2c28 483d 1348 0f3d 7a2f 833d 6f8c 97bc
00000120: e283 02bd e967 603d 580e dc3c c866 95bd
00000130: 036d 0cbd a456 eebc d889 713c 5de4 d4bc
00000140: 85d6 b1bd 91da 6cbd 5ccc 4a3d 8de8 123d
00000150: b2f1 543d 9bfb 233d 4754 c1bd 247d 96bc
00000160: b94c 7abd da07 97bd 790c 0f3d eb92 9b3d
00000170: b961 3e3a dadc 2e3c 6933 6d3c 7181 663c
00000180: ebb9 1b3d d121 e6bd 459a 4f3c 4d88 e23c
00000190: 8c4e 543d fede 0f3d 414d 8b3c 5d98 ad3d
000001a0: b29f 86bc 1c2f 493d 937d 923c 7af0 cd3c
000001b0: e24d b5bd 1ac7 8bbd 3237 1cbd 4766 943d
000001c0: a8f0 67bd 5ec7 15bd 2d50 4e3d 4b1a dcbd
000001d0: 9b5a 13bd c50a aabd ec8f 9c3d 5ff6 843c
000001e0: 57bc ae3b 9885 7dbd d3dc b13d 7946 a1bc
000001f0: 9718 9d3d c8f0 9bbd f89d aebc 419d 20bd
00000200: 7d6b 09bd 5ad0 9e3b e460 9a3d 5361 b73c
00000210: cd5b afbc 15cf a3bc 7093 04bb 69ef ce3d
00000220: fa92 983d 98e4 b43d 54ea 7bbc 1006 7c3d
00000230: 4e88 c33d a31e c4bc eee7 5e3d ab30 853d
00000240: dfd2 85bc 92e7 593d 2401 4cbc 118b afbd
00000250: 506c 4cbc ffc7 f23b f955 c0bc b6e3 b93d
00000260: 4ee9 ac3d ed4e b93d 9774 a2bd 14fe 7f3c
00000270: 3d7e d9bd 4782 49bd 239f 103d 0d6d e6bb
00000280: 59d1 44bd f9a2 65bb d6c0 f4bc 9cff 143d
00000290: ac81 f43a a22f 5c3d 1ab2 2e3d 1564 ce3c
000002a0: 6b6c 40bd 43d1 53bd b730 06bc ac58 893d
000002b0: cfb8 933d f8c3 223d 7e32 12bd a36e 7fbb
000002c0: d017 7fbd 10b2 9cbd 0ff5 3ebd 69bd 293d
000002d0: 9b1e 3dbd c480 813d 8e96 0e3d fe06 9abc
000002e0: 7ed0 753c 51aa 1f3d e603 a43d 6478 f13c
000002f0: c845 f6bc 8d11 6a3b bd7b 793d 83b8 aa3d
00000300: b76e cdbd c30a f9bb 1411 a23b a080 8cbd
00000310: d0f2 f63c 0297 52bc 0e71 57bc 5158 44bd
00000320: 09a0 613d b8ad 963d 9969 593d af77 97bc
00000330: a5fd 253c fa25 6c3c 4f1c 213c b1b2 643d
00000340: dfcb c1bc 17e0 803d 1a0a 85bd e3ee c6bd
00000350: d6b3 23bd 8452 e43d 61c0 93bd a8bf c73b
00000360: cf88 a63c b40c 593d d199 a43c 1e8b 24bd
00000370: 047b 6f3d afae 163d c810 51bd 3154 efbc
00000380: c3cd 9bbb e3c8 6ebd 9e75 eabd ea33 d3bd
00000390: 4dbd 813c 9c14 8c3d b569 a6bd e92b cebc
000003a0: b1ff 87bd 26d6 4bbc 9f56 8ebd 13ff c2bd
000003b0: d3c4 90bc 0343 b13d bbef a23c 39bd e43d
000003c0: 04da a33c a57b b0bd 5f60 503d 7d01 423d
000003d0: be0c dd3b cb7f 4f3d f4c4 b0bd 5695 d8bc
000003e0: 062b 85bd 678a adbd 1aa0 4fbd c05e d7bc
000003f0: 1141 a3bd e56a 973c 6852 2e3d 9ec3 cabd

network.3.bias f4 [256]
0.053060256 -0.007830124 0.022126768 0.009377837 0.031005573 0.07848048 -0.072931446 -0.024614552
-0.06300998 0.04489915 0.062974975 -0.0016964725 0.10798794 0.05910286 0.116361976 0.067474976
-0.02859353 0.03409324 0.07177322 0.058094215 0.13244958 -0.05231585 -0.024654506 0.09590876
-0.080071725 0.071243264 -0.0384952 0.063630216 0.037274435 0.012474269 -0.018402781 0.084947854
0.09962639 -0.014155774 -0.081484824 -0.032530867 0.071477495 0.0322986 -0.01769394 0.040183444
-0.019142836 0.0026704099 0.019428574 0.09709436 -0.068340704 -0.022876766 -0.057046093 -0.010639678
0.13326842 -0.022230143 0.074441135 -0.021553643 -0.07670544 0.073680535 0.063562766 -0.04118153
0.04257774 -0.05393397 -0.07214629 -0.053948235 -0.030859467 -0.057282176 -0.019070875 -0.0045496123
0.024055196 0.0048194653 0.107081056 -0.0026047386 -0.042872008 0.04922895 -0.0006662537 0.069663964
0.036921564 -0.0032567303 -0.03007832 -0.016612139 0.018587768 0.038829386 -0.042373925 -0.0070119044
0.0142520955 0.05729707 0.06576802 -0.053585373 0.033036686 -0.066786766 0.08192508 0.078663744
-0.040817145 0.036209296 0.07157962 0.029892098 0.08140206 0.075764455 -0.011863092 -0.023100285
0.07727603 0.06550772 0.06326119 0.043228175 0.0013323604 0.06890261 0.038833056 0.040368687
-0.040506493 -0.030343026 -0.034017112 0.08548882 -0.022853909 -0.076941825 0.047028884 0.07669587
0.066715576 0.019020818 -0.071563095 -0.018345146 -0.05695959 0.008294192 0.030341845 -0.016742483
-0.056449745 0.107112415 -0.032600064 -0.009520757 -0.011741022 -0.018506538 0.054323357 0.043573916
-0.0459718 -0.028675886 0.077908844 -0.06033382 0.06483418 0.008753606 0.0055042095 0.0918205
-0.03069992 0.06897174 0.023816405 0.035183553 0.06789017 0.008703666 0.10353318 0.084177256
0.09633267 0.08301 0.07244493 0.1079602 0.021050213 0.042388678 0.07036755 -0.011777178
0.048492063 0.13670608 -0.013607746 0.013064098 0.11752337 0.044627022 0.09741526 0.008436682
-0.040630117 0.041992728 0.02504915 0.07821815 -0.025081653 0.0725558 -0.051209986 -0.079776645
0.016956378 -0.014761857 0.036753867 -0.073636204 0.06888377 0.03131867 -0.057366896 0.08506884
-0.108213365 -0.057120517 0.0087826215 -0.03867926 -0.027203277 -0.031151839 -0.07040519 0.027559487
0.054714188 0.08189353 -0.05041996 -0.07909882 0.06481932 0.006574489 0.017467655 0.014664719
-0.015679043 -0.001405565 0.07603974 -0.020758424 0.08141707 -0.06930795 0.06306919 -0.028765745
0.050851066 -0.033091083 0.018301543 -0.041274942 0.099458024 0.019987237 0.070269816 0.069920175
0.025459653 0.010406844 0.038835578 -0.054236338 -0.007973688 0.048706613 -0.09628795 -0.023620918
0.01266079 -0.0627606 0.08165128 0.02417548 0.02386336 0.029242339 -0.066769764 0.031225502
0.030524924 -0.015902149 0.09636806 0.027903674 -0.021998925 0.00537127 0.032926913 -0.029718826
-0.043622844 0.081995204 -0.006378468 -0.010717061 0.005866254 0.06984015 -0.031732325 0.00054704834
0.054081123 0.09617475 -0.073459685 -0.019231038 -0.069077685 -0.01982789 -0.030823747 0.021671603
-0.040458523 0.100740366 0.08623612 -0.014184079 -0.0038729846 0.026385864 -0.025084289 0.007841368
00000000: b655 593d ec49 00bc 3243 b53c 80a5 193c
00000010: 66ff fd3c 60ba a03d 155d 95bd 75a4 c9bc
00000020: 600b 81bd 2ce8 373d 06f9 803d 2c5c deba
00000030: c828 dd3d d715 723d 304f ee3d 5230 8a3d
00000040: fb3c eabc 5aa5 0b3d d7fd 923d 33f4 6d3d
00000050: dda0 073e 2549 56bd 3ff8 c9bc d06b c43d
00000060: a5fc a3bd fde7 913d 25ad 1dbd 8f50 823d
00000070: 14ad 183d e060 4c3c 6ec1 96bc 24f9 ad3d
00000080: ec08 cc3d 9fed 67bc 84e1 a6bd 163f 05bd
00000090: cb62 923d 894b 043d e2f2 90bc 6597 243d
000000a0: 70d1 9cbc 0b02 2f3b ac28 9f3c 68d9 c63d
000000b0: 36f6 8bbd 0e68 bbbc 2aa9 69bd 0b52 2ebc
000000c0: 8477 083e fd1b b6bc 9874 983d 4491 b0bc
000000d0: be17 9dbd d2e5 963d 322d 823d f7ad 28bd
000000e0: ff65 2e3d dee9 5cbd 6fc1 93bd d3f8 5cbd
000000f0: fecc fcbc b7a0 6abd 863a 9cbc ea14 95bb
00000100: 670f c53c 9bec 9d3b 504d db3d 43b4 2abb
00000110: 8f9a 2fbd 4ca4 493d 87a7 2eba fbab 8e3d
00000120: 113b 173d de6e 55bb cf66 f6bc 2e16 88bc
00000130: 6045 983c 900b 1f3d 4890 2dbd 1ec4 e5bb
00000140: 9f81 693c 55b0 6a3d 62b1 863d 567c 5bbd
00000150: 7a51 073d 80c7 88bd 56c8 a73d 751a a13d
00000160: e12f 27bd 3350 143d 5698 923d 46e0 f43c
00000170: 20b6 a63d 652a 9b3d 6a5d 42bc cf3c bdbc
00000180: e542 9e3d e928 863d 158f 813d 0710 313d
00000190: 99a2 ae3a d01c 8d3d 690f 1f3d a359 253d
000001a0: 23ea 25bd f091 f8bc 8755 0bbd c314 af3d
000001b0: 1f38 bbbc ad93 9dbd 5ca1 403d b912 9d3d
000001c0: 2da2 883d 8cd1 9b3c ac8f 92bd 8f48 96bc
000001d0: 764e 69bd 5de4 073c 768f f83c 8827 89bc
000001e0: d937 67bd c15d db3d a587 05bd f3fc 1bbc
000001f0: 6a5d 40bc 069b 97bc 2b82 5e3d 907a 323d
00000200: ed4c 3cbd b1e9 eabc ac8e 9f3d 9820 77bd
00000210: c8c7 843d 496b 0f3c a85c b43b 630c bc3d
00000220: 667e fbbc 0e41 8d3d 9f1a c33c a11c 103d
00000230: 000a 8b3d d299 0e3c 3409 d43d 2065 ac3d
00000240: 104a c53d 2601 aa3d 025e 943d 3d1a dd3d
00000250: 7f71 ac3c c09f 2d3d dd1c 903d 11f5 40bc
00000260: 9d9f 463d aefc 0b3e 06f3 5ebc cc0a 563c
00000270: 18b0 f03d d3ca 363d a781 c73d 023a 0a3c
00000280: c46b 26bd 9100 2c3d e033 cd3c d630 a03d
00000290: 0a78 cdbc 2398 943d 90c1 51bd f061 a3bd
000002a0: 1ae8 8a3c b7db 71bc 398b 163d 94ce 96bd
000002b0: ef12 8d3d 0148 003d 8df9 6abd 9238 ae3d
000002c0: f89e ddbd 34f7 69bd fce4 0f3c 256e 1ebd
000002d0: 68d9 debc 2432 ffbc 9930 90bd 6fc4 e13c
000002e0: fc1b 603d ccb7 a73d 2985 4ebd 90fe a1bd
000002f0: febf 843d d06e d73b 5418 8f3c 4a44 703c
00000300: 5671 80bc ef3a b8ba b9ba 9b3d 920d aabc
00000310: febd a63d 54f1 8dbd 6b2a 813d 24a6 ebbc
00000320: 3549 503d 848a 07bd 1eed 953c ea0f 29bd
00000330: a6b0 cb3d 46bc a33c 9fe9 8f3d 4f32 8f3d
00000340: c390 d03c 7881 2a3c 0e12 1f3d ec26 5ebd
00000350: 12a4 02bc 9680 473d 9e32 c5bd a880 c1bc
00000360: 346f 4f3c a188 80bd c938 a73d a80b c63c
00000370: 187d c33c a18d ef3c 96be 88bd a0cc ff3c
00000380: 680f fa3c 3945 82bc 9e5c c53d 3f96 e43c
00000390: 1737 b4bc 7a01 b03b 5fde 063d e574 f3bc
000003a0: dead 32bd 1aed a73d 7802 d1bb 9d96 2fbc
000003b0: b539 c03b 5a08 8f3d c1f9 01bd cb67 0f3a
000003c0: 2b84 5d3d 44f7 c43d 0872 96bd 698a 9dbc
000003d0: 9a78 8dbd 196e a2bc 1582 fcbc a588 b13c
000003e0: d6b7 25bd f750 ce3d 909c b03d 5764 68bc
000003f0: e6d1 7dbb 2b27 d83c 917d cdbc 1579 003c

network.5.weight f4 [256]
1.018812 0.9771414 0.99738735 1.0070134 0.9797699 0.99815816 0.9737464 1.0021354
0.98726684 1.0378233 1.0353521 1.0123199 1.0126989 1.0132877 0.9819731 0.9848998
1.0027009 0.98963124 1.0167251 1.0225079 0.9835825 0.99692357 1.0151471 0.9886526
0.9584021 1.0389476 0.9725095 1.0165342 0.99806195 0.9986941 1.0299952 0.98459214
1.0491066 0.97542435 0.97040194 0.9943529 0.98840266 0.9740972 0.9952152 1.0076643
0.9927344 0.99022955 1.0343285 1.0142989 0.9926891 1.0088089 0.98265505 0.99987906
1.0028877 1.0360534 0.98131233 1.0267249 1.0077306 1.001272 0.99399096 0.96399033
1.0197207 0.9990793 0.9713016 0.99414617 1.0227613 0.9841243 1.0173303 1.0015274
1.0204818 1.015598 0.9992647 0.9909685 1.0276982 1.0036119 0.9763245 0.99522525
1.0126209 1.0321555 0.9798472 1.0116868 0.9625988 1.013209 0.9962021 1.0242754
1.006706 0.99362814 1.0245904 0.9670107 0.9832702 1.014345 1.0360491 0.98087347
0.97295326 0.98446774 1.0141379 1.0233561 1.0209037 1.014739 0.9941439 1.006278
1.0091598 1.0392535 1.0051025 0.98264414 1.0214554 0.9947305 1.0081885 0.98640287
0.99293315 1.0000747 0.99369824 0.9734172 0.98184276 0.97015613 0.9888678 1.020494
0.9807346 0.9868487 1.0017442 1.0451213 1.0005376 1.016246 0.96724033 0.96861595
0.96333456 1.0375882 0.980625 1.0277159 0.9738022 1.0032041 0.99911743 1.0244666
1.0295931 0.96951616 0.98027694 1.0087932 1.0083289 1.0068129 1.0198227 1.0267475
1.0100021 0.977054 0.99906445 0.9750886 0.97655535 1.0101545 0.96135527 1.0020682
1.023137 1.012599 0.992269 1.00737 1.0192057 0.9769462 1.034271 0.9962549
0.9784392 0.97854006 1.0001202 1.0222167 1.0179749 0.99588364 1.0266427 1.0148752
1.0073351 1.000367 0.99670154 0.98518884 0.99702 1.0025736 1.011894 1.0064615
1.0252168 0.98556644 1.0062491 0.98294514 1.0173886 1.0146966 0.99910325 0.9776221
0.9952116 1.0039136 1.0224146 0.9965203 1.002057 1.0046935 1.0084773 0.9984355
1.0015565 1.0050404 0.953035 0.99902034 0.9846346 1.0138377 0.9921616 0.96469754
0.98588455 0.9800242 0.995469 1.0259299 1.0308009 0.99873674 0.9864946 1.018084
1.01106 0.9735565 0.9970482 0.9541305 1.0150881 0.992906 0.98998404 0.96302813
0.9818602 1.0012747 1.026988 0.97386265 0.97485733 0.9756933 0.99278665 0.98228395
0.9826548 0.9770597 1.0111282 1.0242214 1.0092419 1.0212286 1.0132654 1.0305189
0.9790433 1.0217922 0.9931579 1.0000434 1.0118128 1.0020436 1.0222073 1.0195664
0.9739815 0.9972483 0.99024993 0.9996516 0.99686784 1.0516775 0.98638856 0.975235
0.9894527 0.9986435 0.9602241 0.9831563 1.0111526 0.9560934 0.9915998 0.9800594
0.993097 1.0268801 1.0130999 1.007251 1.0154042 1.0041108 1.0064946 1.0153036
00000000: 6e68 823f f025 7a3f c754 7f3f d1e5 803f
00000010: 33d2 7a3f 4b87 7f3f 7247 793f f945 803f
00000020: 85bd 7c3f 65d7 843f 6b86 843f b393 813f
00000030: 1ea0 813f 69b3 813f 9762 7b3f 6522 7c3f
00000040: 8158 803f 7958 7d3f 0c24 823f 8ae1 823f
00000050: 10cc 7b3f 6236 7f3f 57f0 813f 5618 7d3f
00000060: d759 753f 3cfc 843f 62f6 783f cb1d 823f
00000070: fd80 7f3f 6baa 7f3f e2d6 833f 3b0e 7c3f
00000080: 2049 863f 69b5 793f 436c 783f e98d 7e3f
00000090: f507 7d3f 6f5e 793f 6cc6 7e3f 25fb 803f
000000a0: d723 7e3f af7f 7d3f e064 843f 8cd4 813f
000000b0: df20 7e3f a620 813f 488f 7b3f 13f8 7f3f
000000c0: a05e 803f 669d 843f 4937 7b3f b96b 833f
000000d0: 51fd 803f ae29 803f 3176 7e3f 12c8 763f
000000e0: 3586 823f a9c3 7f3f 39a7 783f 5d80 7e3f
000000f0: d8e9 823f 92ef 7b3f e137 823f 0d32 803f
00000100: 269f 823f 1eff 813f d0cf 7f3f 1db0 7d3f
00000110: 9d8b 833f 5b76 803f 67f0 793f 15c7 7e3f
00000120: 909d 813f ac1d 843f 44d7 7a3f f47e 813f
00000130: e06c 763f d5b0 813f 1a07 7f3f 751b 833f
00000140: bedb 803f 6a5e 7e3f c725 833f 038e 773f
00000150: 99b7 7b3f 0fd6 813f 429d 843f 861a 7b3f
00000160: 7713 793f 1406 7c3f 45cf 813f 55fd 823f
00000170: f9ac 823f f8e2 813f 3780 7e3f b8cd 803f
00000180: 262c 813f 4206 853f 33a7 803f 918e 7b3f
00000190: 0dbf 823f a8a6 7e3f 520c 813f e684 7c3f
000001a0: de30 7e3f 7302 803f 0263 7e3f df31 793f
000001b0: 0c5a 7b3f 275c 783f 7126 7d3f 8c9f 823f
000001c0: 6c11 7b3f 1ea2 7c3f 2739 803f 89c6 853f
000001d0: 9e11 803f 5914 823f 109d 773f 37f7 773f
000001e0: 189d 763f b1cf 843f 3d0a 7b3f 328c 833f
000001f0: 1a4b 793f fe68 803f 29c6 7f3f b921 833f
00000200: b5c9 833f 3632 783f 6ef3 7a3f 2320 813f
00000210: ec10 813f 3fdf 803f 8d89 823f 766c 833f
00000220: c047 813f 3620 7a3f b0c2 7f3f 689f 793f
00000230: 88ff 793f be4c 813f 611b 763f c543 803f
00000240: 27f6 823f d89c 813f 5705 7e3f 80f1 803f
00000250: 5575 823f 2519 7a3f fe62 843f 900a 7f3f
00000260: fe7a 7a3f 9a81 7a3f f003 803f ffd7 823f
00000270: 004d 823f 3bf2 7e3f 0769 833f 6ee7 813f
00000280: 5bf0 803f 070c 803f d527 7f3f 5635 7c3f
00000290: b43c 7f3f 5554 803f be85 813f bbd3 803f
000002a0: 4e3a 833f 154e 7c3f c5cc 803f 4ba2 7b3f
000002b0: ca39 823f 94e1 813f 3bc5 7f3f 7145 7a3f
000002c0: 30c6 7e3f 3e80 803f 7bde 823f f41b 7f3f
000002d0: 6743 803f cc99 803f c915 813f 7899 7f3f
000002e0: 0133 803f 2aa5 803f 1afa 733f ccbf 7f3f
000002f0: 0311 7c3f 6fc5 813f 4dfe 7d3f 6bf6 763f
00000300: ee62 7c3f dee2 7a3f 0ed7 7e3f ac51 833f
00000310: 49f1 833f 36ad 7f3f e98a 7c3f 9450 823f
00000320: 6a6a 813f 003b 793f 8d3e 7f3f e541 743f
00000330: 68ee 813f 162f 7e3f 986f 7d3f 0389 763f
00000340: 315b 7b3f c529 803f 5874 833f 104f 793f
00000350: 4090 793f 09c7 793f 4427 7e3f f676 7b3f
00000360: 448f 7b3f 9620 7a3f a66c 813f b019 833f
00000370: d72e 813f 9eb7 823f aeb2 813f 0be8 833f
00000380: 95a2 7a3f 16ca 823f 993f 7e3f 6c01 803f
00000390: 1583 813f f742 803f b0d7 823f 2781 823f
000003a0: da56 793f aa4b 7f3f 0581 7d3f 2be9 7f3f
000003b0: bb32 7f3f 5e9d 863f f683 7c3f 00a9 793f
000003c0: c64c 7d3f 1aa7 7f3f 3fd1 753f 22b0 7b3f
000003d0: 736d 813f 89c2 743f 7cd9 7d3f 2ce5 7a3f
000003e0: 9b3b 7e3f cf70 833f 42ad 813f 9aed 803f
000003f0: c4f8 813f b486 803f d1d4 803f 78f5 813f

network.5.bias f4 [256]
-0.026974756 -0.00045165597 0.008324595 0.03942264 0.046811994 -0.08653588 0.045161556 0.092445046
-0.0005061502 0.0014394053 0.0025955462 0.03758059 0.0056787073 0.003669949 -0.042204592 -0.024708347
0.016150748 -0.07779546 -0.05941616 0.091947384 0.015790502 -0.05079085 -0.006244573 0.044194095
0.047644753 0.0112665305 0.04898279 0.04005984 -0.023067374 -0.02723977 -0.039723832 0.025906619
0.047096614 0.041106284 -0.05565269 0.005479329 0.029605206 0.013318954 0.08705874 0.004701415
-0.0050875647 -0.028692914 -0.05673284 -0.030735549 -0.04270261 -0.117357224 -0.00855679 -0.08482619
0.09029673 0.041493967 0.089635104 -0.047216598 0.009201888 -0.054705262 -0.028252702 -0.09748058
-0.016728047 -0.05835152 -0.023060424 0.029090818 -0.015395495 -0.020802671 -0.061630696 0.04058706
0.08145916 -0.047402825 0.036478434 -0.019454846 -0.049680006 -0.02737329 -0.021071462 0.023468142
0.029692031 -0.07957614 -0.04616883 -0.014433715 0.045914784 0.0036063194 0.030449238 -0.068474114
0.040216755 0.0019863965 0.00050525786 -0.0027548366 -0.020142972 -0.0069091953 0.043118186 -0.02950542
0.105067186 -0.094622366 0.05199453 0.03235688 0.030049061 -0.05148065 0.039081085 -0.071972474
-0.008034042 -0.03539004 -0.039834134 -0.044484343 -0.025201583 0.03151982 -0.021926034 0.013180585
0.05012463 0.026460735 -0.032942086 0.046582673 -0.0709838 0.03605099 0.059855398 0.011097428
0.03643007 -0.07958822 0.0035850138 -0.08167826 0.017714316 -0.07039764 -0.025516648 0.033648003
0.008893355 -0.05589356 0.0192158 -0.09039038 -0.003091837 0.005550061 0.03801432 -0.09146206
-0.009473592 -0.044486605 0.021037044 0.002236174 0.04516403 0.009243122 -0.022280138 0.018751614
-0.07395042 0.027687669 -0.05596816 -0.008434282 0.0018459832 0.0678203 -0.016126122 -0.081880175
-0.014225234 0.01837812 0.0331759 0.033704452 -0.056750506 -0.07286064 0.056278296 -0.10005973
0.06511787 0.052317027 -0.06442545 0.025324885 -0.02493416 -0.020767605 0.046673354 0.0140004065
-0.14462514 0.016805056 -0.022344586 -0.0196374 -0.0813671 0.0011729117 -0.04595253 -0.017475558
-0.021622315 -0.0316214 -0.012265117 -0.009743199 0.0434801 0.014101424 0.03367924 0.07633169
-0.03663809 -0.0323778 -0.042557593 0.027838608 0.063588485 -0.089932755 -0.069940746 -0.064858764
-0.026843052 -0.0017531674 0.04546673 -0.016233873 -0.05453124 -0.045918856 -0.014147948 0.06144145
0.07152015 -0.020383839 -0.061725713 -0.052891098 0.050939776 -0.00050921534 -0.054222297 0.0022729489
-0.022611123 0.02629248 -0.055080585 0.050615933 -0.036395513 -0.057868607 -0.097258106 -0.010306918
-0.008156378 -0.007987284 -0.053833745 0.019184291 0.005398473 -0.08663399 -0.027249908 -9.241674e-05
-0.021875866 0.052201852 -0.0065808594 -0.093353525 0.010002646 -0.04134876 -0.08531322 -0.07406307
-0.055860333 -0.041537702 0.048553985 -0.039904885 -0.026699945 0.04315089 -0.033327464 -0.004395243
-0.016194042 0.01804188 0.030644773 -0.026951207 -0.07002045 -0.05566471 -0.066123694 0.035257768
-0.033949375 0.031097844 0.05333762 0.0154778715 -0.010945024 0.02898963 -0.07870541 0.049645558
-0.007575816 0.008017479 -0.055654753 -0.051844757 0.08287246 -0.032492682 -0.013958545 0.038658194
00000000: 2afa dcbc 3dcc ecb9 e263 083c a279 213d
00000010: efbd 3f3d b939 b1bd 53fb 383d d453 bd3d
00000020: 2aaf 04ba 6daa bc3a 0a1a 2a3b 1bee 193d
00000030: 7314 ba3b 8783 703b b9de 2cbd 2969 cabc
00000040: 934e 843c 3a53 9fbd 5c5e 73bd e94e bc3d
00000050: 155b 813c 110a 50bd 469f ccbb de04 353d
00000060: 2527 433d 4197 383c 2ea2 483d c915 243d
00000070: caf7 bcbc f025 dfbc 75b5 22bd 1e3a d43c
00000080: 61e8 403d 105f 283d 13f4 63bd f18b b33b
00000090: 9e86 f23c be37 5a3c da4b b23d 540e 9a3b
000000a0: 96b5 a6bb 670d ebbc b260 68bd 1ec9 fbbc
000000b0: efe8 2ebd fc58 f0bd c731 0cbc 5ab9 adbd
000000c0: 7eed b83d 94f5 293d 9c92 b73d 3166 41bd
000000d0: 84c3 163c a012 60bd 3672 e7bc e6a3 c7bd
000000e0: 4209 89bc 0102 6fbd 37e9 bcbc de4f ee3c
000000f0: 633d 7cbc 5d6a aabc 7870 7cbd 9e3e 263d
00000100: 0fd4 a63d 7729 42bd 696a 153d c55f 9fbc
00000110: 437d 4bbd f33d e0bc 0f9e acbc 4340 c03c
00000120: b43c f33c d1f8 a2bd 871b 3dbd 637b 6cbc
00000130: 2411 3c3d 0058 6c3b ae70 f93c 283c 8cbd
00000140: 53ba 243d 342e 023b 4873 043a 7d8a 34bb
00000150: e002 a5bc 8866 e2bb b29c 303d 5ab5 f1bc
00000160: 772d d73d 5fc9 c1bd 37f8 543d a688 043d
00000170: 7329 f63c 60dd 52bd 7d13 203d 4e66 93bd
00000180: 37a1 03bc 26f5 10bd 1e29 23bd 3735 36bd
00000190: 8d73 cebc ed1a 013d 3a9e b3bc 61f3 573c
000001a0: 7c4f 4d3d 2fc4 d83c 48ee 06bd 79cd 3e3d
000001b0: f45f 91bd 34aa 133d ef2a 753d fdd1 353c
000001c0: b237 153d 26ff a2bd 8df2 6a3b ee46 a7bd
000001d0: 9d1d 913c a32c 90bd 4a08 d1bc 7dd2 093d
000001e0: 6fb5 113c a5f0 64bd 746a 9d3c 971e b9bd
000001f0: 6ba0 4abb 49dd b53b e7b4 1b3d 7650 bbbd
00000200: 2037 1bbc 9637 36bd e155 ac3c c68c 123b
00000210: ebfd 383d 7770 173c d684 b6bc fc9c 993c
00000220: 5173 97bd 40d1 e23c df3e 65bd f12f 0abc
00000230: ebf4 f13a 5fe5 8a3d ee1a 84bc cbb0 a7bd
00000240: f510 69bc b68d 963c 74e3 073d ae0d 0a3d
00000250: 3873 68bd f637 95bd 1284 663d 1eec ccbd
00000260: 855c 853d 614a 563d 7ef1 83bd 2276 cf3c
00000270: b942 ccbc d320 aabc 8f2c 3f3d f661 653c
00000280: 9d18 14be c2aa 893c fe0b b7bc 9dde a0bc
00000290: cba3 a6bd 63bc 993a b838 3cbd e728 8fbc
000002a0: 4821 b1bc 7185 01bd a1f3 48bc f0a1 1fbc
000002b0: 3018 323d a909 673c 3ef3 093d ca53 9c3d
000002c0: d211 16bd 969e 04bd df50 2ebd cb0d e43c
000002d0: ae3a 823d aa2e b8bd 183d 8fbd acd4 84bd
000002e0: f6e5 dbbc 89ca e5ba 523b 3a3d e6fc 84bc
000002f0: 265c 5fbd 6915 3cbd cbcc 67bc 08aa 7b3d
00000300: 2879 923d 02fc a6bc 1ad4 7cbd 56a4 58bd
00000310: 3aa6 503d dd7c 05ba 3318 5ebd c1f5 143b
00000320: f63a b9bc 5463 d73c 2e9c 61bd a752 4f3d
00000330: 7613 15bd a207 6dbd 422f c7bd 59de 28bc
00000340: 54a2 05bc 19dd 02bc c680 5cbd 6028 9d3c
00000350: ace5 b03b 296d b1bd 333b dfbc dccf c1b8
00000360: 0435 b3bc 9cd1 553d 40a4 d7bb 2230 bfbd
00000370: 23e2 233c 515d 29bd b3b8 aebd 61ae 97bd
00000380: cecd 64bd 7023 2abd 8be0 463d 4e73 23bd
00000390: d8b9 dabc fdbe 303d 6182 08bd f805 90bb
000003a0: 5ea9 84bc 91cc 933c bf0a fb3c c7c8 dcbc
000003b0: e266 8fbd ae00 64bd dc6b 87bd 736a 103d
000003c0: 800e 0bbd e8c0 fe3c 8c78 5a3d e696 7d3c
000003d0: c252 33bc a97b ed3c 4d30 a1bd 2459 4b3d
000003e0: 8d3e f8bb bf5b 033c 3df6 63bd 2b5b 54bd
000003f0: 09b9 a93d 0c17 05bd 62b2 64bc 0e58 1e3d
