models/epoch_40/discriminator.pth (torch, 420232 bytes, 7 tensors)

network.0.weight f4 [256, 20]
0	0xbd09aa49	-0.033609662
1	0x3d32c10d	0.04364114
2	0xbd61f0c7	-0.055161264
3	0x3e5c345f	0.21504353
4	0x3e4d5cf0	0.20054984
5	0xbe27a466	-0.16371307
6	0x3dc187ac	0.094497055
7	0xbd8e7698	-0.06956214
8	0xbdd58f1a	-0.10427685
9	0x3d70d421	0.058796052
10	0xbdbf31c1	-0.09335662
11	0x3e5b6b16	0.21427569
12	0x3d1ae64f	0.037817296
13	0xbd0f9b18	-0.03506002
14	0xbd7b63cc	-0.06137447
15	0xbe00ccdb	-0.12578146
16	0xbdc864b9	-0.09784836
17	0xbd883aa3	-0.06651809
18	0x3b57e982	0.0032945578
19	0xbe64afc2	-0.22332671
20	0x3cdc90eb	0.026924571
21	0xbd9050cc	-0.07046661
22	0x3d11abd3	0.035564255
23	0xbc96b3ab	-0.01839622
24	0x3d44aaa2	0.04801429
25	0xbd99ec84	-0.07515815
26	0xbe2861d6	-0.16443571
27	0x3e09658b	0.13417642
28	0x3dc87110	0.0978719
29	0x3c6eea0d	0.014582169
30	0xbd697d8f	-0.057004508
31	0xbdae83fa	-0.08521266
32	0x3e016796	0.12637171
33	0x3e1f3d50	0.15550733
34	0x3d87b93e	0.06627129
35	0xbdfb0ddf	-0.12258505
36	0x3d54e747	0.051978376
37	0x3e9d044d	0.30667344
38	0x3e538fcc	0.20660323
39	0xbc8900f7	-0.016724093
40	0x3e03d58c	0.1287443
41	0x3c94b943	0.018154746
42	0x3c1ec8bf	0.009691416
43	0xbd445f21	-0.047942284
44	0x3c96d9c5	0.018414387
45	0xbda2994e	-0.07939397
46	0xbc876036	-0.01652537
47	0xbcc73618	-0.024317786
48	0xbd83ad59	-0.06429548
49	0xbd6fc853	-0.058540653
50	0x3bb89fa5	0.0056342655
51	0x3ee9bea2	0.45653254
52	0x3c9b3c7d	0.018949741
53	0x3c2633ad	0.010144156
54	0xbbe799ad	-0.00706788
55	0xbc4e673c	-0.012597855
56	0x3d7ddd2b	0.0619785
57	0x3cf01b41	0.02930987
58	0xb9e96430	-0.0004451587
59	0xbe35d157	-0.17755638
60	0x3c21d67a	0.009877795
61	0xbcc6e19f	-0.024277506
62	0x3c33c812	0.010972993
63	0xbded6d7e	-0.115931496
64	0xbd4f280e	-0.05057531
65	0x3e21c2dc	0.15796989
66	0x3d9cf7dc	0.07664463
67	0x3e89fd72	0.26951176
68	0xbdebda22	-0.11516215
69	0xbc73b99c	-0.014875796
70	0x3e398217	0.18116032
71	0x3d599b87	0.053126838
72	0x3cdaf31a	0.026727248
73	0xbdbd46ea	-0.092420414
74	0x3de4e347	0.11176162
75	0x3bf363ca	0.0074276673
76	0x3e341e34	0.17589647
77	0xbe1aba7c	-0.151102
78	0x3e8c036a	0.27346355
79	0x3e0c2d23	0.13689093
80	0x3aa787c4	0.001278155
81	0x3d78f94c	0.060784623
82	0x3d61de6b	0.055143755
83	0xbe12aaec	-0.14323014
84	0xbdfff445	-0.124977626
85	0xbe1ee79d	-0.15518041
86	0x3e5b24dc	0.2140078
87	0x3e882c96	0.26596516
88	0x3e64bd6e	0.22337887
89	0xbdcc0852	-0.099625245
90	0xbddaccee	-0.106836185
91	0xb9ca8db2	-0.00038634014
92	0xbda4d234	-0.080479056
93	0x3d9bea2a	0.076130226
94	0x3e3a7d64	0.18211895
95	0xbd93c4a2	-0.07215239
96	0xbd88b6a4	-0.06675461
97	0xbdc78d56	-0.097437546
98	0xbe167a31	-0.1469505
99	0x3dc86db0	0.09786546
100	0xbdc0aea1	-0.09408308
101	0x3da9b8c9	0.08287198
102	0xbc5da53b	-0.013528164
103	0x3d142a42	0.036173113
104	0x3dfcba3a	0.123402074
105	0x3da0b42d	0.07846866
106	0x3cf8ad11	0.030355962
107	0xbe111cf9	-0.14171208
108	0x3a2600c9	0.00063325145
109	0xbe030f7e	-0.12798879
110	0xbe1c8c6b	-0.1528794
111	0xbd2c30e0	-0.0420388
112	0x3e92e1fb	0.28688034
113	0xbe3e0151	-0.1855519
114	0xbe12f066	-0.14349517
115	0x3d7327d8	0.05936417
116	0xbd397b57	-0.04528364
117	0x3e352d04	0.17692953
118	0xbdeead5f	-0.11654162
119	0xba99b5ae	-0.0011727118
120	0x3e0309f6	0.12796769
121	0x3b9cd7d3	0.0047864704
122	0xbd8cf769	-0.06883127
123	0x3dced17d	0.100985505
124	0x3dbbe17e	0.091738686
125	0x3de50c26	0.11183958
126	0xbe178937	-0.14798437
127	0x3c61d7b2	0.013784336
128	0xbc5528e6	-0.013010239
129	0x3cbc2f15	0.02297167
130	0xbd4f70eb	-0.050644796
131	0xbe0f78af	-0.14010881
132	0xbcaa61e9	-0.02079864
133	0xbdcc2930	-0.099687934
134	0x3eb606f8	0.35552192
135	0x3d9473d0	0.07248652
136	0xbd8c5e3a	-0.0685391
137	0xbdd9753c	-0.10618064
138	0x3e5e9bea	0.21739164
139	0x3e7e895f	0.2485709
140	0xbddf57d2	-0.10905422
141	0x3e12f674	0.14351827
142	0xbdad74fc	-0.084695786
143	0xbd67f63c	-0.05663131
144	0xbe00a584	-0.12563139
145	0x3d84b7b3	0.0648035
146	0xbe2f6996	-0.17130122
147	0x3d8b09f5	0.067890085
148	0xbdc92279	-0.09821028
149	0x3d0e8155	0.03479131
150	0xbda3bcc3	-0.07994988
151	0xbd95bbde	-0.073112234
152	0x3dec1c22	0.115288034
153	0x3d3a7742	0.04552389
154	0x3db515be	0.088420376
155	0x3e38ae98	0.18035352
156	0xbdeb4811	-0.11488355
157	0x3dbcee4e	0.092251405
158	0xbd14f8a5	-0.03636994
159	0x3dd5e5f2	0.10444249
160	0xbe2bf614	-0.1679309
161	0xbdb1d692	-0.08683504
162	0xbd030f03	-0.03199674
163	0x3dfc686d	0.12324605
164	0xbc9c0314	-0.019044437
165	0x3cb5048a	0.022096891
166	0x3d3116c1	0.04323459
167	0xbe3fb3f9	-0.18720998
168	0xbe1af896	-0.1513389
169	0x3e045912	0.12924603
170	0x3df2c39a	0.11853714
171	0xbe1a1d97	-0.1505035
172	0xbda43106	-0.08017163
173	0xbc8dae1b	-0.017294934
174	0xbd61725c	-0.055040702
175	0xbdd5d83b	-0.10441633
176	0x3d3874d6	0.0450333
177	0xbdc8f274	-0.09811869
178	0xbdba1fd6	-0.090881035
179	0xbdd28d00	-0.102808
180	0x3e09e166	0.13464889
181	0xbb1529e1	-0.0022760557
182	0x3df4d220	0.11954141
183	0x3e14c4ee	0.14528248
184	0xbd1349f4	-0.0359592
185	0x3da9f3b8	0.08298439
186	0x3f071984	0.5277331
187	0xbd4829bb	-0.048867922
188	0x3ccd5c21	0.025068345
189	0xbc826eb5	-0.01592193
190	0x3c056461	0.008141608
191	0x3c0fcdd6	0.008777102
192	0xbd8559ec	-0.06511292
193	0x3b134c97	0.002247607
194	0xbd11dda5	-0.035611767
195	0xbd57ed10	-0.052716315
196	0xbc873c86	-0.016508352
197	0xbd4225c4	-0.047399297
198	0xbd2b4cfc	-0.041821465
199	0x3df248ad	0.11830268
200	0xbc98ce22	-0.01865298
201	0xbd67f973	-0.056634378
202	0x3dd4e904	0.10396007
203	0xbd677684	-0.05650951
204	0x3d7674c8	0.060169965
205	0xbd796c3a	-0.06089423
206	0xbe80da57	-0.2516658
207	0x3e4bced9	0.19903125
208	0x3e2f6bf4	0.17131025
209	0x3db6e735	0.08930818
210	0x3e2ed5dc	0.17073768
211	0x3ddbd58a	0.10734089
212	0xbe2969f8	-0.1654433
213	0xbd542069	-0.05178872
214	0xbd299436	-0.04140111
215	0x3d96b422	0.07358576
216	0x3d644316	0.05572804
217	0x3d2efe9d	0.042723287
218	0x3db44e9a	0.088040546
219	0xbe8200af	-0.25391147
220	0x3d3debce	0.04636746
221	0x3e66a60a	0.22524276
222	0x3db95176	0.090487406
223	0xbd98fdfa	-0.07470317
224	0x3e2c7966	0.16843185
225	0x3e348cb0	0.17631793
226	0xbdbd39dc	-0.092395514
227	0xbd8b13ac	-0.067908615
228	0xbc94f01a	-0.018180896
229	0x3c1a1877	0.009405247
230	0xbc164386	-0.009171372
231	0xbde36fce	-0.111053094
232	0x3d91e8b8	0.07124466
233	0x3db74733	0.08949127
234	0xbc53bfca	-0.012924144
235	0xbda42bfa	-0.080162
236	0x3dfbb3e2	0.12290169
237	0x3de68cd3	0.11257329
238	0x3d4313f8	0.047626466
239	0xbe13aaeb	-0.14420669
240	0xbd18ceab	-0.03730647
241	0x3e389533	0.18025665
242	0x3d099bf0	0.03359598
243	0xbd13a0e0	-0.036042094
244	0x3e10abfe	0.1412811
245	0xbd886e38	-0.066616476
246	0xbd28bfda	-0.04119859
247	0x3bb6288f	0.005559034
248	0xbdb9b202	-0.090671554
249	0x3d045a19	0.032312486
250	0xb9bb276b	-0.00035696788
251	0x3eace69d	0.33769694
252	0x3dc46e0d	0.09591303
253	0xbdf4de60	-0.11956477
254	0x3d217569	0.03941861
255	0xbd5b2472	-0.053501554

network.0.bias f4 [256]
0	0x3e7f0482	0.24904063
1	0xbe87634a	-0.2644294
2	0xbe87addd	-0.26499835
3	0xbddb7f07	-0.10717588
4	0xbea3798f	-0.3192868
5	0xbe9678ad	-0.29388943
6	0x3d331ac4	0.043726698
7	0xbd898bf9	-0.06716151
8	0x3e8a77c1	0.2704449
9	0xbd9ddf7c	-0.07708642
10	0xbe462a64	-0.19352108
11	0x3e8f3860	0.27972698
12	0xbd6412fe	-0.055682175
13	0xbeb5d4c4	-0.3551389
14	0xbe54a4a8	-0.20765936
15	0x3e2fc98d	0.1716673
16	0x3d8ffd0a	0.07030685
17	0xbe62db7d	-0.2215404
18	0xbe566057	-0.20935188
19	0xbe9d2ed1	-0.3069978
20	0x3e8fc982	0.28083426
21	0xbe3b9f79	-0.18322553
22	0xbe2cfeab	-0.16894023
23	0xbe616c3f	-0.22013949
24	0xbe93212b	-0.28736243
25	0x3e31f3cf	0.17378162
26	0x3e6094af	0.21931718
27	0xbcbbbd3c	-0.022917382
28	0xbe4169e7	-0.18888055
29	0xbeaf5c98	-0.3425033
30	0xbe268859	-0.1626295
31	0xbc9fb690	-0.019496232
32	0xbe707606	-0.23482522
33	0x3e9986e4	0.29985726
34	0xbe9734e3	-0.29532537
35	0x3e474223	0.19458823
36	0xbea21801	-0.3165894
37	0xbe9e310c	-0.30896795
38	0x3d681251	0.056658093
39	0xbe81c7be	-0.25347704
40	0xbe6095a8	-0.2193209
41	0x3e8a625a	0.2702816
42	0xbe92f56a	-0.2870286
43	0xbe026db3	-0.1273716
44	0xbd5af8f9	-0.053460095
45	0xbe196f82	-0.14983943
46	0x3e79e49f	0.24403618
47	0x3db6b24e	0.08920728
48	0x3e84ebdb	0.25961193
49	0x3e6de576	0.23232064
50	0xbe6d2166	-0.23157272
51	0xbea17b42	-0.3153935
52	0xbd92b182	-0.07162763
53	0xbe14c823	-0.14529471
54	0xbea6daec	-0.325889
55	0xbe2ba32a	-0.16761461
56	0xbd1597b2	-0.03652162
57	0x3e0a934b	0.1353275
58	0xbe408873	-0.18802051
59	0xbe0fe160	-0.14050817
60	0xbea38ee4	-0.31944954
61	0x3cce0e55	0.025153318
62	0xbe9bb1c1	-0.30409053
63	0xbe10ad3b	-0.14128582
64	0xbe1f2fda	-0.15545598
65	0xbe0241a2	-0.1272035
66	0xbcb68937	-0.022282226
67	0xbe43e8d6	-0.19131789
68	0x3e589ab6	0.21152768
69	0xbe9de4cc	-0.3083862
70	0xbe3ef817	-0.18649326
71	0x3e0e5f19	0.13903464
72	0x3e0c9928	0.137303
73	0xbe52b224	-0.20575768
74	0xbe83e0cf	-0.25757453
75	0xbe39c5b8	-0.1814183
76	0xbe01fc1b	-0.12693827
77	0xbe8121fa	-0.25221235
78	0x3daf45ff	0.085582726
79	0x3c6baac0	0.014383972
80	0xbe3afeaa	-0.18261209
81	0xbe82dd07	-0.25559255
82	0xbe52f81c	-0.20602459
83	0xbdcf603b	-0.101257764
84	0x3c78feba	0.01519745
85	0x3e995eca	0.2995513
86	0xbe65cff0	-0.22442603
87	0xbe8ae106	-0.27124804
88	0xbde662e5	-0.112493314
89	0xbc4c9315	-0.012486239
90	0xbea598d3	-0.32343158
91	0x3e7502eb	0.23926894
92	0xbe9b52b2	-0.3033653
93	0xbe7ffa3a	-0.24997798
94	0xbde59039	-0.11209149
95	0xbe04c4be	-0.12965676
96	0x3e6e53b0	0.23274112
97	0x3de60682	0.1123171
98	0xbe76a4b6	-0.2408627
99	0x3e9112da	0.28334695
100	0x3e4bc773	0.19900303
101	0xbd46cd21	-0.04853547
102	0x3d698390	0.057010233
103	0xbe4cef1b	-0.20013086
104	0x3e7e8dab	0.2485873
105	0xbeb8697f	-0.36017987
106	0xbe6d033d	-0.23145767
107	0xbe8b76a0	-0.2723894
108	0xbe87218c	-0.26392782
109	0xbe386e61	-0.18010856
110	0xbde680b2	-0.112550154
111	0xbe4098c5	-0.18808277
112	0xbdaea389	-0.085272856
113	0xbdcdee18	-0.100551784
114	0xbe840e9d	-0.257924
115	0xbeade3d2	-0.33962876
116	0x3e200d01	0.1562996
117	0xbe34e72f	-0.17666315
118	0xbe5336bd	-0.2062635
119	0x3d8cf66e	0.0688294
120	0xbe5c1bdc	-0.21495003
121	0x3e92da00	0.28681946
122	0xbe79a7dc	-0.2438044
123	0xbe9c332a	-0.30507785
124	0xbe9281fb	-0.28614792
125	0x3cf0ca54	0.029393353
126	0x3d990cdb	0.07473155
127	0xbe4f17c7	-0.20223914
128	0xbe5f46b8	-0.21804321
129	0xbd8b8983	-0.06813338
130	0xbde2c749	-0.11073167
131	0xbd1069f3	-0.03525729
132	0xbe8ec04c	-0.27881086
133	0xbeb06775	-0.3445393
134	0xbe4adf01	-0.19811632
135	0x3d8d3c48	0.06896263
136	0x3b07b3c3	0.0020706512
137	0xbe74b00b	-0.2389528
138	0xbe2060b8	-0.15661895
139	0xbe811504	-0.25211346
140	0xbe405a7a	-0.18784514
141	0xbe85ecb7	-0.26157162
142	0xbea80625	-0.32817188
143	0xbd68af80	-0.056807995
144	0xbe5e0b77	-0.21684061
145	0xbd63b00c	-0.055587813
146	0xbe70e54d	-0.23524971
147	0xbe2f1b1d	-0.17100187
148	0xbd9db325	-0.07700185
149	0x3d20d614	0.03926666
150	0xbe1d1562	-0.15340188
151	0x3e58677b	0.21133225
152	0xbe105dd0	-0.14098287
153	0xbe82768b	-0.25481066
154	0xbe8fd0ec	-0.28089082
155	0x3e7f4e43	0.24932198
156	0xbe078ac1	-0.13236524
157	0xbe85f968	-0.26166844
158	0x3e2ae579	0.166891
159	0xbe881772	-0.26580387
160	0xbe5dbfb8	-0.21655166
161	0x3decd877	0.11564725
162	0x3e4caecb	0.19988553
163	0xbe7d6b93	-0.24748068
164	0x3e8d28d4	0.27570212
165	0xbe9b6cae	-0.30356354
166	0xbcb42127	-0.021988465
167	0xbe8f455d	-0.27982607
168	0xbe32deea	-0.17467847
169	0xbe85780f	-0.2606816
170	0xbe7e4ab4	-0.24833184
171	0x3d209c52	0.03921158
172	0xbda3ca2f	-0.07997548
173	0xbe39dbec	-0.181503
174	0xbeac5851	-0.3366113
175	0xbd8bd18c	-0.06827077
176	0x3c9f1aee	0.01942202
177	0xbe933b64	-0.2875625
178	0xbeb2a4f5	-0.34891477
179	0x3e631773	0.22176914
180	0xbd5486f6	-0.05188652
181	0xbe3744a0	-0.17897272
182	0xbe60050b	-0.21876924
183	0xbe994f5f	-0.29943368
184	0x3e39b8e6	0.1813694
185	0xbe5e0273	-0.21680622
186	0xbde4671a	-0.111524776
187	0x3d881756	0.06645076
188	0xbea6320c	-0.32460058
189	0xbebca554	-0.36844885
190	0xbeab9311	-0.3351064
191	0x3a413a53	0.00073710567
192	0xbeb64319	-0.35598066
193	0xbea9da11	-0.33174184
194	0xbe10b2d8	-0.14130723
195	0xbeaef5d5	-0.3417193
196	0xbdaff16f	-0.08590972
197	0xbdedaafd	-0.11604879
198	0xbe6f0776	-0.2334269
199	0xbeaeb5d2	-0.34123093
200	0x3ea3ae6c	0.3196901
201	0xbea23ec7	-0.3168852
202	0x3e584058	0.21118295
203	0xbea353f5	-0.31899992
204	0x3e571eaa	0.21007791
205	0xbdc149b7	-0.09437888
206	0x3dec4ac3	0.11537697
207	0x3b6f9e29	0.0036562777
208	0x3c48554b	0.012227367
209	0x3e6b2102	0.2296181
210	0x3e4ebb7e	0.2018871
211	0xbca05ec6	-0.019576441
212	0x3d8cd309	0.06876189
213	0xbea9f42e	-0.33194107
214	0xbea1add9	-0.31577948
215	0x3d6fb045	0.058517713
216	0xbccc5c85	-0.02494646
217	0x3e82cd76	0.2554738
218	0xbd69e11f	-0.057099458
219	0xbe02959d	-0.12752385
220	0xbe98fcad	-0.29880276
221	0xbe8d08c8	-0.27545762
222	0xbdf9a566	-0.121897504
223	0xbe88e4ba	-0.26737005
224	0xbe5e6b2b	-0.21720569
225	0x3e6c6a75	0.23087485
226	0xbdba87d4	-0.091079384
227	0xb9dd2132	-0.00042177137
228	0xbdf03f74	-0.11730853
229	0xbdadcfce	-0.08486901
230	0xbe415a83	-0.18882184
231	0x3e3b8a47	0.18314467
232	0xbd5d5ae3	-0.054041754
233	0x3cc41079	0.023933636
234	0xbd929981	-0.07158185
235	0x3d5f0949	0.054452214
236	0xbdab2d62	-0.083582655
237	0xbd653357	-0.055957165
238	0x3e9c267b	0.30498108
239	0xbb5b874e	-0.0033497396
240	0xbe65d65a	-0.2244505
241	0xbe694b1d	-0.2278256
242	0xbd8d0772	-0.06886186
243	0xbea8d680	-0.3297615
244	0x3e922fc7	0.28552076
245	0xbd34d967	-0.044152644
246	0x3e3193e7	0.17341577
247	0x3e46138a	0.19343391
248	0xbe9628e7	-0.2932808
249	0xbe53ceeb	-0.20684402
250	0xbebb7b1e	-0.36617368
251	0xbe5d7384	-0.21626097
252	0xbe91912b	-0.28431067
253	0x3d37ee28	0.044904858
254	0xbe91fe3b	-0.28514275
255	0xbeb1e182	-0.3474236

network.3.weight f4 [256, 256]
0	0xbca0e084	-0.019638307
1	0xbd796b6f	-0.060893472
2	0xbdb5be63	-0.08874204
3	0x3c54d87d	0.012991068
4	0x3c257c6c	0.010100465
5	0xbc9c95cf	-0.019114403
6	0xbceec209	-0.029145258
7	0x3c41464a	0.011796543
8	0xbd8168c3	-0.0631881
9	0xbd1be48e	-0.038059764
10	0xbd82ef77	-0.063933305
11	0x3c1d4cb9	0.009600812
12	0x3cb04d60	0.02152127
13	0xbc802e27	-0.015647007
14	0xbcfd30b8	-0.03090702
15	0xbd267df1	-0.04064745
16	0xbc0862d3	-0.008324343
17	0x3c27b8e2	0.010236951
18	0xbd5952f3	-0.053057622
19	0x3b914546	0.004433307
20	0xbb63067b	-0.0034641314
21	0xbd32d78b	-0.04366259
22	0xbd778c79	-0.0604367
23	0xbd91ae50	-0.071133256
24	0xbcaa070d	-0.020755315
25	0xbd253c48	-0.04034069
26	0xbcbabb2d	-0.02279433
27	0x3d32bd8e	0.043637805
28	0xbd850eba	-0.064969495
29	0xbd7267ed	-0.059181143
30	0xbc863f43	-0.016387587
31	0xbc81f0d6	-0.01586191
32	0xbc885a14	-0.016644515
33	0x3cbbd8df	0.02293056
34	0xbbb7274a	-0.0055894004
35	0xbd338079	-0.043823693
36	0xbcc45a32	-0.02396879
37	0xbc25af60	-0.010112613
38	0xbd337501	-0.043812755
39	0x3c92c8c7	0.017918004
40	0xbd4e6332	-0.05038757
41	0xbd59cd96	-0.053174578
42	0xbd85c620	-0.0653193
43	0x3d5150df	0.051102515
44	0xbbe98b68	-0.007127214
45	0x3bb3b973	0.0054847538
46	0xbcda0b1d	-0.026616627
47	0xbbf482ec	-0.007461896
48	0xbcd88caa	-0.026434261
49	0xbc5b3c6c	-0.013381105
50	0xbd4677ec	-0.04845421
51	0x3c85dd4c	0.016340874
52	0xbca74e34	-0.020423032
53	0xbc84dff1	-0.016220065
54	0xbccde28b	-0.025132438
55	0x3c4af81d	0.012388256
56	0xbd711643	-0.05885912
57	0x3c5372be	0.012905775
58	0xbd3b6914	-0.045754507
59	0xbd921c42	-0.07134296
60	0xbd4d2bd3	-0.050090622
61	0xbdab803a	-0.08374067
62	0xbd95f2a9	-0.073216744
63	0xbd80f768	-0.06297189
64	0xbd12d65a	-0.035848953
65	0x3cb80a4f	0.022465853
66	0xbd6638d4	-0.05620654
67	0xbd5251db	-0.051347595
68	0xbd472745	-0.048621435
69	0xbd9c6e9c	-0.076382846
70	0xbd3572c6	-0.04429891
71	0xbd93d059	-0.072174735
72	0xbbceb559	-0.0063082394
73	0xbc8cae5f	-0.01717299
74	0x3bb7a202	0.0056040296
75	0xbc3b38d7	-0.011427126
76	0x3c590a30	0.013247058
77	0xbcd5f44e	-0.02611747
78	0x3c644fa7	0.013935006
79	0x3d01d7e6	0.031700037
80	0x3b6ffa45	0.0036617678
81	0xbd963f14	-0.0733625
82	0xba22afa0	-0.000620598
83	0xbce48cf3	-0.027899241
84	0xbdabd14c	-0.083895296
85	0xbcdb8726	-0.026797842
86	0xbda75df7	-0.08172219
87	0xbda6124a	-0.08108957
88	0xbde697ee	-0.11259447
89	0x3ccdfbf5	0.025144557
90	0xb6d8f689	-6.466002e-06
91	0xbd59c87d	-0.053169716
92	0xbc59e8d6	-0.013300141
93	0xbd6d276b	-0.05789892
94	0xba0cb554	-0.0005367596
95	0xbd24696c	-0.0401396
96	0xbc9e5e64	-0.019332118
97	0x3bbb3cd8	0.0057140402
98	0x3d06ebef	0.032939848
99	0xbce90e42	-0.028449181
100	0x3c111780	0.0088557005
101	0xbd30a529	-0.04312626
102	0xbc965627	-0.018351628
103	0x3c1dee9b	0.0096394075
104	0x3ca8b6fc	0.020595066
105	0xbd8774d8	-0.06614083
106	0xbd4186c1	-0.047247652
107	0xbcbf49bd	-0.02335059
108	0x3ce9300c	0.028465293
109	0xbd2efcc3	-0.04272152
110	0xbd1e1934	-0.038598254
111	0x3d53149c	0.051533327
112	0xbd337d9c	-0.043820962
113	0xbd79c01c	-0.060974225
114	0x3c9a3083	0.01882196
115	0xbcd86260	-0.026414096
116	0x3c438855	0.01193436
117	0xbd9cf1fe	-0.07663344
118	0xbd7118b9	-0.058861468
119	0x3d6f75b5	0.058461864
120	0x3d07248c	0.03299384
121	0x3c5c91c1	0.013462485
122	0x3d334a0d	0.043771792
123	0xbbfb935a	-0.007677478
124	0xbd8e294d	-0.06941471
125	0x3c7b955a	0.015355432
126	0xbd99b4b9	-0.07505173
127	0xbdaa9ccd	-0.083306886
128	0xbc8ae6be	-0.01695573
129	0x3c3dc8b5	0.011583497
130	0xbd38d196	-0.04512175
131	0x3d179e80	0.03701639
132	0xbc1e0fb4	-0.009647299
133	0xbd12c200	-0.035829544
134	0xbd6448ae	-0.055733375
135	0x3c32d757	0.010915599
136	0x3c7f2d2d	0.015574736
137	0xbd1f5e72	-0.03890843
138	0xbd5fff60	-0.054686904
139	0x3be99495	0.007128308
140	0xb9cb0556	-0.00038723153
141	0xbd1c1ba6	-0.038112305
142	0x3c9e3d86	0.019316446
143	0x3b2ac1e6	0.0026055514
144	0xbd52984c	-0.051414773
145	0xbda8958a	-0.08231647
146	0x3d5b6d71	0.05357117
147	0x3b8aa158	0.0042306595
148	0xbd33e78b	-0.04392199
149	0xbd7bd9a4	-0.061486855
150	0x3cff87e7	0.031192733
151	0xbd592b03	-0.053019535
152	0xbd8c3444	-0.068459064
153	0x3c92ad61	0.01790494
154	0xbd3cc04e	-0.046081834
155	0xbd2f7935	-0.0428402
156	0xbd1a691f	-0.037697908
157	0xbd804bfc	-0.06264493
158	0xbce675b7	-0.028132303
159	0xbc6aafb6	-0.014324119
160	0xbc82aabe	-0.015950557
161	0xbd405794	-0.04695852
162	0xbd536b2e	-0.051615886
163	0xbd2c9760	-0.04213655
164	0x3c801bd7	0.015638275
165	0xbcb94f16	-0.022620719
166	0x3cf1025e	0.029420074
167	0xbd495353	-0.04915173
168	0x3ba63c7c	0.0050731283
169	0x3b75b9af	0.003749471
170	0xbbacacf5	-0.0052696415
171	0x3d4706f3	0.04859061
172	0xbd01e622	-0.031713612
173	0xbb456267	-0.0030118467
174	0xbc83a1a7	-0.016068293
175	0x3d6d4cb0	0.057934463
176	0xbc946b46	-0.018117558
177	0xbcc75653	-0.024333155
178	0xbc80c6af	-0.01571974
179	0x3ca2c605	0.019869814
180	0x3a8c5fe7	0.0010709733
181	0xbd84cb05	-0.064840354
182	0xbbee7b74	-0.0072779004
183	0xbd38429d	-0.044985402
184	0x3d1e8357	0.038699474
185	0xbda7f7e3	-0.082015775
186	0x3d30bc0f	0.043148097
187	0x3cb891ef	0.022530524
188	0xbb347310	-0.0027534403
189	0xbdafa005	-0.08575443
190	0x3cb577b8	0.022151813
191	0xbc51c059	-0.012802207
192	0xbd8edf2c	-0.069761604
193	0xbd3e87a8	-0.04651609
194	0xbd647eb4	-0.055784896
195	0xbd57dae4	-0.052698985
196	0x3cde9103	0.027168756
197	0xbd1c9bbd	-0.03823446
198	0xbc9fb55a	-0.019495655
199	0xbc661fd4	-0.014045674
200	0xbcca28b0	-0.024677604
201	0xbd827211	-0.06369413
202	0xbcc6e4e4	-0.024279065
203	0xbc74c8e3	-0.014940473
204	0xbc4f4a6c	-0.012652021
205	0xbd316304	-0.04330732
206	0xbd56b6df	-0.052420493
207	0xbd3c97b1	-0.0460431
208	0x3a8c74fd	0.0010716018
209	0xbd86c993	-0.06581416
210	0xbc424a46	-0.0118585285
211	0x3c16732d	0.0091827335
212	0xbc4db3d0	-0.012555078
213	0xbbffc933	-0.0078059672
214	0xbcde8006	-0.027160656
215	0x3c034620	0.008012325
216	0x3c42b7ce	0.011884643
217	0x3befb8d4	0.0073157344
218	0xbca34b48	-0.019933358
219	0xbda04b66	-0.07826881
220	0xbd2601e5	-0.04052915
221	0xbca99c75	-0.020704487
222	0xbd9f33fd	-0.07773588
223	0xbd868ac5	-0.06569437
224	0x3c46a89a	0.012125159
225	0xbb19a5ea	-0.002344484
226	0xbcdd6158	-0.027023956
227	0xbd8816e3	-0.0664499
228	0xbc9eb048	-0.019371167
229	0xbcfa15bc	-0.030527942
230	0xbd892385	-0.06696228
231	0xbd1fc1f9	-0.039003346
232	0xbcff10c7	-0.03113593
233	0xbbcab943	-0.0061866357
234	0xbda96661	-0.0827148
235	0x39fb03dd	0.0004787733
236	0x3c5c25fa	0.013436789
237	0xbdaf61db	-0.08563586
238	0xbd11ee60	-0.035627723
239	0xbd0aa99f	-0.03385317
240	0x3c1e5a13	0.00966503
241	0xbd4cdfc0	-0.050018072
242	0xbb5dd463	-0.0033848516
243	0xbc50cae3	-0.012743684
244	0xbd081d60	-0.03323114
245	0xbc2213db	-0.009892429
246	0x3c3e9122	0.011631282
247	0xbb8021e0	-0.003910288
248	0xbdc44cd7	-0.095849685
249	0xbd8c8182	-0.06860639
250	0xbd8b506d	-0.068024494
251	0xbbc8d8de	-0.006129368
252	0xbda9cc9d	-0.0829098
253	0xbd8818af	-0.06645333
254	0xbb970270	-0.004608445
255	0xbc144037	-0.009048513

network.3.bias f4 [256]
0	0x3df19a91	0.11797059
1	0xbe67f79c	-0.22653049
2	0xbd91e845	-0.0712438
3	0xbe453d55	-0.19261678
4	0xbe38f32a	-0.1806151
5	0xbe461c69	-0.19346775
6	0xbdde45f0	-0.10853183
7	0x3d7fa24d	0.06241064
8	0xbe0673bd	-0.13130088
9	0xbe20f143	-0.15717034
10	0x3daa01c9	0.08301122
11	0x3c9022fa	0.017594803
12	0x3dcf023a	0.101078466
13	0x3df591d6	0.119907066
14	0xbb9548a1	-0.004555777
15	0xbe068873	-0.13137989
16	0x3e15cdbc	0.14629263
17	0x3da1fa16	0.07909028
18	0xbe48c4ea	-0.19606367
19	0xbe3f277b	-0.18667404
20	0xbdffeb51	-0.12496055
21	0xbe086464	-0.13319546
22	0xbe5c3a0c	-0.21506518
23	0xbe4c7b7a	-0.19968978
24	0xbe68e12c	-0.22742146
25	0xbe073eae	-0.13207504
26	0xbe202287	-0.15638171
27	0xbe514c65	-0.20439298
28	0xbe3b8297	-0.18311535
29	0xbe1d19ec	-0.1534192
30	0x3b2181f3	0.0024644106
31	0x3e154d7c	0.14580339
32	0xbd62fc25	-0.055416245
33	0xbdb7da76	-0.08977215
34	0x3d95b5dd	0.07310078
35	0x3dfa3028	0.12216216
36	0x3cf9947b	0.030466309
37	0xbe1f61bc	-0.15564626
38	0xbe2ab4f3	-0.16670589
39	0xbd4a389d	-0.049370397
40	0x3cd7f4b2	0.026361797
41	0x3d3fd03f	0.04682946
42	0xbe1c49f7	-0.1526259
43	0xbe0f6677	-0.14003931
44	0x3dd2fc7e	0.10302065
45	0xbe499253	-0.19684725
46	0xbe34c9ca	-0.17655101
47	0xbe075e1b	-0.13219492
48	0xbd9b8630	-0.075939536
49	0x3cb61432	0.022226427
50	0x3df05353	0.11734643
51	0xbb2f406c	-0.002674128
52	0xbe55d04d	-0.20880242
53	0x3d2aa5a2	0.041661866
54	0xba635bf4	-0.0008673065
55	0x3d00b134	0.031418994
56	0xbe50a654	-0.20375949
57	0x3d7780b6	0.060425483
58	0xbd05e58b	-0.032689612
59	0xbe203679	-0.1564578
60	0xbe2dbdbe	-0.16966912
61	0x3d983ae3	0.07433107
62	0xbd987f2a	-0.074461296
63	0xbe609aaa	-0.21934
64	0x3d950566	0.0727642
65	0x3d4dac7d	0.050213326
66	0xbe3e2e86	-0.18572435
67	0xbe4dd2e3	-0.20099978
68	0xbd8bc518	-0.06824702
69	0x3b997a78	0.004683789
70	0xbe0d2939	-0.13785256
71	0xbd873224	-0.066013604
72	0x3dd712c2	0.10501625
73	0x3c9c47a3	0.019077128
74	0xbd0c37af	-0.03423279
75	0xbe341b52	-0.17588547
76	0xbe08f842	-0.13375953
77	0x3cd2e8d7	0.025745792
78	0xbd8e47ae	-0.069472656
79	0xbe28ae0e	-0.16472647
80	0x3d721053	0.0590976
81	0xbe2e2b84	-0.17008787
82	0xbd23c1c2	-0.039979704
83	0xbe569ce4	-0.20958287
84	0x3da48aba	0.080342725
85	0x3d63a5f9	0.055578206
86	0x3d439650	0.04775077
87	0xbe0f5a49	-0.13999285
88	0xbe393de6	-0.18090019
89	0xbe2a54ee	-0.1663396
90	0xbe244391	-0.160414
91	0xbe2967f9	-0.16543569
92	0xbdb4f3c4	-0.08835557
93	0xbda0238e	-0.078192815
94	0xbd88e416	-0.06684129
95	0xbd856385	-0.065131225
96	0xbe06bcca	-0.13157955
97	0x3df7a55b	0.12092086
98	0xbe5c26e9	-0.21499218
99	0xbe6163e0	-0.22010756
100	0xbe07710d	-0.13226719
101	0xbd9e047f	-0.07715701
102	0xbe1cef39	-0.15325631
103	0x3d8ce4b8	0.06879562
104	0x3ac10eb3	0.0014729112
105	0xbc4d1858	-0.012518011
106	0x3dabd592	0.08390345
107	0xbe5ebf64	-0.21752697
108	0xbe65fc0b	-0.22459428
109	0xbb8263e8	-0.003979195
110	0xbe432f67	-0.19061051
111	0x3c926c67	0.017873956
112	0xbe322490	-0.1739676
113	0xbd902387	-0.07038026
114	0xbd96a588	-0.07355791
115	0xbd813323	-0.06308582
116	0xbb30705d	-0.0026922442
117	0xbc8b75c0	-0.017023921
118	0x3db750b4	0.0895094
119	0xbd9ba18d	-0.07599173
120	0x3dbb7ad7	0.09154289
121	0xbc9ccbee	-0.01914021
122	0xbc1c7270	-0.009548768
123	0x3bf5a2fd	0.0074962364
124	0xbce42b06	-0.027852546
125	0x3d85aa38	0.06526607
126	0xbda5acd3	-0.08089604
127	0xbe31699c	-0.17325443
128	0xbda86237	-0.08221858
129	0xbc5d3ff1	-0.013504014
130	0x3da903ad	0.08252654
131	0xbe1a0398	-0.15040433
132	0xbdb54d27	-0.08852606
133	0xbe20f791	-0.15719439
134	0xbe136324	-0.14393288
135	0xbe151867	-0.1456009
136	0x3dc4b5ec	0.09605011
137	0x3d5b6c5f	0.053570148
138	0xbdfdcc65	-0.12392501
139	0x3b469e83	0.0030306883
140	0xbdf6f681	-0.12058736
141	0xbe0a963b	-0.13533871
142	0x3d48f5b2	0.04906244
143	0x3ded6a2f	0.115925185
144	0x3ce53f1b	0.027984193
145	0xbde636dc	-0.11240932
146	0xbe0adcd2	-0.13560799
147	0xbe5fc795	-0.21853478
148	0xbe49b5f4	-0.19698316
149	0xbcb79398	-0.022409245
150	0x3d2a85e6	0.0416316
151	0x3dcbc167	0.09948998
152	0x3c027e96	0.007964751
153	0x3d9e0a73	0.07716837
154	0xbdb3f574	-0.08787051
155	0xbe30b461	-0.17256309
156	0xbe129441	-0.14314367
157	0x3d560f75	0.052260835
158	0xbdf53651	-0.11973251
159	0x3cf25c03	0.02958489
160	0xbe33d999	-0.17563476
161	0xbdda5733	-0.10661163
162	0x3dc49494	0.095986515
163	0xbd9a2498	-0.07526511
164	0x3c5a5127	0.013325012
165	0xbe0c6f08	-0.1371423
166	0xbe3bf932	-0.18356779
167	0xbdb0be16	-0.08630006
168	0xbe43613d	-0.19080062
169	0xbe1e3fc9	-0.1545402
170	0x3dd19808	0.10234076
171	0xbe3fc869	-0.18728794
172	0xbe0d9c0e	-0.13829061
173	0xbe272366	-0.16322097
174	0xbe52674a	-0.20547214
175	0xbe413b8c	-0.18870372
176	0x3d4abec4	0.049498335
177	0xbd965288	-0.0733996
178	0xbe48fb0f	-0.19627021
179	0x3cd2ed7f	0.025748013
180	0xbdfdd773	-0.12394609
181	0x3df8905f	0.121369116
182	0xbe0efad4	-0.13962871
183	0xbe442b18	-0.19157064
184	0xbe335250	-0.17511868
185	0xbe07e756	-0.13271841
186	0x3d0eb644	0.03484179
187	0xbe0b9862	-0.13632348
188	0x3e0a0d14	0.13481551
189	0xbe03b3cd	-0.12861557
190	0xbdc24ca5	-0.09487275
191	0x3de14e73	0.11001291
192	0xbe249886	-0.16073808
193	0xbdd1e55b	-0.10248824
194	0xbe0bbe20	-0.13646746
195	0xbe10b41e	-0.14131209
196	0xbd62d1ef	-0.05537599
197	0xbdee2d4a	-0.11629732
198	0x3dc5c8bd	0.096574284
199	0xbe63f67b	-0.22261994
200	0xbdc27db6	-0.09496634
201	0x3df01ce8	0.117242634
202	0xbe719e1c	-0.2359547
203	0x3d42e6ba	0.04758332
204	0xbcc7ca9c	-0.024388604
205	0xbd052bd7	-0.032512512
206	0x3d935b8d	0.07195196
207	0x3d9538b1	0.07286204
208	0x3e050404	0.12989813
209	0xbdf3e78e	-0.119094
210	0xbe3a8668	-0.18215334
211	0xbdafecda	-0.08590098
212	0xbdf524a8	-0.11969882
213	0xbe0ebddb	-0.13939612
214	0xbcf85df1	-0.030318232
215	0x3dc1cba4	0.094626695
216	0xbde2d545	-0.11075834
217	0x3c8d10fa	0.01722001
218	0xbe039c0c	-0.12852496
219	0x3dfee93b	0.12446829
220	0xbc732b6d	-0.0148418965
221	0xbe1043c0	-0.14088345
222	0xbcd8ae6c	-0.026450358
223	0xbe145a98	-0.14487684
224	0xbdd921cc	-0.10602149
225	0xbdaf6880	-0.08564854
226	0xbe131b81	-0.1436596
227	0xbe428998	-0.189978
228	0xbdcae8da	-0.09907694
229	0x3d192b16	0.037394606
230	0xbe524e30	-0.20537639
231	0xbda7be9c	-0.08190653
232	0xbd85819d	-0.065188624
233	0x3daa0d82	0.08303358
234	0xbdf45cc7	-0.119317584
235	0xbe11ebc8	-0.142501
236	0xbe7c9869	-0.24667515
237	0xbe3339ca	-0.17502514
238	0x3df8ab8e	0.121420965
239	0xbe3f58b5	-0.18686183
240	0xbe504a23	-0.20340781
241	0x3db8790f	0.09007465
242	0xbe0ac654	-0.13552219
243	0x3cb00ea6	0.02149136
244	0xbe403d7b	-0.18773453
245	0xbe4730e9	-0.19452251
246	0xbd9efffd	-0.0776367
247	0xbe448119	-0.19189872
248	0xbe44a1ed	-0.19202395
249	0xbe434ca2	-0.19072202
250	0xbd5481c0	-0.05188155
251	0xbe639a5b	-0.2222685
252	0xbe39b9ad	-0.18137236
253	0x3d995b0d	0.0748807
254	0xbdb6efce	-0.08932458
255	0x3ddee9d1	0.10884441

network.6.weight f4 [128, 256]
0	0x3c24c241	0.010056079
1	0x3c4f8677	0.012666336
2	0x3d0711b5	0.03297587
3	0x3e1a8123	0.15088324
4	0x3da2a79c	0.07942125
5	0x3db866f6	0.09004013
6	0xbbfca9dd	-0.007710679
7	0xbd6512cb	-0.055926125
8	0x3d08a8d2	0.033364125
9	0x3d846daa	0.06466229
10	0xbc23e7f6	-0.010004034
11	0x3d5a9ca7	0.05337205
12	0x3d8fc516	0.07020013
13	0xba405bdd	-0.00073379074
14	0x3caa285e	0.020771202
15	0x3d184b15	0.03718098
16	0xbdb93804	-0.09043887
17	0xbcec575f	-0.028850256
18	0x3c10b088	0.008831151
19	0x3d3ab698	0.04558429
20	0x3cda8e85	0.026679287
21	0x3d2e173c	0.042502627
22	0x3e2c9644	0.16854197
23	0x3da05ad0	0.07829821
24	0x3d46bf0e	0.048522048
25	0x3d28dab5	0.0412242
26	0x3d504b17	0.05085286
27	0x3d65360b	0.055959743
28	0x3d461c24	0.04836668
29	0x3d7c5a03	0.06160928
30	0xbd251f3f	-0.040313
31	0xbd812540	-0.06305933
32	0xbd1ec40f	-0.038761195
33	0x3d139ec7	0.036040094
34	0xbd618da3	-0.055066716
35	0x3cec2ef2	0.028830979
36	0xbdbfbc2e	-0.09362064
37	0x3c8a3838	0.01687251
38	0x3d181324	0.03712763
39	0xbcb4e1d5	-0.022080341
40	0x3d180996	0.037118517
41	0xbdbe793b	-0.093004666
42	0x3da1552e	0.07877575
43	0x3d891e2c	0.06695208
44	0xbd16b245	-0.036791105
45	0x3d647684	0.055777088
46	0x3e3f6dfc	0.186943
47	0x3d5aa618	0.053381056
48	0x3d36e25a	0.04464946
49	0xbd9702c8	-0.07373577
50	0x3c852c6d	0.016256535
51	0x3d008c41	0.031383757
52	0x3e5087be	0.20364282
53	0xbd30cd03	-0.043164264
54	0xbd9089e9	-0.07057554
55	0xbd27f5ca	-0.041005887
56	0x3d5ba667	0.05362549
57	0xbb0d7a24	-0.0021587694
58	0x3d434876	0.047676526
59	0x3c446ae3	0.011988374
60	0x3c1289ef	0.008944019
61	0x3ca35c7b	0.019941559
62	0xbcfc8a7b	-0.030827751
63	0x3da60336	0.08106081
64	0xbc2bc1ed	-0.010483247
65	0x3c9dad85	0.01924778
66	0x3d90e3c0	0.0707469
67	0x3d32a0c9	0.043610368
68	0x3d63b802	0.055595405
69	0xbca2695a	-0.019825626
70	0xbbb4e782	-0.005520762
71	0x3d073bb7	0.033015933
72	0xbc3017f8	-0.010747902
73	0xbc191bc5	-0.009345
74	0x3dae80c8	0.08520657
75	0x3d77a130	0.060456455
76	0xbcacd9e8	-0.0211
77	0xbd81aec1	-0.0633216
78	0x3da5f0df	0.08102583
79	0x3e2e7652	0.17037323
80	0xbdc8ba6c	-0.09801182
81	0x3e298550	0.16554761
82	0x3d6f50bd	0.058426607
83	0x3d32588d	0.04354148
84	0xbd6c24b7	-0.0576522
85	0xbc981822	-0.018566195
86	0x3d30e91a	0.043191053
87	0xbc86e0f4	-0.016464688
88	0xbcf3fe0c	-0.029784225
89	0x3d0df15f	0.034654018
90	0xbd111473	-0.035419893
91	0x3d8bb7a3	0.06822135
92	0xbd182a40	-0.037149668
93	0x3d74bc14	0.059749678
94	0x3c15a6c2	0.009133996
95	0x3c70a395	0.0146874385
96	0x3c8cf823	0.017208165
97	0x3cba8632	0.022769067
98	0x3e2305c6	0.15920171
99	0x3e2f5d0d	0.1712534
100	0x3d7bdd6b	0.061490458
101	0x3ccc1119	0.024910497
102	0xbce1ddbc	-0.027571552
103	0xbca99cd2	-0.02070466
104	0xbc427e5c	-0.011870947
105	0x3d916125	0.07098607
106	0x3d6c5932	0.05770225
107	0x3e083d1e	0.13304564
108	0x3b82dae0	0.003993377
109	0x3d0edaae	0.034876518
110	0x3e0327bc	0.12808126
111	0xbd3c532a	-0.04597775
112	0x3c0a4176	0.008438459
113	0xbcd951bb	-0.02652823
114	0x3cd53bfb	0.026029577
115	0x3ca2deb3	0.019881582
116	0xbc85a32b	-0.016313156
117	0x3c9814f1	0.018564673
118	0xbd74ff64	-0.059813872
119	0x3cc32f9e	0.023826417
120	0x3b38f31e	0.002822108
121	0xbd9d1320	-0.076696634
122	0x3da01bca	0.078178
123	0xbbec4b0d	-0.007211095
124	0xbd1cadb5	-0.038251597
125	0x3cd99c9d	0.026563937
126	0xbc3e614f	-0.01161988
127	0x3dd5c52e	0.10438
128	0x3b4fb86c	0.0031695617
129	0x3dc44a22	0.09584452
130	0x3d92c642	0.07166721
131	0xbd173e33	-0.036924552
132	0x3dfd198c	0.12358388
133	0x3c88f4fb	0.016718378
134	0x3c9beb4a	0.019033093
135	0xbbc16aca	-0.005902623
136	0xbc62bd7c	-0.013839122
137	0x3d10acec	0.03532116
138	0xbca840d5	-0.020538727
139	0x3d6b7115	0.05748089
140	0x3b72ff19	0.003707832
141	0xbd1aefa7	-0.037826207
142	0x3c456954	0.012049038
143	0x3d3341c6	0.0437639
144	0xbd60d3ed	-0.05488961
145	0x3d5351be	0.051591627
146	0xbc3622fe	-0.011116741
147	0x3e34c890	0.17654634
148	0x3ca51923	0.020153588
149	0xbd9afdb7	-0.075679235
150	0xbd15dae7	-0.036585715
151	0xbcd7c134	-0.026337244
152	0xbd9d5358	-0.07681912
153	0xbda0900d	-0.078399755
154	0x3d4bbb59	0.049739216
155	0x3e19414c	0.14966315
156	0xbc77a9c5	-0.01511616
157	0xbcd60e9b	-0.026130011
158	0xbbd846b8	-0.006600227
159	0x3d263cbd	0.04058527
160	0x3d8a1b93	0.067435406
161	0x3c52eaf4	0.0128734
162	0xbb6d9b64	-0.003625595
163	0x3b96dfcf	0.004604317
164	0x3c14c8d7	0.009081087
165	0x3ca21799	0.019786643
166	0x3d3080c9	0.04309157
167	0x3d2da4ac	0.04239337
168	0x3e327fb4	0.17431527
169	0xbb14a4bd	-0.00226812
170	0xbd6f5984	-0.058434978
171	0x3d5f7164	0.054551497
172	0x3d804210	0.062626004
173	0x3d5d1ce5	0.053982634
174	0x3c800ed5	0.015632072
175	0x3cf10f2e	0.029426184
176	0xbcfe14e8	-0.031015828
177	0x3d5c4c2a	0.053783573
178	0x3c8e59d3	0.017376816
179	0xbdc11670	-0.09428108
180	0x3cd8e3c3	0.026475793
181	0xbc89bb37	-0.016812904
182	0x3e382e63	0.17986445
183	0x3d8c5e7b	0.06853958
184	0x3dad4321	0.084600694
185	0x3c2297ed	0.009923917
186	0xbbbd5cff	-0.0057789083
187	0xbd8c53a0	-0.06851888
188	0x3d04b144	0.032395616
189	0x3db27594	0.087138325
190	0x3d54f6a6	0.051993035
191	0xbc50058c	-0.012696635
192	0xbc98c10c	-0.01864674
193	0x3d126878	0.03574416
194	0x3b03d7a1	0.0020117539
195	0x3c6a70ee	0.014309151
196	0x3d269b6f	0.040675577
197	0x3adf035f	0.0017014554
198	0xbdb440e8	-0.088014424
199	0x3e13494a	0.14383426
200	0x3daf6a66	0.08565216
201	0x3d475421	0.048664216
202	0x3db6fc23	0.0893481
203	0xbc552a58	-0.013010584
204	0x3c5e13d0	0.013554528
205	0x3da27371	0.07932175
206	0xbd640ec9	-0.055678163
207	0xbcd17811	-0.025569947
208	0xbde4fa9d	-0.11180613
209	0xbba4f30f	-0.0050338577
210	0x3ce48840	0.027897
211	0x3d6983d4	0.057010487
212	0x3d5986ab	0.053106945
213	0x3d861c87	0.0654841
214	0x3d9c12d2	0.07620777
215	0xbd1b182a	-0.03786484
216	0x3ce98ebd	0.028510446
217	0xbd1ac94a	-0.03778962
218	0x3ce6d163	0.028176015
219	0x3c9bb899	0.019008921
220	0xbd28d721	-0.041220788
221	0x3b73d7c4	0.0037207464
222	0x3cbbb43b	0.022913089
223	0xbc365d91	-0.011130706
224	0x3cf794df	0.030222354
225	0x3d8bda08	0.068286955
226	0x3dbafec5	0.09130625
227	0x3db7808d	0.08960066
228	0x3d0affd1	0.03393537
229	0xbd215932	-0.039391704
230	0x3da0670a	0.07832153
231	0xbb7ba45a	-0.0038397522
232	0x3e11ffcf	0.1425774
233	0xbc26d072	-0.010181533
234	0x3d93764c	0.07200298
235	0x3ca5f613	0.020258939
236	0x3ceea11e	0.029129561
237	0xbd4f5c1b	-0.050624948
238	0xbdde64f7	-0.10859101
239	0x3cb27d5a	0.021788288
240	0xbca292be	-0.019845363
241	0xbd776f13	-0.060408663
242	0x3d319924	0.043358937
243	0xbc5fea34	-0.013666678
244	0x3d43b841	0.04778314
245	0xbb683a44	-0.003543512
246	0xbc369311	-0.011143462
247	0x3e3b7b11	0.18308665
248	0x3da70879	0.08155913
249	0xbb7a8e8d	-0.003823194
250	0xbccb902a	-0.024849016
251	0x3ced54f1	0.028971167
252	0x3e1f3de8	0.15550959
253	0xbd99db26	-0.07512502
254	0x3a942648	0.0011302913
255	0xbab89c23	-0.0014084618

network.6.bias f4 [128]
0	0xbd9def6e	-0.07711683
1	0xbceeb96e	-0.029141154
2	0xbe08aa25	-0.13346155
3	0xbc7f3433	-0.01557641
4	0xbcd4bd0c	-0.02596905
5	0x3c99428f	0.018708495
6	0xbdbc217c	-0.09186074
7	0xbd840ca6	-0.06447725
8	0xbd3b06c9	-0.045660768
9	0xbe0ba526	-0.13637218
10	0xbbc0dfa0	-0.005886033
11	0xbdcef71b	-0.101057254
12	0xbcd0fb1d	-0.025510365
13	0x3c1385ee	0.009004099
14	0xbb951231	-0.0045492877
15	0xbcbe5358	-0.0232331
16	0x3bb09cfc	0.0053898077
17	0x3b2bc1cf	0.0026208048
18	0xbdfb13b0	-0.122596145
19	0xb9fa4a17	-0.00047738917
20	0xbe0fc171	-0.14038636
21	0xbd5a58b6	-0.053307258
22	0x3b9df033	0.0048198937
23	0xbd892e83	-0.066983245
24	0xba93d266	-0.0011277914
25	0xbda4e769	-0.080519505
26	0xbe00a1aa	-0.1256167
27	0xbdc83027	-0.09774809
28	0xbb8e0fb5	-0.0043353685
29	0xbd43a51d	-0.047764886
30	0xbd87a4a6	-0.06623201
31	0xbd93e021	-0.072204836
32	0xbd072927	-0.03299823
33	0xbd1f8425	-0.038944382
34	0xbc7412d9	-0.014897072
35	0x3c29a742	0.010354819
36	0xbd962405	-0.07331089
37	0xbb55e16d	-0.0032635585
38	0x3c57fd4b	0.013182948
39	0xbd99af42	-0.07504131
40	0xbdd84960	-0.1056087
41	0xbd742133	-0.059601974
42	0x3c2626fb	0.01014113
43	0x3d07b434	0.03313084
44	0xbdfbbd17	-0.122919254
45	0xbe0d4ede	-0.13799617
46	0xbc25dc2c	-0.010123294
47	0xbc837b8d	-0.016050125
48	0x3d1fc428	0.03900543
49	0xbba74c79	-0.005105552
50	0x3d09a777	0.033606973
51	0x3dbb40aa	0.09143193
52	0x3d1f1669	0.03883973
53	0x3ae9a386	0.0017825223
54	0xbdf81cac	-0.12114844
55	0xbd03781c	-0.032096967
56	0xbcfabdb8	-0.030608043
57	0xbd416784	-0.04721786
58	0xbd590f82	-0.052993305
59	0xbd95aeaa	-0.07308705
60	0xbd243849	-0.04009274
61	0xb97524cd	-0.0002337873
62	0xbdae8c84	-0.08522895
63	0x3c2ffd53	0.01074155
64	0xbd614565	-0.05499782
65	0xbd716073	-0.05892987
66	0xbd45447e	-0.048161022
67	0xbd19b5a7	-0.037526753
68	0xbda555da	-0.080730155
69	0xbd0fd806	-0.035118125
70	0xbc268e6c	-0.010165792
71	0xbd9906d4	-0.074720055
72	0x3c4623df	0.012093513
73	0xbcd2d2b7	-0.025735242
74	0x3c92823c	0.017884366
75	0xbe4f28c0	-0.20230389
76	0x3c62f4c8	0.013852306
77	0x3d082dba	0.033246733
78	0xbc242b16	-0.010020038
79	0xbd91dc31	-0.07122076
80	0xbd540f39	-0.05177233
81	0xbc9df4b8	-0.01928173
82	0x3b807a6b	0.0039208434
83	0xbda6e425	-0.08148984
84	0xbcda75e5	-0.026667545
85	0xbd0ec0ae	-0.034851722
86	0xbcb19923	-0.021679467
87	0xbd66ed31	-0.056378547
88	0xbdca7298	-0.09885138
89	0xbe1484be	-0.14503762
90	0xbc561e14	-0.013068695
91	0xbbe52bc7	-0.006993744
92	0xbd62d50d	-0.055378962
93	0x3cbcc223	0.02304179
94	0xbde3ad2f	-0.111170165
95	0xbc9204c4	-0.017824538
96	0xbdaf13bd	-0.08548687
97	0x3ceedd77	0.029158337
98	0xbc150401	-0.009095193
99	0x3d0fd482	0.035114773
100	0xbbecf33a	-0.0072311433
101	0x3d907597	0.070536785
102	0x3d36a231	0.04458827
103	0xbe01eca8	-0.12687933
104	0xbd05fe4c	-0.03271322
105	0xbbc67fe4	-0.006057726
106	0xbd05cd05	-0.032666225
107	0xbd3f5281	-0.04670954
108	0xbd76bc4c	-0.060238168
109	0xbe0485fb	-0.12941734
110	0xbc12b436	-0.008954098
111	0x3c10aa02	0.0088295955
112	0xbd356575	-0.04428621
113	0x3b6b4c9c	0.0035903817
114	0xbd3756f7	-0.04476067
115	0x3cd04177	0.025421841
116	0xbdf1fcb9	-0.11815781
117	0x3c060820	0.008180648
118	0x3caf8dcf	0.021429924
119	0xbdb95afa	-0.090505555
120	0x3c32e620	0.010919124
121	0xbcb78aa1	-0.02240497
122	0xbe24511c	-0.16046566
123	0xbd8fa963	-0.0701473
124	0xbdf1ca30	-0.11806142
125	0x3dbe57c0	0.09294081
126	0xbdc6b804	-0.09703067
127	0x3cbc45a8	0.022982433

network.9.weight f4 [1, 128]
0	0x3e7a7298	0.24457777
1	0xbe14bb3c	-0.14524549
2	0x3e6faf23	0.23406653
3	0xbe001e7d	-0.1251163
4	0x3e590a4b	0.21195333
5	0xbd4cf6eb	-0.050040167
6	0x3e52ac9b	0.20573656
7	0x3e670f7a	0.22564498
8	0xbe01e0e7	-0.1268345
9	0xbe284ae4	-0.16434819
10	0xbe3fe70b	-0.1874048
11	0x3e683649	0.22676958
12	0xbe26ea4f	-0.16300319
13	0xbdceab8d	-0.100913145
14	0xbd8c6aa8	-0.068562806
15	0xbdb723b7	-0.08942359
16	0xbdba6c6c	-0.09102711
17	0xbd844c33	-0.06459846
18	0x3e5cbda4	0.21556717
19	0xbdc47bf8	-0.09593958
20	0x3e5bb121	0.21454288
21	0x3e6b2eba	0.22967044
22	0xbd669ed3	-0.05630381
23	0xbdd276fc	-0.10276601
24	0x3e9a6484	0.30154812
25	0x3e4e30fb	0.20135872
26	0x3e82152d	0.2540678
27	0x3e517a00	0.20456696
28	0xbddb7a4a	-0.10716684
29	0x3e777eed	0.24169512
30	0x3e8348bf	0.25641438
31	0x3e6edef3	0.23327236
32	0xbdb89fdd	-0.090148665
33	0xbe4fc614	-0.20290405
34	0xbd8b9f2f	-0.06817471
35	0x3e657f46	0.22411832
36	0x3e74bdb1	0.23900487
37	0xbd75de18	-0.06002626
38	0xbd7f658e	-0.06235271
39	0xbdc1ae31	-0.094570525
40	0x3e945550	0.28971338
41	0x3e85bf5e	0.26122564
42	0x3e9be6fd	0.30449668
43	0x3e7d6d57	0.24748741
44	0x3e80436e	0.25051445
45	0xbe34790f	-0.17624305
46	0x3e9ad8d0	0.3024354
47	0x3e8f02b6	0.27931756
48	0xbd8be851	-0.0683142
49	0xbde1d836	-0.11027567
50	0x3e8eeed7	0.27916595
51	0x3eb09089	0.34485272
52	0xbdb998d0	-0.0906235
53	0xbdeb5f8e	-0.11492835
54	0x3e62b3db	0.22138922
55	0x3e88b92c	0.26703775
56	0x3e523158	0.20526636
57	0x3e819c53	0.25314578
58	0x3e7f7672	0.24947527
59	0x3ea6cebe	0.32579607
60	0xbdf9a094	-0.12188831
61	0x3e871350	0.26381922
62	0x3e73d3c5	0.23811252
63	0x3e9e3e17	0.30906746
64	0x3e929628	0.28630185
65	0x3e93d7ff	0.2887573
66	0xbdb09089	-0.08621318
67	0x3e945739	0.28972796
68	0x3e869449	0.26285008
69	0x3e74f6b8	0.2392224
70	0xbd9c0891	-0.076188214
71	0x3e81a919	0.25324324
72	0xbd4f57e0	-0.050620914
73	0x3e78bed5	0.24291547
74	0xbd9e1082	-0.07717992
75	0xbe3542ac	-0.17701215
76	0xbdcd55bb	-0.100261174
77	0x3e86009f	0.2617235
78	0xbd2c0613	-0.04199798
79	0x3e656419	0.22401465
80	0x3e8961c4	0.26832402
81	0xbd6dbe9f	-0.05804312
82	0xbddafa5c	-0.106922835
83	0xbdaeab01	-0.0852871
84	0xbe146282	-0.14490703
85	0xbe1c6ff0	-0.15277076
86	0x3e800958	0.2500713
87	0xbdc98852	-0.09840454
88	0x3e8525f0	0.26005507
89	0x3e4cbfe2	0.19995072
90	0xbdaa0846	-0.08302359
91	0xbd512634	-0.051061824
92	0xbdf25694	-0.1183292
93	0xbe28ffef	-0.16503881
94	0x3e7cd7d2	0.24691704
95	0xbddc72c1	-0.10764075
96	0x3e5b90e1	0.21441986
97	0x3e911a43	0.2834035
98	0xbd999fb9	-0.07501168
99	0x3e8ea354	0.27858984
100	0x3e88f370	0.26748228
101	0x3ebf42ce	0.37355655
102	0x3ed2c728	0.4116757
103	0x3e6561b2	0.22400549
104	0xbe154335	-0.14576419
105	0xbdc6f5d8	-0.0971486
106	0x3e49a12a	0.19690385
107	0x3e87f93e	0.26557344
108	0x3e72a7b5	0.23696788
109	0x3e4189b5	0.18900187
110	0xbdf5dc5c	-0.12004921
111	0x3ea32019	0.31860426
112	0xbe157a92	-0.14597538
113	0xbda7a4eb	-0.081857525
114	0xbe1bc1df	-0.15210675
115	0xbd94b945	-0.072619
116	0x3e6c10d3	0.23053293
117	0xbdaf3081	-0.08554173
118	0xbe02ca1f	-0.12772416
119	0x3e7c8e1c	0.24663585
120	0x3e9f1349	0.310694
121	0x3e7b3df0	0.24535346
122	0x3e87165a	0.2638424
123	0x3e780440	0.24220371
124	0x3e6dad87	0.23210727
125	0x3e8112d3	0.25209674
126	0x3e34a02f	0.1763923
127	0xbd6cf0a4	-0.05784668
