models/epoch_40/generator.pth (torch, 485191 bytes, 20 tensors)

network.0.weight f4 [128, 100]
00000000: 3881 b6bd 26d8 163d f6d6 a43d a5b2 ccbc
00000010: 0729 81bc 201f ed3c 1273 b9bd 8456 62bd
00000020: 887e 4bbd e679 a33b 744c 45bd c97e c4bc
00000030: dd94 9abd 16d5 d03c be0a f9bc 0f0f 023b
00000040: 77c7 bebd d512 87bd bd45 0a3d 9e0a 8dbd
00000050: d805 9abd 7cc3 48bd 0f07 663c c4a1 97bd
00000060: 76e6 333d f567 48bc 822f 77bd d0db d9bd
00000070: 25db d73b 4290 d8bd 2f7c a5bd 4876 09bd
00000080: 69ac 04bd 0748 d33d cba5 dfbc fd2e 2ebd
00000090: dae2 3cbd 1b77 9bba 4a1b 33bd a62f 9abd
000000a0: e3b0 883d 2afb 7b3d 601b 98bd 1de0 f3bc
000000b0: ff3a 7abb 8bcb d03d 1c33 903d 957c c1bc
000000c0: a9d8 cebc f0e6 b63d 909b a7ba 1d4f 2bbc
000000d0: 5bed d9bc c1e1 cfbd c410 85bd 2e7e 573d
000000e0: f80c 9dbc 2b20 473d 56c5 f6bd 76bb d23d
000000f0: fe2d 0ebc eca7 71bd 590d e9bc 91f8 74bb
00000100: 09ec 52bd a2f3 4b3d d47e b13d 988f 953d
00000110: fee7 3bba 5146 a23d 82dd fcbd 23f9 973b
00000120: e115 8f3d c06b 91bd 6114 75bb e403 033e
00000130: 2c99 7fbd 8c0a f23c 2151 723d f590 8d3d
00000140: fe6a 23bd 97cd cb3d 6f9f 63bd 5aba 61bc
00000150: fc29 b0bd ad25 813d ee72 7b3b 5991 c63d
00000160: 2ccb 1c3d 0df8 7d3c 8275 8cbd c8ad 9a3d
00000170: 92c2 1bbd 1c2e d2b9 d224 273d 39f3 a6bc
00000180: 29b6 ad3b 2f89 ccbd 171d 773d b9c9 9f3d
00000190: 3e9c 553d 682e dfbc b5a5 44bd b7e8 20bd
000001a0: c9cd 92bb c24b 27bd b241 193d 4bc1 b4bd
000001b0: d840 183d b25f 053d 774f cc3d 6257 bfbd
000001c0: 024f 273d 7668 af3d b469 58bd 6621 b4bc
000001d0: 897d 80bd ad5e 6e3d 19b2 ac3c f7f6 c23a
000001e0: 3616 80bc 744b 91bd e33f 4cbd a19d 6bbd
000001f0: 9a76 883c fef5 d83b b362 2fbd 7e66 2f3d
00000200: b79d ce3d b332 9a3d 5d65 a63d 44fc 97bd
00000210: e3d1 503d 1b6f a23d 6356 81bb 25d8 963d
00000220: 01ec 70bd 4b20 a13b 2f74 ad3d 81eb 3fbc
00000230: 40f3 2d3d 15e6 c4bd 3631 68bc edeb 27bd
00000240: c3c4 8e3d 1bf8 d7bd a6ea 6d3c 54e8 94bd
00000250: a290 b23d bb93 af3d 5f30 b03d 1a78 d2bc
00000260: 83af ad3d 9394 1fbd 1a0d 3d3d 0270 843d
00000270: 5d7e b7bd 980b ac3d f33d 35bd 12a1 8a3d
00000280: 0000 14bd b3bf 153b cb74 d8bd eb83 75bc
00000290: b308 42bd 6e24 8ebd f739 f63c 9fe0 8abc
000002a0: aa07 453d 0087 523d 4858 d93d d1b7 bfbd
000002b0: 29ee 1cbd 41ce a23d a5da 8a3c f539 513d
000002c0: c9b5 573d 50bf 59bd 2985 8d3d fc83 08bd
000002d0: efe7 6b3d bff9 ab3c db11 d93d ac00 d8bc
000002e0: 1c22 57bd fef0 6fbd d19b 0bbc cd5f 4e3d
000002f0: e7f4 afbd 1f62 f4bd 3712 67bd 1bdd 753d
00000300: 9285 c0bd c29f 6a3d 982c f3bd fede 7abc
00000310: 65dd a4bb a658 ef3d a96b 143d 2238 c1bc
00000320: 5a3c 8dbb 8048 813d 30a6 89bc bbbe 30bd
00000330: 3623 60bd 5664 df3b 8a95 1d3d 9891 883d
00000340: a01f acbd 32d7 36bc f164 56bd 20be 4e3d
00000350: e8a6 b13d 132e b73d 82d9 8d3c b7ff 3d3d
00000360: dd78 0f3d abe7 c6bd 8c28 77bb f30b c3bb
00000370: dc85 b0bd 4fc5 b33c 4df8 bebd 3475 803d
00000380: 0d33 943d 5e13 a5bd 0bcf 08be 2c33 b6bd
00000390: c7d5 aa3d a0eb 73ba 53df 593d a4f4 3ebd
000003a0: 6ba2 6c3d 70e4 adbb a3dd e1bd d9e5 ec3c
000003b0: 9d52 173d ee85 a3bd 8678 a7bd b04a 463d
000003c0: c9c8 963d f57c 3bbd c49b 19bc bdcc bcbd
000003d0: 68ba d73b 3789 0fbd c6cd cebd ab8d e83d
000003e0: b073 5c3d 56ce a5bb 9d1b 2d3c 29a0 9abd
000003f0: c89a 22bd 67c1 323b 3e67 8d3d 7203 013e
-0.08911365 0.03682723 0.08048813 -0.024987528 -0.015766634 0.028945506 -0.09055151 -0.05525829
-0.049681216 0.0049888967 -0.048168615 -0.023986237 -0.07547925 0.025492232 -0.03040063 0.0019845401
-0.09315389 -0.06595389 0.033757914 -0.06886791 -0.07520646 -0.049014553 0.014039769 -0.07403901
0.043920957 -0.012231817 -0.06034804 -0.10637629 0.0065874034 -0.1057439 -0.08080327 -0.033560067
-0.032390986 0.103164725 -0.027300736 -0.04252528 -0.04611478 -0.0011861058 -0.043727197 -0.075286195
0.066743635 0.061518826 -0.07427096 -0.029769951 -0.0038182137 0.10195073 0.07040998 -0.023618976
-0.025249796 0.089307666 -0.001278745 -0.010455874 -0.026602438 -0.10150481 -0.064973384 0.05261057
-0.019171223 0.048614662 -0.120493576 0.102896616 -0.008677958 -0.058998033 -0.028448747 -0.0037379602
-0.051494632 0.049792893 0.08666769 0.07302779 -0.00071680534 0.07923568 -0.12346937 0.0046378537
0.06986595 -0.0710063 -0.003739618 0.12794453 -0.062401935 0.029546045 0.0591594 0.06912414
-0.039896958 0.099513225 -0.05557197 -0.01377734 -0.08601758 0.06306014 0.0038368064 0.096956916
0.038279697 0.015501034 -0.0685835 0.075526774 -0.038027354 -0.00040088675 0.0408066 -0.02037965
0.005301256 -0.09987103 0.060330477 0.078021474 0.052150957 -0.027243808 -0.048009593 -0.039284434
-0.004480098 -0.040843733 0.037416168 -0.0882593 0.037171215 0.032561965 0.09976094 -0.09342839
0.040846832 0.08564846 -0.05283518 -0.021988582 -0.06273944 0.05819576 0.021081017 0.0014874627
-0.015635591 -0.0709447 -0.049865615 -0.057523374 0.016658116 0.0066211214 -0.042818736 0.042822354
0.100886755 0.07529201 0.08124802 -0.07421163 0.050981414 0.07931348 -0.0039470657 0.07365445
-0.05881882 0.0049171797 0.08469426 -0.011713863 0.04246831 -0.09614197 -0.014171889 -0.04099648
0.06971123 -0.10545369 0.014521277 -0.072708756 0.08718993 0.08573099 0.08602976 -0.025692035
0.08480742 -0.03896005 0.046155073 0.06466676 -0.08959649 0.08400649 -0.044248533 0.06769003
-0.036132812 0.0022849857 -0.105691515 -0.014985065 -0.047371577 -0.06940542 0.030056937 -0.01695281
0.048103012 0.051398277 0.106125414 -0.09361232 -0.038313065 0.07949496 0.016949961 0.051080663
0.0526636 -0.053160965 0.06910164 -0.033328995 0.057594236 0.020993112 0.10599109 -0.026367508
-0.052522764 -0.058579437 -0.008521036 0.05038433 -0.08591633 -0.119327776 -0.056413855 0.060025316
-0.094004765 0.057281263 -0.1187374 -0.015311955 -0.005031275 0.1168683 0.036235485 -0.023586337
-0.004310173 0.063126564 -0.016802877 -0.043150645 -0.05472108 0.006817381 0.03847269 0.06668395
-0.084044695 -0.011159705 -0.05234236 0.050474286 0.08674413 0.08944335 0.01731563 0.046386447
0.035027374 -0.09712156 -0.0037713377 -0.005952352 -0.08619282 0.02194467 -0.09324703 0.06272355
0.072363 -0.080603346 -0.1336023 -0.08896479 0.08341556 -0.0009304825 0.053191494 -0.046620026
0.05777208 -0.005306773 -0.11028602 0.028918194 0.03694402 -0.079845294 -0.08177285 0.04841107
0.073625155 -0.045773465 -0.009375516 -0.09218738 0.0065835007 -0.035042968 -0.10097842 0.11355146
0.053821266 -0.0050599976 0.010565666 -0.075500794 -0.039698392 0.0027275921 0.069044575 0.1259897

network.0.bias f4 [128]
00000000: de50 e5bd ec16 d03d 9353 bc3d 15df 203c
00000010: 09d9 6b3d cd3f e53c 604e c63d e5d6 d33d
00000020: eec3 c23c 2ef1 bf3c a853 dcbd c5bc 90bc
00000030: f9a4 783d 4520 e23d ac0a 1d3d 8d5c 8d3d
00000040: c7a6 babd 687a a7bc 213d 29bd 4584 7d3d
00000050: 523f 58bc 054c 68bd 0209 493c bd5c f4bd
00000060: c500 e63c 7e81 06bd 2e72 29bd e995 39bd
00000070: cdf7 7abd d096 d1bc 3817 6d3c 128c 99bd
00000080: 015b 27bd 30fa 8b3d 363c 833d 4f17 9e3d
00000090: 1fe0 c4bc 021f 27bd 93d0 ea3d 7fa4 84bd
000000a0: 6a77 843c 8fc7 7bbd 9956 d1bd fa13 cd3c
000000b0: 6a4a c33b 1cd0 93bc 5d09 743d c866 06bc
000000c0: 2351 89bd ea3c b73c 6dfb 903d 345d 073e
000000d0: 78fe a93d 18cb debd feca 323d 479e 7e3b
000000e0: e2fb abbc 14ae 9d3b ac5d 013c bdb8 c43c
000000f0: 2ea5 d13d a521 69bd e236 6c3c b195 debd
00000100: fafc 13bc 0e47 c9bd 4261 38bd 939c 3a3b
00000110: 645c c5bd 1172 913c cf06 b63d 2c3c 7ebc
00000120: 31ff 293d 1d2a 80bd f2eb da3c af79 3abd
00000130: f6d2 843c da02 35bd e642 bcbd bdf9 83bd
00000140: c985 b1bd b1b9 a33d 79b8 ebbb 596e 5ebd
00000150: a6e9 b73d b4ef ea3c d86f b33d e923 b2bc
00000160: b283 babc e849 86bb 9ea1 25bd a17b 803c
00000170: 3935 803d 4b9e 5fbd 8aea d1bd b5aa 613c
00000180: d0c3 d8bc d108 6a3c 6ade 91bd e665 8d3d
00000190: 986a 86bc 3528 9c3c 8e14 09bd 2cee 7fbd
000001a0: 4bdc 09bd 231b bc3d 5657 99bd 9c46 54bd
000001b0: 0816 0fbd 8840 c4bd c018 773c ffc4 acbc
000001c0: 85ee 87bd 7b6c b7bd d0c1 9dbd 6817 8b3d
000001d0: 4dc5 5bbd c88c 633c c093 833d ed35 b3bc
000001e0: 1e4c 033d b3bf 57bd 8d5d d4bd acc2 683d
000001f0: 1c54 fd3d 52ed fd3d 766e 2f3d 98a9 a5bc
-0.11197065 0.10160622 0.09195628 0.009818812 0.057580028 0.027984524 0.096829176 0.10343722
0.023775067 0.023430433 -0.10758144 -0.017668137 0.060704205 0.11041311 0.038340256 0.06902418
-0.091138415 -0.02044411 -0.041318063 0.06189372 -0.0131986905 -0.056713123 0.012270214 -0.11931751
0.028076539 -0.032838337 -0.041368656 -0.04530898 -0.061271477 -0.025584608 0.014470868 -0.074974194
-0.040858272 0.06834829 0.06407969 0.077192895 -0.02403265 -0.040801056 0.114655636 -0.06476688
0.016170222 -0.06146961 -0.10221595 0.02503394 0.0059597986 -0.01804357 0.059579242 -0.008203216
-0.06704929 0.022367913 0.07079206 0.13219148 0.08300489 -0.10878581 0.04365062 0.0038851665
-0.02099413 0.0048120115 0.007895868 0.024013871 0.10236584 -0.05691685 0.014417382 -0.10868395
-0.009032482 -0.09828006 -0.045014627 0.0028474673 -0.09636763 0.017754586 0.088880174 -0.015517276
0.041503135 -0.062580325 0.026723836 -0.045526203 0.016213875 -0.044192173 -0.09192447 -0.06444118
-0.086680956 0.07994402 -0.0071936217 -0.054304454 0.08980112 0.028678752 0.08761567 -0.021745639
-0.022767875 -0.004098166 -0.040437333 0.01568395 0.062601514 -0.05459432 -0.10249813 0.01377361
-0.026460558 0.014284329 -0.071225 0.06904201 -0.01640825 0.019062141 -0.033466868 -0.062482998
-0.033657353 0.091848634 -0.07487361 -0.05182515 -0.03493312 -0.09582621 0.015081584 -0.021090029
-0.06637291 -0.08956238 -0.077029824 0.06791574 -0.053654958 0.013888545 0.064246655 -0.0218763
0.032055013 -0.052673053 -0.10369406 0.05682628 0.12369558 0.12398781 0.042829953 -0.02022247

network.2.weight f4 [128]
00000000: 57e7 823f 90a0 7a3f 6f39 7c3f 99c3 823f
00000010: 1777 753f 222a 853f c18d 843f 383c 803f
00000020: 382d 773f 0e63 823f 181a 793f 4cc9 7f3f
00000030: 2b84 793f 31be 823f f3ad 7f3f 9b30 813f
00000040: 6f38 803f ca42 823f c1be 803f 8fe0 863f
00000050: 0d87 7e3f 6718 7a3f e526 733f 7915 813f
00000060: 506b 823f 0a2b 813f 07e5 7d3f 63fc 7b3f
00000070: c3f9 793f e445 803f aa3b 813f f331 713f
00000080: b0fb 7d3f d278 7f3f d69f 833f 7137 833f
00000090: 4ea3 7c3f 088a 843f 28fc 7a3f e495 763f
000000a0: 99d7 7d3f 1b22 763f 6151 7c3f 9d38 7c3f
000000b0: 3d53 803f 0fa1 773f 3bd6 8c3f 3f83 833f
000000c0: ae38 803f 5eb7 7d3f 983b 7f3f 5ca7 803f
000000d0: f34f 813f 15a8 713f 2dbf 813f b3e4 833f
000000e0: 816e 813f e3b5 803f 7a7c 833f 2f34 7b3f
000000f0: 8947 813f 2836 763f cfd7 813f 2614 6f3f
00000100: f038 7d3f a78f 813f 5d2e 783f 4488 7f3f
00000110: 15f4 813f 713d 7a3f a45e 803f 4c2d 803f
00000120: d345 823f 5aec 793f 0fa6 6f3f 6bb4 763f
00000130: 8f8e 793f e683 803f 97b8 7e3f 29e1 7d3f
00000140: e3f5 783f 607d 823f 994d 7d3f 21de 7b3f
00000150: 48c1 803f 963d 7a3f 1702 823f a41f 7a3f
00000160: ff69 7e3f 1c7c 863f e2ad 793f 9d3d 813f
00000170: 6fed 803f 6643 7f3f 8a50 783f aaf7 773f
00000180: fdf2 773f ec7b 853f 3c8d 833f 50d2 7d3f
00000190: 3915 7e3f d48a 873f c13a 783f 2ce3 7e3f
000001a0: 9ea4 713f 7d06 863f eeea 7a3f 1210 883f
000001b0: d399 833f 0244 843f 4325 7f3f 4753 813f
000001c0: 216d 753f c8a2 783f e276 833f 5af3 833f
000001d0: ff76 7f3f 13a6 7a3f 84d6 7d3f 9760 843f
000001e0: 62e8 823f b54c 7a3f 97e9 823f 5a62 873f
000001f0: 396a 833f a88d 7c3f 6206 823f 3e85 853f
1.0226849 0.9790125 0.98525137 1.0215942 0.9588484 1.0403483 1.035576 1.0018377
0.96553373 1.0186479 0.9730544 0.9991653 0.974673 1.0214292 0.998748 1.0092958
1.0017222 1.0176632 1.0058213 1.053728 0.9942482 0.97693485 0.94981223 1.0084678
1.0188999 1.009126 0.99177593 0.98431987 0.9764673 1.0021329 1.0096333 0.9421684
0.9921217 0.9979373 1.0283153 1.0251294 0.98686683 1.0354624 0.9804101 0.96322465
0.991571 0.9614579 0.98561674 0.98523885 1.0025402 0.9673013 1.1002878 1.0274428
1.0017297 0.9910792 0.9970031 1.0051074 1.0102524 0.943971 1.0136467 1.0304168
1.0111848 1.0055507 1.0272362 0.981265 1.0099956 0.96176386 1.0143985 0.9339012
0.98915005 1.0121964 0.96945745 0.998173 1.0152613 0.9775 1.0028882 1.0013824
1.0177559 0.9762627 0.9361276 0.96369046 0.9748315 1.0040252 0.9950041 0.9917169
0.97250193 1.0194511 0.9894653 0.98385817 1.0058985 0.9775022 1.0156888 0.9770453
0.9938049 1.0506625 0.9753095 1.0096928 1.0072459 0.99712217 0.9699789 0.9686228
0.96855146 1.0428443 1.0277476 0.99149036 0.99251133 1.0589242 0.9696465 0.99565387
0.9439181 1.047073 0.98014724 1.0629904 1.0281318 1.0333254 0.9966623 1.0103539
0.9586964 0.97123384 1.0270655 1.030864 0.9979095 0.9790966 0.9915545 1.0341977
1.0227168 0.97773296 1.0227536 1.057689 1.0266792 0.9865365 1.0158198 1.0431287

network.2.bias f4 [128]
00000000: f0ab d5bb 0606 153d 99fd 9abc fa5a c73c
00000010: 9ba6 85bc 0529 d2bd f761 81bd ff6f 853d
00000020: d1e7 603d 0bde 8ebc 7efb 8d3c ddd6 fdbc
00000030: 53e7 a0ba 137a 8f3d ed27 d03d 56e8 873c
00000040: 3e5a 163b fb53 9f3b 1024 8b3d accc d6bd
00000050: 4b3b 8fbd b18f 64bc b32e 44bd f332 eb3b
00000060: f11b 8a3d 0aa4 c4bc ca76 933c 5817 713c
00000070: ce14 bcbc 89a5 16bd 799a 5abd d30b 143d
00000080: 06d7 94bc f060 ebbc e90e 2c3d 3fb0 823c
00000090: 8cb8 3f3d 24f7 41bd fd05 213d 1a8e a33c
000000a0: 86c7 cabd fc4c 743d 6cad 08bd 9da9 133b
000000b0: e2e2 2cbd f4c1 73bd 08c5 463e 9d3d e0bc
000000c0: ee1c 06bd e721 50bb 33f6 1bbd ac7f cdbc
000000d0: 9fd7 73bd 017c cdbc 95b5 22bd ccf6 993d
000000e0: 1285 c8bc d134 efbc 5d77 5bbc 60af 7fbd
000000f0: bd33 393d ef73 e3bc 0682 3d3d 07b3 a03c
00000100: 044d 073d 202e 3ebd 6eb1 1f3d 7878 90bd
00000110: 5111 cbbc 2678 e13c c023 a33d e899 f93d
00000120: 3bab 11bd a175 fa3c 1f62 983d 0266 223c
00000130: 7d87 eabc c0b3 1dbd 368f 203d f3d6 dfbd
00000140: 3fe6 e3bc 3fbf 13bd ea20 9a3d fd60 55bb
00000150: 966f 52bd cc94 013d 66a1 66b9 259b f03b
00000160: f949 cb3b 3232 51bd 675a a8bd ce30 95bc
00000170: 2751 b33d 6b70 85bd 9425 893d 03e7 a7bc
00000180: 4dfd e13c 7b9b 903d b1cc cabd da61 63bd
00000190: 22a7 40bd 0892 d5bd dc75 dbbb 4788 7bbd
000001a0: 53ea 603b 8a3f a43d 6f0e 653c d6a2 bfbd
000001b0: 4e36 afbd c095 44bd 193a 8d3b 0578 503d
000001c0: 9dc7 2f3d 999c 4abd c314 47bd cc93 53bd
000001d0: 6c4a e13c 7cef 153c 237a 4e3d 315e 01bd
000001e0: 5a38 cabc 9e69 9f3d 7f89 6fbd bd00 1dbd
000001f0: 7b06 e23d 537d 9c3c cb5c 67bd 8140 aabd
-0.0065207407 0.036382698 -0.018919753 0.024335373 -0.016314795 -0.1026173 -0.063175134 0.06515502
0.054908577 -0.017439863 0.017331835 -0.030986244 -0.0012275971 0.07005706 0.10163865 0.016590279
0.0022941972 0.004862306 0.06793988 -0.10488257 -0.06993731 -0.013950274 -0.0478961 0.0071777045
0.06743611 -0.024004001 0.018000979 0.014715038 -0.02295914 -0.03677896 -0.053369973 0.03614409
-0.018168937 -0.028732747 0.042006407 0.015953181 0.046806857 -0.047354832 0.03931235 0.01996522
-0.09901337 0.05964373 -0.033368513 0.0022531517 -0.04220856 -0.05951114 0.19411099 -0.02737313
-0.032742433 -0.0031758489 -0.03807659 -0.025085293 -0.059531804 -0.025083544 -0.03972395 0.07517776
-0.024477515 -0.02919999 -0.013395158 -0.06242311 0.045215357 -0.027765242 0.04626658 0.019616617
0.033032432 -0.046430707 0.03898757 -0.070542276 -0.02478853 0.027523112 0.07965803 0.121875584
-0.03556369 0.030573668 0.0744059 0.009912016 -0.028629059 -0.0385015 0.039199077 -0.1092967
-0.02781975 -0.03607106 0.07525809 -0.003255903 -0.051375948 0.031636044 -0.00021994635 0.0073427134
0.0062038866 -0.05107326 -0.08220368 -0.018211748 0.08755713 -0.06515583 0.066966206 -0.020495897
0.027586604 0.070609055 -0.09902323 -0.05551324 -0.04703439 -0.10428244 -0.0066973995 -0.06140926
0.0034319356 0.080199316 0.013980492 -0.0935723 -0.0855528 -0.047994375 0.0043099043 0.05089571
0.042914975 -0.04946575 -0.048603784 -0.051654622 0.027501307 0.009151336 0.050409447 -0.03158397
-0.024685074 0.07783817 -0.058480736 -0.038330782 0.11036392 0.019102728 -0.05648498 -0.083130844

network.2.running_mean f4 [128]
00000000: a34d f83d 4ad4 8c3e 4530 8e3e e697 403e
00000010: c9f6 813e eacf 5f3e 5bc4 8e3e 6730 7e3e
00000020: 7bbb 653e 0c04 3d3e 61ec f43d 55c9 413e
00000030: 4e34 683e 074f 7f3e 5c4b 633e 1105 883e
00000040: 812e 0e3e 2d94 213e f6f7 3c3e dddb 793e
00000050: e98d 423e 112b 193e e696 5e3e d93a 023e
00000060: defc 6c3e b604 323e e976 2f3e 2328 243e
00000070: f8e3 293e 2c05 1d3e 1059 483e cdd4 233e
00000080: 0587 283e 82de 6d3e 274f 6d3e 0d03 803e
00000090: 6975 423e 450d 213e a7ae 833e 9043 0f3e
000000a0: 1f31 3b3e 32ce 1b3e 1a8d df3d 14f5 483e
000000b0: 8dbd 3b3e 1823 3c3e cc1f 5e3e 4aca 493e
000000c0: 2cca 063e 6ebd 4b3e 0194 6c3e 5bfa 9c3e
000000d0: 338d 7e3e 651e 023e d0e0 6b3e c327 503e
000000e0: 176f 473e f6d3 523e b088 273e a624 503e
000000f0: 5e1e 8e3e 16c3 213e fe61 4c3e e90e 133e
00000100: d2d0 343e cb25 033e bced 3b3e 1b08 1c3e
00000110: 2585 0d3e 9999 683e 10bc 823e 63c1 533e
00000120: 23b3 5c3e 90dd 283e d256 5f3e b23b 2d3e
00000130: 9fa1 433e 925b 273e 78f5 013e 464e 0b3e
00000140: 1894 183e 4167 723e 7246 483e 1a3c 203e
00000150: 5abd 783e 6595 403e 6820 793e 7893 363e
00000160: c586 563e c10a 2e3e f93b 1c3e 8c0d 343e
00000170: 3fc6 5f3e 9d83 2f3e 8252 1b3e 1c82 483e
00000180: 46a3 313e c2c5 5c3e 3c4f 103e 022f 753e
00000190: 01a6 393e 6db8 5a3e 6c96 3b3e eca6 213e
000001a0: 4f50 393e 71be 863e 2867 1f3e 7ecf 2d3e
000001b0: 07e0 193e 7525 033e 81cd 443e 665d 2e3e
000001c0: 31b8 033e ff35 013e b66f 1b3e 1a54 843e
000001d0: def1 173e daac 473e 1e81 5d3e fe11 403e
000001e0: ad8e 573e 5eaa 453e 3b86 183e 2317 583e
000001f0: 5180 823e 0235 743e 9ad9 683e b0af 203e
0.12124183 0.27505714 0.27771202 0.18807945 0.25383595 0.21856657 0.27884182 0.24823152
0.224348 0.18458575 0.11959148 0.18924458 0.22676203 0.2493249 0.22196716 0.26566365
0.13884927 0.15779181 0.18453965 0.24400277 0.18999447 0.14957835 0.2173725 0.12717761
0.23143336 0.1738461 0.17135204 0.16030936 0.1659087 0.15334004 0.19565225 0.15999146
0.16457756 0.23229411 0.23174725 0.25002328 0.18990101 0.15727718 0.25719187 0.13990617
0.18280457 0.15215376 0.10915585 0.1962474 0.18334027 0.18372762 0.21691817 0.19706073
0.1316306 0.1989648 0.23103334 0.30659756 0.2485855 0.12706907 0.23034978 0.20327668
0.19475971 0.20588669 0.16360736 0.2032648 0.27757543 0.15797076 0.19959256 0.14361157
0.17657784 0.12807386 0.18352407 0.15237467 0.13820322 0.22714843 0.25534105 0.2067924
0.2155271 0.1649077 0.21810463 0.16917303 0.19104622 0.16343525 0.12691295 0.13604078
0.14900243 0.236722 0.19558123 0.15647927 0.24290982 0.1880699 0.24328768 0.17829692
0.20949848 0.1699629 0.15257253 0.17583293 0.21852969 0.1714005 0.15168193 0.19580883
0.1734744 0.21559814 0.14092726 0.23943713 0.18129732 0.21359415 0.183191 0.15786332
0.18097042 0.2631717 0.15566695 0.16973683 0.15026866 0.12807257 0.19219019 0.17027816
0.12863232 0.12618254 0.15179333 0.25845414 0.14838359 0.19499531 0.21631286 0.18756863
0.2105052 0.19303271 0.14894955 0.21102576 0.25488523 0.23848346 0.22739258 0.1569202

network.2.running_var f4 [128]
00000000: 4017 083e a615 473e 5af2 423e 6f21 273e
00000010: d2df 4b3e 36f3 313e 854d 4d3e 246d 303e
00000020: 08fd 243e 0845 043e bafa f73d d526 103e
00000030: e170 253e f888 223e 3119 2b3e a8dc 533e
00000040: 13cf 0d3e 2b0a 123e 3a09 233e a6d1 423e
00000050: 6915 293e 34f1 043e 4b8c 303e f17d 033e
00000060: 93cf 363e 4744 2b3e 6406 ff3d 3669 013e
00000070: 32da 183e aefa f43d 83b0 2b3e e7ec 0d3e
00000080: 6776 123e 39c9 383e 60c5 1f3e ae56 2f3e
00000090: 8b1b 1f3e 6f95 113e 3456 403e 8e8c f73d
000000a0: 5bc7 0e3e 7690 fd3d 1cdc f33d 9bcf 2e3e
000000b0: 35f3 223e e39e 183e 5c02 0b3e c61d 193e
000000c0: fd18 f73d 72fa 183e f656 223e 419d 573e
000000d0: 4bbc 403e 9559 fe3d 4037 443e ec88 1e3e
000000e0: 3b67 243e 5381 253e af47 f63d 21d9 153e
000000f0: dc03 3d3e a225 fb3d f882 163e 9a5b 0d3e
00000100: 2c86 053e fe40 f23d 27df 2f3e d031 f13d
00000110: a138 043e a520 353e 89aa 453e 16ff 283e
00000120: 3003 393e 49aa 033e ddf6 2e3e 53f0 173e
00000130: ac33 093e 2f64 153e b8f0 ee3d cfe4 fd3d
00000140: e53f 113e e210 2c3e bbb6 333e b2eb 063e
00000150: e57b 313e 1d4c 133e ae23 2e3e 8225 1d3e
00000160: 1c3a 373e b691 093e 51a0 093e c492 f03d
00000170: 9dec 153e e162 193e fe7d 123e a8ee 253e
00000180: bfe6 173e 2921 223e 0362 093e 0104 463e
00000190: 1ed0 1a3e 5c07 283e 5814 1a3e 90f4 0b3e
000001a0: acf0 0b3e b4df 323e 804c 0d3e afc2 213e
000001b0: 449a f63d 3ed7 fc3d 3bce 253e b7be 103e
000001c0: 6005 ea3d e82a f53d 7ee2 1a3e 14aa 593e
000001d0: 5cdf f73d 1c50 1e3e 33a8 293e 541b 2b3e
000001e0: 9b37 1b3e 5fca 293e 4adf 1c3e 1961 303e
000001f0: 5a52 2c3e ebb1 313e 6430 3d3e dc44 073e
0.13290119 0.19441852 0.19037762 0.16321348 0.199096 0.17377934 0.20049103 0.17229134
0.16112149 0.12916958 0.12108369 0.14077313 0.16156341 0.15872562 0.16708829 0.20689642
0.13848524 0.14261691 0.15921488 0.19025287 0.16512074 0.12982637 0.17241018 0.12841012
0.17852621 0.16725264 0.12452391 0.12637791 0.14926985 0.11961876 0.16766553 0.13859902
0.1430298 0.1804551 0.15602636 0.1712291 0.1553785 0.1421716 0.18782884 0.120873556
0.13943236 0.12381069 0.11907217 0.17071383 0.15913089 0.1490436 0.13575119 0.14952764
0.12065313 0.14939287 0.15853485 0.21056081 0.18821828 0.1241943 0.19161701 0.15481919
0.16055004 0.16162615 0.12025391 0.1463361 0.18458503 0.12263037 0.14698398 0.13804474
0.13039464 0.118288025 0.1717497 0.11777079 0.12912227 0.17688234 0.19303335 0.16503558
0.18067622 0.12857927 0.17086358 0.1483777 0.13398618 0.14588998 0.11667007 0.123971574
0.1418453 0.16803315 0.17550175 0.13175848 0.17332418 0.14384504 0.17005798 0.1534634
0.1789326 0.1343449 0.13440062 0.11746743 0.14641042 0.14979126 0.14305875 0.16204321
0.14834116 0.15832962 0.13416295 0.19337465 0.15118453 0.16409057 0.15046823 0.13667512
0.13666028 0.17468148 0.13798714 0.15796922 0.120411426 0.12345742 0.16191952 0.14135252
0.114268064 0.11971074 0.15125462 0.21256286 0.12103149 0.15460247 0.16568069 0.16709644
0.1515793 0.16581105 0.15319553 0.1722454 0.1682829 0.17353027 0.18475491 0.13209862

network.3.weight f4 [256, 128]
00000000: 6d12 f1bc 4a46 983d b125 63bc 2edd 033d
00000010: 0007 bebd 6dff 013d 543c ce3d 6742 37bd
00000020: 4f0a 2dbc 37ab 863d c29e 563d 23f2 7fbd
00000030: 1456 19bc ccb8 cabc f7f2 323d 6d96 143d
00000040: bfbd b93d ccfc 193c 011f 14bd 3cad 633d
00000050: b460 a4bc 033e 83bd 6caf b6bd 9d52 b9bd
00000060: 2098 3abd 3eb7 5a3c a584 81bd 3f40 a2bd
00000070: 0bfa 933c 2056 42bc 85de 783d de3e 663d
00000080: 9c99 3a3d 7e9c c63c e05c 50bd 60d8 c1bd
00000090: 37d4 5e3d 65ec 763c 3009 613c cbd7 8bbd
000000a0: 7edc 7a3d dbc9 83bc 3c07 25bd 2ebe 0c3d
000000b0: d4ae 983d f122 ab3d b48f 44bd c126 d53c
000000c0: 379b c5bd b166 91bd b2f5 823b f937 993c
000000d0: e58a 263d 768e fb3c 44c5 52bd 7da6 c4bc
000000e0: b51d 9a3b 69a7 ce3d ef92 6fbd df59 61bd
000000f0: 2ee8 41bd e17f 1b3b 69ad 3abc 4665 a3bb
00000100: ce63 81bd f126 f93c 6784 e1bc 7d34 ffbc
00000110: 886f 453d 90c7 f63c d183 4a3d 2de2 89bc
00000120: ae4c b6bc 32d0 253d 7891 fe3c 3104 86bd
00000130: 924c a7bc c8c9 29bc 947b a63c 2156 d6bb
00000140: b2d4 99bd f21d 26bd f949 193d f970 cfbb
00000150: 03e1 933d 4106 673d 6979 bdbd 3d0b 82bc
00000160: b51c 78bd 3dc6 8dbd 426f 593d 3493 8f3d
00000170: cbd8 b8bc f424 343d 9941 bc3c 2b41 1a3c
00000180: 37ab aa3c 618e e3bd b9f1 213d c1db 0c3d
00000190: f18a 463d 0e28 333d d92c a839 47ab 9f3d
000001a0: a1fe f6bc 2b9b d73b cb9b 913c e30e 803d
000001b0: 3a38 c5bd 6088 76bd 8f95 c6bc 378a a23d
000001c0: 5b33 bebc 72a1 4bbc 5cf6 8a3d ecc3 e0bd
000001d0: d2a5 ffbc 1670 7ebd 21b7 af3d 587e ba3c
000001e0: 1b5f e23c 34c7 71bd 4c2a c63d 5a72 873a
000001f0: 0151 1c3d 95d6 9dbd 03b5 8dbc 5878 31bd
00000200: 8429 fdbc 7721 a23a 9d56 953d cccc 633d
00000210: f728 8cbc 80bf 85bc cf56 1c3c 3a83 b03d
00000220: 2687 9f3d fdc3 c83d 1474 0dbc ae2b 8b3d
00000230: 917b ad3d bf5b 10bd b8a9 833d 364e c33d
00000240: ee69 a8bc dc87 423d 3e64 e5bb 0d1e b8bd
00000250: 3a2d b539 62e4 b33c e96a 7f3b d3b4 bf3d
00000260: a0fc c83d b2a8 ba3d 26e0 b0bd a101 d23c
00000270: cf2c f2bd b1a0 54bd d549 1c3d 4748 ed3b
00000280: f540 8dbc 7093 c1bb 5b57 0ebd f839 b53c
00000290: 0f6f d93a 0b49 3f3d facf 233d aa89 1d3d
000002a0: 2e47 8bbd 0a43 fbbc 8dbe 6cbc 1189 8b3d
000002b0: c024 803d cbde 633d 5bfa 34bd c17f 94bb
000002c0: 8b79 55bd 10f7 c4bd 84e1 4ebd 16d7 1e3d
000002d0: 6276 d7bc 9897 833d 4a65 c53c 7048 0fbc
000002e0: a9f8 df3c 92ce 0c3d 215c 8c3d 5867 503d
000002f0: 48f8 d9bc d41c cd3b 362f 613d 9ec1 cb3d
00000300: 43ab b9bd 5393 583b 720a 86bb 1949 4cbd
00000310: f10e 6e3d 352d da3b 60af f8bc 42da 93bd
00000320: 977b 753d ad9f bb3d 58a4 3f3d 61d2 08bd
00000330: 3faf a03c 97cb ce3c 1186 3e3b 3203 773d
00000340: 5c5d 3abc 8707 2f3d b68a 67bd cb04 afbd
00000350: e5ca bbbc b8b5 cd3d fda8 bcbd 5b07 1abc
00000360: 9c3b 203d e20b 8a3d 1aa6 b43c 16c4 81bc
00000370: cf76 6d3d f943 2c3d 7635 8fbd 068f e9bc
00000380: faf8 a8bb 3530 5abd 75fe fbbd e04e c4bd
00000390: fa6c 9d3b 6157 b13d b583 8ebd ce55 d4bc
000003a0: d3b9 8cbd 3545 41bc 6ae0 64bd 9758 d5bd
000003b0: d5df 093b b6b3 af3d bacd 053c 46b6 d03d
000003c0: 202e f33c 757a b6bd c472 193d 06c2 303d
000003d0: 7628 cdbb f48a 6b3d 5bab babd 688c 0fbd
000003e0: 5dc0 23bd 3d09 82bd f813 71bd d5fc afbc
000003f0: b228 a9bd 1d96 353c 29cb 833d 1a32 c3bd
-0.029427731 0.074352816 -0.013863967 0.032193355 -0.09278679 0.031737734 0.100701004 -0.04474106
-0.01056154 0.065756254 0.052397497 -0.06248678 -0.0093589015 -0.024746321 0.04368874 0.03627627
0.09069394 0.00939865 -0.03616238 0.05558513 -0.020065643 -0.06408312 -0.08920178 -0.0904896
-0.045555234 0.013349352 -0.06324128 -0.0792241 0.018063566 -0.011861354 0.060759086 0.0562123
0.04555665 0.024244543 -0.050869823 -0.094650984 0.054401603 0.015071009 0.013735101 -0.068282686
0.061245434 -0.016087463 -0.040290102 0.034361057 0.07455221 0.08356274 -0.04798861 0.026019456
-0.096487455 -0.07099665 0.0039965743 0.018703448 0.040659804 0.03070758 -0.05145766 -0.024005169
0.0047032484 0.10090525 -0.058489736 -0.05501735 -0.047340564 0.0023727345 -0.011393883 -0.004986438
-0.06317864 0.030414077 -0.027528955 -0.031152958 0.048202068 0.030124456 0.049442116 -0.016831482
-0.02225336 0.040481754 0.031075224 -0.06543768 -0.020422254 -0.01036305 0.020322599 -0.006541029
-0.075112715 -0.0405559 0.03742406 -0.006330606 0.07220652 0.05640245 -0.09251673 -0.0158745
-0.060574252 -0.069225766 0.05308462 0.07010499 -0.022564312 0.043980554 0.022980498 0.009414951
0.020833595 -0.11111141 0.039537165 0.03438926 0.04847235 0.04373937 0.0003207687 0.077963404
-0.030150713 0.0065797768 0.017774483 0.062528394 -0.09629865 -0.06018865 -0.024241237 0.07936519
-0.023217848 -0.012428628 0.067852706 -0.10974869 -0.031206999 -0.062118612 0.08579851 0.022765324
0.02763324 -0.059027866 0.09676036 0.0010333762 0.03816319 -0.07706944 -0.017298227 -0.04332766
-0.030903585 0.0012369592 0.07291911 0.05561523 -0.017109377 -0.016326666 0.009542181 0.086187795
0.077894494 0.09803007 -0.008633632 0.067954406 0.08470834 -0.035243746 0.06428856 0.09536402
-0.020558324 0.047492847 -0.007000475 -0.08990107 0.00034556707 0.021959487 0.0038973636 0.09360661
0.098138094 0.09114207 -0.08636503 0.025635542 -0.11824953 -0.05191106 0.03815635 0.007241282
-0.017242888 -0.0059074685 -0.034751277 0.022122368 0.0016588884 0.04670052 0.039993264 0.038461365
-0.06800686 -0.030671615 -0.014449728 0.06813253 0.062570095 0.055632394 -0.04418407 -0.004531831
-0.052117866 -0.09617436 -0.050508037 0.03877934 -0.026301567 0.064253986 0.02409615 -0.008745298
0.02734025 0.03437669 0.0685351 0.050879806 -0.026607648 0.00625954 0.054976664 0.09949039
-0.09065869 0.0033046796 -0.0040906006 -0.0498744 0.058119718 0.006658221 -0.030357063 -0.07219364
0.059932318 0.09161315 0.04678759 -0.033403758 0.019614814 0.025243564 0.002907161 0.06030578
-0.011374798 0.042731788 -0.05652877 -0.08545836 -0.022923896 0.10044426 -0.092119195 -0.009401168
0.039119348 0.06740548 0.02205186 -0.015840571 0.057974633 0.04205701 -0.06992619 -0.028510582
-0.0051566334 -0.05326863 -0.12304393 -0.09585357 0.004804251 0.08659244 -0.06958715 -0.025919821
-0.06871381 -0.011796285 -0.05587808 -0.10417288 0.0021037955 0.08579199 0.008166725 0.10191016
0.02968508 -0.089100756 0.037462965 0.043153785 -0.006260927 0.057505563 -0.09114715 -0.03504601
-0.039978374 -0.06349418 -0.058856934 -0.021482864 -0.08259715 0.011083153 0.06435234 -0.095310405

network.3.bias f4 [256]
00000000: 11ad 853c a4ad 3eba 9768 503b 01da 0cbc
00000010: 7b32 933d 55f3 773d 4c84 e9bd 896f 3bbd
00000020: 7290 c2bd f1a3 e93a 546c 9c3c 24e9 60bc
00000030: f2ea c33d e03f a63c e3ae f43d f29f 7f3d
00000040: 6ee9 71bc 8046 8f3c 0626 363d 8d10 19bb
00000050: 31cb 0d3e 30f5 87bd 3bb1 6cbd c254 5f3d
00000060: dd53 dfbd e44a 5c3d 7722 0abd 1e75 df3c
00000070: 17a3 813d f07e 143d 5bfd 7c3c 4ed3 c83d
00000080: 029a d33d 6ad0 c5bc a42e 85bd 3e1e d0bc
00000090: 3df3 2b3d 5f1f c73c 8694 70bc a276 a93c
000000a0: 989d c8bc 1510 96bc 9af1 843a fe1a 703d
000000b0: 71d0 c4bd 23f8 f9bc d595 babd 6cad 0abd
000000c0: 685b 363e 2fad 30bd beea 883d edb4 6dbd
000000d0: 2f94 cebd 6aed 3a3d bb7f 283d 7cbc 59bd
000000e0: f5c5 343c bc78 86bd 258c 13bd 5a8d f1bd
000000f0: a09f 81bd d966 52bd 6344 ecbc 09e7 4f3c
00000100: 2233 9bbc 8fac 963c 0a3c 9f3d e59a 463c
00000110: 1036 9fbd 3a0e 5b3d e68d 35bd 23e7 983d
00000120: 1b5c 123c 755f 9fbc 7647 44bd ea49 50bd
00000130: 1d23 b2bb f47c 8e3c cf0f 72bd 8ffe 7abd
00000140: 7a01 8d3c 7772 a43c 7d33 973d 1a54 8ebd
00000150: 8bf5 393c 7b97 e1bd 93e4 533d a24a 9a3d
00000160: ee77 97bd f0da a43b 1804 853d a4f5 d23c
00000170: 0261 483d f358 593d 45b7 6fbd 29de 87bc
00000180: 209b 3e3d e19f 8e3d 50dc 0b3d 9d31 193d
00000190: a34b 2fbc 5947 7e3d 83ff 9c3d 9b9e 2c3d
000001a0: d5ff 51bd 5ec4 ddbc 4a58 54bc 63b6 383d
000001b0: 9990 56bc c4eb c5bd 85c5 823d 7c55 9e3d
000001c0: 662e 513d f63b 6e3c 6e0a 8abd f9c9 5bbd
000001d0: 3338 e9bc a3b3 0abd f380 35bc 6e49 27bd
000001e0: a580 74bd c147 293d 1ec3 25bd 78dd b0bc
000001f0: d522 34bd 8daa 29bd de62 e93b 8bd3 8e3d
00000200: 8797 73bd 83e4 afbb e47e 6f3d ef4c b6bd
00000210: 7bcb b13c e386 353b 37fb 5cbc d700 253d
00000220: f83c 17bd 0963 ab3d d225 baba d236 0e3a
00000230: 29d6 b83d 3b93 bfbc d604 323e 72f3 a23d
00000240: 054c af3d 0e07 8a3d ae18 8a3d d3bc a33d
00000250: 08e6 bfbc 114c 8e3d 8939 3c3d 1d3a 41bd
00000260: 81dc 2d3d 304c 2a3e 3624 a23a 7fe6 ba3c
00000270: 39ce 803d ddb8 9a3c 5754 f43d c1a5 4fbc
00000280: 89e1 87bd b85d 343c 34d3 13bc e6e8 493d
00000290: 38a8 dcbc 1b4d 443d 752b ccbd bde0 e5bd
000002a0: 3fb0 1b3c c873 dbbb ef54 bf3b 6655 6dbd
000002b0: 2354 a53d 3284 d83c 377a 86bd 3131 ab3d
000002c0: e81f 12be bc53 87bd 4f97 5abc 5f7a 9dbd
000002d0: cbb0 94bc 3270 71bd f215 7bbd 7b04 e0b9
000002e0: ae7c 2a3d 2122 2a3d 2587 a2bd eb9d dcbd
000002f0: 34fd 4d3d 29d8 263d 2ef9 5dbb f1e6 7e3c
00000300: bd53 83bc 2e4e ebbc 6eaf a13d 1ba0 5ebd
00000310: 62b6 563d 35a5 5bbd e165 303d f275 92bc
00000320: 9094 973c 505a 12bd a5f8 5a3c 364d 0fbd
00000330: 0050 083e c031 243d 793d f83c f3e3 6c3d
00000340: fe42 3abc a0af 8abc 979e 1d3d aad0 5bbd
00000350: 088b c6bc 6479 513d 6a49 adbd eb63 0abd
00000360: c1d9 ed3c 8a1c afbd 50d6 e33d 5948 0bbc
00000370: 6c10 dabc fcc1 8ab9 351f b0bd cef7 6f3d
00000380: 0472 afba 197f d6bc 4ba4 3e3d 7c44 02bd
00000390: 4c76 63bc f6b9 563b a551 72bc 6025 90bd
000003a0: c2fe 2ebd 8c8a 813d a633 54bc 95f1 10bd
000003b0: 26ee 523c f69d 253d a445 b3bc 6e20 c0bb
000003c0: d2bd 003d c503 c73d 60b9 c8bd e99f babc
000003d0: 3f92 68bd c069 6abd 11c4 a33b cc81 ce3c
000003e0: 347e 7abd fe35 863d cd9f 0a3e 78be 13bd
000003f0: 9cac 5ebd abe6 4a3d fb89 75bd 3368 d5bb
0.016317876 -0.0007273799 0.0031800622 -0.008596898 0.07187363 0.060534794 -0.11402187 -0.045760665
-0.09500207 0.0017825348 0.019094624 -0.01372746 0.09566297 0.02029413 0.119474195 0.062408395
-0.014765127 0.017489672 0.044469856 -0.0023355812 0.13847043 -0.06638563 -0.057786208 0.05452419
-0.109046675 0.05378236 -0.033724274 0.027277526 0.06329935 0.03625387 0.015441264 0.09805928
0.10332109 -0.024147231 -0.065030366 -0.025405046 0.041980017 0.024306951 -0.014683848 0.020686451
-0.024489209 -0.018318215 0.0010142804 0.05861949 -0.096100695 -0.030513829 -0.091106094 -0.033856794
0.17808306 -0.04313391 0.066853985 -0.058033872 -0.100868575 0.045636572 0.04113744 -0.05315827
0.011033525 -0.06565997 -0.036022324 -0.11794539 -0.06329274 -0.051367614 -0.028841203 0.01268936
-0.01894528 0.01839283 0.077751234 0.012121891 -0.077739835 0.053480364 -0.044324778 0.07465961
0.0089330925 -0.019454697 -0.047919713 -0.05085174 -0.0054363147 0.017393567 -0.059097107 -0.061277922
0.017212618 0.020074112 0.073828675 -0.06949635 0.011350046 -0.11015221 0.051731657 0.07533766
-0.07395922 0.005030982 0.064949214 0.025751896 0.04892064 0.053063344 -0.05852439 -0.016585426
0.046534657 0.06964088 0.034145653 0.03740083 -0.010699186 0.06207976 0.076659225 0.042143445
-0.05126937 -0.027071174 -0.012960503 0.045095813 -0.013095998 -0.09664109 0.0638533 0.077311486
0.05106964 0.014540663 -0.067402706 -0.053659413 -0.02846918 -0.03386272 -0.011078107 -0.040841512
-0.059692997 0.041328195 -0.04046928 -0.02158998 -0.04397853 -0.041422416 0.0071223816 0.06973942
-0.05947068 -0.005367817 0.05847062 -0.08901393 0.021703472 0.0027698807 -0.013487629 0.040284004
-0.03692338 0.08368499 -0.0014201945 0.0005425039 0.09025223 -0.023385635 0.17384657 0.0795659
0.085594214 0.06739627 0.067429885 0.07995 -0.023425117 0.06948102 0.045953307 -0.04717456
0.042446617 0.16630626 0.0012370411 0.022814987 0.06289334 0.018886978 0.11930149 -0.012673796
-0.06634814 0.011008672 -0.009022523 0.049294375 -0.026935682 0.047925096 -0.09969226 -0.11224506
0.00950247 -0.006697152 0.0058389823 -0.05794277 0.080726884 0.026430223 -0.065662794 0.08358992
-0.14269984 -0.06607768 -0.013341739 -0.07689356 -0.018150708 -0.05894489 -0.061300226 -0.00042727948
0.04162281 0.041536454 -0.07935933 -0.10772308 0.0502903 0.04073349 -0.0033870446 0.01555799
-0.01603114 -0.028723802 0.07894789 -0.054351907 0.052420028 -0.05362435 0.04306591 -0.017878506
0.018503457 -0.03573066 0.013364946 -0.034985743 0.13311768 0.040086508 0.03030275 0.057834577
-0.011368511 -0.016929448 0.03848132 -0.053665794 -0.024236217 0.051141158 -0.08461268 -0.033786695
0.029034497 -0.08550365 0.11124861 -0.008501136 -0.026619159 -0.0002646594 -0.08599702 0.058585934
-0.001338542 -0.026183652 0.0465434 -0.031803593 -0.013883185 0.003276465 -0.014789973 -0.07038379
-0.042723425 0.06325254 -0.012951767 -0.03538664 0.012874162 0.040433846 -0.021883793 -0.005863241
0.031431027 0.09717516 -0.098009825 -0.02278133 -0.056780096 -0.057229757 0.004997738 0.025208376
-0.061155513 0.06553267 0.13537522 -0.036070317 -0.054363832 0.04953639 -0.05994604 -0.0065126657

network.5.weight f4 [256]
00000000: d480 823f 06c6 743f a3af 793f 387d 7c3f
00000010: bc90 753f e640 813f 48d1 7b3f 7f2b 773f
00000020: da15 7e3f 86ac 873f 07f9 813f 8c7c 7c3f
00000030: 9313 843f 3ad6 833f 2426 793f 3b33 803f
00000040: 3495 7a3f c7d8 763f f524 813f b0bf 823f
00000050: 9c85 813f ac5e 793f ea16 843f ae8c 7f3f
00000060: b8aa 7b3f f1eb 823f 59c0 793f 0f7c 7d3f
00000070: 08ee 823f b2f1 773f 7fe8 823f 7aae 793f
00000080: 29d9 803f 0d88 803f 9e1c 803f 1188 793f
00000090: fb58 823f 41de 743f 2975 773f 97a3 823f
000000a0: c974 813f 3852 7d3f a296 883f 7ed1 7f3f
000000b0: 42f3 803f f308 833f 233c 7f3f 11c1 7f3f
000000c0: 11b1 813f a3d2 823f 08a8 763f c383 843f
000000d0: c338 833f 21cc 823f ebab 7e3f 380c 823f
000000e0: 76f9 843f e6eb 853f c6e3 7e3f 4bdd 773f
000000f0: ae9c 833f e3da 843f dc2d 813f 5f59 7c3f
00000100: e528 843f b395 7f3f 3aa1 843f 3e37 793f
00000110: b738 803f 3734 7a3f 055b 783f a481 783f
00000120: 04cd 803f 28eb 833f 5ce1 7b3f 2259 853f
00000130: 5b6e 743f a34c 823f 0ab8 813f 98e5 843f
00000140: a193 7f3f 680c 843f 54bd 7c3f 7e76 783f
00000150: 26be 7f3f 38b0 813f ccd2 843f 788f 773f
00000160: 3c3d 6d3f f3d7 803f 613c 843f 0eaf 803f
00000170: a03d 813f 36d3 833f 6f3e 803f 5e83 7d3f
00000180: 7285 7a3f 9e2c 813f f73c 7a3f 5d1e 723f
00000190: 9fcc 813f 26bf 783f 3504 7f3f 7677 793f
000001a0: 1440 7a3f 40e2 853f dc10 783f 8e19 7a3f
000001b0: a69c 803f 9ae1 773f 633c 803f 2b5e 843f
000001c0: 9b4e 733f 129a 803f 04e2 853f c7f0 853f
000001d0: aad3 853f 3b35 843f 1ba8 833f e0c9 7d3f
000001e0: cd3d 6f3f 4241 873f dcc1 793f b0c4 853f
000001f0: dd28 773f 5f3b 803f 9967 813f 1255 7f3f
00000200: 3cd3 7d3f a9dd 6f3f 594f 773f 4543 7d3f
00000210: d05c 803f 8537 843f 6cfa 853f 804f 863f
00000220: 5d48 7e3f 34e1 703f a329 7f3f 8260 7b3f
00000230: ff43 803f ed7d 823f 24fc 743f 8005 823f
00000240: 99a3 833f 77d4 803f fc35 7a3f c830 763f
00000250: 2a86 833f a254 7d3f 2b08 833f 7991 7b3f
00000260: 6a41 863f aaed 7b3f 79c2 7b3f 8f1a 813f
00000270: 54b4 853f 0b84 7a3f 37ac 7b3f 04ab 853f
00000280: 6a6b 7f3f 5114 803f fa2f 833f 6f64 7f3f
00000290: 2ed1 7b3f d175 793f 737d 813f 1adb 823f
000002a0: 0af5 863f 28b4 823f 5e59 833f 1536 753f
000002b0: af06 793f b364 7f3f 1ff3 823f ce7e 7b3f
000002c0: 22ef 7e3f d8b7 833f 780b 803f 7c61 803f
000002d0: 9804 7c3f b3bf 813f 1b9f 7f3f 2934 7e3f
000002e0: c177 7b3f a042 853f 4fb6 703f 859c 813f
000002f0: 3924 7f3f b1dd 7b3f d693 803f f0bf 6c3f
00000300: d0e9 773f d6af 7f3f 940e 773f 6371 843f
00000310: 9f7f 823f 2646 803f f6fb 783f e561 7e3f
00000320: ad22 7d3f afa8 703f 64c3 783f 234b 723f
00000330: 25de 7d3f 00d1 8b3f 4ac9 803f d816 703f
00000340: 19b1 783f 4bce 803f f492 7c3f 43a5 803f
00000350: 6b9e 7e3f d087 7e3f be4b 7f3f 2f39 833f
00000360: bc8a 783f 3614 793f da50 803f f2cb 833f
00000370: 85cf 823f a921 823f e33c 863f 904c 803f
00000380: b7ca 7e3f d463 803f 9d4b 823f 884e 823f
00000390: 260d 7d3f 00f0 753f d12e 833f 1bdb 853f
000003a0: d2c8 733f ebf4 7b3f 3172 823f 0a25 803f
000003b0: ffe5 7e3f fdbd 833f b615 7a3f 03ba 773f
000003c0: fd3c 793f 1603 833f be76 7c3f 6a23 7a3f
000003d0: 412e 7d3f eb11 793f 4ec7 863f 2b48 803f
000003e0: a79d 7d3f 2823 803f bce0 803f c396 7d3f
000003f0: e6d1 7e3f 8a6c 7d3f a239 833f 64bb 843f
1.0195565 0.9561466 0.97533625 0.9862857 0.9592397 1.009793 0.9836621 0.96550745
0.9925209 1.0599525 1.0154122 0.98627543 1.0318474 1.0299752 0.9732382 1.0015634
0.97883916 0.96424526 1.0089403 1.0214748 1.0118899 0.9741008 1.0319493 0.99824035
0.9830737 1.0228254 0.97559124 0.99017423 1.0228891 0.9685317 1.0227202 0.97531855
1.0066272 1.0041519 1.0008733 0.97473246 1.0183405 0.9565163 0.9666315 1.0206174
1.0113765 0.9895358 1.067097 0.99929035 1.0074236 1.0237106 0.99701136 0.9990397
1.0132161 1.0220531 0.96350145 1.035271 1.0251697 1.0218545 0.99481076 1.0159979
1.038863 1.0462615 0.99566305 0.9682204 1.028219 1.0379299 1.009212 0.9857387
1.032498 0.998378 1.0361702 0.9734992 1.0017308 0.97735924 0.97013885 0.97072816
1.0062566 1.0306139 0.98390746 1.0417826 0.9548089 1.0179638 1.0134289 1.0382566
0.9983464 1.0316286 0.9872639 0.97055805 0.9989952 1.0131903 1.037683 0.9670329
0.9267156 1.0065902 1.0330926 1.0053422 1.0096931 1.0298831 1.0019053 0.99028575
0.9785987 1.0091741 0.97749275 0.9457758 1.014057 0.9716667 0.99615794 0.9744791
0.97754025 1.0459671 0.96900725 0.97695243 1.0047805 0.96828616 1.0018429 1.0341238
0.9504182 1.0047019 1.04596 1.0464104 1.045522 1.0328745 1.0285677 0.9913616
0.93453676 1.056679 0.9756143 1.0450649 0.9654673 1.0018119 1.010974 0.9973918
0.99150443 0.936976 0.9660545 0.9893077 1.0028324 1.0329443 1.0467048 1.0493011
0.9932917 0.9409363 0.9967291 0.98194134 1.0020751 1.019468 0.95697236 1.0157928
1.0284301 1.0064839 0.97738624 0.96168184 1.0275319 0.98957264 1.0236868 0.9826885
1.0488713 0.9840952 0.98343617 1.008623 1.0445657 0.9785773 0.98309654 1.0442815
0.99773276 1.00062 1.0249016 0.99762625 0.9836606 0.974454 1.0116409 1.0223114
1.054353 1.0211229 1.0261648 0.9578565 0.97275823 0.9976303 1.0230445 0.98240364
0.9958364 1.029048 1.00035 1.002975 0.9844451 1.0136627 0.9985215 0.9929834
0.98229605 1.0410957 0.9402818 1.0125891 0.99664646 0.9838515 1.0045116 0.92480373
0.96841145 0.9987768 0.9650662 1.0347103 1.0195197 1.0021408 0.9725946 0.99368125
0.98881036 0.9400739 0.9717314 0.946459 0.9916709 1.0923157 1.0061429 0.93784857
0.9714523 1.0062956 0.9866173 1.0050434 0.99460477 0.99425983 0.9972495 1.0251826
0.9708669 0.97296464 1.0024674 1.0296614 1.021958 1.0166522 1.0487331 1.0023365
0.9952807 1.0030465 1.0179325 1.0180216 0.9884819 0.96069336 1.0248662 1.0457491
0.952283 0.9842059 1.0191098 1.0011303 0.99569696 1.0292355 0.9768938 0.96768206
0.97358686 1.0235317 0.98618686 0.9771029 0.988987 0.97292966 1.0529573 1.0022024
0.99068683 1.0010729 1.0068583 0.9905817 0.9953903 0.9899374 1.0251963 1.0369687

network.5.bias f4 [256]
00000000: 9262 88bd b68f 77bc 9ed1 683d 83cc ac3d
00000010: 94cc 093e fa76 9dbd 386a 033d cd20 d13d
00000020: 150c 80bc fd3a b8bc 7ed9 943c 1655 2b3d
00000030: e49b 95bd abfc 9cba b6f6 a93d 0a6b 9cbd
00000040: 85db a63d b530 0cbd 5947 58bd 0319 9c3d
00000050: 9505 0e3e f2a3 46bd cad7 e9bc e94a 44bc
00000060: be66 223c bebb ebbc a550 943d c565 8f3d
00000070: 2648 a3bd e541 c83c 5091 723d 2f5c 9e3d
00000080: 2700 863d 9f4a 1ebd ea80 f7bd 0144 de3b
00000090: 4ab1 6cbd 8883 513d 3c76 813d 2e57 4fbd
000000a0: 7de0 febd f1ab c2bc a290 f5bd 5e62 9ebc
000000b0: ebee b1bd 08e5 eebd 2a52 97bd 262b d3bd
000000c0: 669a 4b3e a9b9 8d3d 7d3a b73d 0243 92bd
000000d0: 76c8 94bc dab9 7cbd ff04 f9bc b57d 2dbe
000000e0: 9227 51bd 80ad a1bd 1d77 c13d ffca 9a3a
000000f0: 842d 6cbd 750f 18be 1c32 39bd 2e5f e33d
00000100: d4ea 9ebc e11b 903c 6593 34bd 9355 e73c
00000110: c1c8 aebd c712 7f3d 155c e9bc 80db 3d3d
00000120: b053 8c3c 90d6 4dbd 5c9a cbbd ec37 01bd
00000130: 9dda ac3d ce1d 50bc 39a3 48bd 997d d6bd
00000140: dfca b13d 2222 27bc 60b2 7c3d 899a 353c
00000150: 0c36 9fbd b7e5 cdbc 2465 043c c499 eabc
00000160: 4705 d43d e5d0 02be 06c0 0bbd 2836 debb
00000170: 8058 87bc 5e1b a8bd 7ae6 62bd 2604 06bd
00000180: f98e d93c e828 053c d7e8 99bc 5836 e53c
00000190: ad9f 243d fce9 363d 68e7 773d 276f d8bb
000001a0: 6a03 bb3d 79c0 4cbd 6a11 0f3d 6463 99bc
000001b0: 3e81 ebbd 12bb a53c b3c1 1d3e 7145 98bd
000001c0: 0959 b03d f829 0abe 2525 07be 8d68 49bd
000001d0: 71a4 f03d 82f6 9ebd 951c b2bd 8f82 33bd
000001e0: 40e0 223d 9437 d3bd c96b 1c3c 84a4 d6bd
000001f0: 6c08 8ebc 01b8 db3b 36d6 47bd d6bd 1d3d
00000200: e1b8 ad3c ea54 a33c e080 c0bc b699 bbbc
00000210: 1806 05bc 4697 9539 2440 f1bd b9bf a9bb
00000220: 6c24 95bd 9257 953d 6857 1fbd 9cbf 87bc
00000230: 585f cbbd d90d 383d 69a0 6b3d d389 c2bd
00000240: 1d7f b4bc 1922 7ebc 2dde eb3c 29f3 893d
00000250: 6d23 b9bd 3842 7fbc d71d 81bb 13af b8bd
00000260: af45 b0bd 1eaa 0a3e 3b67 443c 8908 793d
00000270: ebaf 78bd 4297 beb9 6bb1 953d 5658 8fbd
00000280: fb83 12be 8331 afbc d3db f2bd f388 50bd
00000290: 7486 34bd f624 debc ff9b 75bd 3f48 4bbd
000002a0: c733 34bd 45a7 06be 5ed6 ddbd f16d 423c
000002b0: 0982 2a3d f6ac 8dbb c81a 82bd 6d09 723d
000002c0: dda3 96bd 402f afbd 5a90 9dbd 5354 d73c
000002d0: 3263 d83d 787f b4bd 2fa9 e6bc 7769 88bd
000002e0: 890c 553d 56e9 47bc ab9b 29bb 5a67 91bd
000002f0: 4826 cdbd 060e 12bb bf6c 64bd 4c58 723d
00000300: 89c0 b23c cdfd 8dbd 4b26 2fbd 82c7 15bd
00000310: 56ef d93b 8e4f cbbd c56d bdbd 5dd1 6c3d
00000320: 34da 2abd 3276 7e3d d621 403c 19eb b43c
00000330: b87a 8ebc 0f92 c13d 8466 01be f199 b9bd
00000340: cf46 b7bb b8ed 0e3d 66a7 e0bc 89fd cfbb
00000350: de48 85bd 755f 59be c3dd a3bd d914 74bd
00000360: 57b5 643d ab51 e03c 40b9 7f3d 3494 b8bd
00000370: 2223 71bc eefa 54bd e183 01be c2e1 fcbb
00000380: 8197 f0bd 67c8 19bd 08e0 c0bc d167 dfbd
00000390: 3373 86bc 6b61 b73d 9fab 39bc 3c71 03bc
000003a0: 5e6d 073d 1223 e8ba 7954 edbd 2b90 2cbd
000003b0: 946c f2bd 081f e63c 3a6f 273d 9420 8a3d
000003c0: 3585 57bc ad05 1ebd 60dc 21bd 568c 443d
000003d0: d258 dabb d9ca febc 24f2 643d b664 b0bd
000003e0: f1e5 a5bc c639 413d 3a99 313d 87b8 67bd
000003f0: 5387 743d fd0d cc3d c793 54bd 2b3d 84bd
-0.06659426 -0.015109947 0.05684053 0.08437445 0.13456947 -0.076887086 0.03208372 0.102113344
-0.015630761 -0.022489065 0.018170115 0.04182919 -0.073051244 -0.0011977156 0.082990095 -0.076376036
0.08147339 -0.03422614 -0.052802417 0.07621958 0.13869317 -0.048496194 -0.028545279 -0.011980751
0.009912191 -0.028776046 0.07241944 0.07001833 -0.079727456 0.024445483 0.059220612 0.077324264
0.06542998 -0.038645383 -0.12085135 0.006783009 -0.057786264 0.05115083 0.063213795 -0.05062025
-0.124451615 -0.023763629 -0.11990477 -0.019334015 -0.08688148 -0.11664778 -0.073887184 -0.10310964
0.19883117 0.069201775 0.08946703 -0.07141687 -0.018161993 -0.06170068 -0.03039789 -0.16942485
-0.051063128 -0.078944206 0.09446547 0.0011809765 -0.057660595 -0.14849646 -0.045213804 0.111021385
-0.019399084 0.017591419 -0.04408588 0.028239047 -0.085343845 0.062273767 -0.028486291 0.04635191
0.017129749 -0.05025345 -0.09941551 -0.031547472 0.08440135 -0.0127024185 -0.048983786 -0.104731746
0.08681273 -0.010201009 0.06169355 0.011084207 -0.077739805 -0.02513395 0.008080754 -0.028637774
0.10352569 -0.12775 -0.034118675 -0.0067813583 -0.016521692 -0.08208345 -0.05539558 -0.0327188
0.026557432 0.008127429 -0.018787785 0.027980015 0.04019134 0.04465674 0.06052342 -0.0066050473
0.091315106 -0.049988244 0.034928717 -0.018724151 -0.1149926 0.020230804 0.15405922 -0.0743512
0.08610732 -0.13492572 -0.13197763 -0.049171973 0.11750115 -0.077618614 -0.08696858 -0.043825682
0.039764643 -0.10313335 0.009547182 -0.104805976 -0.017338 0.0067052846 -0.04878827 0.03851112
0.021206321 0.019937951 -0.023498952 -0.022900444 -0.008119129 0.00028532202 -0.11779812 -0.005180326
-0.072823375 0.07292093 -0.038901716 -0.016570859 -0.09930295 0.04493508 0.057526026 -0.09498944
-0.022033269 -0.015511059 0.028792465 0.06735832 -0.0903996 -0.015579753 -0.0039403248 -0.09017768
-0.08607041 0.13541457 0.011987503 0.060799155 -0.060714643 -0.0003635232 0.073092304 -0.069992706
-0.14308159 -0.021385914 -0.118583344 -0.050911855 -0.044073537 -0.027117234 -0.059963223 -0.049629446
-0.04399469 -0.13149746 -0.10831903 0.011867032 0.041627917 -0.004323597 -0.06352764 0.05909102
-0.07355473 -0.08553934 -0.076935485 0.026285326 0.10565795 -0.08813375 -0.028156845 -0.06660741
0.052013908 -0.012201628 -0.002588014 -0.07099791 -0.10017067 -0.002228619 -0.05576777 0.059166238
0.021820324 -0.06933174 -0.04276113 -0.03656722 0.0066508455 -0.09927283 -0.092494525 0.057816852
-0.041712 0.06212444 0.011726817 0.02208476 -0.017392501 0.094516866 -0.12636763 -0.09062565
-0.005593158 0.034894675 -0.027423572 -0.0063473624 -0.06508039 -0.2122782 -0.08001282 -0.059590194
0.055837 0.027382692 0.062432528 -0.090126425 -0.014717849 -0.051997118 -0.12647964 -0.007717342
-0.11747647 -0.037544634 -0.023544326 -0.10908473 -0.016412353 0.08954128 -0.011332422 -0.008022603
0.033063285 -0.0017710647 -0.115883775 -0.042129677 -0.11837116 0.028090969 0.04087756 0.06744495
-0.013154318 -0.03857963 -0.039516807 0.047985397 -0.0066634202 -0.031102585 0.055894986 -0.08612959
-0.020251246 0.047174238 0.04335902 -0.056572463 0.059699368 0.099636056 -0.051898744 -0.06456979
