models/retrained_20241114_141308/discriminator.pth (torch, 420232 bytes, 7 tensors)

network.0.weight f4 [256, 20]
0	0xbc90768d	-0.017634654
1	0xbc600367	-0.013672686
2	0xbd039052	-0.032120056
3	0x3e3a8b2c	0.18217152
4	0x3e271413	0.16316251
5	0xbdc3fb57	-0.09569424
6	0x3d82932b	0.06375726
7	0xbd6c4ae2	-0.0576886
8	0xbd6bdc7b	-0.057583313
9	0x3cf9046e	0.03039762
10	0xbd4693be	-0.04848074
11	0x3e8d9437	0.2765214
12	0x3d00ec4b	0.031475347
13	0x3c4b47db	0.012407268
14	0xbd9e90bc	-0.0774245
15	0xbde0b5e1	-0.10972191
16	0xbdee9c0e	-0.11650859
17	0xbd341a70	-0.043970525
18	0x3d635813	0.055503916
19	0xbe9919ae	-0.29902405
20	0x3ca66f4d	0.020316744
21	0xbd26c3c9	-0.04071406
22	0x3c62787c	0.013822671
23	0xbb1a9e41	-0.0023592862
24	0x3ba90046	0.0051575033
25	0xbd3181da	-0.043336727
26	0xbe4c3f4b	-0.1994602
27	0x3db446ed	0.088025905
28	0x3d5150cf	0.051102456
29	0x3b0ac543	0.0021174706
30	0xbd781d84	-0.060575023
31	0xbd48c015	-0.04901131
32	0x3da8557a	0.08219428
33	0x3d6cbfba	0.057800032
34	0x3ce5ac00	0.028036118
35	0xbdb6c576	-0.089243814
36	0x3d2ccd1c	0.042187795
37	0x3eb889c1	0.36042598
38	0x3e332913	0.17496137
39	0xbc5cf78e	-0.013486756
40	0xbb4378e1	-0.0029826688
41	0x3c3f1bff	0.01166439
42	0x391d9dbc	0.00015031447
43	0x3c459796	0.012060067
44	0x3b87af44	0.0041407663
45	0xbb288575	-0.0025714312
46	0x3b9d1b03	0.00479448
47	0x3b204748	0.002445655
48	0xbc0ec8bc	-0.008714851
49	0x3b34af02	0.0027570133
50	0xbb10159c	-0.0021985536
51	0x3f0d5488	0.5520711
52	0xbb1ad427	-0.0023624988
53	0xbbd74cf7	-0.006570454
54	0x3c02065e	0.007936088
55	0xbb1c447c	-0.002384453
56	0x3b9e6837	0.0048342007
57	0xbb969429	-0.004595299
58	0xbaae4a8a	-0.0013297361
59	0xbe3aa3c1	-0.1822653
60	0xbc1771da	-0.009243453
61	0xbd676049	-0.05648831
62	0x3c6800d2	0.014160352
63	0xbda3c5b6	-0.07996695
64	0xbd553714	-0.05205448
65	0x3db0625e	0.08612512
66	0x3d42501a	0.047439672
67	0x3e80cb0f	0.2515492
68	0xbd90786d	-0.070542194
69	0x3d3d94f3	0.046284627
70	0x3e448012	0.1918948
71	0x3d509b05	0.05092909
72	0x3b6b819d	0.003593541
73	0xbdad2cbe	-0.084557995
74	0x3d9b6b8c	0.07588872
75	0xbba87f5e	-0.0051421365
76	0x3e250ea7	0.1611887
77	0xbdd156a0	-0.102216005
78	0x3e9d5917	0.30732033
79	0x3e1258dd	0.14291711
80	0xbcb2b476	-0.021814566
81	0x3cd235cf	0.025660424
82	0x3aee2d7d	0.0018171516
83	0xbdf06216	-0.117374584
84	0xbdcfda22	-0.101490274
85	0xbd98c3e3	-0.074592374
86	0x3ded0ad9	0.11574335
87	0x3e9162e4	0.2839576
88	0x3e3cadb7	0.18425642
89	0xbdaaedf4	-0.08346167
90	0xbd7d94bc	-0.061909422
91	0xbc349824	-0.011022601
92	0xbdedd15f	-0.116122
93	0x3dd5bd9f	0.10436558
94	0x3e53683c	0.20645231
95	0xbd9103bd	-0.07080791
96	0xbd9b962c	-0.075970024
97	0xbda054be	-0.07828663
98	0xbe24a113	-0.1607707
99	0x3dfca5d5	0.123363174
100	0xbca6733d	-0.020318622
101	0x3bc45f02	0.005992771
102	0xbcc4bfd3	-0.02401725
103	0x3d1889ef	0.03724092
104	0x3da59fb1	0.08087099
105	0x3cd2c2dd	0.025727684
106	0x3c5dccee	0.013537629
107	0xbdb0a463	-0.08625104
108	0x3cc0c6c2	0.023532275
109	0xbd218385	-0.039432067
110	0xbd709810	-0.058738768
111	0xbb112b8e	-0.0022151205
112	0x3ef45070	0.4771762
113	0xbdcaf984	-0.099108726
114	0xbd8b4571	-0.06800354
115	0x3c8cd9ed	0.017193759
116	0xbc8b0f5d	-0.0169751
117	0x3d8f1adb	0.06987544
118	0xbd9ab051	-0.07553161
119	0xbc535694	-0.01289906
120	0x3db42214	0.087955624
121	0x3d1d9528	0.038472325
122	0x3c8aeac9	0.016957657
123	0x3e047578	0.12935436
124	0x3ded77ba	0.11595102
125	0x3d6487eb	0.055793684
126	0xbd7bacc5	-0.061444063
127	0xbb3329e5	-0.0027338204
128	0xb9780542	-0.00023653082
129	0x3ba03cbe	0.0048900535
130	0xbca32b85	-0.019918213
131	0xbc97c36d	-0.018525803
132	0x3ba9866c	0.005173495
133	0xbc0e564d	-0.008687568
134	0x3f07ebef	0.5309438
135	0x3b8fa47e	0.0043836227
136	0xbc3d388f	-0.011549129
137	0xbcdc3961	-0.02688283
138	0x3bf89a57	0.007586758
139	0x3db8ff47	0.09033065
140	0xbd1301b5	-0.0358903
141	0x3d84e23f	0.064884655
142	0xbd4c9b11	-0.04995257
143	0xbc8267f5	-0.015918711
144	0xbd42cfe3	-0.047561537
145	0x3d28e5fc	0.041234955
146	0xbe4eeb41	-0.2020693
147	0x3d361d97	0.044461813
148	0xbd21c454	-0.039493874
149	0x3cd9dad4	0.026593603
150	0xbd0d62fe	-0.034518234
151	0xbdecf1ef	-0.11569583
152	0x3d581ecb	0.05276374
153	0x3d030731	0.03198928
154	0x3de0f89f	0.10984921
155	0x3e35582e	0.17709419
156	0xbe06f25e	-0.13178393
157	0x3d647995	0.055780012
158	0xbd437cdd	-0.0477265
159	0x3da29d22	0.07940127
160	0xbdc3f621	-0.0956843
161	0xbcf49e15	-0.029860536
162	0x3bf582e8	0.007492412
163	0x3e2a5a94	0.16636115
164	0x3d33791e	0.04381668
165	0x3d1a5a15	0.037683565
166	0x3dace36e	0.08441816
167	0xbe1422c9	-0.14466394
168	0xbdbd7af1	-0.09251965
169	0x3e386ae8	0.18009531
170	0x3d2f0a78	0.042734593
171	0xbdfc6e1e	-0.12325691
172	0xbd87ba61	-0.06627346
173	0xbc973d9b	-0.018461993
174	0xbd633fab	-0.05548064
175	0xbdc8fbb0	-0.098136306
176	0x3cdff991	0.027340682
177	0xbd86cac9	-0.06581647
178	0xbd2cfae2	-0.042231448
179	0xbe80bf0e	-0.25145763
180	0x3dfc737b	0.12326714
181	0x3d178e6e	0.037001066
182	0x3d84e913	0.06489768
183	0x3e20c359	0.15699519
184	0x3d97907e	0.074006066
185	0x3d88c8ec	0.06678948
186	0x3f09b8a7	0.5379738
187	0xbca963b6	-0.020677429
188	0xbcc3b175	-0.023888329
189	0xbc2c53e4	-0.010518048
190	0x3b2d292c	0.0026422245
191	0xbce5ddd6	-0.028059881
192	0xbcd8dfae	-0.026473846
193	0x3cd47a11	0.025937112
194	0xbc38cdf1	-0.011279569
195	0xbc8ddbaf	-0.017316667
196	0xbc90b20b	-0.017663023
197	0xbd2154d8	-0.039387554
198	0xbbed9473	-0.0072503625
199	0xbc428c26	-0.011874234
200	0xbc3d7b5c	-0.011565056
201	0xbd1461c0	-0.036226034
202	0x3d1cd88a	0.038292445
203	0xbd0ed2b2	-0.034868903
204	0x3c91c588	0.017794386
205	0xbd269900	-0.040673256
206	0xbea14ce7	-0.31503984
207	0x3e15029c	0.14551777
208	0x3e428164	0.18994671
209	0x3d97d93d	0.07414482
210	0x3e1bd87f	0.15219305
211	0x3d968c9f	0.0735104
212	0xbe17f838	-0.14840782
213	0xbd8acd55	-0.06777445
214	0xbd8ab1a2	-0.06772162
215	0x3d935a8d	0.071950056
216	0x3d5ebf6a	0.054381765
217	0x3d6dcde0	0.058057666
218	0x3d998d92	0.074977055
219	0xbe882938	-0.26593947
220	0x3dbedebb	0.09319826
221	0x3e5ed925	0.21762522
222	0x3db93d80	0.09044933
223	0xbd69e8a1	-0.057106618
224	0x3e3a293e	0.18179795
225	0x3e2f8a87	0.17142688
226	0xbdd65f72	-0.104674235
227	0xbd234837	-0.03986379
228	0xbd0c7b6e	-0.0342974
229	0x3d810d3b	0.06301352
230	0xbd3e19e2	-0.046411403
231	0xbd8022fd	-0.062566735
232	0x3d7e77ff	0.062126156
233	0x3d3f73d5	0.046741325
234	0xbcdd1899	-0.026989268
235	0xbdce1e92	-0.100644246
236	0x3d554822	0.052070744
237	0x3d8beb21	0.06831957
238	0x3ab1c49d	0.0013562624
239	0xbe8aec84	-0.27133572
240	0xbbb936d3	-0.0056522875
241	0x3dcccfaf	0.1000055
242	0x3cbe4d82	0.023230318
243	0x3c2573ee	0.010098441
244	0x3dc53416	0.09629075
245	0xbc801592	-0.015635286
246	0xbafc5e08	-0.0019254098
247	0xbbf1f8c7	-0.007384393
248	0xbcce8444	-0.025209554
249	0x3a2da8b8	0.00066245673
250	0x3cada499	0.02119665
251	0x3efe9280	0.49721146
252	0xbb834e7d	-0.0040071593
253	0xbd2b63e6	-0.041843317
254	0x3b0e9a22	0.002175935
255	0x3a4b655e	0.00077589403

network.0.bias f4 [256]
0	0x3e826732	0.25469357
1	0xbe8c582f	-0.2741103
2	0xbef603c6	-0.48049754
3	0xbe035829	-0.12826599
4	0xbeaca60a	-0.33720428
5	0xbea043b9	-0.31301668
6	0xbe24e074	-0.16101247
7	0xbe100603	-0.14064793
8	0x3e51e123	0.20496039
9	0xbe9443a8	-0.28957868
10	0xbe48d185	-0.19611175
11	0x3e867e5a	0.26268274
12	0xbe22026b	-0.15821235
13	0xbef64c47	-0.4810507
14	0xbe837391	-0.25674108
15	0x3e0a45b8	0.13503158
16	0xbb5676dc	-0.0032724654
17	0xbe8188d8	-0.25299716
18	0xbe591036	-0.2119759
19	0xbebaf73b	-0.36516747
20	0x3e433f70	0.19067168
21	0xbe71ae1c	-0.23601574
22	0xbe880cc6	-0.26572245
23	0xbe885f7b	-0.26635346
24	0xbe8b5f63	-0.27221212
25	0x3e03440b	0.12818925
26	0x3e32f7d8	0.17477357
27	0xbd401d30	-0.046902835
28	0xbe686093	-0.2269309
29	0xbeb9537f	-0.36196515
30	0xbe898261	-0.26857284
31	0xbc3f9fa4	-0.011695776
32	0xbe996520	-0.29959965
33	0x3e940037	0.28906414
34	0xbe947b00	-0.29000092
35	0x3e2398bf	0.15976237
36	0xbeb243e1	-0.34817412
37	0xbeb96fee	-0.36218208
38	0xbcb1b3f0	-0.021692246
39	0xbe8a6ff2	-0.27038532
40	0xbea6d225	-0.32582203
41	0x3e81a487	0.25320837
42	0xbec98e22	-0.3936625
43	0xbe4d3869	-0.2004105
44	0xbe2a2d29	-0.1661879
45	0xbe72e6d7	-0.23720871
46	0x3e61fabb	0.22068302
47	0x3b33b05b	0.0027418348
48	0x3e6b8b8e	0.23002455
49	0x3e72d4b5	0.23713954
50	0xbe869164	-0.262828
51	0xbea346b1	-0.3188987
52	0xbd86e414	-0.06586471
53	0xbe8a5abc	-0.2702235
54	0xbea5c616	-0.3237769
55	0xbe2a12c6	-0.16608724
56	0xbe2a7fb8	-0.16650283
57	0x3e01e38d	0.1268446
58	0xbe997fb2	-0.29980236
59	0xbe21ff85	-0.15820129
60	0xbed94151	-0.42432645
61	0xbcde0294	-0.027100839
62	0xbea1fb7d	-0.31637183
63	0xbe0b4614	-0.13600951
64	0xbe290f10	-0.16509652
65	0xbdeb314b	-0.11484011
66	0xbdb945ca	-0.09046514
67	0xbe58c441	-0.21168615
68	0x3dcada40	0.09904909
69	0xbe989df2	-0.29808003
70	0xbe9c2209	-0.30494717
71	0x3d6fe854	0.058571175
72	0x3db83bc6	0.08995776
73	0xbe92f002	-0.28698736
74	0xbea3a39d	-0.31960765
75	0xbe402089	-0.18762411
76	0xbe4006ac	-0.18752545
77	0xbeb19ce8	-0.34690022
78	0x3d2e2447	0.042515066
79	0x3b245168	0.0025072936
80	0xbe51c948	-0.20486939
81	0xbe7b0cba	-0.24516574
82	0xbe4d3a91	-0.20041873
83	0xbdfe35c1	-0.124125965
84	0xbe245c56	-0.16050848
85	0x3e51a7d1	0.20474173
86	0xbece01d2	-0.40235764
87	0xbe958d3f	-0.29209325
88	0xbe976e22	-0.29576212
89	0xbd569b73	-0.05239434
90	0xbea6bf1f	-0.3256769
91	0x3e324fa6	0.17413196
92	0xbee8f77b	-0.45501313
93	0xbe7a6db6	-0.24455914
94	0xbe2646ad	-0.16237898
95	0xbe2ef213	-0.17084531
96	0x3e66a556	0.22524008
97	0x3db3824a	0.08765085
98	0xbe87849b	-0.26468357
99	0x3e87cbdc	0.2652272
100	0x3e178b90	0.14799333
101	0xbdae5fc1	-0.08514357
102	0x3ce3cb42	0.027806882
103	0xbebfb590	-0.3744321
104	0x3e5b5ea3	0.2142282
105	0xbeb7ede9	-0.359237
106	0xbe9535a1	-0.29142478
107	0xbe8fbd2f	-0.28074023
108	0xbe8dd842	-0.27704054
109	0xbe37a94f	-0.1793568
110	0xbe0aef91	-0.1356795
111	0xbec11e70	-0.37718534
112	0xbe2628cf	-0.16226505
113	0xbdd79df5	-0.10528175
114	0xbed0b153	-0.40760288
115	0xbec13bf4	-0.37741053
116	0x3e0a5241	0.1350794
117	0xbe825d79	-0.2546194
118	0xbe7fca9e	-0.24979636
119	0xbc2dd846	-0.010610646
120	0xbea8325d	-0.32850924
121	0x3e868a1f	0.26277253
122	0xbe6f6338	-0.23377693
123	0xbe9ae218	-0.3025062
124	0xbe995d22	-0.29953867
125	0xbce1fc16	-0.027586024
126	0x3ad1c0bc	0.0016002874
127	0xbed20afa	-0.41024
128	0xbe53ac76	-0.20671257
129	0xbddcbf3f	-0.10778665
130	0xbe1ce586	-0.15321931
131	0xbe5aa45e	-0.21351764
132	0xbe9b8a68	-0.30379033
133	0xbec802ad	-0.3906454
134	0xbe860b72	-0.26180607
135	0xbe28bc09	-0.1647798
136	0xbd366fd9	-0.04454026
137	0xbe8bd11c	-0.27307975
138	0xbe2d600f	-0.16931175
139	0xbe6e79b2	-0.2328861
140	0xbe4c70ce	-0.19964907
141	0xbea57562	-0.32316118
142	0xbecc4d54	-0.39902747
143	0xbe3b64af	-0.18300126
144	0xbe67d1cb	-0.22638623
145	0xbde071bf	-0.10959195
146	0xbe56f34b	-0.20991246
147	0xbe3ceb1e	-0.18449065
148	0xbe6188b6	-0.22024807
149	0xbe17b5c3	-0.1481543
150	0xbe40230e	-0.18763372
151	0x3e375f8f	0.17907546
152	0xbe47322c	-0.19452733
153	0xbe880165	-0.26563564
154	0xbe9e3717	-0.30901405
155	0x3e7c9b8d	0.24668713
156	0xbe301135	-0.17194064
157	0xbea4c402	-0.32180792
158	0x3da96b11	0.082723744
159	0xbe952005	-0.2912599
160	0xbe612655	-0.21987279
161	0x3bfe0d21	0.00775303
162	0x3e3c06ff	0.18362044
163	0xbeb15f27	-0.34642908
164	0x3e7407ac	0.23831052
165	0xbeff9221	-0.49916175
166	0xbda7994a	-0.081835344
167	0xbed109fd	-0.40827933
168	0xbe405e8a	-0.18786064
169	0xbe949465	-0.29019466
170	0xbef2815d	-0.4736432
171	0xbd3c44a4	-0.0459639
172	0xbe89dd8a	-0.26926833
173	0xbea627e1	-0.324523
174	0xbeaa31fd	-0.33241263
175	0xbd523ef3	-0.051329564
176	0x3bf4f6e8	0.0074757226
177	0xbea796e4	-0.32732308
178	0xbeb2a89b	-0.3489426
179	0x3c56d08c	0.013111245
180	0xbdcf72d7	-0.10129326
181	0xbe54c237	-0.20777212
182	0xbe5dca28	-0.21659148
183	0xbeb1eb6d	-0.34749928
184	0x3e2a6d4e	0.16643259
185	0xbeabcbe1	-0.33553985
186	0xbde3bb80	-0.11119747
187	0x3d33d6b6	0.043905936
188	0xbeb1bd34	-0.34714663
189	0xbeeb6e08	-0.45982385
190	0xbf0381ff	-0.51370233
191	0xbd8a4e54	-0.06753221
192	0xbee84ff1	-0.4537349
193	0xbeb46382	-0.35232168
194	0xbe5d87d0	-0.2163384
195	0xbeb3eeff	-0.35143277
196	0xbd940746	-0.0722795
197	0xbde82b51	-0.11336387
198	0xbea28c6f	-0.31747767
199	0xbeb8c847	-0.360903
200	0x3e9d68ee	0.30744117
201	0xbeb37775	-0.35052076
202	0x3db921a7	0.09039622
203	0xbed62ccc	-0.41831052
204	0x3e5a8a38	0.21341789
205	0xbe925c68	-0.28586125
206	0xbb1e2f72	-0.0024137166
207	0xbd86d6d6	-0.065839455
208	0xbd37080e	-0.044685416
209	0x3e618c05	0.2202607
210	0x3deac437	0.11463206
211	0xbe07e38b	-0.13270395
212	0xbde392ae	-0.11111961
213	0xbeaf3b32	-0.3422485
214	0xbea66451	-0.3249841
215	0xbd4ffe74	-0.050779775
216	0xbd346a9d	-0.044046987
217	0x3e533c27	0.20628415
218	0xbdf2e450	-0.118599534
219	0xbe479460	-0.19490194
220	0xbeb26977	-0.34846088
221	0xbed17092	-0.40906197
222	0xbe238d80	-0.15971947
223	0xbe842d6f	-0.25815913
224	0xbe95410e	-0.29151195
225	0x3e430f07	0.19048701
226	0xbe06983a	-0.13144007
227	0xbe365a75	-0.17807944
228	0xbe188452	-0.14894226
229	0xbe02b3d9	-0.12763919
230	0xbe36ead8	-0.17863023
231	0x3db63073	0.0889596
232	0xbe58f2b5	-0.21186335
233	0x3b866706	0.004101637
234	0xbdf03e9b	-0.11730691
235	0xbcb3ce60	-0.021948993
236	0xbe06b9ee	-0.13156864
237	0xbdf56039	-0.11981244
238	0x3e8d3015	0.27575746
239	0xbd7f8696	-0.06238421
240	0xbe8cb342	-0.27480513
241	0xbe7ed7dc	-0.24887031
242	0xbda67456	-0.08127658
243	0xbf019032	-0.5061065
244	0x3e80952d	0.25113812
245	0xbdb3c9fc	-0.0877876
246	0x3dff4323	0.12463977
247	0x3e343a48	0.17600358
248	0xbeaffc03	-0.34371957
249	0xbe660d3d	-0.22465988
250	0xbed16bd8	-0.4090259
251	0xbe9f09a6	-0.3106205
252	0xbeef34f7	-0.46720096
253	0xbd4f1e78	-0.050566167
254	0xbedbb905	-0.42914596
255	0xbea56d52	-0.32309967

network.3.weight f4 [256, 256]
0	0xbd98bc62	-0.07457806
1	0xbda007ef	-0.07814013
2	0xbccb9fcc	-0.02485647
3	0xbc88ad76	-0.016684275
4	0xbbd62969	-0.006535698
5	0xbbe2f197	-0.0069257724
6	0xbc9eb878	-0.01937507
7	0xbad2351b	-0.0016037555
8	0xbd62de92	-0.05538804
9	0xbcf539d5	-0.029934803
10	0xbce68539	-0.028139697
11	0xbb3718c3	-0.0027938343
12	0x3d5f5f1c	0.054534063
13	0xbd1c0cc1	-0.0380981
14	0xbd589a9c	-0.052881822
15	0xbd80795e	-0.06273149
16	0xbcb85a77	-0.022504074
17	0xbc650479	-0.013978117
18	0xbd7892d4	-0.0606869
19	0x3b8e13a0	0.0043358356
20	0xbc97c768	-0.018527701
21	0xbda13303	-0.07871058
22	0xbd8e879d	-0.0695946
23	0xbdaed5ef	-0.08536898
24	0xbc85252d	-0.016253078
25	0xbd437b09	-0.047724757
26	0xbd3a2ac3	-0.045450937
27	0x3d4029cb	0.046914857
28	0xbddb0a7b	-0.10695358
29	0xbd6940b2	-0.056946464
30	0xbb3747b4	-0.0027966322
31	0xbd8a56c8	-0.067548335
32	0xbd703d80	-0.0586524
33	0x3ba63e95	0.0050733783
34	0x3d00bac4	0.031428114
35	0xbd42b799	-0.047538374
36	0xbd05ee3d	-0.032697905
37	0xbbbe724e	-0.005811966
38	0xbcbb8077	-0.022888405
39	0x3d0770cd	0.03306656
40	0xbd00b4d4	-0.03142245
41	0xbd808bf4	-0.06276694
42	0xbd00f0fe	-0.031479828
43	0x3cdb6cd3	0.02678529
44	0xbc150e30	-0.009097621
45	0x3cd91691	0.026500018
46	0xbc9a19c7	-0.01881112
47	0xbd1060d0	-0.035248578
48	0xbc9f7673	-0.01946566
49	0xbcb0f21f	-0.021599827
50	0xbd2e8c59	-0.042614315
51	0x3d973a8c	0.07384214
52	0xbc198da6	-0.0093721505
53	0xbd05124f	-0.032488164
54	0xbcdda754	-0.027057327
55	0xbccf9938	-0.025341615
56	0xbd2914d2	-0.04127962
57	0xbd060f73	-0.032729577
58	0xbc4b82fe	-0.012421368
59	0xbda33b5b	-0.079703055
60	0xbd2a5668	-0.04158631
61	0xbd9fa216	-0.07794587
62	0xbdc260ac	-0.09491095
63	0xbdbaeff4	-0.09127799
64	0xbd66997f	-0.05629873
65	0xbae3ac37	-0.001737005
66	0xbc8a9cd0	-0.016920477
67	0xbd035a72	-0.032068677
68	0xbd99478d	-0.0748435
69	0xbd9d3bc3	-0.07677414
70	0xbd14a961	-0.036294345
71	0xbdb4ee33	-0.088344954
72	0xbcfe1419	-0.031015443
73	0x3d0cc2c5	0.034365434
74	0x3ce14be4	0.027502008
75	0xbcaf8c1a	-0.02142911
76	0x3d11ed3f	0.035626646
77	0xbd120cc0	-0.03565669
78	0xbc840eb1	-0.016120287
79	0x3d73d26f	0.059526857
80	0x3d490b19	0.04908285
81	0xbd86f5f6	-0.06589882
82	0xbd399b94	-0.045314386
83	0xbda3aaa7	-0.07991534
84	0xbd73cb4f	-0.059520062
85	0xbb949ced	-0.0045353086
86	0xbdaab40f	-0.08335125
87	0xbd80d526	-0.06290655
88	0xbdf94e46	-0.121731326
89	0x3d42a556	0.047520958
90	0xbcb45a5c	-0.022015743
91	0xbd542cd0	-0.05180055
92	0xbca43924	-0.020046778
93	0xbd509430	-0.050922573
94	0xbcb4d341	-0.02207339
95	0xbd1e499c	-0.038644418
96	0xbd9d0f0d	-0.07668886
97	0x3bb8889d	0.00563152
98	0x3d9d9580	0.076945305
99	0xbd10da00	-0.03536415
100	0xbbee377e	-0.007269799
101	0xbd3d0a09	-0.04615215
102	0xbd106d4d	-0.035260487
103	0x3b28d0b0	0.0025759153
104	0x3b3acd34	0.0028503658
105	0xbd80478c	-0.062636465
106	0xbd0aa72d	-0.033850837
107	0xbda2871f	-0.079359286
108	0x3d160adf	0.03663146
109	0xbd9ed5fe	-0.077556595
110	0xbc9fcaf2	-0.019505952
111	0x3dcb06cb	0.09913405
112	0xbc687802	-0.014188768
113	0xbd9dfad7	-0.077138595
114	0x3c1915a7	0.009343541
115	0xbd197841	-0.0374682
116	0xbd0cdee8	-0.034392267
117	0xbd42cb55	-0.047557194
118	0xbd42103f	-0.047378775
119	0x3d920535	0.071298994
120	0x3ce1cac1	0.0275625
121	0x3cf320dd	0.029678756
122	0x3db2749d	0.087136485
123	0xbb844e42	-0.0040376494
124	0xbd99aee0	-0.07504058
125	0xbbefef52	-0.0073222304
126	0xbd975e88	-0.07391077
127	0xbd8f1d59	-0.069880195
128	0xbc577ae5	-0.013151859
129	0x3d0be75b	0.034156185
130	0xbc80976a	-0.0156972
131	0x3d5c712d	0.05381887
132	0x3beee381	0.007290304
133	0xbd36df1d	-0.04464637
134	0xbd86c9aa	-0.06581433
135	0x3d088e7a	0.033339
136	0xbc03c900	-0.008043528
137	0xbc42535c	-0.011860695
138	0xbd7a2a07	-0.061075237
139	0x3ca7c636	0.020480257
140	0xbc9aa205	-0.018876085
141	0xbcc39ffa	-0.023879994
142	0x3ccc8e9a	0.024970341
143	0x3c0c67a0	0.008569628
144	0xbd694ead	-0.056959797
145	0xbd20a6bf	-0.03922152
146	0x3d5ccacb	0.053904336
147	0x3afee711	0.0019447525
148	0xbd53e782	-0.051734455
149	0xbd2abce4	-0.041684046
150	0x3d7caddf	0.061689254
151	0xbd9e06f4	-0.0771617
152	0xbd967a65	-0.07347564
153	0x3c21bacb	0.009871195
154	0xbd987bc2	-0.0744548
155	0xbd382787	-0.04495957
156	0xbd23e14f	-0.040009793
157	0xbd7b979f	-0.061423894
158	0xbd42d582	-0.0475669
159	0xbb8781c4	-0.0041353423
160	0x3c2295c4	0.009923402
161	0xbd4c66fc	-0.0499029
162	0xbd9b4869	-0.075821705
163	0xbd1a83a1	-0.037723187
164	0x3d14ea0b	0.036356013
165	0x3ba95a43	0.0051682307
166	0x3a9cdb52	0.0011967218
167	0xbd5e74ad	-0.05431049
168	0xbcdfcaf8	-0.027318463
169	0xbc6b7a83	-0.014372471
170	0xbc87833e	-0.016542073
171	0x3d406f0d	0.046980906
172	0xbd07c15e	-0.033143394
173	0x3d02a438	0.031894892
174	0xbafdb05c	-0.0019354927
175	0x3d3d4f1b	0.04621802
176	0x3cac7e86	0.021056425
177	0x3c471106	0.012150055
178	0xbb3cd161	-0.0028811323
179	0x3cb2bdc1	0.021818997
180	0xbd2a8a34	-0.041635707
181	0xbd9a0065	-0.075196065
182	0xbb9c8669	-0.004776765
183	0xbcf7dfc0	-0.03025806
184	0x3d2cc807	0.04218295
185	0xbdd65cf3	-0.104669474
186	0x3c33a96c	0.010965686
187	0xbc5d6ccc	-0.013514709
188	0xbcd8c9e9	-0.026463466
189	0xbda2c7bb	-0.07948252
190	0x3cae9b46	0.021314275
191	0xbc352955	-0.011057218
192	0xbdd0c7bc	-0.10194346
193	0xbdaba99e	-0.08381961
194	0xbd62cd0a	-0.05537132
195	0xbdaae1d8	-0.083438575
196	0x3c6ecf03	0.014575723
197	0xbd5c3c16	-0.05376824
198	0xbd1aa735	-0.037757117
199	0xbce5f971	-0.028073044
200	0xbcb4d2d6	-0.02207319
201	0xbd7ae722	-0.06125558
202	0xbcb26392	-0.021775994
203	0xbd511725	-0.051047463
204	0xbcff6bdb	-0.03117936
205	0xbd6beace	-0.057596974
206	0xbd05a406	-0.032627128
207	0xbce5d378	-0.028054938
208	0xbbd8274f	-0.006596483
209	0xbd9187b6	-0.07105963
210	0xbcb4fc20	-0.022092879
211	0x3c53826e	0.012909515
212	0x3c8b0152	0.016968403
213	0x3ad72b52	0.0016416109
214	0x3b0da05e	0.002161048
215	0x3cc3fe08	0.023924842
216	0xbbc8664c	-0.0061157104
217	0xbcdb0232	-0.026734445
218	0xbd8c2252	-0.068424836
219	0xbdcc0bce	-0.09963189
220	0xbd3e4191	-0.046449248
221	0xbd04b4f7	-0.032399144
222	0xbd8d3bd1	-0.06896175
223	0xbd3e50cc	-0.046463773
224	0x3bef94e2	0.0073114494
225	0x3ab4532e	0.00137577
226	0xbcab2a6d	-0.020894254
227	0xbd3c2000	-0.045928955
228	0x3c15466b	0.009111027
229	0xbd866b1d	-0.06563399
230	0xbdae037b	-0.084967576
231	0xbd0665ca	-0.032811917
232	0xbd0daf31	-0.034590904
233	0x3ccac4a2	0.024751965
234	0xbd8dc646	-0.06922583
235	0x3bb11732	0.0054043764
236	0x3c99a26f	0.018754212
237	0xbdb90fca	-0.09036215
238	0xbc0d6453	-0.008629876
239	0xbcf90f32	-0.030402754
240	0xbcd980c6	-0.026550662
241	0xbda609e9	-0.08107359
242	0xbc00d045	-0.007862155
243	0xb9b3e5f2	-0.00034312863
244	0xbd2c0762	-0.04199923
245	0xbc3b00b0	-0.011413738
246	0xbccb8162	-0.024841968
247	0xbcfe20f4	-0.031021573
248	0xbdd38065	-0.10327224
249	0xbd960800	-0.07325745
250	0xbd8f19bc	-0.0698733
251	0xbccf6018	-0.025314376
252	0xbd4d9a71	-0.050196115
253	0xbc3dc731	-0.011583135
254	0xbd108917	-0.03528699
255	0xbd85d9f5	-0.06535713

network.3.bias f4 [256]
0	0x3de588bb	0.1120772
1	0xbe59fa7a	-0.21286955
2	0xbdb8f330	-0.09030759
3	0xbe7b4641	-0.24538518
4	0xbe3fe53c	-0.1873979
5	0xbe810b22	-0.25203806
6	0xbe205201	-0.15656282
7	0x3d4d5f98	0.050139993
8	0xbe25f09b	-0.16205065
9	0xbe7144a8	-0.23561347
10	0x3d5a49f0	0.05329317
11	0xbca677d4	-0.02032081
12	0x3d30ff21	0.04321206
13	0x3dc591c7	0.096469454
14	0xbd8c10da	-0.06839152
15	0xbe72e95b	-0.2372183
16	0x3e25e4dc	0.16200584
17	0x3d562bb6	0.05228778
18	0xbe36656f	-0.17812131
19	0xbe44b044	-0.19207865
20	0xbe4ec929	-0.20193924
21	0xbe3a95df	-0.18221234
22	0xbe8177e7	-0.2528679
23	0xbe602059	-0.2188734
24	0xbe767ca1	-0.2407098
25	0xbde97331	-0.11398924
26	0xbe37f7fd	-0.17965694
27	0xbe687afa	-0.22703162
28	0xbe2763e7	-0.16346703
29	0xbe21ccb0	-0.15800738
30	0xbcd819a1	-0.026379408
31	0x3e0a5091	0.13507296
32	0xbd9ba2f1	-0.07599438
33	0xbded7e11	-0.11596311
34	0x3d3ca212	0.046053
35	0x3ddb10b6	0.10696547
36	0x3cdca9f0	0.026936501
37	0xbe1bfbc7	-0.15232764
38	0xbe6744f7	-0.22584902
39	0xbdb39fe7	-0.08770733
40	0xbc235460	-0.009968847
41	0x3d0332dc	0.032030925
42	0xbe540559	-0.20705165
43	0xbe4227f7	-0.18960558
44	0x3da02119	0.07818813
45	0xbe43ab4a	-0.1910831
46	0xbe71ff8c	-0.2363264
47	0xbd8b919b	-0.068148814
48	0xbd78e261	-0.060762767
49	0x3cab4849	0.020908492
50	0x3d99f799	0.07517929
51	0xbdc0ae39	-0.0940823
52	0xbe826d33	-0.25473937
53	0x3cc12ddb	0.023581436
54	0xbc819ccd	-0.015821839
55	0xbc875eb1	-0.016524645
56	0xbe236f41	-0.15960409
57	0x3d0a05d4	0.033696964
58	0xbccad8b8	-0.024761543
59	0xbe27fdd7	-0.16405426
60	0xbe1ef15d	-0.1552176
61	0x3d117e92	0.035521097
62	0xbe04428a	-0.12916008
63	0xbe634837	-0.22195517
64	0x3da4ce34	0.080471426
65	0x3d0a45a6	0.03375783
66	0xbe7246fd	-0.23659892
67	0xbe839716	-0.25701207
68	0xbda508fa	-0.08058353
69	0xbd2f4089	-0.042786155
70	0xbe076e20	-0.13225603
71	0xbd5604f1	-0.052250806
72	0x3dbcf829	0.0922702
73	0x3d19a0dc	0.037506923
74	0xbdabdec6	-0.083921
75	0xbe2ea2fb	-0.1705436
76	0xbe051daf	-0.12999605
77	0x3c65d08b	0.014026771
78	0xbdee0396	-0.11621778
79	0xbe739501	-0.23787309
80	0x3d661fee	0.056182794
81	0xbe7ee92b	-0.24893634
82	0xbd8ef1ce	-0.06979714
83	0xbe62f85a	-0.22165051
84	0x3d827a0d	0.063709356
85	0x3d290573	0.041264962
86	0x3d1db477	0.038502183
87	0xbe5143ac	-0.20435971
88	0xbe8f4722	-0.27983958
89	0xbe3503af	-0.17677186
90	0xbe1e343b	-0.15449612
91	0xbe0d245a	-0.13783398
92	0xbe3b8a03	-0.18314366
93	0xbda864d5	-0.08222357
94	0xbdd6b7be	-0.10484265
95	0xbdaf9026	-0.08572416
96	0xbe35bc0e	-0.17747518
97	0x3dd04922	0.10170199
98	0xbe8a904b	-0.27063212
99	0xbe88f1bd	-0.26746932
100	0xbe24f7ac	-0.16110104
101	0xbda7688b	-0.08174237
102	0xbe5affc0	-0.21386623
103	0x3d448fa4	0.04798855
104	0xbc2678d7	-0.010160646
105	0xbd5e6878	-0.054298848
106	0x3d5223f1	0.051303808
107	0xbe88a3df	-0.26687524
108	0xbe624a2e	-0.2209861
109	0xbd0a6584	-0.03378822
110	0xbe700829	-0.23440613
111	0xbd2c7b9f	-0.04211008
112	0xbe21d964	-0.15805584
113	0xbdad102a	-0.08450349
114	0xbd8ea830	-0.06965673
115	0xbdb5384b	-0.08848628
116	0xbd1bd172	-0.03804154
117	0xbd5744a5	-0.0525557
118	0x3db0066e	0.08594976
119	0xbd88cfc9	-0.06680257
120	0x3cfb7bca	0.030698676
121	0xbcaac957	-0.02084796
122	0xbd9d73e0	-0.07688117
123	0xbd518783	-0.051154625
124	0xbd91f717	-0.07127207
125	0x3cd4c792	0.025974069
126	0xbda6fbd2	-0.081535
127	0xbe27f09d	-0.1640038
128	0x3bad03af	0.00527998
129	0xbd53ce40	-0.051710367
130	0x3cf3b2fe	0.029748436
131	0xbe56817b	-0.2094783
132	0xbe1f9ac0	-0.15586376
133	0xbe36f7f9	-0.17868032
134	0xbdefbc53	-0.11705842
135	0xbe0ada45	-0.13559826
136	0x3dbf3b56	0.09337489
137	0x3d1bed9a	0.03806839
138	0xbe010add	-0.126018
139	0x3d0062ae	0.03134411
140	0xbda96504	-0.0827122
141	0xbe5112e4	-0.20417362
142	0xbd922caa	-0.07137425
143	0x3dbc40bd	0.09192035
144	0x3c094cb4	0.008380104
145	0xbe122919	-0.1427349
146	0xbded00e6	-0.11572437
147	0xbe82ba7c	-0.255329
148	0xbe7c2d61	-0.24626686
149	0xbd137473	-0.035999727
150	0x3d2a0f74	0.041518643
151	0x3d81e0db	0.06341716
152	0x3b93f842	0.0045156786
153	0x3d56e96e	0.05246871
154	0xbe191b18	-0.14951742
155	0xbe62f5a0	-0.22164011
156	0xbe1bdb4a	-0.15220371
157	0x3d22fe60	0.039793372
158	0xbe00a178	-0.12561595
159	0xbad722c9	-0.0016413565
160	0xbe3cb667	-0.18428956
161	0xbde27f46	-0.11059432
162	0x3d1c3132	0.038132854
163	0xbe0ce7cb	-0.13760297
164	0x3cd9e1de	0.02659696
165	0xbe1b71ce	-0.15180132
166	0xbe1f5721	-0.15560581
167	0xbdaad219	-0.08340854
168	0xbe73502a	-0.23761049
169	0xbe1ec149	-0.1550342
170	0x3d8969a8	0.067096055
171	0xbe316bcd	-0.17326279
172	0xbe049430	-0.12947154
173	0xbe1fa2a4	-0.15589386
174	0xbe8308d1	-0.25592664
175	0xbe5d2769	-0.21597065
176	0x3d24904f	0.040176686
177	0xbd81faa3	-0.06346633
178	0xbe31e332	-0.17371824
179	0x3c8d42b9	0.01724373
180	0xbe305a49	-0.17221941
181	0x3dca7dad	0.09887252
182	0xbe5e9759	-0.21737422
183	0xbe70ac97	-0.23503338
184	0xbe2802b5	-0.16407283
185	0xbe480d6a	-0.19536367
186	0xbdac894c	-0.08424625
187	0xbe4757d5	-0.19467099
188	0x3e0cb415	0.13740571
189	0xbe495e3d	-0.19664855
190	0xbe01ed06	-0.12688074
191	0x3d637e4a	0.05554036
192	0xbe4687a1	-0.19387676
193	0xbdec66b8	-0.115430295
194	0xbe0eb046	-0.1393443
195	0xbe1f7ca4	-0.1557489
196	0xbd966272	-0.07342996
197	0xbe0d8faf	-0.13824342
198	0x3d954aae	0.07289635
199	0xbe939299	-0.28822783
200	0xbd94efd8	-0.07272309
201	0x3d4e5bce	0.05038052
202	0xbe70f1fb	-0.23529808
203	0x3d3e09fa	0.046396233
204	0xbde2c995	-0.11073605
205	0xbdda4287	-0.1065722
206	0x3d59e8ef	0.05320066
207	0x3d52ecac	0.05149524
208	0x3deb6931	0.11494673
209	0xbe10b6a0	-0.14132166
210	0xbe43848e	-0.19093534
211	0xbd8fb9f8	-0.070178926
212	0xbe12bcf9	-0.143299
213	0xbe2b7565	-0.16744001
214	0xbc4312b7	-0.011906317
215	0x3da3c1f7	0.0799598
216	0xbde75ed7	-0.11297386
217	0x3cf3be51	0.029753836
218	0xbdaabf60	-0.08337283
219	0x3e0b50f5	0.13605101
220	0xbd475eb9	-0.04867432
221	0xbe01288b	-0.12613122
222	0xbd12eede	-0.035872333
223	0xbe0ea937	-0.13931738
224	0xbe145244	-0.14484507
225	0xbe02d034	-0.12774736
226	0xbda28307	-0.07935148
227	0xbe432a95	-0.19059213
228	0xbe26f269	-0.1630341
229	0x3cdda308	0.027055278
230	0xbe869408	-0.26284814
231	0xbdf43bd6	-0.11925475
232	0xbe0f2322	-0.13978246
233	0x3d98e6b9	0.07465882
234	0xbddf3342	-0.108984485
235	0xbdc609ac	-0.096698135
236	0xbe7abe94	-0.24486762
237	0xbe561d4e	-0.20909616
238	0x3da22689	0.07917506
239	0xbe5abf52	-0.21362045
240	0xbe6b98a0	-0.2300744
241	0x3db25c1e	0.08708976
242	0xbe457af3	-0.19285183
243	0x3d23a079	0.03994796
244	0xbe66f050	-0.2255261
245	0xbe7786cb	-0.24172513
246	0xbd21e571	-0.039525453
247	0xbe7b92c9	-0.24567713
248	0xbe3699f4	-0.17832166
249	0xbe0cf480	-0.13765144
250	0xbd2c00c2	-0.04199291
251	0xbe8893a6	-0.26675147
252	0xbe67abff	-0.22624205
253	0x3d42ce81	0.04756022
254	0xbe0418e6	-0.12900123
255	0x3d8e3124	0.069429666

network.6.weight f4 [128, 256]
0	0xbceef245	-0.029168257
1	0x3b45381f	0.0030093265
2	0x3d8febeb	0.0702742
3	0x3e47381d	0.19455
4	0x3be7de0a	0.0070760297
5	0x3a5d5af9	0.0008444037
6	0xbd5a0efb	-0.053236943
7	0xbd7308cf	-0.059334572
8	0x3d7be963	0.06150187
9	0x3e3bbfbe	0.18334863
10	0x3ce01c74	0.027357318
11	0x3d0b90f3	0.03407378
12	0x3c95a9d1	0.018269451
13	0x3c3e9c56	0.011633953
14	0x3be11aef	0.006869666
15	0xbda807c9	-0.0820461
16	0xbdf7adbb	-0.12093683
17	0xbc71aa21	-0.014750035
18	0xbbd92821	-0.006627098
19	0x3d7660a6	0.060150765
20	0xbd6ae734	-0.0573494
21	0x3e3a9217	0.18219791
22	0x3e52ec23	0.20597892
23	0x3d4d1d64	0.050076857
24	0x3cb581cc	0.022156619
25	0x3cf15abc	0.02946221
26	0x3cefda91	0.029279025
27	0x3cea2d72	0.028586123
28	0x3b54b492	0.003245626
29	0x3d996461	0.07489849
30	0xbcad2bce	-0.021139052
31	0xbdbb6cbd	-0.091515996
32	0x3c0a6923	0.008447918
33	0xbbf83add	-0.0075753764
34	0xbce2e1e9	-0.027695613
35	0x3ca69f65	0.020339677
36	0xbd4fc628	-0.050726086
37	0x3c855588	0.016276136
38	0xbd48c5be	-0.049016707
39	0xbcde0059	-0.027099775
40	0x3cddeb72	0.027089808
41	0xbca7f813	-0.020504033
42	0x3ce6e1c0	0.028183818
43	0x3dab120c	0.083530515
44	0xbd047d90	-0.03234631
45	0x3d39b2a3	0.045336377
46	0x3e7be47f	0.24598883
47	0xbc8711a4	-0.016487904
48	0x3dc0b812	0.094101086
49	0xbcfaf65e	-0.030635055
50	0xb7fae440	-2.990861e-05
51	0xbc67687e	-0.014124034
52	0x3e929eaf	0.2863669
53	0xbcbbb32e	-0.022912588
54	0xbd81ae63	-0.0633209
55	0xbd51bf3f	-0.051207777
56	0x3d016abc	0.03159593
57	0x3cb76d68	0.022391036
58	0x3db8d5aa	0.09025128
59	0x3d143b74	0.03618951
60	0x3c4bf46e	0.012448413
61	0xbcb5bd93	-0.022185123
62	0xbcfa3921	-0.03054482
63	0x3d921ca3	0.07134368
64	0x3ce73b20	0.028226435
65	0x3c6bde6b	0.01439629
66	0xbc282dca	-0.010264823
67	0xbd22b177	-0.039720025
68	0x3db51392	0.08841623
69	0xbc8a7dca	-0.016905684
70	0x3ce0c26f	0.027436463
71	0x3d4ed7e1	0.050498847
72	0xbd4f4ff0	-0.050613344
73	0x3c25d06f	0.010120495
74	0x3dc133ec	0.094337314
75	0x3c706a6d	0.014673811
76	0xbd97f729	-0.07420189
77	0xbd55497e	-0.05207204
78	0x3d08e31c	0.033419713
79	0x3e8e4c32	0.27792507
80	0xbd920ec8	-0.071317255
81	0x3e81479e	0.25249952
82	0x3dcdad26	0.10042791
83	0x3d21dd1c	0.039517507
84	0xbd98c6c2	-0.07459785
85	0xbc9c4154	-0.01907412
86	0x3d8b2501	0.06794167
87	0xbdbf573a	-0.09342809
88	0xbe18eb92	-0.14933613
89	0x3d810a17	0.063007526
90	0xbe0c4cdb	-0.13701193
91	0x3e056554	0.13026935
92	0xbd748c77	-0.05970427
93	0x3acbc6bd	0.00155469
94	0x3d2a74b9	0.04161522
95	0x3d882397	0.06647413
96	0xbd650d40	-0.05592084
97	0x3ccb74d7	0.024835987
98	0x3da806b3	0.08204403
99	0x3e77ad8c	0.24187297
100	0x3e24d724	0.16097695
101	0x3cc03490	0.023462564
102	0xbdaf784c	-0.08567867
103	0xbd8e58b7	-0.06950515
104	0xba32975c	-0.00068127154
105	0x3d095980	0.03353262
106	0x3d9b8952	0.07594551
107	0x3e638065	0.22216947
108	0xbc7ed86a	-0.015554527
109	0x3b9c49dd	0.0047695474
110	0x3e5b3f27	0.2141081
111	0xbb1b3283	-0.002368123
112	0x3d10d42e	0.0353586
113	0xbd848609	-0.06470878
114	0x3d4207f3	0.047370862
115	0xbd1a5c14	-0.03768547
116	0xbd522afa	-0.051310517
117	0x3dac5511	0.08414663
118	0xbda58bcc	-0.08083305
119	0x3c924aad	0.017857874
120	0xbd00bf40	-0.03143239
121	0xbd9b6b9f	-0.075888865
122	0x3d2e9ef4	0.04263206
123	0x3beb65c5	0.0071837627
124	0xbd316e99	-0.043318365
125	0xbb85e6dc	-0.0040863585
126	0xbd196803	-0.03745271
127	0x3de3d5c0	0.11124754
128	0xbcdd2ec9	-0.026999848
129	0x3e13aad4	0.14420635
130	0x3df26123	0.118349336
131	0xbde88aaa	-0.11354573
132	0x3e3d3829	0.18478455
133	0xbd1968f1	-0.037453596
134	0x3cd4d578	0.025980696
135	0xbc2a0c7a	-0.010378951
136	0xbce572a4	-0.028008766
137	0x3c176faa	0.009242931
138	0xbb7a02b9	-0.0038148595
139	0xbc95d7b7	-0.018291337
140	0x3d47ad0c	0.048749015
141	0xbdf75962	-0.12077595
142	0xbd84cffe	-0.06484984
143	0x3d90ab52	0.07063927
144	0xbd26bd8d	-0.040708113
145	0x3d9fcc2e	0.07802616
146	0x3ca425d1	0.020037564
147	0x3e08132c	0.13288563
148	0xbd7a5949	-0.061120305
149	0xbdc9beb6	-0.09850828
150	0xbd240401	-0.04004288
151	0xbd725c75	-0.059170205
152	0xbd8aeebc	-0.06783816
153	0xbca33201	-0.019921305
154	0x3e0cb8f1	0.13742425
155	0x3de11786	0.10990815
156	0xbc346b8d	-0.01101197
157	0x3b826084	0.0039787907
158	0x3d4e124c	0.050310418
159	0x3b45bd90	0.0030172803
160	0x3d8098dd	0.06279156
161	0x3d150d9e	0.03638994
162	0x3c1a129d	0.009403852
163	0x3d5e3095	0.05424555
164	0xbda36d4b	-0.0797983
165	0x3cf34051	0.029693754
166	0x3c175841	0.00923735
167	0x3d0f8613	0.035039973
168	0x3e403725	0.18771036
169	0xbcf4af77	-0.029868824
170	0xbcea44f2	-0.028597329
171	0x3c8fbb81	0.017545464
172	0x3d94d12c	0.07266459
173	0x3b432139	0.002977444
174	0xbd62952b	-0.05531804
175	0x3d245f60	0.04013002
176	0xbd565a59	-0.052332256
177	0x3d6855f1	0.056722585
178	0x3d2740a5	0.040833134
179	0xbd95128d	-0.07278929
180	0x3e19b3cb	0.15009992
181	0x3ce39500	0.02778101
182	0x3e882aa3	0.2659503
183	0x3c9c1688	0.019053712
184	0x3d6935f1	0.05693621
185	0xbd57157a	-0.052510716
186	0xbd883ff6	-0.066528246
187	0xbe146d71	-0.14494874
188	0x3da13423	0.078712724
189	0x3c15e155	0.009147962
190	0x3d5f5045	0.05451991
191	0xbdb5c113	-0.088747166
192	0x3c1c5b52	0.009543257
193	0x3ddf96cb	0.10917433
194	0x3d844f5f	0.06460451
195	0x3d27dd7b	0.040982705
196	0x3da795a8	0.081828415
197	0x3cae782c	0.021297537
198	0xbdc88f1f	-0.09792923
199	0x3e65f1eb	0.22455566
200	0x3deb905d	0.115021445
201	0xbc818012	-0.015808139
202	0x3dd8c5d7	0.1058461
203	0xbd9b7122	-0.07589938
204	0x3dcb7459	0.09934301
205	0x3df6552d	0.12027965
206	0xbc9e09cd	-0.019291783
207	0xbcfd6c39	-0.030935394
208	0xbdc14eb8	-0.094388425
209	0x3c94b6c8	0.018153563
210	0x3acf5721	0.0015818813
211	0x3b2f0c24	0.0026710117
212	0x3dd7207a	0.10504241
213	0x3d83cd38	0.06435627
214	0x3d648d1e	0.055798642
215	0xbcc1d2d4	-0.023660101
216	0x3ce0e397	0.027452273
217	0xbd42c981	-0.04755545
218	0x3d8d39f2	0.06895818
219	0xbb1bd9a1	-0.002378084
220	0xbd4a8bcf	-0.049449738
221	0x3c2ecd0b	0.010669003
222	0xbbfd42cb	-0.0077289096
223	0x3c4dc030	0.012558028
224	0x3e13a1f5	0.1441725
225	0x3df0787c	0.117417306
226	0x3e1d0fe0	0.15338087
227	0x3da3c84e	0.079971895
228	0x3d307e68	0.0430893
229	0xbd78b1c6	-0.060716413
230	0xbc82dd7e	-0.015974756
231	0x3cf5b6e7	0.029994441
232	0x3e854672	0.26030308
233	0x3ccbf660	0.024897754
234	0x3db589c8	0.0886417
235	0x3d7fc296	0.06244143
236	0xbceed2f2	-0.029153321
237	0xbdf41907	-0.11918836
238	0xbdada5b2	-0.084788695
239	0x3ddf072f	0.10890042
240	0xbd8f6954	-0.070025116
241	0xbd10818d	-0.0352798
242	0x3b5e3500	0.0033906102
243	0xbda83d3a	-0.08214803
244	0x3e273fa2	0.16332868
245	0xbdc289de	-0.09498952
246	0xbbdec6ae	-0.006798587
247	0x3e7b4292	0.24537113
248	0x3e11b4f9	0.14229192
249	0x3c56910f	0.013096108
250	0x3d7f7250	0.062364876
251	0xbd87685a	-0.066117
252	0x3e79f3df	0.24409436
253	0xbd9211e4	-0.071323186
254	0x3d25ed7c	0.040509686
255	0x3c155b7e	0.009116052

network.6.bias f4 [128]
0	0xbce034f1	-0.027368994
1	0xbd89b637	-0.06724208
2	0xbd2d77ee	-0.042350702
3	0xbd326147	-0.043549802
4	0x3c77abbb	0.015116627
5	0x3c0cad9f	0.008586316
6	0xbc4b670e	-0.012414707
7	0xbd2968d7	-0.04135975
8	0xbd704a55	-0.05866464
9	0xbe289270	-0.16462111
10	0xbd19f824	-0.03759016
11	0xbd231821	-0.039817933
12	0xbd2ffe20	-0.04296696
13	0xbcb3d49b	-0.021951964
14	0xbd19aeb7	-0.037520137
15	0xbca49e3f	-0.020094989
16	0xbb9d3de4	-0.0047986377
17	0xbcbf3bbf	-0.023343919
18	0xbd85ea3a	-0.06538816
19	0xba79a854	-0.0009523679
20	0xbd9d3cdc	-0.07677624
21	0xbc911558	-0.017710373
22	0xbb8f622b	-0.004375716
23	0xbd6da508	-0.058018714
24	0x3d3bbd22	0.045834668
25	0xbcbe33ed	-0.02321812
26	0xbd8983e0	-0.06714606
27	0xbcdd26da	-0.026996065
28	0xbd1bad19	-0.038006876
29	0x3c2b9b93	0.0104741035
30	0xbba3adf2	-0.004995101
31	0xbc68b27a	-0.014202708
32	0xbd1b5ed9	-0.03793225
33	0xbd83a89e	-0.064286456
34	0xbc4359d2	-0.01192327
35	0x3d10500b	0.035232585
36	0xbc80eac6	-0.015736949
37	0xbc83a26d	-0.016068662
38	0xbc3273f0	-0.0108918995
39	0xbd9f477d	-0.07777307
40	0xbd24b737	-0.04021379
41	0xbc4c0cbd	-0.012454209
42	0x3d3e5cd9	0.046475265
43	0x3d8e02f2	0.069341555
44	0xbd69181d	-0.05690776
45	0xbe35a0a4	-0.17737061
46	0x3c8d88a3	0.017277068
47	0xba82d336	-0.0009981159
48	0x3d0c2896	0.034218393
49	0xbcc50325	-0.024049351
50	0x3d5fa963	0.0546049
51	0x3dc98b2b	0.09840997
52	0x3cf25a0d	0.029583955
53	0xbaff0aad	-0.0019458138
54	0xbd164a30	-0.036691844
55	0xbc1e2e7c	-0.009654637
56	0x3b24ef4e	0.002516705
57	0xba091876	-0.000522978
58	0xbaefeffc	-0.0018305774
59	0xbc360307	-0.01110912
60	0xbd9f48c4	-0.07777551
61	0x3d255535	0.040364463
62	0xbd09357d	-0.033498276
63	0x3d385ac0	0.04500842
64	0xbd0dde46	-0.034635805
65	0xbc498cab	-0.012301604
66	0xbda331d5	-0.07968489
67	0xbb57f0db	-0.0032949958
68	0xbc6f64e6	-0.014611458
69	0xbc031896	-0.008001467
70	0xbcbebd19	-0.023283528
71	0xba82f159	-0.000999014
72	0xbc51b9dd	-0.012800661
73	0x3d09d2ca	0.03364829
74	0x3b830c5e	0.003999277
75	0xbe6443f3	-0.22291546
76	0x3b0c35d6	0.0021394393
77	0x3d550be0	0.052013278
78	0xbbf3c3d3	-0.0074391156
79	0x3accd670	0.0015627872
80	0xbb98eabe	-0.0046666553
81	0xbd45d3ca	-0.04829768
82	0xbccfa610	-0.02534774
83	0xbdc5db34	-0.0966095
84	0xbd4b69e7	-0.049661543
85	0xbd9e5849	-0.07731683
86	0x3a5986fa	0.0008298006
87	0xbdbd3b1c	-0.0923979
88	0xbd4bfa3c	-0.04979919
89	0xbdc86d36	-0.09786455
90	0xbc2c1df2	-0.010505186
91	0xbc9b5572	-0.018961642
92	0xbd8e171f	-0.06938004
93	0xbcbfa184	-0.023392446
94	0xbd4037e2	-0.046928294
95	0xbd465be6	-0.048427485
96	0xbd397b91	-0.045283858
97	0x3d8f7a2c	0.07005724
98	0xbc062867	-0.008188344
99	0x3d89bf1f	0.067259066
100	0x3ccf66ea	0.025317628
101	0x3d7eab4b	0.062175076
102	0x3d4ed8a2	0.050499566
103	0xbdaaf28d	-0.08347044
104	0xbdc92c5f	-0.09822916
105	0xbd0808a9	-0.033211384
106	0x3c06431f	0.008194714
107	0xbcce56a6	-0.025187802
108	0xbc54e6eb	-0.012994508
109	0xbd569ce6	-0.052395724
110	0xbd0a8616	-0.03381928
111	0x3d776306	0.06039717
112	0xbd9e6ff5	-0.07736198
113	0xbc8812a1	-0.016610445
114	0xbd94d51a	-0.072672084
115	0x3ca55b18	0.020185038
116	0xbd57e2a5	-0.05270638
117	0xbc7b0750	-0.015321568
118	0x3c0b0db2	0.008487152
119	0xbcf3abf8	-0.029745087
120	0x3d234ea2	0.039869912
121	0x3c6cf2a0	0.014462143
122	0xbdb0cbc3	-0.086326145
123	0xbd12790e	-0.035759978
124	0xbd235a7d	-0.03988122
125	0x3def041e	0.11670707
126	0xbd05a937	-0.03263208
127	0x3cf22058	0.029556438

network.9.weight f4 [1, 128]
0	0x3ee99eed	0.45629063
1	0xbe3a76ff	-0.18209456
2	0x3eefa1a0	0.46802998
3	0xbe03990e	-0.12851354
4	0x3edc18f4	0.42987788
5	0xbd96ecd3	-0.073693894
6	0x3ef1f0e4	0.47254097
7	0x3ee552c6	0.44789714
8	0xbe0e1c46	-0.13877973
9	0xbe372619	-0.17885627
10	0xbe85e897	-0.26154014
11	0x3f071fb6	0.5278276
12	0xbe6ad9d3	-0.22934656
13	0xbe048c98	-0.12944257
14	0xbdb7f927	-0.08983069
15	0xbde29409	-0.11063392
16	0xbdb660e4	-0.08905199
17	0xbda40ac1	-0.08009864
18	0x3eeac3f0	0.45852613
19	0xbdc50d65	-0.096216954
20	0x3f066f43	0.5251352
21	0x3eef2aa4	0.4671222
22	0xbd9ab318	-0.07553691
23	0xbdb1a8bb	-0.08674761
24	0x3f042a91	0.5162745
25	0x3ef8ac42	0.48568922
26	0x3efaeadb	0.49007306
27	0x3efa48dd	0.48883715
28	0xbdc076f9	-0.09397692
29	0x3f065ba4	0.5248358
30	0x3ef82b7d	0.4847068
31	0x3ef59b52	0.47970062
32	0xbde8a905	-0.11360363
33	0xbe8c3891	-0.27386907
34	0xbdb5743e	-0.08860062
35	0x3ef92ea7	0.48668405
36	0x3f05640e	0.52105796
37	0xbda80d9a	-0.08205719
38	0xbdaaddbf	-0.08343076
39	0xbdc6ab3e	-0.097006306
40	0x3f112438	0.5669589
41	0x3ef5cfcf	0.48010108
42	0x3f0e90b2	0.5568954
43	0x3f0f270c	0.55918956
44	0x3f01f81a	0.507692
45	0xbe452952	-0.19254044
46	0x3f0cf885	0.5506671
47	0x3f0e5475	0.5559762
48	0xbdae8a3b	-0.08522459
49	0xbdc92ddd	-0.09823201
50	0x3f12c45d	0.57330877
51	0x3f1a00d3	0.6015751
52	0xbd9a3f9d	-0.075316645
53	0xbde5b6bf	-0.11216497
54	0x3f05dc2a	0.5228907
55	0x3f08534b	0.53252095
56	0x3ee5a30f	0.44850966
57	0x3f0a6e8c	0.5407493
58	0x3efc0a92	0.49226815
59	0x3f237d0b	0.63862675
60	0xbe3c4bfc	-0.1838836
61	0x3f043222	0.51638997
62	0x3f065aea	0.52482474
63	0x3f1f2999	0.6217285
64	0x3f029283	0.5100481
65	0x3f05d372	0.52275765
66	0xbdc42d09	-0.09578902
67	0x3f112168	0.566916
68	0x3f1499a2	0.58046925
69	0x3f12042c	0.57037616
70	0xbda77fef	-0.08178698
71	0x3ef8da3b	0.48603997
72	0xbda11344	-0.07865003
73	0x3ef7a646	0.48369044
74	0xbdafa6be	-0.085767254
75	0xbe39b971	-0.18137147
76	0xbda8e870	-0.08247459
77	0x3f05a570	0.5220556
78	0xbda06da6	-0.07833414
79	0x3efeefbb	0.49792275
80	0x3f076d3d	0.5290106
81	0xbd8d6627	-0.0690425
82	0xbdf52948	-0.119707644
83	0xbdb0efb7	-0.08639472
84	0xbe87c61f	-0.26518342
85	0xbe424924	-0.18973213
86	0x3efce617	0.49394295
87	0xbe028e9b	-0.12749712
88	0x3f05ba59	0.5223747
89	0x3ef36ed2	0.47545487
90	0xbdd1f182	-0.10251142
91	0xbd862cc0	-0.06551504
92	0xbdf5ca59	-0.120014854
93	0xbe7d4904	-0.24734885
94	0x3efaaa31	0.4895797
95	0xbdd0f839	-0.10203595
96	0x3f08cb09	0.5343481
97	0x3f0dce28	0.55392694
98	0xbdab2702	-0.083570495
99	0x3f08806b	0.5332095
100	0x3f0757ce	0.52868354
101	0x3ecf100e	0.40441936
102	0x3f29bf87	0.6630787
103	0x3efe35ed	0.49650517
104	0xbe8d368f	-0.27580687
105	0xbdb744f9	-0.08948702
106	0x3f048b9a	0.51775515
107	0x3f046c7e	0.51728046
108	0x3ef534c4	0.4789182
109	0x3ed6bcc9	0.41940907
110	0xbde29603	-0.11063769
111	0x3f1c77e3	0.6112043
112	0xbe3b36de	-0.18282649
113	0xbdabcbee	-0.08388506
114	0xbe274445	-0.16334637
115	0xbda9ea5e	-0.08296655
116	0x3eeb90cf	0.46008918
117	0xbdda697c	-0.10664651
118	0xbe02e8d8	-0.12784135
119	0x3f026a21	0.5094319
120	0x3f0d20e3	0.55128306
121	0x3ef0b7fc	0.4701537
122	0x3f106235	0.5639985
123	0x3eef6bda	0.46761972
124	0x3ef4af70	0.47790098
125	0x3ed7a1c0	0.42115593
126	0x3ef5ea20	0.48030186
127	0xbdac4206	-0.084110305
