models/retrained_20241114_141308/generator.pth (torch, 485191 bytes, 20 tensors)

network.0.weight f4 [128, 100]
-0.083679594 0.038885444 0.07166826 -0.032592867 -0.013740195 0.041428797 -0.07252561 -0.081044324
-0.06208212 0.02279535 -0.02119506 -0.05122322 -0.06285192 -0.0044794413 -0.03948642 -0.04518834
-0.0805506 -0.06213036 0.066099875 -0.04048631 -0.045840908 -0.030511716 -0.006957611 -0.057860557
0.042938475 -0.0150805935 -0.0696741 -0.07456713 -0.025227675 -0.07529421 -0.10611159 -0.014606766
-0.026676357 0.105413 -0.008505325 -0.049049903 -0.047482785 0.032787643 -0.049431756 -0.10131139
0.026072541 0.07413725 -0.0890674 -0.04331671 0.0048404476 0.085329264 0.03375857 -0.0006289333
-0.06254894 0.1076429 0.026954034 0.011188413 -0.054652225 -0.09849654 -0.051519077 0.02832289
0.0015767313 0.086804815 -0.13613296 0.12788509 -0.029253364 -0.0507893 -0.042247996 -0.0428768
-0.057827547 0.053579863 0.09150859 0.08160409 0.005079892 0.091245145 -0.13981806 -0.038436104
0.07936139 -0.06363229 0.018869624 0.12456151 -0.055895023 -0.013935642 0.06311872 0.059225712
-0.018139979 0.13039036 -0.015277754 -0.017205287 -0.09195802 0.071668684 -0.011507526 0.11663379
0.0031440032 0.00834954 -0.11286627 0.116893485 -0.015920542 -0.040641576 0.054810338 -0.04718555
0.017426576 -0.09232037 0.05677491 0.081315465 0.058399457 -0.01804158 -0.071929134 -0.022890076
0.020536888 -0.047085837 0.047881257 -0.094301976 0.047708813 -0.007930481 0.10716922 -0.11319182
0.027631236 0.10639794 -0.004807221 -0.045700226 -0.052466515 0.06630238 -0.0035052362 -0.016827233
-0.062387284 -0.0656683 -0.0550813 -0.050094143 0.052307785 0.048633907 -0.009927184 0.0013386518
0.0945246 0.06977288 0.08104032 -0.07970091 0.10060478 0.040590588 0.0028438997 0.060756076
-0.07686583 -0.029626433 0.087907635 -0.0008133638 0.03860623 -0.085576095 0.0031773762 -0.04039892
0.077018455 -0.11678357 0.011921532 -0.097594395 0.10046018 0.11358605 0.07385163 0.010610103
0.06696709 -0.037567504 0.07930511 0.04454857 -0.07774954 0.115971215 -0.009605629 0.07069269
-0.05225174 -0.0023018925 -0.09981694 -0.0017668591 0.028028151 -0.09734621 0.0082254745 -0.039077234
0.04158832 0.045591474 0.14071883 -0.16276988 -0.046404585 0.055542443 -0.0008176071 0.07026372
0.018902753 -0.081635065 0.046640627 -0.024439797 0.045054685 0.028303262 0.096297175 -0.005822805
-0.05825534 -0.09838205 -0.0018430318 0.053534172 -0.06536166 -0.08970439 -0.041763213 0.04353036
-0.07510452 0.09132568 -0.10068822 -0.036473867 0.030642387 0.106750146 0.037590224 -0.035287127
-0.012699657 0.05246862 -0.017032737 -0.10875758 -0.036432996 -0.012286365 0.057366937 0.073510945
-0.0770235 0.009337184 -0.03321463 0.0324346 0.095196016 0.090127096 -0.0027204826 0.031013723
0.010674593 -0.13475047 -0.0040192287 -0.0070456536 -0.08722457 0.021562766 -0.09059253 0.11040641
0.09727799 -0.07196832 -0.16300157 -0.10239592 0.10776337 0.0057526724 0.04948803 -0.057012994
0.010924363 -0.02409747 -0.10053397 0.049342584 0.033966858 -0.11247274 -0.034370225 0.05561353
0.049852688 -0.040540505 -0.02977528 -0.09203748 0.012448811 -0.08050548 -0.08958524 0.11677973
0.055193804 0.018345572 -0.03602181 -0.05818665 -0.033922613 -0.03628001 0.07520678 0.11169937
00000000: 3560 abbd 5846 1f3d cfc6 923d 1980 05bd
00000010: 8e1e 61bc 3eb1 293d 4f88 94bd 91fa a5bd
00000020: d249 7ebd 50bd ba3c 43a1 adbc 70cf 51bd
00000030: 82b8 80bd 47c8 92bb 83bc 21bd 6917 39bd
00000040: b7f7 a4bd 687c 7ebd 5f5f 873d f9d4 25bd
00000050: adc3 3bbd b5f3 f9bc acfc e3bb 31ff 6cbd
00000060: 41e0 2f3d 9814 77bc 4bb1 8ebd a7b6 98bd
00000070: 45aa cebc da33 9abd 0951 d9bd 3851 6fbc
00000080: 6088 dabc c5e2 d73d eb59 0bbc 8de8 48bd
00000090: 4f7d 42bd 564c 063d f478 4abd 597c cfbd
000000a0: 1596 d53c 45d5 973d f868 b6bd dd6c 31bd
000000b0: 9e9c 9e3b 1cc1 ae3d 6d46 0a3d 00df 24ba
000000c0: a919 80bd e173 dc3d b5ce dc3c 9b4f 373c
000000d0: 03db 5fbd 8eb8 c9bd ab05 53bd 6805 e83c
000000e0: 53aa ce3a b9c6 b13d 7066 0bbe 4ff4 023e
000000f0: c0a4 efbc 7108 50bd 3c0c 2dbd 959f 2fbd
00000100: 94dc 6cbd 8f76 5b3d db68 bb3d 0c20 a73d
00000110: 3975 a63b bcde ba3d 772c 0fbe 2d6f 1dbd
00000120: 3988 a23d a551 82bd 7894 9a3c 1b1a ff3d
00000130: 2ef2 64bd 5252 64bc 6344 813d a996 723d
00000140: 4b9a 94bc 0d85 053e 8b4f 7abc 1af2 8cbc
00000150: 7d54 bcbd 08c7 923d 108a 3cbc b2dd ee3d
00000160: 9f0b 4e3b 82cc 083c 6e26 e7bd da65 ef3d
00000170: cc6b 82bc c877 26bd ce80 603d a345 41bd
00000180: 2ec2 8e3c 7612 bdbd cf8c 683d b988 a63d
00000190: 4534 6f3d f0cb 93bc 954f 93bd f883 bbbc
000001a0: fa3c a83c 14dd 40bd 231f 443d 6521 c1bd
000001b0: 516a 433d d9ee 01bc 897b db3d 1dd1 e7bd
000001c0: e75a e23c 2ae7 d93d e485 9dbb 2930 3bbd
000001d0: 21e7 56bd 8bc9 873d 1bb8 65bb 44d9 89bc
000001e0: cf89 7fbd 1a7d 86bd ee9c 61bd 842f 4dbd
000001f0: b040 563d 5934 473d a1a5 22bc b375 af3a
00000200: 1d96 c13d 15e5 8e3d 78f8 a53d 3b3a a3bd
00000210: e109 ce3d 5142 263d b860 3a3b 5ddb 783d
00000220: d56b 9dbd 22b3 f2bc eb08 b43d ec37 55ba
00000230: 9121 1e3d 8542 afbd 873b 503b 5779 25bd
00000240: dabb 9d3d 392c efbd 8852 433c 92df c7bd
00000250: 11be cd3d ce9f e83d 863f 973d ffd5 2d3c
00000260: 0b26 893d 62e0 19bd b86a a23d 9078 363d
00000270: 273b 9fbd 5182 ed3d ee60 1dbc 54c7 903d
00000280: ec05 56bd 59db 16bb d36c ccbd f495 e7ba
00000290: 4b9b e53c 735d c7bd 24c4 063c 730f 20bd
000002a0: 8458 2a3d 20be 3a3d 9918 103e 26ad 26be
000002b0: bc12 3ebd 7980 633d af54 56ba 6de6 8f3d
000002c0: f2d9 9a3c 4930 a7bd 3e0a 3f3d f835 c8bc
000002d0: 438b 383d 3edc e73c 7437 c53d 3bcd bebb
000002e0: 279d 6ebd 877c c9bd e391 f1ba a646 5b3d
000002f0: 56dc 85bd efb6 b7bd e70f 2bbd e44c 323d
00000300: 66d0 99bd f508 bb3d a035 cebd 9f65 15bd
00000310: be05 fb3c d29f da3d 35f8 193d 3c89 10bd
00000320: 3912 50bc 56e9 563d 3d88 8bbc 4bbc debd
00000330: c43a 15bd c04c 49bc 98f9 6a3d e88c 963d
00000340: 7fbe 9dbd fdfa 183c 100c 08bd 25da 043d
00000350: 21f6 c23d 8e94 b83d 204a 32bb 7e10 fe3c
00000360: 7de4 2e3c 07fc 09be bcb3 83bb 3adf e6bb
00000370: cca2 b2bd 66a4 b03c 9488 b9bd c21c e23d
00000380: af39 c73d 2064 93bd e2e9 26be f4b4 d1bd
00000390: 0bb3 dc3d ea80 bc3b f6b3 4a3d 7586 69bd
000003a0: 19fc 323c 0f68 c5bc c1e4 cdbd 731b 4a3d
000003b0: d520 0b3d 1c58 e6bd cbc7 0cbd 03cb 633d
000003c0: 5532 4c3d cd0d 26bd 4aeb f3bc 257e bcbd
000003d0: 19f6 4b3c 0fe0 a4bd 7778 b7bd 362a ef3d
000003e0: e612 623d 7449 963c 9b8b 13bd 2055 6ebd
000003f0: 70f2 0abd 599a 14bd 0306 9a3d a4c2 e43d

network.0.bias f4 [128]
-0.090690225 0.10576627 0.058763985 0.017845789 0.034957312 0.050234746 0.08857705 0.098358154
0.031309105 -0.0116458945 -0.09810585 -0.004517146 0.022399023 0.12501788 0.04067005 0.07399484
-0.06533804 -0.005640322 -0.0067906175 0.03781535 -0.029731471 -0.049221072 0.040428385 -0.16313368
0.014053537 -0.056737006 -0.057932556 -0.031519488 -0.021735806 -0.12396381 -0.009208857 -0.11031111
-0.042096507 0.049086466 0.07171057 0.12309491 -0.015393681 -0.07147493 0.12699905 -0.096568316
-0.04469792 -0.036262803 -0.081538856 -0.0035469555 -0.0012078763 -0.014382426 0.03666245 -0.013651749
-0.06943452 0.034299057 0.072138175 0.10569525 0.04126309 -0.15473029 0.06701034 0.0108170165
-0.009571226 -0.021669481 0.0069021145 0.019567166 0.095698655 -0.057813313 0.063297726 -0.10922639
-0.011001788 -0.090026 -0.04339387 -0.02266624 -0.09076463 0.009189574 0.112610735 -0.03154032
0.04945659 -0.10042494 0.069919944 -0.06275528 0.0131115895 -0.050522227 -0.11270103 -0.093088284
-0.070963696 0.08381985 0.012176492 -0.013330312 0.04867669 0.032172006 0.092805125 -0.012192085
-0.011610369 -0.061927453 -0.050310135 0.079660654 0.056209747 -0.060394567 -0.08421991 0.00058216887
-0.02508282 -0.031207263 -0.051392276 0.071987465 -0.013811252 -0.07615914 -0.031880576 -0.07678802
-0.013134327 0.05901947 -0.08248662 -0.06420657 -0.03178439 -0.15765905 -0.018547295 -0.0015256971
-0.07995297 -0.094468415 -0.077513695 0.0800668 -0.033616398 0.039874844 0.05023895 0.009811933
0.027586704 -0.07984085 -0.09697913 0.011669975 0.115250096 0.11788096 0.011677486 0.02023644
00000000: ccbb b9bd fc9b d83d 81b2 703d 5531 923c
00000010: 662f 0f3d f3c2 4d3d e267 b53d 0070 c93d
00000020: fa3d 003d 6cce 3ebc b8eb c8bd 9104 94bb
00000030: 287e b73c b004 003e a395 263d 9b8a 973d
00000040: f3cf 85bd 73d2 b8bb d483 debb 45e4 1a3d
00000050: 6a8f f3bc 099c 49bd 3c98 253d 840c 27be
00000060: ce40 663c 1065 68bd b04a 6dbd 941a 01bd
00000070: 4a0f b2bc bde0 fdbd bfe0 16bc cbea e1bd
00000080: 636d 2cbd e40e 493d fedc 923d 2f19 fc3d
00000090: c735 7cbc 7361 92bd 0a0c 023e 9cc5 c5bd
000000a0: 2b15 37bd 4e88 14bd d8fd a6bd 0a74 68bb
000000b0: 9a51 9eba 44a4 6bbc 5d2b 163d 96ab 5fbc
000000c0: b033 8ebd 2b7d 0c3d 2ebd 933d c076 d83d
000000d0: 7c03 293d 9e71 1ebe b83c 893d db39 313c
000000e0: a2d0 1cbc 3284 b1bc 222b e23b 524b a03c
000000f0: a8fd c33d a7cd 6cbd 3da2 813d 16b2 dfbd
00000100: d840 34bc 8d5f b8bd c5bd 31bd 8dae b9bc
00000110: cee2 b9bd de8f 163c 75a0 e63d 6c30 01bd
00000120: fe92 4a3d 97ab cdbd 3032 8f3d d785 80bd
00000130: fed1 563c 65f0 4ebd cccf e6bd 12a5 bebd
00000140: 6a55 91bd bea9 ab3d e97f 473c 6267 5abc
00000150: 3561 473d cbc6 033d 9d10 be3d 50c1 47bc
00000160: 6b39 3ebc a4a7 7dbd 0012 4ebd 2025 a33d
00000170: 313c 663d 4b60 77bd 7d7b acbd b19c 183a
00000180: 7c7a cdbc 60a6 ffbc b580 52bd 2a6e 933d
00000190: 9748 62bc 53f9 9bbd 3595 02bd 0a43 9dbd
000001a0: 5c31 57bc 66be 713d bfee a8bd bc7e 83bd
000001b0: 5930 02bd 6071 21be 7ff0 97bc e6f9 c7ba
000001c0: 62be a3bd a878 c1bd 80bf 9ebd 10fa a33d
000001d0: 59b1 09bd ce53 233d 5bc7 4d3d 3bc2 203c
000001e0: 83fd e13c 9983 a3bd fe9c c6bd 6c33 3f3c
000001f0: 3e08 ec3d 936b f13d ed52 3f3c e4c6 a53c

network.2.weight f4 [128]
0.9301361 1.0111495 0.9551876 0.9844634 0.9208984 1.0188485 1.0415325 1.0293566
0.93634784 0.97114617 0.9571033 0.9723203 0.94908583 0.9987924 0.9895654 0.98607665
0.99422735 1.004674 0.96744347 1.048053 0.96359986 0.93923396 0.9384547 0.9584266
0.99562144 1.0029889 0.99891454 0.94305307 0.93542564 1.0511258 1.0110348 0.9151693
0.9745841 1.0059322 1.0370777 1.0127774 0.9701224 1.0268317 0.9194472 0.99255437
0.9983858 0.963826 0.94811904 0.96112734 1.019197 0.94489086 1.170022 1.0061395
0.9775324 1.0207071 0.9945558 1.0091963 1.0533117 0.9938114 0.99852514 1.0706736
1.0127358 1.0111135 1.0334828 0.9901435 1.0070331 0.9585642 1.0836841 0.91403586
0.98950225 1.0396696 0.9476726 0.9985467 0.9985725 0.9530004 0.97629434 0.98618615
1.0248872 0.9659335 0.93003476 0.9608818 0.91412365 1.0355208 1.0005472 1.0501161
0.9336236 1.0078386 0.9743888 0.9808104 1.007311 1.0201045 0.97007644 0.9674334
0.9653414 1.0791936 0.9748253 1.0325629 0.9970223 0.9832141 0.97143227 0.9981471
0.9385818 1.175851 1.0161802 0.9742213 1.05537 1.1479598 0.92951155 0.9652711
0.90650976 1.0128192 0.9206724 1.0183516 1.0869634 1.0548803 0.9839829 0.9896303
0.94643915 0.9527558 1.0526055 1.0244592 0.99047357 0.94683915 0.964575 1.0054303
0.97509277 0.98197573 1.0166041 1.0860425 1.0071834 0.9864773 1.0449126 1.0036623
00000000: 661d 6e3f 596d 813f 2d87 743f cb05 7c3f
00000010: ffbf 6b3f a169 823f f050 853f f5c1 833f
00000020: 7eb4 6f3f 099d 783f b904 753f fce9 783f
00000030: 4af7 723f dcb0 7f3f 2854 7d3f 856f 7c3f
00000040: af85 7e3f 2899 803f 60aa 773f 9a26 863f
00000050: 7bae 763f a371 703f 913e 703f 725b 753f
00000060: 0ce1 7e3f f161 803f ddb8 7f3f ed6b 713f
00000070: 0e78 6f3f 4a8b 863f 9769 813f 8948 6a3f
00000080: 587e 793f 63c2 803f f6be 843f b1a2 813f
00000090: f159 783f 396f 833f e460 6b3f 0b18 7e3f
000000a0: 3696 7f3f 4dbd 763f eeb7 723f 710c 763f
000000b0: 0c75 823f 5ee4 713f 48c3 953f 2ec9 803f
000000c0: 903f 7a3f 88a6 823f 359b 7e3f 582d 813f
000000d0: ebd2 863f 6d6a 7e3f 589f 7f3f d50b 893f
000000e0: 54a1 813f 2b6c 813f 2a49 843f 0b7a 7d3f
000000f0: 76e6 803f 7764 753f 29b6 8a3f 41fe 693f
00000100: 0550 7d3f e513 853f ac9a 723f c2a0 7f3f
00000110: 73a2 7f3f d6f7 733f 6dee 793f b276 7c3f
00000120: 812f 833f 6b47 773f c216 6e3f 5afc 753f
00000130: 0204 6a3f f28b 843f ee11 803f 346a 863f
00000140: f501 6f3f db00 813f 8b71 793f 6416 7b3f
00000150: 91ef 803f c992 823f ee56 783f b7a9 773f
00000160: 9d20 773f 0423 8a3f 278e 793f 052b 843f
00000170: da3c 7f3f ebb3 7b3f c9af 783f 9186 7f3f
00000180: e646 703f 4982 963f 3112 823f 9166 793f
00000190: 5d16 873f 59f0 923f 78f4 6d3f 021c 773f
000001a0: 0611 683f 0fa4 813f 30b1 6b3f 5859 823f
000001b0: 9e21 8b3f 5106 873f 4ee6 7b3f 6958 7d3f
000001c0: d649 723f cee7 733f c7bb 863f 7b21 833f
000001d0: ad8f 7d3f 0d64 723f 63ee 763f f1b1 803f
000001e0: ae9f 793f c362 7b3f 1520 823f 7103 8b3f
000001f0: 63eb 803f c789 7c3f b2bf 853f 0278 803f

network.2.bias f4 [128]
-0.048777465 0.10469369 -0.0977679 -0.18093786 -0.023283541 -0.34059367 -0.20697778 0.16609134
0.14357446 -0.14968325 0.011987299 -0.0170511 -0.0062257685 0.26435086 0.06367551 -0.115846045
-0.004851859 0.024210764 0.2565184 -0.30311826 -0.16537458 -0.1489992 -0.11597228 -0.15031266
0.14209524 -0.07299326 0.013516403 -0.017456887 -0.16777225 -0.123501584 -0.2223982 0.088376746
-0.12668107 -0.12844256 0.14421569 0.02556162 0.33531806 -0.13671617 0.0030368145 -0.045231786
-0.3104933 0.06528953 -0.21506777 -0.014562897 -0.02484962 -0.18598437 0.44287083 -0.2279566
-0.27778947 0.0056008995 -0.22548218 -0.13370661 -0.21728642 -0.19779843 -0.061131105 0.24570769
-0.13120028 -0.21521656 0.106813185 -0.11241471 0.15592797 -0.0677624 0.19126317 0.13412201
0.08914813 -0.204867 0.030349368 -0.344593 -0.13436316 -0.038717188 0.22656938 0.32880673
-0.21173553 0.21249205 0.043457296 0.007810208 -0.22593294 -0.17661178 0.047791664 -0.18506874
-0.27499184 0.015128534 0.22732918 0.1647166 -0.18236743 0.018722707 0.041252468 -0.010156761
0.026013123 -0.12494222 -0.16376498 -0.04643105 0.30310056 -0.06374021 0.21675873 0.05409659
-0.01700431 0.09008922 -0.07720876 -0.2713766 -0.32587314 -0.34628808 -0.081612065 -0.16841866
0.2283201 0.335333 0.05653976 -0.19535398 -0.24217111 -0.14118178 0.14133328 0.18246283
0.08227189 -0.20000373 -0.19679613 -0.21725337 -0.023571715 -0.03604414 -0.07460169 -0.1385038
-0.23685518 0.24934311 -0.17053866 -0.25565457 0.34523535 -0.1343637 -0.17330778 -0.113705434
00000000: e1ca 47bd a569 d63d 893a c8bd c647 39be
00000010: 20bd bebc 4b62 aebe fcf1 53be d913 2a3e
00000020: 2f05 133e 9146 19be 6066 443c c0ae 8bbc
00000030: 8801 ccbb ff58 873e 4e68 823d b140 edbd
00000040: 58fc 9ebb a755 c63c 6156 833e 5132 9bbe
00000050: f457 29be 3f93 18be e082 edbd 90eb 19be
00000060: 6a81 113e 7e7d 95bd e773 5d3c bf01 8fbc
00000070: 7dcc 2bbe 66ee fcbd 5bbc 63be defe b43d
00000080: afb8 01be 7286 03be 47ad 133e 9a66 d13c
00000090: cfae ab3e 53ff 0bbe 4b05 473b f744 39bd
000000a0: faf8 9ebe 84b6 853d ba3a 5cbe 3899 6ebc
000000b0: 6e91 cbbc b072 3ebe f7bf e23e 746d 69be
000000c0: 6c3a 8ebe c087 b73b cde4 66be 63ea 08be
000000d0: 5580 5ebe ac8b 4abe 9c64 7abd cc9a 7b3e
000000e0: 5e59 06be bb61 5cbe dfc0 da3d af39 e6bd
000000f0: 95ab 1f3e 03c7 8abd 7eda 433e 4857 093e
00000100: 4b93 b63d a8c8 51be 3d9f f83c 7e6e b0be
00000110: 7f96 09be ea95 1ebd ce01 683e 5b59 a83e
00000120: 33d1 58be 8497 593e 4700 323d c6ec ff3b
00000130: f75a 67be b8d9 34be 31c1 433d a982 3dbe
00000140: bbcb 8cbe acdd 773c fbc8 683e 78ab 283e
00000150: 87be 3abe 5d60 993c 59f8 283d 8b68 26bc
00000160: 7919 d53c b5e1 ffbd 02b2 27be 7c2e 3ebd
00000170: ff2f 9b3e 3a8a 82bd 00f6 5d3e 6394 5d3d
00000180: 9f4c 8bbc b280 b83d a01f 9ebd e0f1 8abe
00000190: d8d8 a6be ac4c b1be 3a24 a7bd f175 2cbe
000001a0: bfcc 693e c4b0 ab3e 3c96 673d e00a 48be
000001b0: b4fb 77be f591 10be acb9 103e 89d7 3a3e
000001c0: 2a7e a83d c7cd 4cbe ed84 49be ab77 5ebe
000001d0: 7819 c1bc 05a3 13bd c5c8 98bd f1d3 0dbe
000001e0: 2a8a 72be cd53 7f3e b0a1 2ebe 28e5 82be
000001f0: b0c2 b03e a396 09be 9877 31be 65de e8bd

network.2.running_mean f4 [128]
0.16482787 0.28030106 0.22378905 0.23658958 0.23646154 0.26199195 0.23639607 0.26844585
0.20641243 0.21161333 0.17456944 0.19582163 0.23513657 0.23238686 0.2569812 0.2643402
0.1705455 0.17762128 0.21320692 0.25171626 0.20670044 0.15743302 0.23432463 0.10845599
0.20525517 0.16745389 0.19833215 0.1911067 0.19194804 0.12347935 0.2243005 0.13145328
0.151707 0.23885216 0.26239476 0.27614737 0.1660124 0.18008839 0.31741738 0.16102472
0.19205604 0.19457369 0.18052661 0.21798766 0.18337758 0.20560789 0.2310067 0.19937086
0.19638097 0.24062274 0.2480053 0.31372267 0.23050395 0.12287362 0.25318325 0.23138419
0.20604365 0.22034279 0.19484 0.20523731 0.2636074 0.15181632 0.2159386 0.14489575
0.20808354 0.16490613 0.19607174 0.19470783 0.14492288 0.22032818 0.27743685 0.15400237
0.2642277 0.16052401 0.2684365 0.17363308 0.24862088 0.17539482 0.07312957 0.1739767
0.16599622 0.24722183 0.21492186 0.16031678 0.26658055 0.19295056 0.2252833 0.1959434
0.20090485 0.14553021 0.1839726 0.2258779 0.22228213 0.1677929 0.17123818 0.22596148
0.1801212 0.18913603 0.18533419 0.2649323 0.20953229 0.15741767 0.14950562 0.14573994
0.16564068 0.21528456 0.13677953 0.16140778 0.1859684 0.083226085 0.17814659 0.19715108
0.17218842 0.15764835 0.15023306 0.28966272 0.14154503 0.22809762 0.2563623 0.23125476
0.23701048 0.18745545 0.16561033 0.2388187 0.28789032 0.28318766 0.22723311 0.19508253
00000000: a3c8 283e 9f83 8f3e f528 653e 8a44 723e
00000010: f922 723e cf23 863e d011 723e bc71 893e
00000020: c85d 533e 2ab1 583e 55c2 323e 7785 483e
00000030: a4c7 703e d2f6 6d3e 0a93 833e 9957 873e
00000040: 7ba3 2e3e 5ae2 353e ea52 5a3e f4e0 803e
00000050: 48a9 533e 1f36 213e ccf2 6f3e 2d1e de3d
00000060: 692e 523e 0879 2b3e 9517 4b3e 7ab1 433e
00000070: 078e 443e bee2 fc3d 08af 653e b09b 063e
00000080: 1459 1b3e a995 743e 9b58 863e 3063 8d3e
00000090: 28ff 293e 1769 383e 8884 a23e aae3 243e
000000a0: 57aa 443e 533e 473e f8db 383e 2838 5f3e
000000b0: 55c7 3b3e e08a 523e 058d 6c3e e027 4c3e
000000c0: 1818 493e cf65 763e 1af5 7d3e 42a0 a03e
000000d0: 3a09 6c3e 2aa5 fb3d 3ca1 813e faef 6c3e
000000e0: 1bfd 523e 8aa1 613e 2384 473e bb29 523e
000000f0: 8df7 863e bd75 1b3e 021f 5d3e 8d5f 143e
00000100: da13 553e 27dd 283e 08c7 483e 7d61 473e
00000110: aa66 143e b69d 613e 340c 8e3e ccb2 1d3e
00000120: da48 873e 6860 243e 8270 893e dfcc 313e
00000130: 7996 7e3e b39a 333e f5c4 953d f326 323e
00000140: eafa 293e b827 7d3e 7a14 5c3e 152a 243e
00000150: 3f7d 883e d594 453e aab0 663e 63a5 483e
00000160: 00ba 4d3e df05 153e 5063 3c3e 894c 673e
00000170: ed9d 633e e7d1 2b3e 1059 2f3e 7262 673e
00000180: b171 383e e0ac 413e 3fc8 3d3e 35a5 873e
00000190: a28f 563e 1932 213e 0018 193e da3c 153e
000001a0: b69d 293e 8e73 5c3e ef0f 0c3e 1548 253e
000001b0: 806e 3e3e 7072 aa3d 0f6c 363e f9e1 493e
000001c0: 2952 303e 926e 213e b2d6 193e ac4e 943e
000001d0: 2ef1 103e 6c92 693e eb41 833e 0cce 6c3e
000001e0: e0b2 723e 52f4 3f3e c195 293e e48c 743e
000001f0: 5c66 933e f9fd 903e ccaf 683e b7c3 473e

network.2.running_var f4 [128]
0.14140294 0.20995796 0.17334336 0.21080016 0.18828599 0.20305778 0.20450619 0.19009067
0.15147953 0.18574445 0.17883426 0.17360318 0.19163737 0.16038173 0.20986211 0.23756279
0.19293979 0.15419416 0.20045903 0.19968653 0.19153444 0.14810401 0.20318018 0.14432329
0.17764302 0.17357734 0.14991646 0.16026847 0.17173585 0.12824227 0.1999079 0.14258192
0.14290953 0.19561733 0.19591677 0.20555988 0.14262551 0.18166697 0.2377367 0.13549075
0.1537597 0.17839237 0.1525221 0.21155751 0.157544 0.19161195 0.1929258 0.15631688
0.16431464 0.20118998 0.15767667 0.26441672 0.19367532 0.14841855 0.22649197 0.17619093
0.17881697 0.16804542 0.14926693 0.16559425 0.20527597 0.13854533 0.16078465 0.17097887
0.1588031 0.15035442 0.18775524 0.15826237 0.14526334 0.19165798 0.21233729 0.13772866
0.21009019 0.16206732 0.20296764 0.1602552 0.20503569 0.16003062 0.090986855 0.15460198
0.16608785 0.20125157 0.20110561 0.15422225 0.21320131 0.17589685 0.16835055 0.15804718
0.19489114 0.12631613 0.15544711 0.14574745 0.18487592 0.17518301 0.16554083 0.20153634
0.15245894 0.15628174 0.15569563 0.2239481 0.18952265 0.17471984 0.14086403 0.1363325
0.13681264 0.17177579 0.13251013 0.1572328 0.17740527 0.1144365 0.14833614 0.19797713
0.14588343 0.13959186 0.16582066 0.24227124 0.1307261 0.1808764 0.20505199 0.20772512
0.176146 0.18391234 0.16286626 0.1736872 0.19419174 0.20181547 0.19617632 0.15545067
00000000: efcb 103e 38ff 563e ec80 313e ffdb 573e
00000010: 0bce 403e 61ee 4f3e 126a 513e 21a7 423e
00000020: 731d 1b3e cb33 3e3e 5420 373e 08c5 313e
00000030: 963c 443e 1c3b 243e 18e6 563e a943 733e
00000040: 0292 453e 13e5 1d3e 2245 4d3e a07a 4c3e
00000050: 9b21 443e 94a8 173e 770e 503e 7cc9 133e
00000060: 0de8 353e 42be 313e b383 193e 6b1d 243e
00000070: 86db 2f3e f151 033e a8b4 4c3e ff00 123e
00000080: e056 123e e94f 483e 689e 483e 4a7e 523e
00000090: 6c0c 123e e806 3a3e 4071 733e 16be 0a3e
000000a0: 2f73 1d3e 7dac 363e c12e 1c3e 88a2 583e
000000b0: 3753 213e ec35 443e 578e 453e 8811 203e
000000c0: 1942 283e bf04 4e3e fe75 213e a161 873e
000000d0: d352 463e 08fb 173e 83ed 673e 656b 343e
000000e0: cc1b 373e 1914 2c3e 6ed9 183e 8a91 293e
000000f0: dd33 523e d4de 0d3e bba4 243e 1615 2f3e
00000100: 489d 223e 82f6 193e e942 403e 880f 223e
00000110: eabf 143e fd41 443e f26e 593e be08 0d3e
00000120: e221 573e faf4 253e c0d6 4f3e f019 243e
00000130: e0f4 513e 11df 233e 5157 ba3d fb4f 1e3e
00000140: ef12 2a3e e414 4e3e a1ee 4d3e 70ec 1d3e
00000150: 7251 5a3e 4e1e 343e 1664 2c3e 1fd7 213e
00000160: 8b91 473e 0459 013e 872d 1f3e d23e 153e
00000170: 1d50 3d3e 2d63 333e 8983 293e 8b5f 4e3e
00000180: 321e 1c3e 5208 203e ad6e 1f3e a752 653e
00000190: 3a12 423e c2e9 323e a93e 103e bf9a 0b3e
000001a0: 9d18 0c3e fee5 2f3e bcb0 073e a301 213e
000001b0: baa9 353e af5d ea3d 6ee5 173e 84ba 4a3e
000001c0: 7762 153e 2bf1 0e3e e4cc 293e f415 783e
000001d0: 10dd 053e aa37 393e 26f9 513e e5b5 543e
000001e0: 9e5f 343e 8453 3c3e 6ac6 263e 0fdb 313e
000001f0: 33da 463e b7a8 4e3e 72e2 483e 762e 1f3e

network.3.weight f4 [256, 128]
-0.012028656 0.06833082 -0.0015888545 0.03375068 -0.086248346 0.06557982 0.11623652 -0.016948536
-0.011796989 0.085933544 0.04643091 -0.019824894 -0.017964967 -0.050611388 0.067570865 0.05558695
0.0725285 0.013100937 -0.033916984 0.058780584 -0.024572577 -0.03952131 -0.09615097 -0.04325774
-0.03688357 0.06663263 -0.08448624 -0.101358406 -0.010716767 -0.012323569 0.047770545 0.03366951
0.055865794 0.053642888 -0.048626423 -0.07049509 0.039255157 -0.0065869093 0.004047252 -0.073813766
0.09312269 -0.02907825 -0.011484874 0.026583528 0.09624561 0.11726712 -0.097079955 0.022095492
-0.05659717 -0.076233216 0.0021239235 0.009819783 0.060903918 0.017079445 -0.029290266 -0.07811746
0.019978115 0.13978328 -0.07312997 -0.045641538 -0.06391957 -0.02066811 -0.040077638 0.009417735
-0.057450224 0.024338726 -0.043000497 0.04327418 0.056731425 0.005709483 0.056524035 -0.030041156
-0.017994257 0.0389067 0.04774182 -0.08158196 -0.024948528 -0.012517296 0.0090934215 -0.020564238
-0.06628054 -0.01122361 -0.0067131417 -0.023690777 0.060425267 0.08450755 -0.0787431 -0.030011427
-0.017907767 -0.10527452 0.064061165 0.08059849 -0.038923055 0.018034918 0.060347594 -0.007876643
0.04210449 -0.11752321 0.028115844 0.026932297 0.057548843 0.11095305 -0.010184324 0.06597698
-0.03204788 0.010657673 -0.02119588 0.03368196 -0.06379292 -0.045575663 -0.029008543 0.0688416
-0.024112904 0.027586184 0.12797661 -0.078727715 -0.033194482 -0.051783595 0.07620033 0.018541314
0.029905075 -0.08107718 0.100860156 -0.016271386 0.0062046787 -0.07618927 -0.036481462 -0.040503673
-0.0031238187 0.047449607 0.08017403 0.047700543 -0.059852663 0.0009928967 0.053314302 0.03500839
0.07911305 0.111670874 -0.04849351 0.035164375 0.12519722 -0.070008665 0.032609474 0.07514198
-0.009842271 0.046134945 -0.025387209 -0.055915784 -0.016670765 0.034007605 -0.0043759365 0.1077471
0.06722536 0.10468285 -0.09720457 0.037566923 -0.09744692 -0.06999328 0.06972005 -0.014782385
-0.032128423 -0.0022670443 -0.07246662 0.062642284 0.04386673 0.023642855 0.049303595 -0.013164888
-0.054344498 0.0070191324 0.023500405 0.059760883 0.038548563 0.05459986 -0.05011847 0.0030699512
-0.061946668 -0.13147034 -0.042317063 0.025569696 0.013221498 0.055224117 0.039631948 -0.037810974
0.07333784 0.03676224 0.08108808 0.0060815434 0.005351236 -0.0057515004 0.048636705 0.08477951
-0.13377884 0.008162671 -0.014105211 -0.07141113 0.046683125 0.044650543 -0.042813994 -0.070254296
0.0900901 0.09472418 0.06769565 -0.037755825 0.025078984 0.014622859 0.022613183 0.1036333
0.028538235 0.04063234 -0.06573623 -0.072273195 -0.01507357 0.085914575 -0.03532833 -0.02771744
-0.024164245 0.07610128 0.052072722 0.0011213177 0.07805093 0.09002233 -0.09832178 -0.025809266
-0.029623471 0.027872363 -0.099382654 -0.095811136 0.020907665 0.08486055 -0.07151049 -0.028072156
-0.07576022 -0.021264354 -0.016350342 -0.092246994 -0.009040785 0.07237081 0.045954537 0.08780204
0.040850308 -0.101284645 0.106359944 0.03582605 -0.014484716 0.11581494 -0.05949372 -0.017803205
-0.055436138 -0.022803051 -0.012200658 -0.0222563 -0.12607694 0.03914382 0.067187466 -0.06925186
00000000: d713 45bc 07f1 8b3d 1c41 d0ba 273e 0a3d
00000010: f9a2 b0bd b64e 863d 6a0d ee3d a8d7 8abc
00000020: 2848 41bc edfd af3d 562e 3e3d d167 a2bc
00000030: 442b 93bc e34d 4fbd 9862 8a3d 24af 633d
00000040: d289 943d 50a5 563c 89ec 0abd e9c3 703d
00000050: 6e4c c9bc 19e1 21bd cdea c4bd 072f 31bd
00000060: 3a13 17bd b076 883d 1f07 adbd ff94 cfbd
00000070: 6195 2fbc cbe8 49bc 0cab 433d 0ae9 093d
00000080: 88d3 643d a5b8 5b3d 802c 47bd bb5f 90bd
00000090: 04ca 203d 00d7 d7bb cf9e 843b ac2b 97bd
000000a0: 1cb7 be3d 8335 eebc 0e2b 3cbc b3c5 d93c
000000b0: 6b1c c53d be29 f03d dbd1 c6bd 9b01 b53c
000000c0: 6fd2 67bd 2920 9cbd 8631 0b3b 28e3 203c
000000d0: 6376 793d 31ea 8b3c 24f2 efbc 0cfc 9fbd
000000e0: 25a9 a33c 5923 0f3e 2ac5 95bd 9ff2 3abd
000000f0: 43e8 82bd 2b50 a9bc 7328 24bd d84c 1a3c
00000100: ed50 6bbd 0262 c73c 4a21 30bd 4440 313d
00000110: 365f 683d 9d16 bb3b bf85 673d df18 f6bc
00000120: b168 93bc a25c 1f3d ed8c 433d 7114 a7bd
00000130: db60 ccbc 5815 4dbc 93fc 143c 5576 a8bc
00000140: 17be 87bd 3be3 37bc eaf9 dbbb 2913 c2bc
00000150: 7c80 773d 4b12 ad3d 1044 a1bd 86da f5bc
00000160: 4fb3 92bc 2b9a d7bd 8032 833d d210 a53d
00000170: c86d 1fbd f7bd 933c 0a2f 773d 090d 01bc
00000180: c275 2c3d 02b0 f0bd 3353 e63c 1fa1 dc3c
00000190: 56b8 6b3d 5a3b e33d 27dc 26bc f01e 873d
000001a0: a344 03bd 859d 2e3c fba2 adbc 18f6 093d
000001b0: dda5 82bd 8cad 3abd 53a3 edbc d3fc 8c3d
000001c0: 6d88 c5bc 6cfc e13c 4d0c 033e ff3b a1bd
000001d0: f0f6 07bd 091b 54bd eb0e 9c3d f4e3 973c
000001e0: 7dfb f43c cb0b a6bd c58f ce3d 924b 85bc
000001f0: 9e50 cb3b 1f09 9cbd 966d 15bd 2ee7 25bd
00000200: fbb8 4cbb 855a 423d 4832 a43d a561 433d
00000210: 1128 75bd 1624 823a 1960 5a3d f564 0f3d
00000220: 0606 a23d b3b3 e43d 21a1 46bd 8508 103d
00000230: b333 003e b460 8fbd 8391 053d 0ae4 993d
00000240: 7a41 21bc fff7 3c3d d6f8 cfbc f307 65bd
00000250: 2191 88bc 8f4b 0b3d 0464 8fbb 83aa dc3d
00000260: 73ad 893d f663 d63d 3113 c7bd c6df 193d
00000270: 4092 c7bd a358 8fbd 63c9 8e3d d131 72bc
00000280: 1899 03bd b192 14bb 6169 94bd 994a 803d
00000290: 9aad 333d a9ae c13c 91f2 493d 8bb1 57bc
000002a0: 5698 5ebd c000 e63b ec83 c03c d4c7 743d
000002b0: 19e5 1d3d 1aa4 5f3d 0649 4dbd 3c31 493b
000002c0: cabb 7dbd 29a0 06be a854 2dbd 8a77 d13c
000002d0: fb9e 583c af32 623d 1c55 223d aedf 1abd
000002e0: 2632 963d 0194 163d 8211 a63d af47 c73b
000002f0: 6c59 af3b 1577 bcbb 4837 473d e1a0 ad3d
00000300: 52fd 08be b9bc 053c 8b19 67bc 0040 92bd
00000310: ce36 3f3d 7de3 363d ba5d 2fbd 7ce1 8fbd
00000320: 2981 b83d c0fe c13d 04a4 8a3d daa5 1abd
00000330: 7172 cd3c b794 6f3c 483f b93c b23d d43d
00000340: 04c9 e93c 196e 263d b7a0 86bd f803 94bd
00000350: 23f7 76bc fbf3 af3d 70b4 10bd af0f e3bc
00000360: 18f4 c5bc fdda 9b3d 354a 553d 2ef9 923a
00000370: 2ad9 9f3d a15d b83d ee5c c9bd f46d d3bc
00000380: ecac f2bc 9554 e43c 2289 cbbd a138 c4bd
00000390: 8d46 ab3c 5ecb ad3d 1774 92bd 94f7 e5bc
000003a0: 2d28 9bbd 9532 aebc 27f1 85bc feeb bcbd
000003b0: cd1f 14bc 2637 943d d33a 3c3d 8ed1 b33d
000003c0: a752 273d 536e cfbd 3ed3 d93d 56be 123d
000003d0: 4d51 6dbc 6230 ed3d b0af 73bd 07d8 91bc
000003e0: 0111 63bd 77cd babc 45e5 47bc d852 b6bc
000003f0: 501a 01be 4555 203d 9599 893d ebd3 8dbd

network.3.bias f4 [256]
-0.044595774 -0.08348337 -0.014915768 -0.01977501 0.089248255 -0.005765392 -0.13353188 -0.22706942
-0.10907294 -0.044664387 0.02465909 -0.011134352 0.0048171333 -0.02090046 -0.043481033 0.07808104
-0.011871365 -0.013903214 0.040132973 -0.008852673 0.08414334 -0.11144997 -0.12815149 -0.03299578
-0.14582255 0.044841096 -0.1532384 -0.003650455 -0.015730223 -0.024975462 -0.0063108536 0.107067004
0.074384965 -0.019636638 -0.1526218 -0.043179046 -0.03252002 0.0061040497 -0.04250781 0.001539836
-0.05701726 0.006837371 -0.022558609 0.014460324 -0.17367703 -0.07758334 -0.16179892 -0.13394164
0.078442894 -0.018076228 0.061416324 -0.20029643 -0.13553597 -0.023102863 0.042801864 -0.080145694
-0.059897907 -0.13645686 -0.14288358 -0.21296279 -0.086422734 -0.10321024 -0.0827145 -0.03468598
-0.0044462746 0.028074116 0.10597476 0.019120077 -0.073573485 0.07362609 -0.07156836 0.013773443
-0.056205772 -0.09529503 -0.12913802 -0.1034814 -0.06242184 -0.04684134 -0.04444713 -0.19305469
0.07542286 -0.06665704 0.092156515 -0.13504642 -0.048182614 -0.12791769 0.029141445 0.10020859
-0.08140902 -0.053057544 0.016305514 -0.017746383 -0.0122903455 0.024547108 -0.07695943 -0.005435958
0.06628408 0.11694564 0.006130539 0.045767028 -0.02107187 0.038746428 0.009830038 0.04820535
-0.07836739 -0.040931802 0.010913607 0.03260844 -0.021306703 -0.107664205 0.07617548 -0.0007206709
0.0376405 0.010220069 -0.100729026 -0.10804657 -0.036386915 -0.14349936 -0.059931777 -0.06151884
-0.09160616 0.03842505 -0.069424 -0.24888629 -0.104848295 -0.09379441 -0.024377272 -0.00027822904
-0.01736132 -0.020901194 0.034066916 -0.109716624 0.056312434 -0.0063436953 -0.07653977 0.030743552
-0.017568255 0.086570226 -0.061857626 0.02373171 -0.048715245 -0.05701956 0.15574865 0.0208995
0.012023227 0.06760969 -0.024025774 0.12099623 -0.11216646 0.05378381 0.03400221 -0.09069932
-0.019900313 0.18924537 0.00080311217 0.0071603768 0.041994993 -0.0017821781 0.14113107 -0.07508058
-0.119042255 0.009967642 -0.10842594 0.048851643 -0.020500906 -0.012429696 -0.14094114 -0.17895903
-0.02574012 -0.07035041 -0.042968445 -0.05668436 0.06995629 -0.12371511 -0.1039161 0.09287907
-0.11927484 -0.073402576 -0.05729863 -0.2970294 -0.015768273 -0.117221944 -0.05947515 -0.040335033
0.015509499 0.0137268305 -0.021495137 -0.16106708 0.0034345763 -0.019345356 0.016567813 -0.0048039937
-0.046774823 -0.23223202 0.052649252 -0.08412828 0.011106219 -0.098516524 0.01304562 0.014003552
-0.026746783 -0.030264819 -0.2026661 -0.027880212 0.08658069 0.07761861 -0.039241154 -0.0021568078
-0.24534675 0.011422785 0.07038261 -0.09407032 -0.06934983 -0.0932095 -0.124670714 -0.04723287
-0.04383653 -0.08145553 0.10510954 -0.03168746 -0.052300844 -0.014836722 -0.11566357 0.052881464
-0.004422281 -0.029976808 0.047028214 -0.014545153 0.002155103 0.014270164 -0.01983077 -0.13122018
-0.032835037 0.061752096 -0.027812188 -0.080710925 -0.073473595 0.011444968 -0.045712978 -0.04056358
0.017303705 0.07106016 -0.11369678 0.0013963546 -0.10199158 -0.12939309 -0.081557676 -0.050165348
-0.084474064 -0.038922433 0.035090126 -0.09378187 -0.08170003 -0.00744603 -0.042299114 -0.044625055
00000000: 0faa 36bd 54f9 aabd 4461 74bc 34ff a1bc
00000010: cac7 b63d 9deb bcbb 95bc 08be e384 68be
00000020: a261 dfbd 01f2 36bd dc01 ca3c db6c 36bc
00000030: 0bd9 9d3b 7137 abbc 2b19 32bd f4e8 9f3d
00000040: 1d80 42bc 4eca 63bc 7962 243d cd0a 11bc
00000050: 5853 ac3d e23f e4bd 253a 03be 9526 07bd
00000060: 8252 15be 4cab 373d 87ea 1cbe 793c 6fbb
00000070: abdc 80bc 5799 ccbc 47cb cebb f245 db3d
00000080: 2557 983d 04dd a0bc e448 1cbe 83dc 30bd
00000090: b633 05bd 7b04 c83b ab1c 2ebd 53d4 c93a
000000a0: ee8a 69bd 060c e03b d5cc b8bc ffea 6c3c
000000b0: 64d8 31be 04e4 9ebd 9eae 25be ff27 09be
000000c0: aba6 a03d 9914 94bc af8f 7b3d 821a 4dbe
000000d0: f1c9 0abe 3742 bdbc 0251 2f3d 6d23 a4bd
000000e0: 8257 75bd 59bb 0bbe 1350 12be eb12 5abe
000000f0: 67fe b0bd e45f d3bd 3866 a9bd e312 0ebd
00000100: 0eb2 91bb b0fb e53c 4c09 d93d b5a1 9c3c
00000110: b2ad 96bd 47c9 963d 6f92 92bd 02aa 613c
00000120: 0638 66bd 0a2a c3bd c23c 04be 0eee d3bd
00000130: 0bae 7fbd b4dc 3fbd 320e 36bd 21b0 45be
00000140: 4d77 9a3d 7c83 88bd 8ebc bc3d 9c49 0abe
00000150: 225b 45bd dbfc 02be 0aba ee3c 293a cd3d
00000160: c6b9 a6bd de52 59bd 2493 853c dd60 91bc
00000170: 725d 49bc 0417 c93c e89c 9dbd 1f20 b2bb
00000180: f3bf 873d 3281 ef3d b0e2 c83b 3576 3b3d
00000190: ea9e acbc 93b4 1e3d 2b0e 213c f972 453d
000001a0: 157f a0bd 1ba8 27bd fcce 323c 6d90 053d
000001b0: 658b aebc 0d7f dcbd e401 9c3d 68eb 3cba
000001c0: ed2c 1a3d 1472 273c 054b cebd 8547 ddbd
000001d0: 720a 15bd 7ff1 12be 067b 75bd 2efb 7bbd
000001e0: 039c bbbd 9663 1d3d 2c2e 8ebd 0cdc 7ebe
000001f0: b4ba d6bd 4917 c0bd d8b2 c7bc 45df 91b9
00000200: 5439 8ebc fb38 abbc c089 0b3d 1cb3 e0bd
00000210: dea7 663d c6de cfbb e2c0 9cbd e7d9 fb3c
00000220: 4deb 8fbc bb4b b13d 6c5e 7dbd 0169 c23c
00000230: a389 47bd 588d 69bd 937c 1f3e 6e35 ab3c
00000240: 12fd 443c f376 8a3d b3d1 c4bc dfcc f73d
00000250: 87b7 e5bd 6a4c 5c3d e745 0b3d 91c0 b9bd
00000260: fb05 a3bc 8ac9 413e f287 523a 98a1 ea3b
00000270: f102 2c3d f997 e9ba aa84 103e d9c3 99bd
00000280: 6dcc f3bd 524f 233c 6b0e debd a918 483d
00000290: 84f1 a7bc eca5 4bbc e052 10be 0941 37be
000002a0: f2dc d2bc e013 90bd aeff 2fbd dc2d 68bd
000002b0: 3e45 8f3d 595e fdbd f7d1 d4bd 6237 be3d
000002c0: 5e46 f4bd 1754 96bd f8b1 6abd 3d14 98be
000002d0: 772c 81bc 0f12 f0bd 379c 73bd 5936 25bd
000002e0: 8e1b 7e3c 80e6 603c 9216 b0bc c5ee 24be
000002f0: a116 613b 277a 9ebc 39b9 873c d26a 9dbb
00000300: f596 3fbd 3bce 6dbe bea6 573d 734b acbd
00000310: dcf6 353c 08c3 c9bd 4cbd 553c 276f 653c
00000320: 121c dbbc eded f7bc b487 4fbe 0b65 e4bc
00000330: 3851 b13d 81f6 9e3d 55bb 20bd 3b59 0dbb
00000340: 2e3c 7bbe a226 3b3c c224 903d f1a7 c0bd
00000350: 4907 8ebd 9fe4 bebd 5c53 ffbd 4177 41bd
00000360: ef8d 33bd 28d2 a6bd ac43 d73d b6ca 01bd
00000370: 6939 56bd b915 73bc 06e1 ecbd 3c9a 583d
00000380: c8e8 90bb ec91 f5bc a8a0 403d cb4e 6ebc
00000390: a13c 0d3b 68cd 693c 2474 a2bc 955e 06be
000003a0: 087e 06bd c4ef 7c3d 63d6 e3bc c54b a5bd
000003b0: 5379 96bd ad83 3b3c 883d 3bbd ff25 26bd
000003c0: 80c0 8d3c fd87 913d dbd9 e8bd e305 b73a
000003d0: f6e0 d0bd 9f7f 04be b607 a7bd 2e7a 4dbd
000003e0: bd00 adbd 216d 1fbd aaba 0f3d b610 c0bd
000003f0: 5852 a7bd d4fd f3bb d641 2dbd c3c8 36bd

network.5.weight f4 [256]
0.99674594 0.9199322 0.9784853 0.99242306 0.9583523 0.97320986 0.9642645 1.010032
0.9535303 1.0267905 0.9672905 0.9239307 1.0209355 1.062079 1.0097462 0.956167
0.93615717 0.95727754 0.97375053 1.004177 1.0370233 0.94311625 1.0323035 0.97267777
0.9839264 0.9921659 1.019645 0.932339 0.975178 0.9704566 0.982741 0.9738089
1.0468487 1.0255291 1.0268922 0.96881634 1.0051514 0.9596518 0.9579036 0.97787356
1.0042485 0.98490757 1.0256987 0.945437 1.0414244 1.010364 0.9494945 0.9576573
1.0562406 1.0148269 0.9566621 1.1073807 1.000984 1.0349458 0.9679828 0.9970941
1.0160178 1.031291 0.9861912 0.9741039 1.0275515 1.0364494 0.9887528 0.93456036
1.0592477 0.95209366 0.9876492 0.9732292 0.9493039 0.9454118 0.9369631 0.9620165
1.0142192 1.0116277 0.94506985 1.0672535 0.93151194 1.0011935 1.0639726 1.0928544
0.9427292 1.0190387 0.98888505 0.92864937 0.94869024 1.0145792 1.0001371 0.9431142
0.9470452 0.97902375 1.03205 0.98598385 1.0068258 1.0262824 1.0053004 1.0297061
0.95826894 0.9616326 0.98902965 0.91406333 0.9503764 0.94576854 0.98744935 0.99019265
0.96544677 1.0031669 0.9577142 0.9312316 0.9844284 0.95022225 0.98768735 1.0044141
0.9391101 1.0213928 0.9905212 1.0650223 1.0016816 1.0736365 0.99221104 0.96016663
0.95873964 1.0212533 0.9443361 1.2066226 0.93966436 0.9861167 0.982896 1.0129541
0.9656499 0.89325464 1.0084908 0.98262304 0.9484163 0.9947433 1.0275439 0.98015857
0.96529937 0.858427 0.9832246 0.94378495 0.998967 0.99527484 0.9616574 0.9828886
0.9959031 0.9788889 1.0681226 0.9484448 1.0579153 0.97917795 1.01781 0.93063664
1.0429078 0.98157674 0.9923001 1.0488782 0.95758885 0.9445397 0.95613706 1.0162586
0.9443508 0.9932904 1.0280572 0.94337744 0.9454804 0.9481407 0.9791555 1.1392272
1.0264314 0.99737185 1.0373307 0.93154985 0.9595314 0.9910195 0.99007356 0.93703264
0.97082025 1.0300977 0.9779304 1.1209327 0.9540422 1.0110396 0.93283486 0.96239054
0.9528513 0.9954015 0.91024685 0.9909153 0.9888186 0.99195516 0.9385822 0.9044317
0.9461568 1.0342703 0.9431822 1.0007815 1.012465 0.9805155 0.9273167 0.97168374
0.9783573 0.9270467 1.0437275 0.8920747 0.99667865 1.0616891 0.9470151 0.8653975
1.0864446 0.943248 0.9840603 0.9719049 0.9753543 1.0308107 1.0136789 1.0472249
0.93704087 0.96823204 0.9889425 0.9926062 0.98987985 1.0008998 1.0102612 0.9805968
0.9351684 0.9357385 0.9702915 0.98470354 0.9634543 0.9466699 0.98554885 1.0231023
1.0215253 0.9562913 0.980765 0.9993736 1.0216082 0.99869144 0.95047545 0.9512254
0.95142514 1.0327203 0.9602984 0.9133568 0.96651113 0.9420881 1.0318779 0.98490745
0.91335666 1.0004183 0.99253637 0.98285794 0.9804185 0.9678921 0.9784778 1.0397106
00000000: be2a 7f3f ad80 6b3f 037e 7a3f 700f 7e3f
00000010: 9456 753f 4824 793f 0ada 763f bb48 813f
00000020: 901a 743f df6d 833f 5aa0 773f b986 6c3f
00000030: 04ae 823f 34f2 873f 5d3f 813f 5cc7 743f
00000040: ffa7 6f3f 2410 753f b747 793f df88 803f
00000050: 2ebd 843f 1170 713f 8522 843f 6901 793f
00000060: 9ae2 7b3f 96fe 7d3f ba83 823f c5ad 6e3f
00000070: 44a5 793f d86f 783f ea94 7b3f 8a4b 793f
00000080: 23ff 853f 8a44 833f 3471 833f 5904 783f
00000090: cda8 803f beab 753f 2c39 753f ec55 7a3f
000000a0: 378b 803f e722 7c3f 184a 833f 2908 723f
000000b0: 654d 853f 9c53 813f 1212 733f 0729 753f
000000c0: e432 873f d9e5 813f cfe7 743f a7be 8d3f
000000d0: 3e20 803f 1b79 843f b9cd 773f 8f41 7f3f
000000e0: df0c 823f 5801 843f 0777 7c3f e05e 793f
000000f0: cf86 833f 60aa 843f e71e 7d3f 593f 6f3f
00000100: 6e95 873f 69bc 733f 94d6 7c3f 8d25 793f
00000110: 9505 733f 8206 723f d0dc 6f3f b746 763f
00000120: efd1 813f 047d 813f 19f0 713f c39b 883f
00000130: 9177 6e3f 1c27 803f 4130 883f a7e2 8b3f
00000140: b356 713f dc6f 823f 9227 7d3f f7bb 6d3f
00000150: 5ddd 723f bbdd 813f 7e04 803f ef6f 713f
00000160: 8e71 723f 4da1 7a3f 371a 843f 7069 7c3f
00000170: abdf 803f 395d 833f afad 803f 69cd 833f
00000180: 1d51 753f 8e2d 763f 0c31 7d3f 0e00 6a3f
00000190: de4b 733f e31d 723f 7bc9 7c3f 447d 7d3f
000001a0: 8527 773f c667 803f c22c 753f 3265 6e3f
000001b0: 8003 7c3f c441 733f 14d9 7c3f a490 803f
000001c0: 8569 703f 00bd 823f cc92 7d3f a752 883f
000001d0: 1a37 803f ec6c 893f 8b01 7e3f 7bcd 753f
000001e0: f66f 753f 6eb8 823f 03c0 713f 9c72 9a3f
000001f0: d88d 703f 2572 7c3f 129f 7b3f 7ba8 813f
00000200: d534 773f 56ac 643f 3a16 813f 2f8d 7b3f
00000210: 69cb 723f 7fa7 7e3f 8f86 833f aceb 7a3f
00000220: dc1d 773f dfc1 5b3f 9bb4 7b3f e49b 713f
00000230: 4dbc 7f3f 55ca 7e3f 2e2f 763f 969e 7b3f
00000240: 81f3 7e3f 7798 7a3f 3eb8 883f 47cd 723f
00000250: c569 873f 68ab 7a3f 9947 823f 343e 6e3f
00000260: 017e 853f 9d48 7b3f 6107 7e3f a441 863f
00000270: 8b24 753f 5bcd 713f 66c5 743f c314 823f
00000280: f9c0 713f 4848 7e3f 6197 833f 2f81 713f
00000290: 010b 723f 59b9 723f efa9 7a3f 32d2 913f
000002a0: 1b62 833f c353 7f3f 41c7 843f 0d7a 6e3f
000002b0: daa3 753f 74b3 7d3f 7675 7d3f 5fe1 6f3f
000002c0: ad87 783f 3eda 833f a659 7a3f b97a 8f3f
000002d0: 1c3c 743f bf69 813f 44ce 6e3f 3a5f 763f
000002e0: 10ee 733f a2d2 7e3f f005 693f a0ac 7d3f
000002f0: 3723 7d3f c6f0 7d3f ec46 703f d688 673f
00000300: 5537 723f f862 843f 6374 713f 9c19 803f
00000310: 7498 813f 1003 7b3f a164 6d3f 44c0 783f
00000320: a075 7a3f ef52 6d3f dd98 853f 025f 643f
00000330: 5526 7f3f 6ee5 873f 956f 723f b18a 5d3f
00000340: 9e10 8b3f b378 713f 60eb 7b3f c2ce 783f
00000350: d2b0 793f 9bf1 833f 3bc0 813f 770b 863f
00000360: e9e1 6f3f 0ede 773f 562b 7d3f 711b 7e3f
00000370: c468 7d3f 7c1d 803f 3d50 813f 6408 7b3f
00000380: 3267 6f3f 8f8c 6f3f 0665 783f 8815 7c3f
00000390: f1a4 763f f558 723f ee4c 7c3f 04f5 823f
000003a0: 57c1 823f 82cf 743f 6a13 7b3f f3d6 7f3f
000003b0: 0fc4 823f 3eaa 7f3f 5c52 733f 8283 733f
000003c0: 9990 733f 2e30 843f 1ed6 753f c0d1 693f
000003d0: 466d 773f b02c 713f 9314 843f e522 7c3f
000003e0: bed1 693f b50d 803f dd16 7e3f 949c 7b3f
000003f0: b5fc 7a3f c7c7 773f 857d 7a3f 3d15 853f

network.5.bias f4 [256]
-0.11821938 -0.050875854 0.37748083 -0.027867138 0.5085531 -0.29698214 -0.06854576 0.2037491
-0.09616093 -0.20678519 0.262158 0.36184767 -0.3239935 -0.15180773 0.010725534 -0.32519865
0.32675734 -0.30223534 -0.19967708 0.20012856 0.4007301 0.077748016 0.037068244 -0.108406894
-0.071841836 0.12114719 0.071126536 0.177854 -0.5435528 -0.117004864 0.50287783 0.32105717
0.051514093 -0.18567352 -0.43272868 0.09653249 -0.18532982 0.34678167 0.44219667 -0.29318026
-0.59623504 0.21823783 -0.4330505 -0.08038818 -0.3310838 -0.2270297 -0.5589127 -0.3188864
0.17135473 0.19845615 0.44702357 -0.18565173 0.061975233 -0.11872934 -0.16671637 -0.4632649
-0.085423075 -0.2803869 0.29686603 -0.11440578 -0.07954249 -0.3974182 -0.09214057 0.4905361
-0.062044185 0.14123312 -0.22744617 0.4803951 -0.18746355 0.34390298 -0.121111274 -0.11200118
0.13614814 -0.20928311 -0.43921804 -0.060394756 0.1479351 -0.03372592 -0.041622683 -0.30065668
0.45520565 -0.029722791 0.21180473 0.02618942 -0.17658982 0.15627086 -0.19065875 0.29100847
0.26339445 -0.4967749 -0.12628038 -0.1728363 -0.15104079 -0.17932044 -0.15535016 0.28759176
0.19771598 0.26223844 0.15913105 0.26108062 0.2777711 0.10192224 0.25580052 -0.045651417
0.32366067 -0.23024037 0.1348812 -0.06629372 -0.4235471 0.08276077 0.48640043 -0.27938807
0.10674482 -0.33896396 -0.6412604 -0.09709258 0.5714026 -0.18955462 -0.23786056 -0.22160526
0.3103206 -0.41011688 0.11189595 -0.273414 -0.15453497 0.09081958 -0.20167692 0.30962497
-0.0051415176 0.26389197 0.068042025 -0.1275992 -0.12418395 -0.006530753 -0.35351318 -0.11511467
-0.20886913 0.22332843 0.11163537 0.060005367 -0.6056401 0.17244457 0.18708628 -0.17210843
-0.3026417 0.21132147 -0.3069423 0.3063264 -0.2825879 -0.07137951 0.053118154 -0.09359698
-0.4972328 0.43175644 0.108288564 -0.046625275 -0.16032985 0.10524488 0.22032 -0.3738204
-0.44849148 -0.11637681 -0.34585398 -0.16224545 0.35877982 -0.033381283 -0.1943835 -0.09917156
-0.21597368 -0.43958223 -0.15926337 0.22722706 0.40997013 -0.03891662 -0.41438818 0.081469685
0.07145134 -0.2242191 -0.13749044 -0.17617598 0.24749838 -0.116038814 -0.29918072 -0.26293594
0.27666193 -0.29068428 -0.049827013 -0.22921522 -0.18045947 0.085394375 -0.11175785 0.4174722
0.007621872 0.036543813 0.28358483 0.01974364 -0.18608357 -0.3415466 0.105773814 0.41467845
0.027158288 0.46122563 0.099575296 0.16626793 0.112808116 0.46297002 -0.4249606 -0.19381422
-0.09155409 -0.045761734 -0.008263438 -0.073671 -0.20241162 -0.6652735 -0.28192064 -0.20498559
0.15839909 0.08185811 0.13735372 -0.20877388 0.10299467 -0.106803454 -0.3250113 0.21432139
-0.28849173 -0.042630002 -0.07192236 -0.26822153 0.23738791 0.255742 -0.07781143 0.0296257
0.054911286 0.16471832 -0.4740069 -0.10568909 -0.2293787 0.37467644 0.35354593 0.12104258
0.021155823 -0.5317641 -0.24009174 0.15313978 0.3138884 -0.18592727 0.45328438 -0.6095497
-0.037850786 0.11195386 0.2731945 0.06415547 -0.05096451 0.26384634 -0.022282502 -0.30305022
00000000: 011d f2bd 3363 50bd 2b45 c13e a049 e4bc
00000010: 8930 023f 0b0e 98be b861 8cbd 9ba3 503e
00000020: 06f0 c4bd 7fbf 53be 9339 863e 1944 b93e
00000030: 7ae2 a5be 7c73 1bbe 26ba 2f3c 7080 a6be
00000040: bd4c a73e 97be 9abe 2678 4cbe 80ee 4c3e
00000050: 7f2c cd3e 5a3a 9f3d dfd4 173d 6f04 debd
00000060: d021 93bd 051c f83d caaa 913d 5c1f 363e
00000070: 4726 0bbf 3fa0 efbd 9abc 003f 9b61 a43e
00000080: 7100 533d 3321 3ebe 9d8e ddbe d3b2 c53d
00000090: 1ac7 3dbe 5e8d b13e 9a67 e23e b91b 96be
000000a0: dca2 18bf bd79 5f3e ccb8 ddbe 8fa2 a4bd
000000b0: d183 a9be 797a 68be e714 0fbf 1445 a3be
000000c0: 9d77 2f3e 1738 4b3e 46e0 e43e 7d1b 3ebe
000000d0: bed9 7d3d 5e28 f3bd b2b7 2abe 0f31 edbe
000000e0: 4bf2 aebd df8e 8fbe d3fe 973e 944d eabd
000000f0: 2ce7 a2bd 667a cbbe 32b4 bcbd 8c27 fb3e
00000100: 0b22 7ebd 6a9f 103e a6e7 68be 59f6 f53e
00000110: 72f6 3fbe 0d14 b03e 3009 f8bd e060 e5bd
00000120: 6b6a 0b3e 504e 56be 30e1 e0be 7e60 77bd
00000130: 4d7c 173e 3124 0abd 8c7c 2abd acef 99be
00000140: b710 e93e 367d f3bc 57e3 583e 328b d63c
00000150: f6d3 34be 7805 203e 0c3c 43be 10ff 943e
00000160: a3db 863e 4859 febe a54f 01be 00fc 30be
00000170: 70aa 1abe c79f 37be 1d14 1fbe 3a3f 933e
00000180: 0f76 4a3e 1e44 863e 40f3 223e 5cac 853e
00000190: 0338 8e3e 9bbc d03d 49f8 823e fbfc 3abd
000001a0: dab6 a53e 22c4 6bbe 4c1e 0a3e 00c5 87bd
000001b0: 2adb d8be 7b7e a93d 7a09 f93e f40b 8fbe
000001c0: 079d da3d af8c adbe a429 24bf 79d8 c6bd
000001d0: 7147 123f 9b1a 42be b891 73be 7dec 62be
000001e0: 57e2 9e3e d7fa d1be b429 e53d ebfc 8bbe
000001f0: 6a3e 1ebe 9eff b93d 6584 4ebe 2a87 9e3e
00000200: 2d7a a8bb d91c 873e 9e59 8b3d 5da9 02be
00000210: 2854 febd edff d5bb aeff b4be 3dc1 ebbd
00000220: cae1 55be 35b0 643e 16a1 e43d 30c8 753d
00000230: 3b0b 1bbf 4f95 303e 8c93 3f3e 313d 30be
00000240: daf3 9abe a864 583e 8b27 9dbe d0d6 9c3e
00000250: 5caf 90be 6c2f 92bd 6c92 593d c6af bfbd
00000260: 4c95 febe 2e0f dd3e 65c6 dd3d 25fa 3ebd
00000270: 822d 24be a18a d73d 919b 613e 6365 bfbe
00000280: ada0 e5be f756 eebd c613 b1be ac23 26be
00000290: fdb1 b73e d0ba 08bd 780c 47be 751a cbbd
000002a0: 3428 5dbe ec10 e1be f015 23be 36ae 683e
000002b0: 9be7 d13e 0967 1fbd b02a d4be 94d9 a63d
000002c0: 1555 923d b199 65be 4bca 0cbe 7a67 34be
000002d0: 3770 7d3e c2a5 edbd 372e 99be 8a9f 86be
000002e0: a2a6 8d3e 92d4 94be 6917 4cbd 65b7 6abe
000002f0: 5eca 38be 3fe3 ae3d 4de1 e4bd ebbe d53e
00000300: e5c0 f93b f7ae 153d 0832 913e 6abd a13c
00000310: b18c 3ebe 32df aebe f19f d83d bc50 d43e
00000320: 0f7b de3c c425 ec3e 22ee cb3d 2442 2a3e
00000330: f107 e73d 680a ed3e 7094 d9be 3c77 46be
00000340: b680 bbbd a870 3bbd 5f63 07bc d2e0 96bd
00000350: fe44 4fbe 5d4f 2abf e757 90be bee7 51be
00000360: 5f33 223e 3aa5 a73d 74a6 0c3e d2c8 55be
00000370: dfee d23d c5bb dabd e267 a6be 1177 5b3e
00000380: 30b5 93be cc9c 2ebd 084c 93bd 5554 89be
00000390: d115 733e 9ef0 823e 995b 9fbd 99b1 f23c
000003a0: a8ea 603d ebab 283e 08b1 f2be 8673 d8bd
000003b0: 40e2 6abe 97d5 bf3e f903 b53e 2ce5 f73d
000003c0: fa4e ad3c b121 08bf 9cda 75be add0 1c3e
000003d0: fbb5 a03e b863 3ebe e414 e83e 730b 1cbf
000003e0: 6d09 1bbd 1148 e53d 26e0 8b3e f163 833d
000003f0: 29c0 50bd de16 873e cb89 b6bc 6629 9bbe
