models/epoch_90/discriminator.pth (torch, 420232 bytes, 7 tensors)

network.0.weight f4 [256, 20]
00000000: 16b0 3ebc 0def 56bb 43a9 60bd bd09 4e3e
00000010: 4fc9 423e 6c11 d4bd 1b9c 8a3d 722d 76bd
00000020: 4aa3 94bd d747 d63c e9f6 3abd 53dd 883e
00000030: 28ba 0b3d b9d3 843b 04c4 93bd aca9 ecbd
00000040: e663 c7bd 1740 57bd 115f f83c 1a27 97be
00000050: 1c1f e43c f811 37bd 9744 cd3c e505 6b3b
00000060: 3100 f33b 0190 2abd f68c 44be b25f b93d
00000070: 6229 883d 923d 2f3c 741e 7abd 1ee4 5fbd
00000080: 5fb4 a93d 42a2 a03d 4491 fc3c 9a8b ccbd
00000090: cd12 2f3d 8b15 b63e 08fb 393e 5e7d a0bc
000000a0: 2cd8 073c 6b33 48ba 637d e03b b84e 803c
000000b0: fbca 6d3c 2eaa 4c3b 7116 2cbb 4b8a 8f3a
000000c0: d04c 58ba c645 893b d3fe 25ba 4a0b 0b3f
000000d0: 6bae b23b ed7f d1ba f4d1 6639 4691 5a3a
000000e0: 40e8 c13b 7a55 eb3a 04c9 c63a 1888 49be
000000f0: 5b65 633b f563 58bd 55b9 013c c711 b5bd
00000100: 1efd 38bd d5e4 c83d da11 613d 72b6 813e
00000110: a82a b1bd 0ac5 373d ecd7 4a3e 37ab 523d
00000120: 5c38 9fbb 75ad 8ebd 9df4 9e3d 0fdf 6fbc
00000130: 5f11 283e dfa9 d0bd 4116 9e3e f591 183e
00000140: 0671 6fbc 2f0c cc3c df17 3c3c ac0f e7bd
00000150: b72e e8bd a8f6 c1bd 81a2 0b3e 7987 8d3e
00000160: e7be 413e 8ebc 90bd 00b6 98bd fe02 0cbc
00000170: cf78 e8bd cb0e ce3d b601 523e 1e16 8ebd
00000180: 5fae adbd 4c6b a1bd 6b03 28be c344 eb3d
00000190: 55ce 04bd 943a 0b3d 314d ebbc c4c7 463d
000001a0: 04f4 ae3d 99d4 243d 97d1 793c 746c bdbd
000001b0: cd94 8d3c 01b8 6ebd a488 a3bd 84af ceba
000001c0: 9e34 e33e 1a41 e6bd fe43 abbd 16ba 0a3d
000001d0: 6727 12bc d1ce e03d 0932 b1bd 3c18 00bc
000001e0: 9d3a b63d b17f 0c3d dbee e73c e85e 0f3e
000001f0: 33b6 ef3d df32 a13d 715e 8fbd e514 203b
00000200: d6e1 063b 714b ba3b 7031 93bc 3e7c dfbc
00000210: 3bca d4ba ba93 33bc 529f 053f 7f65 863c
00000220: 233d a3bc f13a 17bd 073b eb3c 29f8 d73d
00000230: 8a80 65bd 3df1 873d e596 1cbd aa0c 66bc
00000240: 3696 5bbd d5bb 1f3d 0755 57be a221 493d
00000250: 1a10 88bd 7da9 e13c 944f 33bd deb5 c4bd
00000260: 9593 933d 3e4d cb3c 0791 eb3d eba9 423e
00000270: 6b45 03be fad8 463d b105 3dbd ae83 9d3d
00000280: 3be2 d7bd 9c8b 0ebd c001 3f3b 5381 193e
00000290: 85db e83c d86a 3a3d cb42 c33d 3e8c 27be
000002a0: 6590 ccbd 779b 283e 1142 483d 9d2f 0dbe
000002b0: 5e15 87bd d2eb dfbc 1a64 5fbd b169 c2bd
000002c0: 893f e43c 94f0 9abd b7c7 5fbd 99bc 66be
000002d0: 3a74 0e3e aa69 303d d7c2 923d 8765 2a3e
000002e0: 0ba1 5a3d 06a6 8d3d 0a90 0a3f d607 c8bc
000002f0: ac18 84bc 06ad 8ebc e8d6 a5ba 4900 06bd
00000300: a4bf cebc 7e94 683c 2535 e1bb a33a f0bc
00000310: 1073 a4bc 649f 01bd 434f d9bb 3789 2e3b
00000320: c6d7 0b3b 8a06 16bd 553d 2d3d 7bef b8bc
00000330: 5153 903c fdd9 35bd 56d2 9fbe 9e44 1b3e
00000340: 4aa4 403e 01dd 933d a072 213e c237 a33d
00000350: 61e3 18be ee7b a5bd b38c 66bd a7fa 863d
00000360: 3166 6e3d d13c 363d aed4 a83d 856f 8abe
00000370: b904 8c3d d4e1 6c3e 489d cd3d 1ff5 80bd
00000380: e030 413e 177c 263e 8d80 d6bd d49e 62bd
00000390: 5b1c 28bd 5783 743d 551b 3cbd 2a11 93bd
000003a0: d218 5a3d 5941 7e3d 77bb 24bd b1ef acbd
000003b0: 045d 9d3d 7343 9e3d f276 5c3c de98 78be
000003c0: 98db d6ba 18e4 ec3d a96f 043d 0d2e 9b3c
000003d0: afd4 e93d 1cff 1cbc 7810 4ebc 4992 b73a
000003e0: 90c0 93bc 5904 383c 32eb 8f3c 60e2 fa3e
000003f0: 6adf d53b 20ed 2bbd 637a 6d3a e247 493b
-0.011638662 -0.0032796294 -0.05484892 0.20120902 0.19022106 -0.103548855 0.06768056 -0.060101934
-0.072577074 0.026157303 -0.045645628 0.26731357 0.03411308 0.0040535596 -0.072151214 -0.115558
-0.09735851 -0.052551355 0.030318769 -0.2952202 0.027846865 -0.04469487 0.02505712 0.0035861668
0.0074157943 -0.04164124 -0.19194397 0.090514556 0.06648518 0.010695832 -0.0610642 -0.05466091
0.08286356 0.07843448 0.030830987 -0.099875644 0.04274254 0.3556331 0.18162167 -0.01959103
0.0082912855 -0.00076370564 0.0068508848 0.015662536 0.014513726 0.0031229365 -0.0026258493 0.0010951249
-0.0008251192 0.004189226 -0.0006332222 0.543141 0.005452921 -0.001598356 0.00022012723 0.00083376875
0.005917579 0.0017954551 0.0015166108 -0.19680822 0.0034697864 -0.0528297 0.007917722 -0.088412814
-0.045163266 0.09809271 0.054948665 0.25334507 -0.08650714 0.044865645 0.1980893 0.051432814
-0.0048590135 -0.06966678 0.077615 -0.014640584 0.16412877 -0.1018865 0.30876353 0.14899428
-0.014614349 0.024908153 0.011480301 -0.11282286 -0.11337035 -0.09470874 0.13636209 0.2764242
0.1892048 -0.07067214 -0.07456589 -0.008545635 -0.113511674 0.10061415 0.20508465 -0.06937812
-0.08480524 -0.078817934 -0.16407554 0.11487725 -0.032423336 0.03399141 -0.028723331 0.048530355
0.08542636 0.04024181 0.015247724 -0.092492014 0.017282868 -0.05828095 -0.079850465 -0.001576886
0.4437608 -0.11242886 -0.08362578 0.03386887 -0.008920527 0.10976947 -0.086521216 -0.007818278
0.08897898 0.034301464 0.028312137 0.14001048 0.117046736 0.07871031 -0.07000435 0.0024426517
0.0020581386 0.005685263 -0.01796791 -0.027280923 -0.0016234586 -0.010960514 0.5219623 0.016405819
-0.019926613 -0.036921445 0.02871467 0.1054538 -0.056030788 0.066378094 -0.03822984 -0.014041105
-0.05361005 0.03899749 -0.21028529 0.04910434 -0.06643696 0.027546639 -0.043777063 -0.09605001
0.072058834 0.024817105 0.11502271 0.19010131 -0.1281945 0.04854677 -0.046148006 0.076911315
-0.10541197 -0.03480111 0.002914533 0.1499074 0.028424988 0.04551205 0.09534224 -0.16362092
-0.099884786 0.16465555 0.04889113 -0.13787694 -0.06595872 -0.027334128 -0.054538824 -0.09492815
0.027862327 -0.07565418 -0.054633822 -0.22532882 0.13911524 0.04306952 0.07166069 0.16640292
0.05337624 0.06916432 0.54126036 -0.024417799 -0.016125046 -0.017416488 -0.0012652548 -0.032715116
-0.025237866 0.01419556 -0.0068727904 -0.029324835 -0.020074397 -0.031646147 -0.006631763 0.002663208
0.0021338328 -0.03662733 0.04229482 -0.02257513 0.017617853 -0.044397343 -0.3121516 0.15162894
0.18812671 0.072198875 0.15766382 0.07969619 -0.14930488 -0.08080278 -0.056286525 0.06590777
0.058202926 0.044491593 0.082436904 -0.27038208 0.06836838 0.23133022 0.10039765 -0.06296753
0.188663 0.16258274 -0.10473738 -0.05532725 -0.041042667 0.059695568 -0.045924503 -0.07181008
0.053246327 0.06207404 -0.040217843 -0.08444155 0.07683757 0.07727709 0.013456093 -0.24277064
-0.0016392348 0.11566943 0.03233305 0.018942857 0.11417519 -0.009582307 -0.012577169 0.0014005388
-0.018036157 0.011231505 0.017568205 0.49000835 0.006526877 -0.041974187 0.00090590696 0.0030713012

network.0.bias f4 [256]
00000000: 741f 783e c1a4 8cbe dcf7 eebe 1368 febd
00000010: 8851 aabe 01ca 9cbe 02a1 00be 8a46 03be
00000020: 6ff1 5b3e 27ac 85be ed47 56be b8ae 8b3e
00000030: ae0f 18be 1126 e7be 861f 82be 3c9b 113e
00000040: d4e9 803c ff72 73be 2aef 50be 41dc b7be
00000050: 9a4b 5b3e 3bd8 70be 4b53 76be 8fa6 84be
00000060: c8fa 8abe f63f 203e 3441 3e3e efe7 22bd
00000070: d370 48be 8bf2 b7be cf3a 81be 81fe b4bb
00000080: 4fa8 92be f1de 993e e5dc 91be ec81 1a3e
00000090: 5b47 adbe 5c0e a2be cf18 3abc e118 8abe
000000a0: d767 9ebe 5b62 863e a7c1 bebe 2f6d 46be
000000b0: dbf6 1cbe 820f 6dbe e8c9 693e 92bb b73c
000000c0: 1f46 763e 7958 7f3e d461 83be fb7e 9ebe
000000d0: 9f12 8dbd 9f45 82be 26e5 a9be 9f72 26be
000000e0: d7f5 17be aa6e 123e 30ae 91be 86b8 1ebe
000000f0: 96f2 cebe 221a 77bc d178 9dbe e466 08be
00000100: f89e 2fbe 2aae f9bd 9cff c1bd 00a2 4dbe
00000110: 1c1f f23d 1ace 96be a9af 8fbe b3bc 903d
00000120: 2841 cc3d 3fa2 89be ee68 a0be 816e 3ebe
00000130: 8257 39be 6701 abbe 2f9b 433d ab9f cb3c
00000140: 0210 4dbe 0360 7cbe 7717 45be 11b7 f8bd
00000150: a948 16be 2495 653e 48d7 c0be 1ba3 99be
00000160: b86d 84be 604c 38bd a01f abbe 2048 483e
00000170: fb9a e1be 7820 80be 1216 1dbe 1cb6 14be
00000180: 196e 6b3e 1919 a83d 6231 7bbe 20ef 8a3e
00000190: e735 223e 7f73 9fbd 4293 193d 8fed a9be
000001a0: 3286 5f3e 0ee8 b6be 534d 8dbe b7a6 8bbe
000001b0: 7d56 93be 3027 38be b7f1 0abe de36 b9be
000001c0: 9c3b 1abe fec4 d6bd 7e09 bcbe a901 babe
000001d0: bdd9 173e 3aff 7abe 939e 6bbe dcd0 debb
000001e0: 25d7 97be 9eb9 913e 8c97 74be 1234 9ebe
000001f0: afb6 96be 17dd c4bc 7cdf db3c c785 c1be
00000200: 4724 58be dddc d4bd c9cc 18be 7d09 34be
00000210: c788 9abe c581 c6be 7f67 76be 4aaa 02be
00000220: e8e0 c1bc 4136 8bbe 4605 22be 8fdb 77be
00000230: 7ce5 4bbe f766 a0be ea51 c6be 9133 2fbe
00000240: b344 68be 4cf8 afbd 9467 5dbe 15fb 37be
00000250: d867 51be e5e5 02be 5619 33be 0d2f 4d3e
00000260: 3a1a 3ebe 38f6 80be 9493 9abe 5b35 843e
00000270: d7ad 38be 5c81 a1be 1485 d63d c401 96be
00000280: eecb 68be e142 d83c 67b7 493e 7687 abbe
00000290: 6ead 793e 8d81 f9be 61ae a7bd 7318 c2be
000002a0: 6b60 3bbe 4e13 98be c0f9 dbbe 3182 f7bc
000002b0: 6601 77be 891c 94be 10bd aabe 3393 12bd
000002c0: f284 ba3c 91e9 a4be c377 adbe 82f0 233d
000002d0: 1749 e0bd af06 5dbe a636 66be 7e75 b3be
000002e0: ff39 3f3e ece8 a5be 0725 d8bd 0345 563d
000002f0: cc11 b0be 8378 dcbe c5cb ffbe b3b5 95bc
00000300: 67f3 dbbe c15e aebe a636 54be b4f1 b4be
00000310: a863 95bd ebbd d4bd c252 99be 2a92 b4be
00000320: ad45 9c3e ea19 b2be da71 d53d 5292 ccbe
00000330: 203b 5d3e 2e68 84be 986e 143b 98ec 63bd
00000340: dfc3 22bd 804d 6a3e 33ef f33d bff7 d9bd
00000350: b3d7 c6bd 5be7 aebe d2fd acbe 8d91 88bc
00000360: 312a 5fbd 7a7e 613e db2a e0bd ada7 3cbe
00000370: a361 adbe e318 c5be a3d1 23be 4ec8 85be
00000380: 7cb8 8cbe 4f22 553e 681b 01be 550a 2bbe
00000390: cc87 07be c42c dcbd 651f 38be 0693 c63d
000003a0: a1cf 3bbe e493 0d3c c458 f8bd fc23 2ebc
000003b0: f746 eebd 2b13 ecbd 4895 963e 2e26 3ebd
000003c0: b587 7dbe e813 7cbe ef0b a7bd 2bdb fabe
000003d0: 1d04 803e 48fe 9cbd 4e6b 103e e0b2 4a3e
000003e0: 6f18 aabe 2f17 5fbe a8b5 cebe 2d44 97be
000003f0: b98f e8be dd1e efbc e82d c9be d4d5 aabe
0.24230748 -0.27469447 -0.46673477 -0.12422194 -0.33265328 -0.30622867 -0.1256142 -0.12819877
0.21478818 -0.26107904 -0.20925875 0.27281737 -0.14849731 -0.4514623 -0.25414675 0.14219373
0.015736498 -0.23774336 -0.20403734 -0.35910228 0.21415558 -0.23519985 -0.24055211 -0.25908324
-0.27144456 0.15649399 0.1857956 -0.03977197 -0.19574289 -0.35927233 -0.2524018 -0.0055235033
-0.28644034 0.30052903 -0.28488842 0.15088624 -0.33843502 -0.3165158 -0.011358454 -0.26972106
-0.309386 0.26246914 -0.3725712 -0.19377588 -0.15328543 -0.23150447 0.22830927 0.022428308
0.24050187 0.24936093 -0.25660574 -0.30956253 -0.06888317 -0.25443742 -0.3318264 -0.16254662
-0.14839874 0.14300027 -0.28453207 -0.15500078 -0.40419453 -0.015081914 -0.30756238 -0.133205
-0.17150486 -0.12191422 -0.09472582 -0.2008133 0.1182234 -0.29454118 -0.28063706 0.070672415
0.09973365 -0.26881596 -0.31330055 -0.18596841 -0.18099788 -0.33399507 0.047755416 0.024856409
-0.20025638 -0.24646 -0.19247232 -0.12144292 -0.14676155 0.22420174 -0.37664247 -0.30007252
-0.2586496 -0.044994712 -0.33422565 0.19558764 -0.44063553 -0.25024772 -0.1534045 -0.14522594
0.22991218 0.08207912 -0.24530557 0.27135563 0.15840875 -0.07785701 0.03749395 -0.33189055
0.21828535 -0.3572392 -0.27598056 -0.2727563 -0.28776923 -0.17983699 -0.1356877 -0.36174673
-0.15061802 -0.10486792 -0.36725992 -0.36329392 0.14829154 -0.24511424 -0.2300971 -0.0067998003
-0.2965633 0.28461927 -0.23885936 -0.30899101 -0.29436252 -0.024031205 0.026839964 -0.37797377
-0.21107589 -0.10393689 -0.1492187 -0.17581744 -0.30182478 -0.3877088 -0.24062918 -0.12760273
-0.023666814 -0.2718983 -0.15822324 -0.24204849 -0.1991176 -0.31328556 -0.3873437 -0.17109515
-0.22682457 -0.08592281 -0.21621543 -0.17966874 -0.2044977 -0.1278301 -0.17490134 0.2003748
-0.18564692 -0.2518785 -0.30190718 0.25821957 -0.18035065 -0.31544006 0.104746014 -0.29298222
-0.22734043 0.026399078 0.19698869 -0.33501786 0.24382564 -0.48731652 -0.08187557 -0.37909278
-0.182985 -0.29702228 -0.42963982 -0.030213447 -0.24121627 -0.2892802 -0.33347368 -0.03578491
0.022768471 -0.32209447 -0.33880433 0.040024288 -0.10951441 -0.21584581 -0.22481784 -0.35050577
0.18674468 -0.32404268 -0.105539374 0.05231191 -0.34388578 -0.43060693 -0.4996015 -0.018275118
-0.4295914 -0.34056666 -0.20723972 -0.35340655 -0.072943985 -0.103877865 -0.29945952 -0.35267764
0.30521908 -0.34785396 0.10422106 -0.39955384 0.21604586 -0.25860733 0.0022648927 -0.055645555
-0.03973758 0.22881126 0.11910858 -0.10642957 -0.0970911 -0.34160885 -0.337874 -0.016670967
-0.054483596 0.22020903 -0.10945674 -0.18423338 -0.33863553 -0.3849555 -0.15997939 -0.26129383
-0.274845 0.20813869 -0.12608111 -0.1670316 -0.13235396 -0.10750726 -0.17980726 0.09696011
-0.18340923 0.008641217 -0.12126306 -0.0106286965 -0.11634629 -0.115270935 0.29410768 -0.04642313
-0.247588 -0.24616969 -0.08156573 -0.48995337 0.25003138 -0.07665688 0.14103433 0.19794798
-0.33221766 -0.21786188 -0.40372968 -0.29544201 -0.45422152 -0.029189521 -0.39292836 -0.33366263

network.3.weight f4 [256, 256]
00000000: a718 76bd a79a 95bd 775e 44bd 646b 08bc
00000010: 3830 6ebc 0eb5 9abc e360 b1bc 7f80 023c
00000020: 9777 6cbd 74c5 2ebd 5eae 10bd c2e0 49bb
00000030: fb72 2e3d 6b03 4bbd cae3 40bd 48f3 61bd
00000040: a2b6 95bc f628 cfbc 0086 88bd c68a 80bb
00000050: 9ec3 f0bb 7c63 b1bd 50cf 88bd c5e7 9fbd
00000060: 4482 dfbc 0da3 3cbd 526a 6dbd f765 3f3d
00000070: 0c22 e7bd 90f0 61bd 529b 17bc 7169 6abd
00000080: fa02 43bd c0e3 823c 26f7 d83c 0d23 29bd
00000090: 76e7 23bd c252 29bc 104e d2bc fc7c a93c
000000a0: 74e2 33bd 6c2f 6ebd b9dc 23bd 85fa 1e3d
000000b0: e23c a7bb be4c 363c 8e81 a3bc b557 e7bc
000000c0: 0c9e e2bc bb5a 60bc 07f1 02bd 6d4f 653d
000000d0: 9d76 0fbb b856 0ebd b12f cdbc 14a3 ddbb
000000e0: b123 45bd 8fa1 bbbc 5bc5 d7bc 07f6 a6bd
000000f0: d2bd 83bd e716 9ebd 519f b8bd b613 9fbd
00000100: 51c2 59bd 7936 ddbb 880b 8bbc 6f86 d0bc
00000110: 1673 90bd 6934 9cbd 1d84 55bd a2ee 92bd
00000120: 4ad8 afbc 9b83 7a3c 90ef 273c ebdd 80bc
00000130: c538 fd3c 61f3 22bd ef0c d73a f790 703d
00000140: 26cd 233d 65d7 8bbd ee6f 41bd 3888 87bd
00000150: 63dd 92bd ca63 20bc 53b8 c2bd 4a7f 87bd
00000160: 8211 e5bd 6476 413d ce2e 93bc 67dd 3dbd
00000170: fccf 1bbd 0da7 51bd 3bc4 97bc c9ac 08bd
00000180: 36f6 5ebd f755 153c b09e a83d f029 16bd
00000190: eb6f d0b9 de0e 1ebd 3082 0bbd 9d9a b83b
000001a0: f880 be3c 0efe 8abd c51e 49bd 1d7e 95bd
000001b0: 9afc d93c 91a5 9abd acf7 d9bc 1e88 a03d
000001c0: 9721 f3bc b220 92bd c3a9 14bc 99c4 1bbd
000001d0: cfe1 f6bc 6b5e 52bd d31c 58bd 4740 7a3d
000001e0: 9ef0 e93b b049 313d 516d a43d c099 90bc
000001f0: 0875 a1bd 1a67 39bb 9184 84bd 758e a8bd
00000200: 464a ffbc f300 0c3d c38f 97bc d1b2 383d
00000210: 16ec 6cbb 18db 0bbd c2b0 9cbd 09a7 ff3c
00000220: 6640 23bc 9455 cdbc 4cb3 85bd 394f cf3c
00000230: c361 76bc e191 0fbd 1f22 9b3c 98ae 20bc
00000240: 7a08 89bd 7459 41bd 3aa6 5d3d e3cb 803c
00000250: 2a73 75bd 41c7 57bd 5c33 483d a8ec 99bd
00000260: c63f 8ebd 87c8 623c 70a5 9cbd a93f 13bd
00000270: 5539 18bd 60c6 6ebd 2df1 37bd ccb1 d23a
00000280: a76c 003c b115 66bd 8f96 5fbd 9095 53bd
00000290: 8890 303d 13e7 aabc 8798 d73c c308 46bd
000002a0: 7653 b9bc 6272 82bc ee03 efbc 500e 3d3d
000002b0: c2dd 52bd 56dc a73c e47a 95bb e512 423d
000002c0: 44bf 28bc aeb1 d7bb 7d1a 38bc 40fd 8c3c
000002d0: 7596 88bc 51ad 94bd e974 b4bb c55a d5bc
000002e0: d4b9 793d feb1 bdbd 14f8 463c 5eb9 9abb
000002f0: c2de c5bc e94d b5bd 8138 193c 0175 98bb
00000300: 364d c3bd 9d00 a7bd 1e12 53bd b607 a4bd
00000310: 5fff 923b c505 50bd 8cf8 1ebd cb3f dcbc
00000320: 8ed4 2cbc 08ba 9cbd 3dfa 5dbc 1f95 1fbd
00000330: 1471 b5ba b18d 7abd 9fb8 42bd 7b8b 61bc
00000340: 3d86 f9b9 dca7 5ebd d062 8cbc 18ac 2e3c
00000350: 2cc2 e33b 6390 803b 1952 6dbc 3154 f13c
00000360: 0dc3 3bbb c39a 09bc b109 54bd 8d34 c7bd
00000370: 247b 31bd 1b94 35bd 6be1 85bd 65fa 13bd
00000380: 417a 07bc 0b21 f3ba bdde 0cbd 0527 72bd
00000390: b363 073c ff58 79bd f59f 9fbd 025d b6bc
000003a0: 5112 f0bc 2a8c e23c 325f 98bd 41a2 3fba
000003b0: 6815 b83c 7e87 b1bd afa5 613b 6f45 fdbc
000003c0: 07b2 b2bc f0a5 a4bd 568f 80bc 5aa2 3abc
000003d0: e079 0ebd 954a b5bc 8854 78bc 1c75 96bc
000003e0: d186 d8bd 80ac adbd 0f70 93bd e8fb c8bc
000003f0: f474 99bd 1295 e3bc e216 f2bc e62f 9bbd
-0.060082104 -0.07304888 -0.04794165 -0.008326385 -0.014537863 -0.018885162 -0.021652645 0.007965206
-0.057731237 -0.042668775 -0.03532254 -0.0030804132 0.042590123 -0.049563807 -0.047092237 -0.05516365
-0.018275563 -0.025288086 -0.066661835 -0.003922793 -0.007347538 -0.08661553 -0.06680167 -0.078078784
-0.027283795 -0.046053935 -0.057962723 0.0467281 -0.11285791 -0.05516106 -0.00925334 -0.057229463
-0.04761026 0.01597774 0.026485037 -0.041293193 -0.04001566 -0.010334672 -0.025671989 0.02068948
-0.043917134 -0.058150694 -0.04000542 0.038813133 -0.0051036933 0.011126695 -0.019959237 -0.028240064
-0.027663253 -0.013693507 -0.031968143 0.05598395 -0.0021890767 -0.03475067 -0.025047155 -0.006763825
-0.04812974 -0.022904186 -0.026339224 -0.08152395 -0.0643269 -0.07719212 -0.09014762 -0.077674314
-0.05316383 -0.0067508784 -0.016973272 -0.025454728 -0.07053201 -0.07627184 -0.052127946 -0.07174422
-0.02146544 0.015290166 0.010249987 -0.015730819 0.030910859 -0.039782885 0.0016407053 0.058732
0.039990567 -0.068281926 -0.047225885 -0.066177785 -0.071711324 -0.009789417 -0.09507813 -0.06616075
-0.1118498 0.047232047 -0.017966654 -0.046353724 -0.038040146 -0.051184703 -0.018526187 -0.033367906
-0.054434024 0.009114734 0.08233392 -0.03666109 -0.00039756237 -0.038588397 -0.034059703 0.0056336657
0.023254856 -0.06786738 -0.04910161 -0.07299445 0.026609708 -0.075511105 -0.026607357 0.07838462
-0.029679103 -0.071351424 -0.0090736775 -0.038029287 -0.03013697 -0.051359575 -0.052761864 0.061096456
0.0071392795 0.043283165 0.08028663 -0.017651439 -0.0788365 -0.0028290213 -0.064705975 -0.082302965
-0.031163346 0.034180593 -0.018501168 0.045092408 -0.003615146 -0.03414449 -0.076509014 0.031207578
-0.009964084 -0.02506522 -0.06528339 0.025306331 -0.015037957 -0.03505123 0.018937169 -0.009807251
-0.0669107 -0.04720445 0.054113604 0.01572222 -0.059924282 -0.052680258 0.048877105 -0.07515842
-0.069457576 0.013841755 -0.07648742 -0.035949383 -0.03716405 -0.058294654 -0.044907738 0.0016074716
0.007838405 -0.05617303 -0.054586943 -0.051656306 0.043106586 -0.020862138 0.026317848 -0.0483482
-0.022622805 -0.015923683 -0.029176679 0.046156228 -0.051481016 0.020490807 -0.004561769 0.0473813
-0.0102995075 -0.0065824604 -0.011236784 0.017210603 -0.016673306 -0.0725962 -0.005507101 -0.026044259
0.060968235 -0.09262465 0.012144107 -0.0047218045 -0.02415407 -0.08852751 0.0093518505 -0.00465262
-0.09536211 -0.08154414 -0.05153095 -0.08009283 0.004486009 -0.050786752 -0.03881125 -0.026885888
-0.010548724 -0.0765267 -0.013548431 -0.038960572 -0.0013842904 -0.061170284 -0.04753935 -0.013766165
-0.00047592996 -0.054359302 -0.017136961 0.010661148 0.0069506373 0.0039234622 -0.014484906 0.02945909
-0.0028650195 -0.0083987145 -0.051767055 -0.0972682 -0.043330327 -0.044330698 -0.06537136 -0.036127467
-0.008268894 -0.0018549276 -0.034392107 -0.059119243 0.008263516 -0.06087589 -0.07794181 -0.022261146
-0.029305609 0.027654726 -0.07440032 -0.00073102495 0.022471145 -0.08668421 0.003443103 -0.030916898
-0.021813406 -0.080394626 -0.015693348 -0.011391247 -0.034784198 -0.02213029 -0.015156873 -0.018366389
-0.10572589 -0.084801674 -0.07199108 -0.02453418 -0.0749301 -0.027781043 -0.029551927 -0.07577495

network.3.bias f4 [256]
00000000: 5a72 033e e1a8 64be 7047 c0bd 211d 7abe
00000010: ee9d 38be e0db 7dbe e87a 1cbe 15df 593d
00000020: 2e82 24be d4fa 66be 09ca 7c3d 0435 42bc
00000030: fe96 713d ed40 e43d 1296 6abd feec 66be
00000040: 0925 203e d8dc 843d 3936 3fbe b6e1 44be
00000050: 81fe 49be b745 38be ca62 82be 8eb8 5abe
00000060: 2078 78be f5e7 edbd 014c 2dbe f54a 5fbe
00000070: 1cd7 27be 9fea 24be 6d23 e6bc f84d 073e
00000080: 7527 a6bd 5d89 e3bd ead0 433d 60a0 e83d
00000090: 079f be3c 3de8 14be 67d1 62be ae1a a0bd
000000a0: cdfb f7b8 10b6 0a3d b723 4ebe 162d 3bbe
000000b0: a78d 9a3d c4be 3fbe 82a8 69be 73d2 afbd
000000c0: 1f18 85bd 5299 863c b5e4 aa3d 4165 abbd
000000d0: 7ff2 7ebe 35eb d03c f04d 08bc c1fe 42bc
000000e0: f4dc 33be 714b df3c dffd 0bbd 1a8b 22be
000000f0: afc8 29be 7dd6 423d a21d 06be 0d12 61be
00000100: 6f35 aa3d a9a5 253d 2ed2 6fbe 9ef3 80be
00000110: 396e 9bbd 437e 0dbd c3aa 09be 3ae6 6fbd
00000120: 424e c43d 586d 143d 94a2 98bd 6e5a 30be
00000130: 561b 08be 1660 e33c 8dc9 d8bd 1044 6abe
00000140: 8e6d 6c3d eee7 74be 432c 7bbd e2e5 61be
00000150: 3060 9c3d 525f 353d 40d3 463d 9927 4dbe
00000160: 009c 8abe 19c7 37be 8a6b 1fbe 81fb 1cbe
00000170: 4497 34be e79a adbd 6d26 bebd 747e babd
00000180: fb56 28be 5f18 d93d 5065 8abe a526 87be
00000190: 39a4 18be baf5 a7bd b00e 54be a43f 593d
000001a0: b709 9abb 13dc 53bd a995 573d 2f1c 86be
000001b0: ce6e 6dbe 712d f2bc 42a1 67be ce58 f0bc
000001c0: b040 23be 0e74 aabd f3d3 afbd 6cd2 afbd
000001d0: d9af d2bc 1ba4 48bd 1a69 b33d aa7b 7dbd
000001e0: 64fc 373d fefb ddbb b4ff 77bd 2ace 0ebd
000001f0: b43d 81bd a97d 0f3d e1f2 b0bd ad66 2dbe
00000200: 7c1d 4dbb c7a7 32bd 7637 233d b673 50be
00000210: dbd2 17be 6d7d 31be b182 ffbd d6a2 0ebe
00000220: 5604 c63d 1513 223d 304f 0abe 8abf ae3c
00000230: 7d00 cbbd 8643 4bbe 934b 78bd a3f7 bc3d
00000240: b35e 1d3c 33ab 0ebe 9145 02be 7889 81be
00000250: bf6a 77be 93a2 0bbd 7cda 4e3d 54b8 a23d
00000260: 262a 3e3c 9d38 843d 9310 1abe de8d 60be
00000270: 3a3b 1fbe 2dd6 593d 5df8 fbbd 0bb6 e93b
00000280: 97c8 36be 3174 eabd ef63 4d3d 85e2 f5bd
00000290: 50eb d73c 1a6a 19be 072e 26be bc0e b1bd
000002a0: 2a21 72be 5c45 1bbe f0cb 9c3d 75f4 3abe
000002b0: 3960 0abe 54a9 24be 36c4 80be c90e 5abe
000002c0: 4ef8 373d fe28 7fbd 4443 36be 9671 193d
000002d0: 194d 2ebe 9357 da3d 9c99 5abe e2b8 6fbe
000002e0: fb4c 2cbe cd61 44be 2fa0 8ebd b4bb 40be
000002f0: 5b31 133e c457 43be 8991 f7bd c6e9 953d
00000300: 8cad 47be 5d9e ecbd fcaa 11be da14 1dbe
00000310: 0ddd 8cbd b2ea 10be b474 a03d 38d6 8fbe
00000320: f666 b0bd 3ccf 503d d4ae 80be 06bb 363d
00000330: 9be0 c7bd 8d46 b6bd a54a 813d c6af 723d
00000340: a591 fe3d 92b2 19be dc8c 47be 892e 99bd
00000350: 4b87 09be 49cb 23be ae70 6bbc 325b ad3d
00000360: 030e 00be c98d d73c 1a43 c2bd df13 093e
00000370: 3be2 06bd 8482 08be 1ad5 e8bc 4e68 0cbe
00000380: 8bc5 15be daa4 eabd 60a1 c8bd da5d 40be
00000390: 4dd5 12be 5322 0c3d 94c5 84be a576 e3bd
000003a0: 9994 04be 723c a13d 19cc f5bd 1106 debd
000003b0: 4f14 7dbe 494a 54be e92a ad3d 3783 5ebe
000003c0: 55ca 65be 81a4 ae3d 8281 3ebe 9501 163d
000003d0: 63b7 66be 39e4 72be 82ac 45bd 3074 75be
000003e0: 80d5 41be 7929 22be 2ee6 09bd 643b 85be
000003f0: fb79 63be b87f 533d d088 00be 0d93 a23d
0.1283659 -0.22330047 -0.093886256 -0.24425174 -0.18028995 -0.24790907 -0.1528126 0.053191263
-0.16065285 -0.22556621 0.061716113 -0.01185346 0.058981888 0.11145196 -0.057272024 -0.22551343
0.15639128 0.06487435 -0.18673028 -0.19226727 -0.19725992 -0.17995344 -0.25465995 -0.21359465
-0.24264574 -0.11616508 -0.16923524 -0.21805938 -0.16390651 -0.16105126 -0.028093064 0.13213336
-0.081129946 -0.11110184 0.047806658 0.11358714 0.02326919 -0.14541717 -0.22150193 -0.07817589
-0.00011824779 0.033865035 -0.20130812 -0.18278918 0.07546549 -0.18725115 -0.22818187 -0.08585062
-0.06498741 0.01643053 0.08344404 -0.08368922 -0.24897192 0.02550278 -0.008319363 -0.011901558
-0.17564756 0.027257653 -0.034177657 -0.15873376 -0.16580461 0.047567833 -0.13097242 -0.21979542
0.08310973 0.04044119 -0.23420021 -0.25185865 -0.07589383 -0.03454424 -0.13444047 -0.05856917
0.09585239 0.03623709 -0.07452884 -0.17221996 -0.13291678 0.027755778 -0.10585318 -0.22877526
0.057721667 -0.23916599 -0.06132151 -0.2206035 0.07635534 0.044280358 0.048541307 -0.20034637
-0.27072144 -0.17947043 -0.15568367 -0.15330316 -0.17635828 -0.08476811 -0.09284673 -0.0910615
-0.1643943 0.106003515 -0.2703042 -0.2639667 -0.14906396 -0.082011655 -0.20708728 0.053039208
-0.004700865 -0.05172355 0.05263296 -0.26193377 -0.231868 -0.029562684 -0.22620109 -0.02933922
-0.15942645 -0.08322917 -0.08585348 -0.08585057 -0.025718616 -0.04898463 0.08760281 -0.061885513
0.044918433 -0.0067744246 -0.060546592 -0.034864582 -0.06310597 0.03503195 -0.086400755 -0.16933699
-0.0031298092 -0.043617036 0.039847814 -0.2035664 -0.14826529 -0.17333002 -0.12476099 -0.13929304
0.09668796 0.03956898 -0.1350677 0.021331567 -0.099122025 -0.19849977 -0.06061895 0.092269205
0.009605098 -0.13932495 -0.1272185 -0.25300193 -0.24161814 -0.03409059 0.05050133 0.07945314
0.011606729 0.064561106 -0.15045385 -0.21929118 -0.15549937 0.05318277 -0.12303231 0.007132297
-0.17849956 -0.11447943 0.050144132 -0.12006096 0.026357323 -0.14981881 -0.16228496 -0.086453885
-0.23645464 -0.15163177 0.076560855 -0.18257315 -0.13513269 -0.16080219 -0.25149697 -0.21294703
0.044914536 -0.062294953 -0.17799097 0.03746184 -0.17021598 0.10661235 -0.2134766 -0.23410371
-0.1682624 -0.19177933 -0.06964146 -0.18821603 0.14374296 -0.19076449 -0.120883055 0.07319979
-0.19499797 -0.11553643 -0.14225382 -0.15339985 -0.068780996 -0.14152029 0.07834759 -0.28093123
-0.08613388 0.050978884 -0.25133383 0.044611953 -0.09759637 -0.08900175 0.063130654 0.059249662
0.12430123 -0.15009525 -0.19487327 -0.07479579 -0.13430516 -0.15995516 -0.014370127 0.0846466
-0.12505345 0.026312726 -0.09485455 0.13386486 -0.032930594 -0.13331038 -0.028421927 -0.13711664
-0.14626138 -0.11457224 -0.09796405 -0.18785802 -0.1433918 0.03421242 -0.2593199 -0.11106614
-0.1294731 0.07872857 -0.12001819 -0.10841001 -0.24714778 -0.20731463 0.0845545 -0.21729742
-0.22440465 0.085274704 -0.18604091 0.036622602 -0.22530894 -0.23719873 -0.04826022 -0.23970103
-0.189291 -0.15836133 -0.033666782 -0.26021874 -0.222145 0.051635474 -0.1255219 0.07938204

network.6.weight f4 [128, 256]
00000000: f896 07bd 28ec 55ba d110 633d c4d3 413e
00000010: 515c c13c 8c79 a63c 1589 09bd f6b9 33bd
00000020: 3389 4d3d eb9a 313e 0100 643c 602f 033d
00000030: de17 c33c 461d 0dba 10bb 933c 7ddb a3bd
00000040: 043e f0bd 5b2e 09bd f063 4e3c 1aec 8a3d
00000050: 2c61 2bbd 8ee8 2c3e 07b2 403e 5cd9 7b3d
00000060: 78df 453d ccec 1d3d 2a2b 203d 21ad 0e3d
00000070: 66ec 523c 259f ad3d a937 9ebc 2cb4 b2bd
00000080: cdb5 5d3a e5a6 b13b 5e00 bbbc 5d61 3f3c
00000090: 2135 83bd 35ec ba3c c0a7 90bc c510 d0bc
000000a0: a228 1e3d b3c7 09bd d25c 3f3d 8407 da3d
000000b0: 2d45 15bd e662 423d 81f4 663e c4d6 94bb
000000c0: 71c4 b43d 2bf8 cdbc 3301 ab3b 367a e3bb
000000d0: 2b3e 8a3e c8e9 f4bc 7f91 86bd d954 38bd
000000e0: 84c1 b23c aefd 313c db66 a53d 8b63 2c3d
000000f0: 0127 103d 35be 8cbc 1340 efbc e0b4 963d
00000100: 8ebe 693c 3ed5 093c c610 a33b cf39 afbc
00000110: 7177 9c3d 677e acbc 274a 093d 4aea 3e3d
00000120: ec8e 1bbd 911f 6d3c 2ec4 c23d 9343 f23c
00000130: c30b 61bd 9037 77bd 19a5 043d adcc 8b3e
00000140: a6a8 a3bd d389 793e 78bb b93d c2e6 173d
00000150: 4063 98bd 563a 4dbc 17d3 4b3d b5f4 9dbd
00000160: aeb3 1dbe 7718 833d 70be e2bd 4ff3 113e
00000170: ded4 34bd 6aae e73b 3017 073d 00be 653d
00000180: cb94 3abd 2334 b83c ef34 c83d b7a6 6c3e
00000190: f016 0b3e ca3e d83c eb0c 94bd 86ec 62bd
000001a0: ae5c 6f3c f649 313d 5d05 aa3d 86f5 513e
000001b0: 70d0 88bb 3658 2c3c 67e9 4e3e d1a8 86ba
000001c0: c5bf 0e3d 2154 54bd 56a4 753d 07ce e4bc
000001d0: dc53 4abd 99a8 923d c4c6 c9bd 871c b53c
000001e0: 4a2f 8dbc ac4c 9dbd 36d7 503d 5c1e 1c3a
000001f0: 7e5f 17bd e0c9 1cbc 11fb 65bc f427 ef3d
00000200: 6d79 0bbd 04d0 ef3d db35 d23d d97c ddbd
00000210: 1258 2d3e 79ad 94bc dd07 eb3c 50e3 cc39
00000220: 7e34 a8bc 0ca8 a13c 5953 563b 62ca 6dbc
00000230: 5b74 9f3c 2875 ccbd 6bcb 48bd bebd ab3d
00000240: af47 01bd 0cd9 913d 908c 583c cb0c 0a3e
00000250: 065a 39bd d2f5 bcbd 24b2 40bd 34a5 1fbd
00000260: 9ac2 8ebd 5989 27bd 43fb ec3d e9fe e73d
00000270: 5fef dbba 994f 75bc 6080 bc3c 99bb 333c
00000280: b6db 8a3d 9ef3 2b3d 618d 213b 4115 513d
00000290: 7de1 1cbd b271 023d 066e 623c 59bb 203d
000002a0: a4aa 383e 7102 97bc c544 12bd e675 083d
000002b0: a47f b33d 010f d83b 3e3d 41bd c0c7 d43c
000002c0: a6a9 7dbd 874a 6e3d 77ce 143d b4d1 8cbd
000002d0: b40f 073e bbf4 993c 7741 823e 176e d63c
000002e0: efee 813d 21f4 67bc febb 7fbd b54d 09be
000002f0: 500b 853d 47f6 f13c 02b8 753d 0457 9bbd
00000300: 1eb1 d2ba 6f7b bc3d d79e 7f3d ab39 113d
00000310: e5a4 7c3d 230a 633c eed8 a7bd 5f5c 663e
00000320: 4cb3 003e fc91 23bc 55ab d43d 92b5 81bd
00000330: 68ad a53d 0ee7 e83d 734d d0bc 1d5a e6bc
00000340: d165 babd c256 a13c d24d ad3b b92c fd3b
00000350: 9dc8 aa3d 7bca a73d 1691 793d fb18 85bc
00000360: 75ff ee3c 8948 fbbc 5cb9 6c3d ffa1 a43b
00000370: 2819 6bbd eb0e af3a 5272 5cbb 10fd 9c3b
00000380: ff66 f33d 4dc5 db3d cd64 173e a3fc d13d
00000390: cad8 1e3d b527 75bd caab 073b 6f2b be3c
000003a0: c2a2 7e3e 9535 b23c e10a be3d 3883 7b3d
000003b0: 96f9 10bc 7ef6 d2bd 7d2e b6bd eaa9 9c3d
000003c0: e944 5dbd fad6 4fbd 3b83 4e3c 5464 8cbd
000003d0: 3c40 1c3e 7975 7dbd 0873 85bc c396 723e
000003e0: f14c 123e 7ba6 0cba 4ccc 5c3d e7fe 69bd
000003f0: 69c8 623e e6f2 95bd b9fd 0b3d b5ed dc3b
-0.03310296 -0.0008160495 0.05543596 0.18928438 0.02360359 0.02032163 -0.033577997 -0.043878518
0.05017967 0.17344253 0.013916017 0.032027602 0.023815092 -0.0005383085 0.018033534 -0.080008484
-0.117305785 -0.033491474 0.012597069 0.06783314 -0.041840717 0.16885588 0.18817912 0.061486587
0.04830882 0.038555905 0.039103664 0.034833077 0.012873745 0.0847762 -0.01931365 -0.08725771
0.00084575714 0.0054215067 -0.022827324 0.011680928 -0.06406618 0.02281771 -0.017658114 -0.025398621
0.03861297 -0.033637714 0.04671938 0.10645965 -0.036442924 0.0474576 0.22554208 -0.0045422036
0.08826531 -0.02514275 0.005218649 -0.006942059 0.27000555 -0.029896632 -0.0657072 -0.045002792
0.021820791 0.010863705 0.08076259 0.04208712 0.035193447 -0.017180542 -0.029205358 0.07358718
0.014266623 0.008412657 0.004976365 -0.02138987 0.07639969 -0.021056367 0.033517983 0.046610154
-0.037978098 0.014472858 0.095100746 0.029573238 -0.054942857 -0.060355723 0.032384012 0.27304593
-0.079911515 0.24368982 0.0906896 0.037085302 -0.074408054 -0.012526115 0.049761858 -0.0771269
-0.15400574 0.06401151 -0.11071479 0.14252971 -0.04414832 0.0070703523 0.032981098 0.0560894
-0.045552056 0.022485798 0.09775721 0.23110472 0.13582969 0.026397128 -0.072290264 -0.055401348
0.014609499 0.043283425 0.08301804 0.20503816 -0.0041752383 0.010519078 0.20206223 -0.00102737
0.034850854 -0.051838044 0.059971176 -0.027930273 -0.04939638 0.07161064 -0.09852365 0.02210833
-0.017234463 -0.076806396 0.05098649 0.00059554516 -0.036956303 -0.009569615 -0.01403691 0.11677542
-0.034051348 0.11709598 0.10264178 -0.108148284 0.16928127 -0.018149124 0.028690273 0.00039079273
-0.020532843 0.019733451 0.0032703488 -0.014513584 0.019464662 -0.09983283 -0.04902212 0.083858
-0.031562503 0.071214765 0.013217106 0.13481443 -0.04525187 -0.09226574 -0.04704489 -0.03897591
-0.06970711 -0.04090247 0.11571362 0.11327917 -0.0016779712 -0.014972591 0.023010433 0.01097002
0.06780188 0.04198038 0.0024650919 0.05104566 -0.03830098 0.03184671 0.013820177 0.03924117
0.18033844 -0.018433781 -0.035710115 0.03331556 0.0876458 0.0065935855 -0.047177546 0.025974154
-0.061929367 0.058176544 0.036329713 -0.06875935 0.13189584 0.018793454 0.2544057 0.026175542
0.06344401 -0.014157326 -0.062435143 -0.13408549 0.06496298 0.02953638 0.059989937 -0.07584956
-0.0016074514 0.092032306 0.06240734 0.035455387 0.061680693 0.013857397 -0.08195673 0.22496174
0.12568396 -0.009983536 0.103842415 -0.0633346 0.08089715 0.11372195 -0.025427556 -0.028119141
-0.09101451 0.01969469 0.005288818 0.0077262786 0.08339045 0.08192917 0.06092938 -0.016247263
0.029174546 -0.030674236 0.05779396 0.0050241943 -0.057397038 0.0013355886 -0.0033637476 0.0047909096
0.11884879 0.107309915 0.14784546 0.10253265 0.038780965 -0.05985232 0.002070176 0.02321407
0.24866775 0.021754066 0.09279419 0.061404437 -0.008848568 -0.10300921 -0.08895586 0.07649596
-0.054020796 -0.050742127 0.01260453 -0.068550736 0.15258878 -0.06187961 -0.016290203 0.23690324
0.14287163 -0.00053653837 0.05390577 -0.05712786 0.22146763 -0.0732172 0.034177516 0.006742204

network.6.bias f4 [128]
00000000: 89ee 32bd 8f0a 72bd b3d6 76bd bf91 23bd
00000010: 44a7 1f3c 15c8 263c 30f6 cabc 92f7 54bd
00000020: e4a6 60bd ba1c 25be d94b 06bd 4579 4cbd
00000030: a64a 23bd d925 aabc 086b 10bd 266d e0bc
00000040: ab32 11bc 2c9c aabc 7702 8abd 5c68 f8bb
00000050: 01d7 afbd dcae babc 5396 75bc 94ea 8bbd
00000060: 66a0 2f3d 16a2 f2bc 1e96 98bd 31a8 09bd
00000070: 3e0f 18bd 3916 94b9 1f98 76bc ada6 ebbc
00000080: 7d8e 33bd 4650 4dbd 2729 76bc 39c1 e93c
00000090: 05c2 d2bc 984b 19bc 7ddd 3bbc bb15 96bd
000000a0: 69cd 4bbd fadc cfbc 297e 373d d359 793d
000000b0: ff9a 95bd 9fd1 35be 8fed 963c fd20 8b3a
000000c0: 0f33 0c3d 04ad d8bc 608a 423d 535b c23d
000000d0: 676a 0f3d e6c7 cabb a625 81bd 8743 94bc
000000e0: e179 a5ba 6ddd 35bc 4007 42bc 4523 63bc
000000f0: e199 87bd 109d fa3c 3063 3ebd 85e6 1b3d
00000100: e8a8 0abd f8b5 c1bc 6d61 92bd 2c9d a5bb
00000110: 70b2 00bd bea2 2ebc e3a8 e9bc f18e 37bc
00000120: 76c0 37bc e9e0 e93c 3f23 12bc 8078 64be
00000130: f469 9a3a 25cd 553d bf3a 94bb 5d85 59bc
00000140: 7abf 8dbc 5417 43bd 2751 94bc 1040 d5bd
00000150: 03e1 37bd 6b5e 93bd cdda 9fbb bc20 c3bd
00000160: 5f50 78bd ce80 e2bd 202c 16bc 13d1 b0bc
00000170: c53e 92bd ecac 99bc 06b5 4fbd c3ca 43bd
00000180: 9162 63bd df0f 873d 8dcf 90bb ac0f 7a3d
00000190: fb36 8c3c 9024 943d c1bd 343d 9c73 bcbd
000001a0: fcd8 b7bd 7c87 f2bc 83da deba 8a97 e2bc
000001b0: d883 e2bc ed85 85bd 92cb 00bd e8f4 4c3d
000001c0: 68f9 84bd 08f9 9abc 5f88 84bd 2991 c63c
000001d0: ad16 84bd 1c01 a3bc c555 69ba b47d 04bd
000001e0: 1fdd 193d 3dae 243c 5179 c6bd 8554 20bd
000001f0: 35ab 3ebd bb3b eb3d e447 53bd 9fee d73c
-0.043684516 -0.0590921 -0.060263347 -0.039933916 0.009744469 0.010179539 -0.024775594 -0.051993914
-0.05484666 -0.1612424 -0.032787178 -0.04992034 -0.039866112 -0.02077 -0.035258323 -0.027395796
-0.008862178 -0.020826422 -0.067387514 -0.0075808 -0.085859306 -0.022788458 -0.014989453 -0.068318516
0.042877577 -0.029618304 -0.074505076 -0.033607665 -0.03712391 -0.00028245317 -0.015050917 -0.028766
-0.04383706 -0.050125383 -0.01502446 0.028534519 -0.025727281 -0.009356402 -0.011466381 -0.073283635
-0.04975644 -0.025373925 0.04479805 0.06087668 -0.07304954 -0.17755745 0.018423824 0.001061469
0.03422838 -0.026449688 0.047495246 0.09490075 0.035013583 -0.0061883805 -0.06306009 -0.018098606
-0.0012624824 -0.011100155 -0.011842549 -0.013863389 -0.06621147 0.030592471 -0.04648131 0.038061637
-0.033852488 -0.02364634 -0.07147489 -0.0050541367 -0.03142017 -0.010658918 -0.028522914 -0.0112035135
-0.01121532 0.028549628 -0.008919536 -0.22311592 0.0011780844 0.052197594 -0.0045236046 -0.013276425
-0.017303217 -0.04762967 -0.018105103 -0.104126096 -0.044892322 -0.07195743 -0.004878378 -0.09527728
-0.060623523 -0.11059724 -0.009165794 -0.02158407 -0.071408786 -0.018759213 -0.050709747 -0.04780079
-0.055513922 0.06594824 -0.004419273 0.061050102 0.01711606 0.07233536 0.044126276 -0.09201738
-0.08976933 -0.02960562 -0.0017002377 -0.02766015 -0.027650759 -0.06519685 -0.03144414 0.05003825
-0.06492883 -0.018917575 -0.06471323 0.02423914 -0.064496376 -0.01989799 -0.0008901025 -0.032346442
0.037564393 0.010051307 -0.09691108 -0.039143104 -0.046549994 0.11486002 -0.051582232 0.0263589

network.9.weight f4 [1, 128]
00000000: 3819 d13e a484 30be 1d0e d53e 1cec f0bd
00000010: 3229 c23e 527a 86bd e074 db3e fcbc d43e
00000020: cf16 15be 74fd 39be 04da 85be 9c94 f53e
00000030: 541b 5dbe 16f9 f5bd 48db b6bd 853d ccbd
00000040: cf38 a8bd 496c a4bd 5741 db3e f955 b3bd
00000050: 12ae f03e 65ce db3e 2d9e 8ebd f52e 9cbd
00000060: aebd f43e 5ae5 dc3e 0d76 e23e 4238 e53e
00000070: 324f c0bd 9b33 f53e 8cfa e23e 3f29 db3e
00000080: 5c1f d2bd c57c 86be 5569 a0bd 918c df3e
00000090: 437c f13e efa8 a4bd 3786 99bd a86c ccbd
000000a0: 0b2e 043f 6424 e03e e8d4 fe3e 9768 013f
000000b0: ff00 e83e 084a 4bbe eda5 043f c7c0 023f
000000c0: ce6c adbd fb1c b3bd 9c50 063f 0e9e 0e3f
000000d0: 42be a8bd f6c8 d1bd 5ec9 e83e 035a f83e
000000e0: 708b d33e 8ff0 f83e 6487 e83e feb7 133f
000000f0: d288 2fbe c16b e73e 977f ee3e 5224 123f
00000100: 6f5a ef3e daa2 f73e 297e ccbd 2fe1 043f
00000110: 1133 083f e1ae 043f ee72 8dbd 92a9 e33e
00000120: 5165 a2bd f9e4 da3e 18ec a0bd abfe 3fbe
00000130: 6da3 a4bd c2b4 f93e a86f 8ebd 68b4 e13e
00000140: 4ce6 f63e 6301 98bd fe54 f0bd 7a38 a2bd
00000150: acb5 78be ba92 3bbe 2eec e83e ec0d fabd
00000160: f896 ef3e c457 de3e 5787 c7bd d57d 79bd
00000170: 9fdc e6bd f5a8 6fbe 5315 e83e 9452 d4bd
00000180: 202d f53e 4620 043f bebe a5bd 9270 f73e
00000190: 219c f83e 551e bf3e 6b37 1f3f 5285 e33e
000001a0: ffa9 87be 0535 b2bd 91b2 eb3e ece5 f23e
000001b0: 5a4c df3e 7217 b33e 7956 debd 5e9d 103f
000001c0: d098 3abe 4c64 a1bd a78b 25be ac88 b5bd
000001d0: 47a3 d83e 8010 cdbd a57b efbd 0462 ef3e
000001e0: 33ee 033f e443 dc3e a53d 023f cad1 db3e
000001f0: 4629 dc3e 56ee bf3e c8b8 d53e 2586 9cbd
0.40839553 -0.17238098 0.4161233 -0.11763784 0.37922055 -0.065662995 0.42862606 0.41550434
-0.14559482 -0.18163091 -0.26142895 0.47964942 -0.21592456 -0.120104 -0.08928543 -0.099726714
-0.082139604 -0.08028466 0.42823288 -0.08756632 0.47007805 0.42930904 -0.069637634 -0.07626144
0.47800964 0.4314373 0.4423069 0.44769484 -0.09390105 0.47890934 0.44331777 0.42804906
-0.102598876 -0.26267067 -0.078325905 0.4366193 0.47165117 -0.08040034 -0.074963026 -0.09981662
0.51632756 0.43777764 0.4977181 0.50550216 0.4531326 -0.1985246 0.5181568 0.51075405
-0.084680185 -0.08745762 0.5246675 0.5570992 -0.08239414 -0.102434084 0.4546613 0.48506173
0.4131732 0.48621032 0.45415795 0.57702625 -0.17142037 0.45199397 0.46581718 0.5708667
0.46748683 0.48366433 -0.09985001 0.519061 0.5320292 0.51829344 -0.06906687 0.4446531
-0.07929481 0.42752817 -0.07857531 -0.18749492 -0.080389835 0.4877072 -0.069548905 0.44082952
0.48222578 -0.074221395 -0.11734961 -0.07920928 -0.24288052 -0.1831769 0.4549269 -0.12209687
0.46794868 0.43426335 -0.09742611 -0.06091102 -0.11272549 -0.23404296 0.4532877 -0.10367313
0.4788599 0.51611745 -0.08093022 0.48328072 0.48556617 0.3732783 0.62193936 0.44437653
-0.26496884 -0.08701519 0.46034673 0.4744104 0.4361294 0.34978825 -0.10856337 0.56490123
-0.18222356 -0.07880458 -0.16166554 -0.08863959 0.4231207 -0.10012913 -0.11693505 0.46754467
0.5153534 0.43020546 0.5087531 0.42933494 0.4300024 0.37486523 0.4174254 -0.076427735
