models/epoch_90/generator.pth (torch, 485191 bytes, 20 tensors)

network.0.weight f4 [128, 100]
00000000: 4b86 c2bd 5c37 193d ac32 8a3d fe8e febc
00000010: 79b2 e0bb 32b0 2a3d 9457 a4bd fd3c 90bd
00000020: cf74 68bd ac47 e13c f407 a3bc 708d 6abd
00000030: 71d0 90bd 5c9d 8339 3aa0 36bd 3165 25bd
00000040: 7e17 bcbd baba 85bd 231f 7f3d fef4 35bd
00000050: 23e1 72bd f90f 00bd 4b4b 4cbc 74b3 64bd
00000060: 59f9 5a3d f838 32bc 862e a0bd 306a 9fbd
00000070: bcd7 abbc 12a9 aabd 6b3b d1bd a89d 92bc
00000080: 0956 d0bc 9ec4 c63d 994b 5abc ddf0 15bd
00000090: 1bd4 53bd 2bd6 3a3c 1763 23bd 1d6a ccbd
000000a0: 9476 f83c 23f7 673d 7f65 b8bd 4070 03bd
000000b0: 273d 943b 6fec b33d ed4c 003d b8b9 62ba
000000c0: d9bf 78bd 92f3 e13d 4075 c63c ff31 443c
000000d0: 00c6 5dbd 26ba e8bd 772c 89bd 230a 083d
000000e0: 5b06 87bb 0218 9a3d ddea 0dbe fa63 f93d
000000f0: 50b8 cdbc 922d 25bd f36b 13bd 2a97 46bd
00000100: f347 7abd 579c 653d 924b c93d 4039 953d
00000110: 3cb6 5ebc b96d 9c3d 41a7 0fbe 708f 18bd
00000120: c175 7c3d 7eb7 88bd 556e a43b eb8c 023e
00000130: de31 7cbd 0152 813b 8b65 773d b44f 623d
00000140: b77b c5bc 570c 013e 68f6 f4bc 7d8e cbba
00000150: 16d5 bbbd 98c5 913d 70ec 843b d347 d93d
00000160: 98b6 d43c 207c 87b9 5f57 bebd ae23 d53d
00000170: 462a d8bc 1e2d d6bc 0d70 4f3d c23d 1ebd
00000180: 0b55 c83c 4be7 d5bd 91db 703d 2010 9f3d
00000190: 7a1c 7d3d 450c e6bc 9b01 43bd 24a1 fabc
000001a0: f426 1e3c 11f9 2fbd 4bc2 1b3d 50d4 b5bd
000001b0: b7de 643d 802a 0bb9 531f f23d 2c1b fdbd
000001c0: 70c6 c63c 0424 be3d 0341 7abc bd3c 01bd
000001d0: 5baa 83bd 4db1 6d3d a0e7 5fba e0f8 39bc
000001e0: 62cb 54bd 7eee 63bd e5dd 53bd 5435 4ebd
000001f0: 0d61 4c3d a8fb ff3c eeb1 9abc a7d2 f83b
00000200: c4b2 ae3d 3243 ac3d 46ba ab3d f335 b2bd
00000210: c1de b13d 50e4 3c3d 4880 bdba 50dc 883d
00000220: a67c a0bd f9dd e8bb fe3c a73d e92d 4ebc
00000230: a638 fb3c 7cd9 b3bd e8cd 6bbc a833 1dbd
00000240: dcd4 933d 992a f7bd d37a 2ebb 493f c6bd
00000250: 6abd cc3d 0fdb b13d 235f a83d 37a4 01bc
00000260: 6f47 8c3d ff34 44bd ddc8 a33d ef10 813d
00000270: 2adc acbd 5bc8 f13d a19b a5bb 26af 953d
00000280: 3a54 22bd e493 eabb 7a7d e5bd 7874 01bc
00000290: b608 563c 7e93 acbd 5d6e 343b eafd d6bc
000002a0: 2463 153d 3d63 013d 52bc f03d f959 14be
000002b0: a0f7 57bd fb8c 573d 73d0 a3bc 4330 b63d
000002c0: a121 143d 43db acbd dd12 773d 0a6d e7bb
000002d0: b13b 3b3d bd4b df3c 7417 bf3d 0a1c 97bb
000002e0: 5315 62bd 91e2 d0bd 9797 8cbb 4edf 6c3d
000002f0: 9c1d aabd de67 ccbd 694e f0bc 40c9 823d
00000300: 76ec acbd a58a bb3d d0ec dabd af77 0fbd
00000310: f852 673c 7f91 d83d d2e7 b33c c495 d9bc
00000320: 437c 88bc 67ac 4c3d 11b4 70bc 5549 c1bd
00000330: 0bf2 2cbd 1e34 97bc 6adf 2a3d fad3 823d
00000340: 6fcb 93bd b886 253b 159b b6bc 3a53 773c
00000350: 1f16 ac3d 8db2 ce3d f9ce fdbb 7a8c e13c
00000360: b376 873c 8ff4 09be 471f 2ebb 1015 8ebc
00000370: 83a0 b7bd c951 fb3c 68a6 d7bd bbf9 ac3d
00000380: 6e87 dd3d 0874 98bd 364d 2dbe c027 cfbd
00000390: 4dff a73d b7ad d23a a19f 523d 5a92 34bd
000003a0: 5413 883c 89b9 c9bc a378 e5bd b945 4f3d
000003b0: e621 063d e96f c6bd 386f 89bd 8463 473d
000003c0: c20c 343d 36de 3dbd dd9b 97bc 853f b8bd
000003d0: 723d 453b 6882 95bd 169f c8bd a326 cc3d
000003e0: e54a 773d e581 5d3c ca44 95bc c8bf 6dbd
000003f0: 39cb 2bbd 5509 c3bc 903e 943d 8fb6 013e
-0.094982706 0.03740631 0.06747946 -0.031074043 -0.006857213 0.04167194 -0.08024517 -0.070428826
-0.056752022 0.027499996 -0.019901253 -0.05726379 -0.07071007 0.0002510351 -0.044586398 -0.040379707
-0.09184168 -0.06529756 0.062285554 -0.044423096 -0.05929674 -0.031265233 -0.012469123 -0.055835202
0.053460453 -0.01087784 -0.07821374 -0.077839255 -0.020976894 -0.08333029 -0.10216411 -0.017897442
-0.02543165 0.097054705 -0.013323688 -0.03660666 -0.05171595 0.011403601 -0.03988942 -0.09981177
0.03032998 0.056632172 -0.09003734 -0.03208947 0.0045238915 0.087853305 0.031323362 -0.000864889
-0.060729835 0.110327855 0.024225831 0.011974811 -0.054143906 -0.1136363 -0.06697934 0.033212792
-0.0041206307 0.075241104 -0.13859124 0.12177272 -0.025112301 -0.040326662 -0.03599162 -0.048484005
-0.061103772 0.0560573 0.09828867 0.0728631 -0.013593253 0.076381154 -0.14028646 -0.037246168
0.061635736 -0.06675623 0.0050180354 0.12749068 -0.061570995 0.003946543 0.060399573 0.055251792
-0.024106843 0.12602364 -0.029902652 -0.0015530136 -0.09171502 0.07117766 0.004056506 0.106094025
0.025965974 -0.00025841687 -0.092940085 0.10407196 -0.026387345 -0.02614456 0.05064397 -0.038633116
0.024454614 -0.10444506 0.058803145 0.077667475 0.061794735 -0.028082022 -0.047608953 -0.030594416
0.009652842 -0.042962138 0.03802709 -0.08878386 0.05587646 -0.00013271905 0.11822381 -0.12358698
0.024264544 0.09284213 -0.015274289 -0.031552065 -0.06428977 0.058030415 -0.000854129 -0.01135084
-0.051951773 -0.055647366 -0.051725287 -0.050343826 0.049897242 0.031247929 -0.018883672 0.007593471
0.085301906 0.08411254 0.08385138 -0.08701696 0.08685065 0.046116173 -0.0014457786 0.06682646
-0.07836275 -0.0071065393 0.0816593 -0.012584188 0.03066666 -0.08781716 -0.014392354 -0.03837934
0.07218334 -0.12068672 -0.0026623502 -0.096800394 0.09997065 0.0868436 0.08221271 -0.007912687
0.068495624 -0.047902104 0.07997296 0.06302058 -0.084404305 0.11805793 -0.005053953 0.073087975
-0.039631106 -0.007158743 -0.112055734 -0.0079013035 0.0130636 -0.084265694 0.0027531602 -0.026244123
0.0364715 0.03158878 0.11754669 -0.14487447 -0.052726388 0.052624684 -0.019996857 0.08895924
0.036164884 -0.08440258 0.060320724 -0.007062559 0.045711223 0.027257795 0.09330645 -0.004611497
-0.055196118 -0.10199464 -0.004290532 0.057830147 -0.08306429 -0.099807486 -0.029334264 0.06386042
-0.08443539 0.09157304 -0.106897 -0.03502625 0.014118902 0.10574626 0.021961126 -0.026560672
-0.016660815 0.049969103 -0.014691369 -0.09437815 -0.042223018 -0.018457469 0.04171697 0.063880876
-0.07216536 0.00252573 -0.022290746 0.015095526 0.08402657 0.100926496 -0.0077456203 0.027532805
0.016536092 -0.13472198 -0.0026568936 -0.017344028 -0.08966162 0.030678647 -0.10529786 0.0844607
0.10816847 -0.07444006 -0.16923985 -0.101150036 0.08202992 0.00160735 0.051421765 -0.044084884
0.016610779 -0.024624603 -0.1120465 0.050603602 0.03274717 -0.09689314 -0.067106664 0.04867889
0.04395748 -0.046354495 -0.018506939 -0.089964904 0.0030096439 -0.07300264 -0.09795968 0.09968307
0.06037416 0.013519739 -0.018221278 -0.058044225 -0.041941855 -0.02380816 0.07238495 0.12667297

network.0.bias f4 [128]
00000000: a1c5 babd 2713 ba3d e54e 6f3d 14fe 113c
00000010: 3926 563d 8de4 133d cfa9 cc3d 336b 013e
00000020: 328f ed3c 176b a73b a586 b6bd cab9 f8bb
00000030: b23e 503d 0031 e03d f978 1d3d 6652 b03d
00000040: 4309 9ebd 8998 a83b 4fcd d0bb cef2 1a3d
00000050: bc8e e3bc ac1a 44bd ffd5 3a3d 48c8 1abe
00000060: 6c6c f13c 974c 34bd 330c 70bd e63f 38bd
00000070: 375a ecbc fa28 e0bd e353 1fbb aec3 9ebd
00000080: 092f 6fbd 816b 943d 0216 833d 7150 f33d
00000090: 9e8a 95bc 76ac aebd 2adc 0e3e 6ea7 c9bd
000000a0: 5568 fdbc 6bb4 cebc 15a2 a5bd 10b6 7c3c
000000b0: e6ae 42bc 3b13 dfbb 4c43 2d3d 7d9c 90bc
000000c0: f07c 9abd 9bd8 263c fbf4 a23d f9d3 de3d
000000d0: 93c1 763d db18 0fbe 9933 923d 3554 a63b
000000e0: 1d36 a1bb dbc4 aebc 9ff7 14bb 6ee8 e53c
000000f0: 776a c13d fdd6 7bbd e270 9f3d cfd2 d6bd
00000100: e536 bcbc c452 c1bd c790 2ebd e2a3 09bc
00000110: 2bb4 c9bd e1a9 983c d98b c13d 7387 12bd
00000120: 025f 433d 0f67 90bd 953d 773d 6898 37bd
00000130: be62 a53c 4ca0 81bd 3ac9 e3bd 0f9f 93bd
00000140: 6cb0 94bd 10da 943d 4999 d739 6ae6 00bd
00000150: ab6e 4b3d 0d48 853c 8684 d43d 0047 4abc
00000160: 9aa5 5639 381f 32bd 3e9b 24bd b718 673d
00000170: de97 423d 0565 64bd d020 b0bd 3179 2bbc
00000180: f0d4 c7bc 07a1 fcbb 91d4 4cbd 0fc5 7c3d
00000190: 0cb0 0fbb f914 4dbd c914 2ebd 3ba1 babd
000001a0: 0b2d a2bc ddcb 4e3d 3018 abbd a46e 85bd
000001b0: d222 ecbc 1ab3 19be 8438 16bc 3b74 763b
000001c0: ad57 8cbd 3011 cdbd 501c 8cbd 3133 9e3d
000001d0: 84e9 12bd a2f9 583d 91cf 903d 2456 8b3b
000001e0: cb11 013d 4ffc bebd eae0 d6bd 5a46 593c
000001f0: 268c fb3d 7075 f03d 0ece a53b 352e 6a3c
-0.09119726 0.09085684 0.05842485 0.008910675 0.052282546 0.036106635 0.09993326 0.1263855
0.028998945 0.0051092017 -0.089124 -0.007590507 0.05084104 0.10946846 0.038445447 0.08609466
-0.0771661 0.0051451367 -0.006372131 0.037829213 -0.027778022 -0.047877 0.04561424 -0.15115464
0.029470645 -0.044018354 -0.058605384 -0.044982813 -0.028851612 -0.10945316 -0.0024311475 -0.07752167
-0.058394466 0.07247067 0.06400682 0.11880577 -0.018254574 -0.08528988 0.13951173 -0.09846388
-0.030933538 -0.025232514 -0.08087555 0.015424266 -0.011882519 -0.0068077124 0.042300507 -0.017652744
-0.07543361 0.010183479 0.079568826 0.10880274 0.0602432 -0.13974325 0.07138748 0.005075956
-0.004919781 -0.021334102 -0.0022730601 0.028064933 0.09444135 -0.061484326 0.077852026 -0.10489427
-0.022975395 -0.094396144 -0.04261854 -0.008400889 -0.098488174 0.018635692 0.09450502 -0.035773706
0.04769803 -0.07050907 0.060361464 -0.04482308 0.020188686 -0.06329402 -0.11122365 -0.072080724
-0.07260212 0.072681546 0.00041122202 -0.03146974 0.049666088 0.016269708 0.10376839 -0.012346029
0.00020470322 -0.043486804 -0.040187113 0.056420054 0.047508113 -0.055760402 -0.086000085 -0.010465906
-0.024393529 -0.0077096256 -0.050007407 0.061711367 -0.0021925 -0.05006883 -0.04250029 -0.091127835
-0.019796869 0.050487388 -0.08354223 -0.06515244 -0.028825197 -0.15009728 -0.009168748 0.00376059
-0.0685266 -0.10013044 -0.06841338 0.07724608 -0.03586723 0.052972443 0.0707084 0.004252212
0.03151111 -0.09325468 -0.10492118 0.013261402 0.122825906 0.117411494 0.005059964 0.014293243

network.2.weight f4 [128]
00000000: 23c8 783f 06e5 813f ecf1 733f 26cc 7e3f
00000010: bfd9 6d3f e9ee 863f 2695 833f 974c 843f
00000020: a584 743f bda6 7a3f 48a6 763f a373 7c3f
00000030: b9e4 733f 6731 813f a52b 7a3f 1513 7e3f
00000040: e587 7c3f f9b0 813f 5a5b 783f 1e1c 873f
00000050: 6950 7c3f 68ce 753f ce7d 733f 9888 783f
00000060: bb57 803f e141 7f3f 4beb 7d3f 1c0d 723f
00000070: b90c 773f 74d2 843f 1a64 833f 626a 6a3f
00000080: 1301 7a3f b06a 7f3f 56cc 843f 1686 823f
00000090: 7131 7c3f 99ec 843f b265 6f3f 5c97 7b3f
000000a0: c922 7f3f 3781 793f 9bab 733f bcef 763f
000000b0: 1a3b 833f 4f80 753f 5390 953f a891 803f
000000c0: 9c36 7b3f e103 813f 5e26 803f a2a7 813f
000000d0: b4fe 853f df59 7b3f a7be 803f bd2c 883f
000000e0: 4a06 813f 1998 813f 874f 833f e0c4 7d3f
000000f0: 9739 813f b16b 763f 340e 8a3f fafb 6b3f
00000100: 992d 7b3f 7fc6 843f bebc 773f f930 7a3f
00000110: 2073 7e3f 66eb 763f 1b89 7b3f 12cb 7a3f
00000120: cff4 833f 5ae9 763f de1c 6d3f 521f 743f
00000130: 1d9a 6c3f 3afb 853f fd1a 7e3f 10b2 853f
00000140: e572 713f ec9e 7d3f 637a 793f 2088 7d3f
00000150: ccbb 813f 1193 823f 9f84 7a3f c265 773f
00000160: 8a00 783f 9cdd 8a3f 68d1 723f 499a 823f
00000170: c635 803f 85c5 7a3f 1b9b 753f 4208 7d3f
00000180: c235 743f 25b3 923f 4553 823f 00e0 783f
00000190: 18a9 853f 88fc 8e3f d93f 753f 4a12 793f
000001a0: 90d2 693f 2f26 843f acca 693f cf66 863f
000001b0: 2983 893f 4bb2 863f 44cc 7e3f 09bf 7e3f
000001c0: cb09 733f d6f0 753f 4e47 863f fb9c 843f
000001d0: ad81 7a3f 6b73 723f 1af3 793f 034d 833f
000001e0: 79cf 7c3f 02e8 773f f903 823f 0245 8a3f
000001f0: f217 823f c485 783f 1860 833f 8a5b 803f
0.97180384 1.0148017 0.9529102 0.99530256 0.9291038 1.054166 1.0279891 1.0335873
0.955149 0.9791067 0.96347475 0.9861395 0.9527088 1.0093201 0.97722846 0.99247867
0.9864486 1.0132133 0.9701439 1.0555456 0.98560196 0.96018076 0.9511384 0.97083426
1.0026773 0.997099 0.99187154 0.94551253 0.9650379 1.0376725 1.0264924 0.9156858
0.9765789 0.9977217 1.0374858 1.019717 0.9851294 1.0384704 0.9351455 0.9827783
0.9966245 0.9746279 0.95183724 0.96459556 1.0252411 0.9589891 1.1684669 1.0044451
0.981302 1.0079309 1.0011709 1.0129282 1.0468354 0.9818401 1.0058182 1.0638653
1.0080044 1.0124542 1.0258645 0.9912853 1.00957 0.96258074 1.0785584 0.9218136
0.9811645 1.0373076 0.9677237 0.97730976 0.99394417 0.9645294 0.9825608 0.9796611
1.0309085 0.96449816 0.9262217 0.9536029 0.9242266 1.0467293 0.9925993 1.0444965
0.9431594 0.9907062 0.9745237 0.99035835 1.0135436 1.0201131 0.97858614 0.96639645
0.9687582 1.084888 0.9485078 1.0203334 1.001641 0.9795764 0.959398 0.98840725
0.9539453 1.146092 1.0181662 0.97216797 1.0442228 1.1170816 0.9580055 0.9729353
0.9133692 1.0324153 0.9132488 1.0500125 1.0743152 1.0523161 0.99530435 0.99510247
0.9493682 0.9607061 1.049051 1.0360407 0.9785412 0.94707364 0.9763657 1.0257877
0.9875408 0.9683839 1.0157462 1.080231 1.0163558 0.9707911 1.02637 1.0027936

network.2.bias f4 [128]
00000000: 30cc 89bc d317 703d 98fd 9dbd e389 09be
00000010: 7eb1 8abc 7fab 8ebe 7ddb 2abe 9e79 233e
00000020: b642 f93d c236 cfbd f030 6abc 703d 45bd
00000030: 8f2d 74bc e0e1 413e 026b a63d ab1a 8abd
00000040: a9fa 16bd 9be0 223d ec7d 513e b324 84be
00000050: 86e1 0abe c583 d0bd 350b e9bd 8353 e3bd
00000060: 2793 e23d 9989 56bd 8f8b c63b 0bd0 c4bc
00000070: 5097 cbbd 9353 c5bd a75d 2dbe 1764 853d
00000080: 7cfd adbd b135 abbd 7f10 d13d 9181 8b3c
00000090: 5cd0 803e f236 0fbe 70ba 7d3c cf05 b9bc
000000a0: 0e61 74be c178 873d 34ab 34be e404 14bd
000000b0: 08f3 f3bc 31b8 f9bd 8d40 c33e 6849 3dbe
000000c0: 4a41 59be c6a6 febc 144a 2abe 9618 b5bd
000000d0: bc80 3abe 026d 37be 87d8 22bd 5d96 413e
000000e0: 2882 f6bd dbad 2bbe b48b 653d 58ae ebbd
000000f0: d739 f73d 872c 10bd fcc8 333e f750 a03d
00000100: 4013 883d 9ea0 43be e89c 093d 91a3 78be
00000110: 4035 c4bd e053 02bd 032f 553e 64c9 873e
00000120: 88a3 19be 25ef 143e 42b9 953d af79 b23b
00000130: 0c8c 28be d6ee 1abe e57a 683d c89b 36be
00000140: 0157 4bbe a8c9 9f3c 0fcd 1c3e 984d 0d3e
00000150: 10aa 07be 3cdc 833b 7232 033d e28b 4dbd
00000160: 3568 923b 3b2d e4bd d53b 0dbe c0c2 b7bd
00000170: 30ae 6f3e 506f 96bd 28b8 1a3e 167f 683c
00000180: 6dd3 7abc aa54 d33d 6279 a6bd cc0a 4ebe
00000190: 17b3 80be 13f0 8bbe bda6 9abd 4ef3 16be
000001a0: 140c 2f3e 7f21 8f3e d4a3 253d 1218 3dbe
000001b0: 8640 57be 4f93 e7bd a9d5 cf3d cfd7 093e
000001c0: 2122 203d cc57 22be d22f 0dbe 4b7a 18be
000001d0: 9a33 3fbc 6775 dfbc 2660 dfbc da22 cebd
000001e0: 94c1 27be bb3e 283e 4251 04be 01a7 51be
000001f0: 5d12 803e 2c17 e4bd 1cbd 34be fc03 f1bd
-0.016820997 0.05861647 -0.07714385 -0.13431506 -0.016930338 -0.27865216 -0.1668529 0.15964362
0.12170927 -0.10117866 -0.014293894 -0.048154294 -0.01490344 0.1893382 0.08125879 -0.06743368
-0.036860142 0.03976498 0.20458192 -0.2580925 -0.13562593 -0.10181383 -0.11379091 -0.11099913
0.11063223 -0.052377317 0.006059117 -0.024024984 -0.0994097 -0.09635081 -0.16930257 0.06513231
-0.08495614 -0.0835985 0.102082245 0.017029556 0.25158966 -0.13985804 0.015486345 -0.022585778
-0.23865148 0.06614829 -0.17643434 -0.036137477 -0.029778972 -0.12193335 0.38135186 -0.18485034
-0.21216312 -0.031085383 -0.16629821 -0.0884258 -0.18213171 -0.17912677 -0.039757278 0.18905015
-0.12036544 -0.1676554 0.056041434 -0.11507863 0.12071579 -0.035198715 0.17557138 0.07827943
0.06644297 -0.1910424 0.033596903 -0.24281146 -0.09580469 -0.03181827 0.20818715 0.26520836
-0.15003788 0.14544351 0.07310726 0.0054466347 -0.16459674 -0.15130171 0.056757826 -0.17832863
-0.19857408 0.019505337 0.15312599 0.13799131 -0.13248467 0.0040240567 0.03203053 -0.05018223
0.004467989 -0.111414395 -0.13792355 -0.089726925 0.23406291 -0.0734545 0.15109313 0.014190456
-0.015309197 0.10318883 -0.08128621 -0.20121306 -0.25136635 -0.273316 -0.07551334 -0.14741251
0.17094451 0.27955243 0.04043944 -0.18466213 -0.21020707 -0.11307394 0.10148174 0.1346123
0.039095048 -0.15853804 -0.13787773 -0.14890401 -0.011670018 -0.027277661 -0.027267527 -0.10065241
-0.16382438 0.1643018 -0.12921622 -0.20473863 0.2501401 -0.11137232 -0.17650265 -0.11768338

network.2.running_mean f4 [128]
00000000: 3ac6 0a3e 564c 873e e5f2 713e 52a0 783e
00000010: 8d4e 763e 05e8 633e 14f4 903e cab7 8f3e
00000020: 3fe6 5c3e 6e09 503e 1750 1d3e 8c72 453e
00000030: 4228 6d3e 5267 893e c644 733e d4c1 8c3e
00000040: 828a 273e 466b 543e 2c5a 5e3e a172 5d3e
00000050: 1a07 4b3e eb96 3c3e 894e 6c3e 954b 003e
00000060: 3f6f 703e 4387 3a3e fe45 243e 3ec1 273e
00000070: 2d86 583e 047f 073e cf23 6c3e 524f 2f3e
00000080: 1ac2 2d3e ef13 823e 1d01 783e 54a4 8a3e
00000090: f507 533e ae64 123e ae09 a53e ab1c 113e
000000a0: 8095 2b3e 5a86 443e 7466 093e 8544 573e
000000b0: 7233 403e 97e9 4e3e a153 643e 1211 2c3e
000000c0: a04c 0d3e 5f8a 5e3e d749 633e 6645 913e
000000d0: 6d32 803e 7b8f f43d e864 753e 0b13 5b3e
000000e0: b392 5b3e a7c0 403e d6b9 343e cf59 583e
000000f0: 625e 8d3e 4fd2 193e ccad 863e 7de3 1e3e
00000100: 1bfb 283e bd48 123e 4066 383e 9e9a 353e
00000110: 0fbe 063e ff92 7c3e d6d3 883e 147b 463e
00000120: 02da 7b3e 6278 2a3e 2c69 603e 74ee 363e
00000130: a635 483e 8be5 353e 4009 e33d f40e 283e
00000140: 2ece 1f3e 08b4 7a3e df47 4a3e 282d 3c3e
00000150: 251f 713e 1998 543e 479d 8e3e 4f68 4e3e
00000160: bf7b 5d3e 3748 1d3e a30c 3b3e 60a0 5a3e
00000170: f81b 793e 8f82 2e3e ec94 233e dbe0 453e
00000180: 97a4 393e b143 673e e935 343e 8419 703e
00000190: 408b 533e 0d16 2d3e 83a1 413e a499 213e
000001a0: 9457 2a3e d7fe 6b3e 78fa 1d3e f73a 223e
000001b0: 901c 3e3e 848b db3d c6b5 5b3e d12c 523e
000001c0: 825b 1b3e c4a6 0d3e 20da 2c3e 39e9 853e
000001d0: 14ae 2a3e 7422 7c3e 7df3 803e e3f2 633e
000001e0: a406 6b3e 4618 353e c5fd 143e 7dd2 453e
000001f0: 8477 923e 79a2 903e a859 493e ea14 423e
0.1355218 0.26425427 0.23627813 0.24279907 0.24053402 0.22256477 0.28311217 0.28069907
0.21572207 0.20316097 0.15362583 0.19281977 0.23159888 0.2683664 0.23756704 0.2749163
0.1636143 0.20744047 0.21714085 0.21625759 0.19826928 0.18416946 0.23076834 0.12528832
0.23479937 0.18215661 0.16042325 0.1638231 0.21144934 0.13232046 0.23060535 0.17120102
0.16968575 0.25405833 0.24219175 0.27078497 0.20608504 0.14296219 0.32233948 0.14171092
0.16756248 0.19191876 0.13417989 0.21022232 0.18769625 0.20206295 0.22297527 0.16803387
0.13798761 0.21732472 0.22196136 0.2837326 0.25038472 0.11941429 0.23964274 0.21393983
0.2144268 0.18823491 0.17649016 0.2112801 0.2761107 0.15021633 0.26304471 0.15516467
0.16502039 0.1428556 0.18007755 0.17734763 0.13158439 0.2466545 0.26724118 0.19382888
0.24594882 0.16647485 0.2191512 0.178644 0.19551715 0.17763345 0.11085749 0.16411954
0.15605995 0.24482739 0.19753979 0.183766 0.23547037 0.20761146 0.27854368 0.20156978
0.21629237 0.15359579 0.1826654 0.2135024 0.24327075 0.17041992 0.15974778 0.19324057
0.18129192 0.22584416 0.1759869 0.23447233 0.20658588 0.16902943 0.18909268 0.15781265
0.16634971 0.23046432 0.15427577 0.15842806 0.18565583 0.1071997 0.2145606 0.20524909
0.15171626 0.13833147 0.16880083 0.26154497 0.16667968 0.24622518 0.25185767 0.22260623
0.22951752 0.17685041 0.1454993 0.19318576 0.28606808 0.28248957 0.19663107 0.1895329

network.2.running_var f4 [128]
00000000: f556 0b3e 6b6f 433e 90f3 3d3e 0e82 423e
00000010: 9a9a 3b3e b679 473e db0e 5a3e 8ed2 503e
00000020: 6401 1c3e 520c 183e 032b 263e 0811 203e
00000030: 0692 363e 7d05 3c3e f31e 433e 99d2 583e
00000040: fd95 2a3e 5384 283e d284 4f3e 6200 463e
00000050: 0ef9 343e 111b 1c3e 84d3 3f3e e43c 093e
00000060: eb99 463e a7a8 2e3e 01ce 103e 2ade 103e
00000070: 1746 4a3e 9ff4 013e 4692 523e 7861 273e
00000080: c836 1a3e f774 463e 82fb 3f3e 1b2b 493e
00000090: 3aca 253e 318c 1a3e cfb6 693e 1eca 053e
000000a0: ed59 1c3e 525f 1f3e 2a7a 0b3e dfae 363e
000000b0: e1e5 243e fc07 3e3e 5e11 2a3e 4ce8 173e
000000c0: a3c0 fc3d 45a9 453e 63cd 263e 97bf 613e
000000d0: 1abb 473e c892 083e be82 3c3e 5e9b 303e
000000e0: 899b 303e 02c7 333e 541f 0c3e 44e2 293e
000000f0: f3e2 5b3e 816d 033e 322f 3b3e f6e5 283e
00000100: 9d0a 123e e04c 0c3e e911 2f3e 1f44 163e
00000110: db34 0d3e 77ea 523e 95fe 533e 592e 333e
00000120: f2fa 483e 0849 243e 6b62 313e 8dcb 273e
00000130: 152d 1d3e 8e56 223e bb2c df3d 8f5d 213e
00000140: 47d4 1f3e e7ff 343e d849 353e 16c5 263e
00000150: caac 353e d2d8 1f3e cb68 433e 4d1a 373e
00000160: 3f5b 493e 64c3 093e 92b9 253e 131f 193e
00000170: 3689 243e fdb0 223e a328 1a3e 3123 2c3e
00000180: cfef 223e 7008 393e f070 1c3e 027d 3f3e
00000190: ce1e 463e a97e 2d3e 0173 233e af7c 1f3e
000001a0: 18d0 133e 9a51 363e 36b3 103e be97 1f3e
000001b0: 85ea 1e3e b96f fd3d 8228 413e b6c7 283e
000001c0: c413 143e 8e5c 113e cc0e 1e3e e0ba 613e
000001d0: bbd5 173e c9df 323e f4be 393e 270a 443e
000001e0: 5064 2d3e 6aed 443e 9ccb 193e e442 243e
000001f0: b053 3e3e 70e2 463e 65ca 2f3e 0509 1a3e
0.1360739 0.19085471 0.18549943 0.18994924 0.18320695 0.19480023 0.2129473 0.2039282
0.15234905 0.1484845 0.16227345 0.15631497 0.17829141 0.18361469 0.19054775 0.21174087
0.16658778 0.16456728 0.2026551 0.19336084 0.17673132 0.152447 0.1873303 0.13402134
0.19394653 0.17056523 0.14141084 0.14147249 0.197533 0.12690972 0.20563611 0.16345775
0.1505996 0.19380556 0.18748286 0.1964535 0.16190425 0.15092541 0.22823642 0.13065383
0.15268679 0.15563706 0.1362082 0.17840146 0.16103317 0.18557733 0.16608188 0.14834708
0.1234143 0.19302852 0.16289286 0.22045742 0.19504967 0.13337243 0.18409249 0.17246768
0.17246832 0.17556384 0.13683826 0.1659022 0.21473293 0.12834741 0.18279722 0.16493973
0.14261861 0.137012 0.17096676 0.14674424 0.13789694 0.20597254 0.20702584 0.17498149
0.19626978 0.16043484 0.173227 0.16386242 0.15349229 0.1585333 0.108972035 0.15758346
0.15608321 0.17675744 0.1770395 0.1628612 0.17741695 0.15610054 0.19082944 0.17881127
0.19663714 0.13453442 0.1618407 0.1495326 0.16067967 0.15887828 0.15054564 0.168103
0.15911792 0.18069625 0.15277457 0.1870003 0.19347689 0.16942848 0.1596184 0.15574907
0.1443485 0.17804566 0.14130864 0.15585229 0.1551915 0.12374825 0.18863109 0.16482434
0.14460665 0.14195463 0.15435332 0.22043943 0.14827625 0.1746818 0.18139249 0.19144498
0.16932797 0.19231191 0.15019077 0.16041142 0.18586612 0.19422317 0.17167051 0.15042503

network.3.weight f4 [256, 128]
00000000: e15a 3c3a 7b15 a83d d315 5e3a 4132 203d
00000010: 2eed b4bd 1bb0 983d 2f19 c73d bc6d 9abc
00000020: 10e1 b8bc 579c aa3d 5bac 2f3d c27b 22bd
00000030: 43c5 12bc 2c85 34bd 5907 713d ec1e 383d
00000040: 3d72 963d 2bb7 263c 81ea e0bc b419 923d
00000050: 9a55 37bc 0b9a 21bd b5d4 aebd 9c52 5dbd
00000060: 3357 35bd 4685 5b3d 1b11 aabd 0744 ccbd
00000070: 4eee 573c 60fa 43bc 1561 613d 22c6 2d3d
00000080: 300a 293d 5d3a 753d 0c9c 8abd 9232 a4bd
00000090: 92fe e83c eda0 81bc 6549 c13b ba27 85bd
000000a0: 4d9c b83d f191 aebc bbef e7bb 66fc 133d
000000b0: a6f8 bd3d bc12 eb3d f588 bbbd 35a1 be3c
000000c0: 85e9 76bd d83d 7fbd 58f7 7d3a b292 6c3c
000000d0: 593d 433d 4ea5 513c a2bb 09bd 29ea 8cbd
000000e0: dfc8 6e3c 6dce 0e3e 21f7 85bd e889 11bd
000000f0: 5270 83bd 3281 90bb 086e 1cbd 5a5e 723b
00000100: a835 3fbd bb8f d13c 7f2a 90bc a99e 5f3c
00000110: 1ab3 663d dba8 da3b 8d05 853d ec6f 2cbd
00000120: 8a66 a2bc 00dc 313d 1d30 2d3d be79 92bd
00000130: 0109 d0bc 1355 bdbb a592 873b 606b 50bc
00000140: ff36 9fbd b687 85bc 0b45 f53a 224a dabc
00000150: 93a7 803d cf00 aa3d 88c1 b7bd a139 8fbc
00000160: 959e 00bd e594 aebd 5b0c 5d3d c409 913d
00000170: f4a1 27bd 2a53 ba3c a78b 473d ba11 e33b
00000180: 4c22 583d 4d3e 00be 8374 fe3c 4a9e fe3c
00000190: 0f88 6f3d cac4 ca3d f016 4dbc 7fe5 9b3d
000001a0: 5421 0bbd 0714 21bb 14c9 96ba de21 5d3d
000001b0: 7aae 95bd 6dcc 65bd 6f05 cabc 5e80 993d
000001c0: 81eb 6cbc 5d1a d33c 5bb3 e63d 5235 c1bd
000001d0: 782c 1ebd db03 45bd 4d36 ae3d 8ac5 9b3c
000001e0: 0827 313d fcdf a5bd 4e69 d03d 0e4b 0fbc
000001f0: 036e 443c e031 99bd ee32 ffbc 6378 1abd
00000200: fb0a 593b afa9 383d 6877 a63d a946 4f3d
00000210: 3e25 32bd d35f ad3b e794 393d 5818 213d
00000220: 0d25 b83d cb65 dd3d 3b21 2dbd cc17 693d
00000230: aae3 fc3d 1fe5 50bd a901 3e3d 5348 913d
00000240: a647 3dbc fc27 413d c0e2 64bc cfc2 83bd
00000250: 6a90 91bc 8959 223d 71b6 003c 663b f63d
00000260: 7fa6 c43d 9791 b53d cc0b bfbd f9df bb3c
00000270: 9ec8 f0bd 4908 6abd 0e46 883d 49f1 27bc
00000280: 0795 f0bc 2ec5 27bc ba35 70bd db45 a83d
00000290: f8d1 4d3d fa9f 313d cfc5 493d 9c26 41bb
000002a0: 0e2d 76bd 9fdd 7c3c 455c 953c afe4 7a3d
000002b0: aaae fa3c fb83 533d 299b 36bd 90a4 1ebc
000002c0: 7bb1 81bd d768 04be 72b3 85bd 116e 963c
000002d0: 0854 d23c ea65 233d d5e0 f73c b898 c7bc
000002e0: 0b8e 963d 2028 163d 1a3f a33d c3ed ab3b
000002f0: 3f81 9d3b 000d 10bc da53 1b3d 82ed bb3d
00000300: adfc f4bd c356 983b 6a21 c2bc 3d64 8bbd
00000310: 2795 5a3d 896b 4a3d cdd0 06bd 9ceb 7abd
00000320: 1c0a 993d f68b e13d 941f 543d d677 27bd
00000330: 05fa 133d 4d53 683c 0ea4 b33c 77c8 d23d
00000340: b885 e63c 3fcb 2c3d c234 3cbd 8147 95bd
00000350: fe39 acbb 00d3 a43d b9b2 6abd de9b e5bc
00000360: fc89 54bb e31e 853d 5578 243d 47ff b83b
00000370: 05c5 8f3d d778 a83d ad65 cabd 6f59 2bbc
00000380: de48 4bbc 71d1 6c3c 831a ddbd 2288 c3bd
00000390: aff9 813c d269 a03d 81d5 97bd fc55 1ebd
000003a0: 5580 8bbd 7088 d4bb 4475 8dbc 50f2 d6bd
000003b0: 3b0b c0bc bc6b 853d 75f9 383d a332 d73d
000003c0: 8749 403d fb99 bebd 891f b03d ee32 1f3d
000003d0: dcce 1cbc fd26 d03d 466b 93bd b7bc 04bd
000003e0: f8b6 6dbd 01c9 ebbc d487 c0bc 4aa4 64bc
000003f0: 972c e6bd c35e d13c a050 7a3d b7d4 91bd
0.0007185173 0.08207222 0.000847188 0.039110426 -0.08834301 0.074554645 0.097216 -0.018851154
-0.022568256 0.08330601 0.04288898 -0.039668806 -0.008958164 -0.044072315 0.058844898 0.044951364
0.07346008 0.010175507 -0.02745557 0.07133809 -0.011189843 -0.039453547 -0.085366644 -0.05403386
-0.044272613 0.053593896 -0.08304044 -0.09973913 0.013179375 -0.0119615495 0.055024225 0.042425282
0.04126948 0.059870113 -0.06768045 -0.08017458 0.028441701 -0.015823806 0.005898642 -0.06501718
0.09014187 -0.021309825 -0.0070781386 0.036129378 0.092759416 0.11478183 -0.09156982 0.023270229
-0.060281295 -0.06231484 0.0009688041 0.014439272 0.047665928 0.012795759 -0.033626206 -0.068806
0.014574259 0.13945933 -0.06541277 -0.03553191 -0.06417908 -0.0044099325 -0.03819087 0.0036982507
-0.04668203 0.025581231 -0.017598389 0.013648667 0.05632315 0.006672961 0.06495199 -0.042098925
-0.019824285 0.0434227 0.042282213 -0.07152127 -0.025394918 -0.005777964 0.0041373544 -0.012720913
-0.077741615 -0.016300064 0.0018712593 -0.026646677 0.06281962 0.083009355 -0.0897246 -0.017483534
-0.031401236 -0.08524493 0.05396686 0.07081941 -0.040925935 0.022744734 0.048717167 0.0069296034
0.052767083 -0.12523766 0.031061416 0.031081337 0.058479365 0.09900816 -0.012517676 0.07612132
-0.03396733 -0.0024578588 -0.0011504018 0.053987376 -0.073086694 -0.05610316 -0.024660794 0.07495187
-0.014460445 0.025769407 0.11264678 -0.09433998 -0.038616627 -0.04809938 0.08506451 0.019015092
0.043250114 -0.08099362 0.10176335 -0.008745922 0.011989119 -0.07480216 -0.031152215 -0.037712466
0.0033118117 0.045083698 0.08128244 0.050604496 -0.04349255 0.005290964 0.04530802 0.039329857
0.08991442 0.10810431 -0.04226802 0.05690746 0.12348111 -0.050999757 0.046388302 0.07093873
-0.011552727 0.047157273 -0.013970077 -0.06433641 -0.017769057 0.03963617 0.007855997 0.12023048
0.09602069 0.0886566 -0.09328422 0.022933947 -0.11757015 -0.057136808 0.06653987 -0.010250398
-0.029367937 -0.010239882 -0.058644988 0.08216449 0.05024907 0.043365456 0.04926091 -0.0029472476
-0.06010156 0.015433698 0.018232474 0.061253246 0.030600864 0.05163954 -0.044581566 -0.009682789
-0.0633268 -0.12930618 -0.06528367 0.01836303 0.025674835 0.039892115 0.030258575 -0.024364814
0.07351311 0.03665936 0.0797102 0.0052468493 0.004806667 -0.008792162 0.037921764 0.091761604
-0.119622566 0.0046490147 -0.023697574 -0.06806228 0.0533649 0.04941896 -0.03291397 -0.06125985
0.07472631 0.110130236 0.051787928 -0.04088577 0.03612711 0.014180017 0.021928813 0.10292142
0.028139934 0.042186018 -0.04594875 -0.07289029 -0.0052559366 0.080480576 -0.05729935 -0.028028425
-0.0032430878 0.06500032 0.04015382 0.005645666 0.0702 0.08226173 -0.09882674 -0.010458334
-0.01240751 0.014454232 -0.10796072 -0.0954745 0.015866129 0.078326836 -0.074137695 -0.03865622
-0.06811587 -0.006485991 -0.01726783 -0.10495436 -0.023442855 0.06514689 0.045159776 0.10507705
0.04694512 -0.09306713 0.08599765 0.03886693 -0.0095708035 0.101636864 -0.07198195 -0.032406535
-0.05803582 -0.02878237 -0.023502268 -0.013955185 -0.112389736 0.025557881 0.061112046 -0.0712065

network.3.bias f4 [256]
00000000: a667 76bc 3b24 86bd a757 54bb 6d59 c3bc
00000010: 6353 9a3d c427 713b 3f13 03be cae3 5fbe
00000020: 9866 ebbd 6417 d6bc 6b2b 6d3c e642 50bc
00000030: 1254 a93c 82bc 7dbc 285d f6ba a908 c53d
00000040: 2260 bebc ad1b 1c3b 2afc 263d 8507 98bc
00000050: 83b9 bd3d 223e e6bd b8e3 d5bd b64d f1bc
00000060: ef5e 0abe 92a2 023d 5c49 0cbe b750 d6bb
00000070: 4976 10bc 9d32 9dbc f9f4 343b b45e cc3d
00000080: f69a 8f3d 69b6 a2bc 89e5 e5bd a1df 60bd
00000090: 1875 ff3a 1fe3 1c3c f0bb 4cbc 60e1 063c
000000a0: cf68 2cbd b9f3 873b 4c72 b0bc 86d0 aa3c
000000b0: 9a63 16be c864 20bd 096f 11be 508b d3bd
000000c0: e0cb c13d c785 8ebc 1ce8 923d c99d 10be
000000d0: b8e1 0abe 8a28 6ebc 8c89 853d 546c 9bbd
000000e0: 3bc8 39bd 5ae7 f0bd 1030 04be 58f2 32be
000000f0: 5a9b 84bd 659f b1bd 32f6 7cbd e5ef 3abc
00000100: aa12 0cbc 7f3a cb3c 3020 b03d 973b bfbb
00000110: 3bb8 96bd 3587 a23d 48fb 53bd 7029 be3c
00000120: 0db3 07bd 131c 8fbd f1e5 edbd 16b4 b9bd
00000130: 15cc 70bd 8c5c 01bd f865 68bd edac 15be
00000140: 971e 533d 45ff 38bd 2da7 b93d 8dcd dbbd
00000150: ff45 0abd fc3c f7bd ec79 dc3c 78b9 a73d
00000160: a6ff c3bd cb0d 84bc ee9e b03c 43ea 2f3c
00000170: a9e7 50bb c7e1 0c3d 792b 93bd 95bf 2ebc
00000180: c337 5d3d f1ff e73d 32f7 e339 fd3d 463d
00000190: cf67 a6bc 2eb9 4a3d ae0c b43c e6e2 5d3d
000001a0: 357c b1bd f7a1 04bd 702a d03b 9318 283d
000001b0: 4865 32bc 0fa8 ecbd 8143 a73d 23d3 853c
000001c0: 9eb0 103d 4245 5d3c d1b2 bebd f929 b0bd
000001d0: b99e 85bc c331 d3bd 4b04 5abd 1cbc 5fbd
000001e0: b4a7 a4bd ee72 473d 2a24 8dbd 51b5 42be
000001f0: 05f3 e6bd d649 aabd deb5 77bc 2b86 58bc
00000200: 9e49 34bd 808c 36bc 7192 653d ee4f f3bd
00000210: 11b7 553d b789 223c 7dca 77bd 91ca 313d
00000220: 9ed0 75bc 2626 9c3d 9001 62bd 78d4 583c
00000230: be73 3abc e6bd 83bd be1c 2d3e c97b 523d
00000240: 64df 263d fbbc bb3d c733 1c3c 64b6 ab3d
00000250: b70a 97bd be89 813d 413d 2d3d 96aa 7ebd
00000260: 8b7e 43bc dda9 363e 73cf d63b f557 dbba
00000270: 6e2b 053d a0d5 89bb 7b5c 283e 3517 3ebd
00000280: 5456 c1bd 63a5 363c 47a0 99bd 39c1 533d
00000290: 5220 8ebc 4205 5ebc 0965 0bbe 8e09 37be
000002a0: 4f35 843b b14f 78bd f51e 0cbd 8fc3 6fbd
000002b0: 67d5 aa3d ab34 bcbd a0bc c3bd e1c6 a73d
000002c0: 90cd 08be ed29 91bd ca71 3abd f15b 82be
000002d0: 3c30 00bc eca4 c4bd 377f 80bd 038b e1bc
000002e0: f20d 0f3c 9e1b 033c 16ed 1cbd 5ae7 09be
000002f0: 437d 453c 9a1e 28bb 5d67 073d 58dc 50bb
00000300: 6a12 59bd a899 47be 63f2 743d 94cc aabd
00000310: 1cb2 f13c 4029 a8bd 6de2 8e3c 02e6 843c
00000320: edc9 40bc 9967 e1bc a2e9 30be 4f28 0cbd
00000330: 2129 a23d 5e2a 853d 0c84 15bc 387d 793c
00000340: 0dc6 51be 4c11 54ba d370 673d bbac c8bd
00000350: 27ad a3bd fd17 71bd 1df6 e9bd 5917 84bd
00000360: f4fd d0bc e3c1 b2bd 440b c73d 27f2 47bc
00000370: 2d8e 2ebd c146 31bc 675a c7bd cf98 943d
00000380: f00b f039 a1be 23bc ef38 2e3d 32ba c4bc
00000390: eb25 5ebc 224b 3f3c ffcd a7bc 5d4d f1bd
000003a0: c494 54bd 92a8 8f3d c4bf 68bc 8387 7dbd
000003b0: 0032 6ebd f9a2 e9bb 3b3d 47bd 39b5 a7bc
000003c0: c0f9 b93c d5a3 4e3d cfb2 f5bd 5cc6 bfbb
000003d0: ebb8 d9bd ab04 bfbd b7eb 85bd 1315 c0bc
000003e0: f9e6 99bd d706 92bc e59a a93d bb6d 8fbd
000003f0: b675 8dbd a7f8 013c 1077 0ebd 4d55 0ebd
-0.01503936 -0.06549879 -0.0032400878 -0.023846352 0.07535436 0.0036797384 -0.1280031 -0.21864238
-0.114941776 -0.0261342 0.014475684 -0.012711262 0.02066997 -0.015486838 -0.0018796073 0.096207924
-0.0232392 0.0023820207 0.040767826 -0.018558273 0.09263899 -0.1124232 -0.104438245 -0.029456
-0.13512777 0.03189332 -0.1369986 -0.0065403837 -0.008817264 -0.019189173 0.0027611835 0.09979001
0.07011978 -0.01986237 -0.11225421 -0.05490077 0.0019489853 0.009575634 -0.01249598 0.0082324445
-0.04209214 0.004148927 -0.021538876 0.020851385 -0.14686432 -0.039158612 -0.14202513 -0.10329306
0.09462714 -0.017397774 0.071731776 -0.1412269 -0.13562667 -0.014536032 0.065203756 -0.07589021
-0.04535697 -0.11762877 -0.1290896 -0.1747526 -0.064749435 -0.0867298 -0.061758228 -0.011409734
-0.008549372 0.024808167 0.08599889 -0.005835961 -0.07359358 0.07935945 -0.051753312 0.023213118
-0.03312974 -0.069877766 -0.116161235 -0.09067552 -0.058788378 -0.0315824 -0.05673787 -0.14616747
0.051542845 -0.04516532 0.090650894 -0.10732565 -0.03375816 -0.12072179 0.026913606 0.08189672
-0.095702454 -0.016119858 0.021560159 0.010737005 -0.0031876361 0.034395006 -0.07186026 -0.010665794
0.054008257 0.11328114 0.0004348099 0.04839896 -0.020313172 0.049493007 0.021978702 0.054171465
-0.08666269 -0.032381024 0.006352715 0.04103906 -0.010888405 -0.11555492 0.08167172 0.01633603
0.035324685 0.013505282 -0.0931145 -0.08601756 -0.016311036 -0.10312226 -0.05322675 -0.054622754
-0.08039799 0.04869359 -0.06891663 -0.19014479 -0.11276821 -0.08314864 -0.015119044 -0.013215582
-0.04401552 -0.011141896 0.05604786 -0.1188048 0.05217654 0.009920529 -0.060495842 0.043406073
-0.0150033515 0.07624464 -0.05517727 0.01323425 -0.011380134 -0.06432705 0.16905496 0.051387582
0.040740386 0.091669045 0.009533829 0.083843976 -0.073750906 0.063251 0.042294744 -0.062174402
-0.011932026 0.17838235 0.0065554916 -0.0016734587 0.03251212 -0.0042063743 0.16441528 -0.04640885
-0.09440294 0.01114783 -0.075012736 0.051697943 -0.017349396 -0.013551058 -0.1361276 -0.17874739
0.004034675 -0.060622875 -0.03420921 -0.05853611 0.083414845 -0.09189733 -0.09557462 0.0819223
-0.13359666 -0.07088075 -0.045518674 -0.2546077 -0.007824 -0.09601769 -0.06274264 -0.027532106
0.008731352 0.00800219 -0.03831204 -0.1346716 0.0120537905 -0.0025653006 0.03305756 -0.0031869616
-0.052996077 -0.19492209 0.05980147 -0.083398014 0.029503874 -0.08210993 0.017441953 0.016222958
-0.011766893 -0.02751522 -0.17276624 -0.03421813 0.07918001 0.065022215 -0.009125721 0.015227608
-0.20485707 -0.00080897356 0.056504082 -0.09798571 -0.079920106 -0.058860768 -0.114238955 -0.06449766
-0.02551172 -0.08728387 0.097189456 -0.01220373 -0.04261606 -0.010820092 -0.0973404 0.072557084
0.0004578526 -0.00999418 0.042534765 -0.024014566 -0.013558845 0.011675628 -0.020483969 -0.11782334
-0.051899686 0.07014574 -0.014205877 -0.061896812 -0.058153152 -0.0071300236 -0.04864238 -0.020472156
0.022702098 0.05044921 -0.11996996 -0.0058525037 -0.106309734 -0.09327062 -0.065391 -0.023447549
-0.07514758 -0.017825527 0.08281497 -0.07003351 -0.06907217 0.0079328185 -0.034781516 -0.034749318

network.5.weight f4 [256]
00000000: e125 7e3f ef5e 713f f385 7a3f bda3 7d3f
00000010: 0471 773f 5027 7e3f dba5 773f ccbc 813f
00000020: 0305 793f 0ba3 833f 2d4f 793f 72e9 6f3f
00000030: cdac 833f 661c 883f 0a4e 7a3f 3034 753f
00000040: 6d31 743f a2b4 6f3f bd40 7e3f fe51 813f
00000050: 6e3b 863f 48f3 723f 3c86 843f ce1f 7b3f
00000060: b3d2 7c3f f353 803f d434 833f 5a96 733f
00000070: 5e49 7d3f a55d 7b3f 123c 7e3f 07d8 763f
00000080: 9541 833f 09f6 823f f510 853f 39be 753f
00000090: 24eb 813f 1d7a 713f 5345 723f 0f2a 7e3f
000000a0: 7dc4 813f ed9b 7c3f 8bdb 843f 0ff1 763f
000000b0: 3689 833f 2c93 7f3f acf5 773f 6583 773f
000000c0: d618 873f f017 813f fc72 773f 1c89 893f
000000d0: e682 803f f5dc 853f 8af0 763f 80b7 813f
000000e0: f87d 833f a214 843f ba9b 7b3f 54a1 7a3f
000000f0: 70cd 843f 7ff9 853f 2155 7f3f 4c20 6e3f
00000100: 2bde 883f c6a2 733f 5b8d 803f 9af7 7a3f
00000110: b8b3 783f f976 733f 1b12 703f cda2 743f
00000120: 829a 7e3f 4676 813f e9a4 723f 406a 863f
00000130: c9bf 6b3f 3f12 803f 869b 883f ed33 8b3f
00000140: 56d8 743f fd58 843f 5115 7e3f 133d 6f3f
00000150: d76f 753f f5d8 803f 7c20 813f 7f5e 703f
00000160: f1c7 723f 0158 7a3f 5500 843f 3d91 7e3f
00000170: fa71 823f 8d28 843f 5773 813f 2c1c 843f
00000180: b0c7 773f 8bac 7e3f ac75 7c3f 5da8 633f
00000190: 7756 753f 9622 713f 864c 783f fc18 803f
000001a0: eee1 773f 0977 833f 0f1c 753f 1521 713f
000001b0: 6d06 7d3f a797 763f 7681 7c3f 5dc9 813f
000001c0: 1919 6b3f 514b 833f 3838 7d3f e88f 883f
000001d0: 099b 823f 806f 863f 6af9 7c3f f709 773f
000001e0: 54f2 743f 2cfc 843f fca9 743f dd4e 953f
000001f0: 946f 713f b168 823f 032a 803f a054 803f
00000200: 79af 763f fa07 603f 944e 803f 4311 7b3f
00000210: d69b 753f 86ad 7d3f 985f 823f 64ad 7f3f
00000220: 5f77 793f e28f 5e3f 128a 783f f347 703f
00000230: ebef 7d3f 01b4 7d3f 938a 713f a35c 7d3f
00000240: d277 7f3f 44e6 783f 4543 843f cd53 753f
00000250: 92fb 853f 3edc 793f 6b10 843f 9e51 703f
00000260: 23e7 853f c399 7a3f e8e0 7c3f ff0d 843f
00000270: 8929 7d3f 36e5 713f 3e1c 703f 5f4d 843f
00000280: 468f 783f 39db 803f b360 833f dda5 703f
00000290: f4a3 753f d256 733f e78f 7d3f 1866 923f
000002a0: a113 853f d7ce 803f cdf5 853f 760d 6e3f
000002b0: 5209 773f ae99 803f 3ebb 7e3f a9cc 6e3f
000002c0: 323b 7b3f 8a55 863f d3e4 7d3f 403d 8e3f
000002d0: 5d71 783f 76e3 803f 3310 6f3f 3b3e 783f
000002e0: fcbb 743f c820 7f3f 58b4 673f 1a86 803f
000002f0: 0931 7c3f c303 803f 3d0b 753f 758d 643f
00000300: f3c5 723f 28c9 873f aa2f 743f b9db 823f
00000310: 851c 813f 5460 803f d663 743f 6cc8 793f
00000320: baea 793f 6a70 6f3f e4a6 843f 81be 5f3f
00000330: 1c91 7e3f c744 893f 0d55 763f b92d 613f
00000340: c122 8b3f bdbe 743f 19e2 803f ce0c 7d3f
00000350: 8e04 7c3f ad3e 823f 2e19 823f 90dc 843f
00000360: 1c1c 6d3f 9064 743f c507 7f3f 79e2 7e3f
00000370: ef85 803f fb57 803f 1b94 833f a6f9 7a3f
00000380: b9f3 723f cb59 723f 13d4 7b3f bf2a 7f3f
00000390: a1dd 773f dfc9 6f3f 3fb1 7f3f 3b74 823f
000003a0: a495 7e3f bce6 7a3f 99cc 803f b31b 7f3f
000003b0: 360b 813f 82fb 813f f97e 773f a8ed 743f
000003c0: 6283 773f ce1d 843f 9137 753f 95b5 6e3f
000003d0: 5ed2 7a3f e903 783f 7dae 853f f40b 7e3f
000003e0: e66e 6b3f d4ad 803f f452 7d3f 1e35 783f
000003f0: 20b4 793f 5c29 783f 4477 803f efb4 833f
0.9927655 0.9428548 0.9786064 0.9907797 0.96656823 0.99278736 0.9673745 1.0135741
0.9727327 1.0284132 0.9738644 0.93715584 1.028711 1.0633667 0.9777533 0.95782757
0.9538792 0.93635 0.9931753 1.0103147 1.0486887 0.9490247 1.0353465 0.98095405
0.98759 1.0025619 1.0250497 0.95151293 0.98940074 0.98189765 0.9931041 0.9642338
1.0254389 1.0231334 1.03958 0.9599338 1.0149884 0.94326955 0.9463703 0.99282926
1.0138088 0.98675424 1.0379499 0.96461576 1.0276248 0.9983394 0.9685924 0.9668487
1.0554454 1.008543 0.9665983 1.0744967 1.0039947 1.0458056 0.96460783 1.0134125
1.0272818 1.0318797 0.98284495 0.9790242 1.0375195 1.0466765 0.9973927 0.9301803
1.06928 0.9517025 1.0043138 0.9803406 0.9714923 0.9510341 0.93777627 0.95560914
0.9945451 1.0114219 0.9478288 1.0501175 0.92089516 1.0005568 1.0672462 1.0875221
0.956426 1.0339657 0.99251276 0.93452567 0.9587378 1.006621 1.0088038 0.9389419
0.94836336 0.97790533 1.0312601 0.99440366 1.0191033 1.0324875 1.0113324 1.0321097
0.96789074 0.9948203 0.98617053 0.88928777 0.9583506 0.941934 0.96991765 1.0007625
0.96829116 1.0270702 0.9574594 0.94191104 0.9883793 0.96325153 0.9863504 1.0139576
0.9183517 1.025736 0.9891391 1.0668917 1.0203563 1.0502777 0.98818076 0.9649958
0.95682263 1.0389457 0.95571876 1.1664692 0.9431088 1.0188199 1.0012821 1.0025826
0.963615 0.8751217 1.002398 0.98073214 0.9594091 0.990929 1.0185423 0.9987395
0.9744777 0.869383 0.9708568 0.93859786 0.9919421 0.9910279 0.9435207 0.9896948
0.99792206 0.9722636 1.0333029 0.95830995 1.0467398 0.9760169 1.031751 0.9387454
1.0461162 0.9789087 0.9878068 1.0316771 0.988915 0.94490373 0.93793094 1.0336112
0.9709362 1.0066901 1.0263885 0.9400309 0.959533 0.9505435 0.990477 1.1437407
1.0396615 1.0063123 1.0465637 0.9298929 0.96498597 1.0046899 0.9950446 0.93281037
0.981372 1.0494854 0.99177283 1.1112442 0.9704798 1.0069416 0.93384093 0.96969956
0.9559934 0.99659395 0.9050956 1.0040925 0.9851232 1.0001148 0.95720273 0.89278346
0.94833297 1.0608263 0.9538523 1.0223304 1.0086828 1.0029397 0.9546484 0.97571445
0.9762379 0.93530905 1.0363431 0.8740006 0.9944017 1.0724114 0.9622353 0.8796039
1.0869981 0.95603544 1.0069 0.98847663 0.9844445 1.0175377 1.0163934 1.037981
0.92621017 0.95465946 0.9962123 0.9956432 1.0040873 1.002685 1.0279573 0.98037183
0.9490314 0.94668263 0.98370475 0.996746 0.96822554 0.93667406 0.9987983 1.0191721
0.99447083 0.9800832 1.0062438 0.9965164 1.0081546 1.0154879 0.9667812 0.95675135
0.9668485 1.0321596 0.9578791 0.9324582 0.97977245 0.96880966 1.0443875 0.9923699
0.9196609 1.0053048 0.989547 0.9695605 0.97540474 0.9693811 1.0036397 1.0289592

network.5.bias f4 [256]
00000000: bd6c bcbd 3c55 0bbd 1a7b 9c3e 7637 76bc
00000010: 202f ed3e c7e1 8dbe 5a4f 93bd a844 323e
00000020: b72f 9bbd 3ec3 27be 9787 653e e769 9e3e
00000030: 9cf1 86be 99e5 0dbe 000a 623c 525b 86be
00000040: 11c3 903e 8c1a 78be 799b 3abe 30b3 203e
00000050: 4e73 bc3e 59b8 6e3d c09d 083d 4b4e 99bd
00000060: 4731 1cbd 6500 b23d 88c6 973d 2d23 2a3e
00000070: a9fe eebe 4f12 c9bd 0643 da3e 7f25 973e
00000080: be99 b13d c213 17be 4c76 b8be f926 883d
00000090: 92f2 13be cdc0 9c3e 0690 ce3e 72e7 77be
000000a0: 1f67 02bf 4644 313e 7314 c2be 79b4 3bbd
000000b0: 2241 91be 59df 6ebe b591 f0be d580 81be
000000c0: 7881 2e3e 05ee 2a3e 2f27 ca3e 4b0c 3fbe
000000d0: 8650 283d c425 04be 8925 f6bd d774 cabe
000000e0: dd6c 84bd f5c0 80be 0cf8 893e 4db3 b0bd
000000f0: 46fa 50bd 33a0 a8be cd23 dfbd ac56 e53e
00000100: fb7c 2abd 01e3 1d3e 122e 4fbe 8dc7 d73e
00000110: 3d33 28be 0ffe 8a3e ef1a a9bd 2d58 bebd
00000120: f521 ee3d 2110 57be 6dbc bebe 70ab babc
00000130: e8d5 c53d 8d50 efbc fe3f 27bd 35be 7abe
00000140: 343a c93e 0735 47bd 087a 3e3e 4050 b93b
00000150: 419f 1abe 282b 313e 77aa 48be 501a 6f3e
00000160: 9691 6b3e df17 e4be c3c5 efbd b03d 13be
00000170: 2555 efbd 71cb 30be f881 e5bd a562 6d3e
00000180: 18be 363e 2467 5d3e ab36 353e feb8 583e
00000190: 8523 593e f9a0 883d 2362 653e 36b1 37bd
000001a0: e28c 893e 8a6d 56be 949b da3d f2d1 68bd
000001b0: 30b0 bdbe 9da7 c43d 9737 d13e a57b 70be
000001c0: e414 023e 4148 9dbe 8b33 09bf 4485 a4bd
000001d0: 4bfd 043f c225 48be 0ecc 35be 5c7b 08be
000001e0: c141 893e 83dd bbbe d8cd a23d 1807 85be
000001f0: eb4f f3bd 2e61 a53d 277a 1bbe 3323 813e
00000200: 60c3 ea3b 1c89 7c3e 7186 df3c 344d 0dbe
00000210: bc7f d9bd e6aa 81bb 0157 a4be 93ff f1bd
00000220: 793f 4ebe 9db3 333e 0ea4 f03d dc10 083c
00000230: 5071 02bf 33dd 0a3e 2d60 3d3e 0b98 29be
00000240: 5b1e 83be f7f3 3e3e 5bc7 67be 878b 6f3e
00000250: d50a 90be 2dd2 71bd ea07 733d 75fc f9bd
00000260: de31 d0be c4d2 cd3e 2650 cb3d 1a75 88bc
00000270: e2e7 f5bd 7f97 c73d 7d4d 593e 7cfa 99be
00000280: e4d0 cdbe deb7 f2bd 1835 91be b669 17be
00000290: af96 993e 8d35 5dbd 0d29 51be 0fe3 c8bd
000002a0: c6cd 41be 1b10 c4be 42e9 f3bd e3a8 233e
000002b0: 4e8f b93e df01 56bd 98b0 abbe fab6 563d
000002c0: 3be5 b83d f3e9 44be ff28 02be 50c0 04be
000002d0: acc5 4f3e 8a47 e3bd 38b0 84be 3c86 4ebe
000002e0: df25 6a3e 85fe 77be 3831 37bd 6c17 4abe
000002f0: e39f 33be 1594 983d 65d7 bebd a92d bc3e
00000300: 50f6 383c 7d79 e63c 11d0 6d3e a753 14ba
00000310: 986d 0bbe 6ef0 88be febc cf3d 9dbd be3e
00000320: 6c6b bd3c bbc4 c53e de28 813d 974c 323e
00000330: 1bd8 ec3d b593 da3e 8fbd bdbe 88aa 23be
00000340: 45e8 a6bd 36eb 7cbd f541 c7bc 7cce 98bd
00000350: 911c 18be 3819 14bf fd16 7fbe 33e8 3fbe
00000360: ebd4 0a3e 74ff 613d b07c 063e 0f41 3dbe
00000370: 2695 da3d efc3 eabd 51f4 96be 388d 303e
00000380: 533e 69be b974 aebd 6478 3bbd f046 4fbe
00000390: 5c7d 4d3e 86ff 783e 4298 99bd e3e0 333d
000003a0: 00b8 943c a817 173e a90d c5be 44c5 d3bd
000003b0: f86b 44be 37d2 9d3e ab4d 9d3e a0cf be3d
000003c0: 0d92 5d3c 1cfb f3be 3c25 42be ad4d e43d
000003d0: 7ae4 8f3e 64fa 12be 38ae c53e 583a 02bf
000003e0: edf9 e6bc 3b22 b13d 552a 5f3e cfc8 923c
000003f0: 203a c4bb f010 6c3e c52e aa3c 0638 80be
-0.09200428 -0.034016833 0.3056267 -0.015027871 0.46325016 -0.27711317 -0.071928695 0.17409003
-0.0757746 -0.16383073 0.22415005 0.30940172 -0.26356208 -0.13857116 0.0137963295 -0.26241547
0.28273824 -0.24228877 -0.1822337 0.15693355 0.3680672 0.058281276 0.033353567 -0.07485636
-0.038132932 0.086914815 0.07410914 0.16614981 -0.46678665 -0.09817945 0.4262926 0.29520795
0.08671902 -0.14753631 -0.36027753 0.066480584 -0.14448002 0.30615845 0.40344256 -0.24209383
-0.509386 0.173112 -0.37906227 -0.04582641 -0.28370005 -0.23327388 -0.46986166 -0.25293604
0.17041576 0.1669236 0.3948302 -0.18657033 0.041092418 -0.12905031 -0.12018878 -0.39542267
-0.064660765 -0.25147215 0.26947057 -0.08627949 -0.05101993 -0.32934722 -0.108955 0.44792688
-0.041623097 0.15418626 -0.20232418 0.42144433 -0.16425796 0.27146956 -0.0825709 -0.09294162
0.116275705 -0.21002246 -0.37253132 -0.022786826 0.0965994 -0.029213214 -0.040832512 -0.2448662
0.39302218 -0.048634555 0.18601239 0.0056553185 -0.15099813 0.17301619 -0.19596277 0.23349881
0.23004755 -0.44549462 -0.11707642 -0.14379 -0.11686162 -0.17265107 -0.1120643 0.23182161
0.17845953 0.21621376 0.17696635 0.21164319 0.21204956 0.06671328 0.22400717 -0.044846736
0.26865298 -0.20940223 0.106742054 -0.056840844 -0.37048483 0.09602282 0.40862724 -0.23484667
0.12703282 -0.30719188 -0.53594273 -0.08033231 0.51948994 -0.19545653 -0.17753622 -0.13328308
0.2680798 -0.36692438 0.07949418 -0.25981975 -0.118804775 0.08075176 -0.15183316 0.25222167
0.007164404 0.24661678 0.027285786 -0.13798982 -0.106200665 -0.0039571403 -0.3209763 -0.11816325
-0.201414 0.17548986 0.11750041 0.008304801 -0.5095415 0.13560943 0.1849372 -0.16561906
-0.25609097 0.18647753 -0.22634642 0.23393069 -0.28133264 -0.05903833 0.05933372 -0.122063555
-0.40663046 0.40199864 0.099273965 -0.0166574 -0.12007119 0.097456925 0.21220966 -0.30073917
-0.40198433 -0.11851476 -0.2836082 -0.1478642 0.29997775 -0.054006148 -0.20425816 -0.09808933
-0.18926153 -0.38293537 -0.11909725 0.15982394 0.36242145 -0.05224788 -0.33533168 0.052420594
0.09028097 -0.1922987 -0.12710951 -0.12963986 0.2029025 -0.11097629 -0.25915694 -0.20168394
0.22866009 -0.24218185 -0.044724673 -0.19735497 -0.1754146 0.074501194 -0.09318427 0.36753586
0.011289194 0.028134102 0.23223902 -0.0005658217 -0.13616025 -0.26745933 0.10143469 0.37254038
0.023122512 0.38626656 0.06306623 0.17412029 0.11564656 0.42690817 -0.37058684 -0.15983021
-0.08149771 -0.061747752 -0.024323443 -0.07461259 -0.14854647 -0.5785098 -0.24911113 -0.1874092
0.13557784 0.05517526 0.13133502 -0.18481849 0.10672979 -0.114631526 -0.29483274 0.1724137
-0.22777681 -0.08518357 -0.04576911 -0.20241904 0.20067352 0.24316224 -0.07499744 0.04391564
0.018154144 0.14755118 -0.38486984 -0.1034036 -0.19181812 0.30824444 0.30723318 0.09316945
0.013523591 -0.4765252 -0.18959516 0.11147628 0.28104 -0.14353329 0.3860948 -0.50870275
-0.028195346 0.08649107 0.21793492 0.017918019 -0.0059883744 0.23053336 0.020774255 -0.25042742
