models/epoch_60/discriminator.pth (torch, 420232 bytes, 7 tensors)

network.0.weight f4 [256, 20]
-0.028674759 -0.007303472 -0.07233589 0.22540928 0.17839195 -0.14515096 0.09922817 -0.0656939
-0.07269593 0.019850308 -0.07577835 0.24066694 0.021483503 -0.035014406 -0.054588493 -0.11840813
-0.08934643 -0.06341417 0.0123386225 -0.24991143 0.031006793 -0.068388365 0.042733125 0.0059115104
0.028910162 -0.060439866 -0.16769725 0.12137311 0.07927087 0.027490344 -0.0533763 -0.075081676
0.09084038 0.11043388 0.048803244 -0.09227595 0.043762155 0.33583257 0.2119089 -0.01799517
0.030176435 0.019620243 0.009945829 0.018663313 0.029101163 0.010069929 0.0017156394 -0.0009249714
-0.0034714104 -0.0045744088 -0.0030977614 0.51446533 0.0061883377 0.005586826 0.00023911166 0.0019204495
0.0073090387 0.0062779044 0.005164114 -0.2409493 0.014502449 -0.033231195 0.022162378 -0.091108404
-0.02746296 0.12958696 0.06252027 0.26990867 -0.10834759 0.0005818005 0.16571108 0.045701295
0.0064471397 -0.07822021 0.09780806 -0.005797983 0.15489835 -0.1373473 0.30334255 0.13558687
-0.0175409 0.05645748 0.038502112 -0.12862706 -0.1161749 -0.12198907 0.20152959 0.28527522
0.20679475 -0.08374779 -0.078541405 0.0059989016 -0.088147566 0.08439842 0.19215867 -0.06885276
-0.06564693 -0.097777836 -0.13117431 0.09107454 -0.07217865 0.058128625 -0.016571272 0.035676777
0.11133816 0.05651636 0.03549066 -0.11479771 0.0045117456 -0.09490184 -0.11163998 -0.014559788
0.35929596 -0.16202945 -0.12691286 0.03987877 -0.03360912 0.18513218 -0.1252726 -0.0038136034
0.107240945 0.0151240155 -0.008957782 0.13621596 0.112624794 0.09896236 -0.13464162 -0.0042596976
-0.018888135 0.003890051 -0.03814264 -0.09632628 -0.021153482 -0.06871564 0.46734852 0.029837303
-0.0495562 -0.07851692 0.123774245 0.19048283 -0.07217001 0.10904693 -0.06833343 -0.035758946
-0.10077608 0.040456038 -0.2063683 0.07076605 -0.08968591 0.04078816 -0.06430639 -0.06780511
0.09921971 0.036878206 0.08796468 0.19768243 -0.11055041 0.07713495 -0.025774065 0.09530059
-0.14137483 -0.06058229 -0.019146977 0.108578116 -0.007840486 0.039199285 0.09546333 -0.17264554
-0.1193651 0.12902266 0.08549908 -0.17016403 -0.07936574 -0.03274421 -0.07034975 -0.11811052
0.036485083 -0.09083328 -0.08240438 -0.13640241 0.11925574 0.014424819 0.08308846 0.16224878
0.028183414 0.07419992 0.5663472 -0.033419415 -0.00410996 -0.007980472 -0.004748774 -0.017262354
-0.028074743 -0.0040334496 -0.026638268 -0.040780753 -0.015645683 -0.023515075 -0.024182811 0.06503618
-0.016863754 -0.04648161 0.065387554 -0.045509174 0.039790362 -0.05979813 -0.28157613 0.18918453
0.18194112 0.07098139 0.16684169 0.08686562 -0.14937054 -0.069873944 -0.03925205 0.083311915
0.06324922 0.062837675 0.09012266 -0.25410303 0.055382665 0.2121513 0.093487 -0.07157241
0.16354138 0.15883684 -0.12873086 -0.06554835 -0.028510684 0.039423604 -0.02456948 -0.10944365
0.050683647 0.08135837 -0.021891635 -0.08086508 0.10600138 0.101659104 0.024228362 -0.176259
-0.0140129095 0.14599958 0.026308473 -0.007485829 0.12225568 -0.036498684 -0.022532122 -0.008458222
-0.054356005 0.009946853 0.017216703 0.43011537 0.061313596 -0.07653813 -0.0011875501 -0.01808487
00000000: 54e7 eabc f751 efbb d724 94bd b1d1 663e
00000010: 61ac 363e 74a2 14be 2438 cb3d 868a 86bd
00000020: 9be1 94bd 1d9d a23c ae31 9bbd 6571 763e
00000030: 2cfe af3c 446b 0fbd 2f98 5fbd f67f f2bd
00000040: 43fb b6bd 4adf 81bd ef27 4a3c c8e8 7fbe
00000050: f501 fe3c 330f 8cbd ee08 2f3d 58b5 c13b
00000060: 01d5 ec3c cb8f 77bd d4b8 2bbe 7792 f83d
00000070: c458 a23d 6e33 e13c 1ba1 5abd 6cc4 99bd
00000080: 850a ba3d 282b e23d e9e5 473d 2cfb bcbd
00000090: f23f 333d 3ff2 ab3e a6fe 583e 9b6a 93bc
000000a0: 9234 f73c a2ba a03c d5f3 223c cee3 983c
000000b0: 9065 ee3c 58fc 243c 4edf e03a c879 72ba
000000c0: 9a80 63bb ece4 95bb d003 4bbb 00b4 033f
000000d0: 8ac7 ca3b b111 b73b 0cba 7a39 98b7 fb3a
000000e0: a980 ef3b e1b6 cd3b ba37 a93b 6abb 76be
000000f0: ae9b 6d3c 6f1d 08bd e08d b53c 0b97 babd
00000100: 00fa e0bc 72b2 043e a10a 803d 7831 8a3e
00000110: 57e5 ddbd f883 183a 2ab0 293e 4831 3b3d
00000120: 8742 d33b eb31 a0bd 984f c83d 02fd bdbb
00000130: ac9d 1e3e c5a4 0cbe b74f 9b3e 49d7 0a3e
00000140: efb1 8fbc f53f 673d 64b4 1d3d d0b6 03be
00000150: 1bed edbd 68d5 f9bd c65d 4e3e 980f 923e
00000160: 01c2 533e f683 abbd 51da a0bd 6f92 c43b
00000170: b686 b4bd 14d9 ac3d 3ec5 443e ad02 8dbd
00000180: e671 86bd bf3f c8bd 8f52 06be 4a85 ba3d
00000190: 66d2 93bd 4818 6e3d 7ac0 87bc d021 123d
000001a0: 4305 e43d b37d 673d a85e 113d 101b ebbd
000001b0: 44d7 933b e55b c2bd 80a3 e4bd 2d8c 6ebc
000001c0: a4f5 b73e 0ceb 25be 72f5 01be ec57 233d
000001d0: b7a9 09bd 4a93 3d3e 7647 00be a6ed 79bb
000001e0: 24a1 db3d b8ca 773c a9c3 12bc 327c 0b3e
000001f0: d4a7 e63d c7ac ca3d 7edf 09be ef94 8bbb
00000200: 4abb 9abc 3af0 7e3b 753b 1cbd b646 c5bd
00000210: 114a adbc c9ba 8cbd 4e48 ef3e 5c6d f43c
00000220: 71fb 4abd 7bcd a0bd 5a7d fd3d ee0d 433e
00000230: dfcd 93bd ff53 df3d 66f2 8bbd f977 12bd
00000240: b063 cebd 3bb5 253d 3652 53be caed 903d
00000250: 3fad b7bd 7c11 273d 12b3 83bd 68dd 8abd
00000260: b433 cb3d 9a0d 173d d326 b43d 436d 4a3e
00000270: 4168 e2bd eef8 9d3d 2224 d3bc f52c c33d
00000280: 90c4 10be 2325 78bd 1fda 9cbc 345e de3d
00000290: 6275 00bc 6e8f 203d 4782 c33d fec9 30be
000002a0: b175 f4bd 841e 043e 241a af3d 7b3f 2ebe
000002b0: 818a a2bd cb1e 06bd 8813 90bd eee3 f1bd
000002c0: 6271 153d cc06 babd a1c3 a8bd 13ad 0bbe
000002d0: 5a3c f43d 1356 6c3c 482a aa3d 8b24 263e
000002e0: e7e0 e63c 21f6 973d 21fc 103f cce2 08bd
000002f0: d8ac 86bb 87c0 02bc 9b9b 9bbb c869 8dbc
00000300: 01fd e5bc 072b 84bb 7f38 dabc b809 27bd
00000310: 602b 80bc b0a2 c0bc 081b c6bc b031 853d
00000320: db25 8abc 8063 3ebd e9e9 853d d467 3abd
00000330: 38fb 223d e2ee 74bd bf2a 90be 97b9 413e
00000340: c64e 3a3e b15e 913d 8cd8 2a3e 9ae6 b13d
00000350: 97f4 18be 121a 8fbd c2c6 20bd 709f aa3d
00000360: cf88 813d 0ab1 803d 3b92 b83d cb19 82be
00000370: efd8 623d 313e 593e 1d76 bf3d 8e94 92bd
00000380: 6477 273e 20a6 223e 06d2 03be 373e 86bd
00000390: 3d8f e9bc a57a 213d ef45 c9bc fe23 e0bd
000003a0: a899 4f3d 389f a63d 1656 b3bc 979c a5bd
000003b0: 4017 d93d a632 d03d 8f7a c63c 3d7d 34be
000003c0: 6796 65bc ea80 153e de84 d73c af4b f5bb
000003d0: 3061 fa3d a57f 15bd 4995 b8bc 5b94 0abc
000003e0: 67a4 5ebd 20f8 223c 0b0a 8d3c 1538 dc3e
000003f0: f723 7b3d 06c0 9cbd 92a7 9bba b926 94bc

network.0.bias f4 [256]
0.25395393 -0.27308968 -0.39102277 -0.12707214 -0.3269989 -0.2856185 -0.019899698 -0.0826499
0.25337335 -0.15325935 -0.2053791 0.27460444 -0.089983694 -0.373531 -0.2263497 0.15064253
0.042082015 -0.22424278 -0.21142581 -0.32702962 0.2547988 -0.20733228 -0.19747686 -0.2361611
-0.2862308 0.17325369 0.19986957 -0.03307042 -0.17709947 -0.3476838 -0.19064917 2.8865463e-05
-0.24246123 0.29868284 -0.28330955 0.15650675 -0.3235095 -0.3122731 0.029214403 -0.2671329
-0.24179602 0.26112565 -0.32294804 -0.14634994 -0.09000933 -0.16898748 0.24334083 0.057057682
0.25368962 0.23265049 -0.24094567 -0.3227391 -0.07194751 -0.1954098 -0.33730176 -0.14844194
-0.076703675 0.14195871 -0.21330562 -0.13625456 -0.34367192 0.010376609 -0.28565323 -0.14690098
-0.1601587 -0.12191491 -0.05480827 -0.19284813 0.17197292 -0.31032017 -0.21472545 0.106116265
0.11800353 -0.2209427 -0.29016146 -0.1792444 -0.14952523 -0.27890295 0.0770727 0.027529625
-0.20017311 -0.25766686 -0.20239784 -0.10827364 -0.07428607 0.2803842 -0.26519266 -0.28951895
-0.19579937 -0.019932777 -0.3228461 0.21650945 -0.34956083 -0.25870723 -0.12559561 -0.14062133
0.2358411 0.07844409 -0.24015984 0.2733593 0.19173902 -0.06509695 0.066597044 -0.22172812
0.24297015 -0.3677192 -0.25108078 -0.26049703 -0.2752997 -0.17802577 -0.1341954 -0.26972416
-0.112904325 -0.09560505 -0.26821083 -0.34268004 0.15298428 -0.18946595 -0.19394855 0.040206328
-0.23504275 0.29575694 -0.23700853 -0.3165915 -0.28805578 0.0042940243 0.055181302 -0.26944318
-0.2020218 -0.08471068 -0.11403115 -0.07952202 -0.2885411 -0.35541737 -0.21749471 -0.0017945583
-0.013117948 -0.2365506 -0.16220455 -0.24347097 -0.19138747 -0.28202492 -0.35286587 -0.09670716
-0.22935411 -0.0490548 -0.22822402 -0.16877073 -0.14543885 -0.045799717 -0.14714475 0.2136691
-0.16611531 -0.24729721 -0.28181708 0.26099974 -0.1457327 -0.290289 0.14453432 -0.27205434
-0.22215337 0.113134995 0.18627672 -0.30655006 0.2572991 -0.38280696 -0.054918166 -0.30982804
-0.18324675 -0.2819369 -0.3146674 0.020462839 -0.13410468 -0.20258243 -0.34257385 -0.0438502
0.009302928 -0.3106255 -0.33538958 0.13139215 -0.08481368 -0.19213155 -0.21127222 -0.3179618
0.18565688 -0.25916526 -0.11722973 0.06564494 -0.32379547 -0.39637566 -0.43466872 0.013143607
-0.37438 -0.32907233 -0.16398674 -0.34248304 -0.08758293 -0.11909183 -0.25606835 -0.3518799
0.3104334 -0.33389032 0.16559991 -0.3330807 0.2206466 -0.17942065 0.0577375 -0.02389859
-0.0010776636 0.23865342 0.15513778 -0.05592275 -0.01009071 -0.3318043 -0.3318188 0.04266459
-0.05575556 0.25058746 -0.0816534 -0.14861944 -0.31244242 -0.30914885 -0.12936068 -0.2585319
-0.22694442 0.22125642 -0.109181814 -0.082046725 -0.11609603 -0.07595529 -0.16076368 0.13689712
-0.088484414 0.019927893 -0.09959825 0.01980917 -0.08628523 -0.08723449 0.29935148 -0.031885244
-0.22450332 -0.24958573 -0.06553492 -0.39017102 0.27903482 -0.06009597 0.1556101 0.19601245
-0.30841875 -0.21223742 -0.38045257 -0.25967294 -0.34658986 0.008333253 -0.31748554 -0.3487437
00000000: 4006 823e 69d2 8bbe 2334 c8be 331f 02be
00000010: 666c a7be 973c 92be b104 a3bc 5a44 a9bd
00000020: 27ba 813e 05f0 1cbe e64e 52be f498 8c3e
00000030: 5f49 b8bd 753f bfbe 37c8 67be 0942 1a3e
00000040: 315e 2c3d e69f 65be 0280 58be 6d70 a7be
00000050: fd74 823e ea4e 54be 6037 4abe 37d4 71be
00000060: d88c 92be 6a69 313e 9caa 4c3e d974 07bd
00000070: 9059 35be 9c03 b2be 8939 43be 1c24 f237
00000080: c247 78be f5ec 983e f30d 91be 4e43 203e
00000090: 0aa3 a5be 42e2 9fbe 0b53 ef3c a5c5 88be
000000a0: 6099 77be 43b2 853e 7259 a5be c2dc 15be
000000b0: d056 b8bd 0e0b 2dbe 572e 793e 51b5 693d
000000c0: 9be3 813e ee3b 6e3e 76ba 76be 0f3e a5be
000000d0: 3759 93bd 8219 48be d1b2 acbe 2a01 18be
000000e0: d116 9dbd a05d 113e ca6c 5abe 5186 0bbe
000000f0: c4f5 afbe a702 2a3c 2441 92be 366d 16be
00000100: a400 24be 86ae f9bd a37e 60bd fb79 45be
00000110: ab19 303e 49e2 9ebe fde0 5bbe 7c53 d93d
00000120: d6ab f13d ce3e 62be 0b90 94be d88b 37be
00000130: 241d 19be 5ecc 8ebe 4bd8 9d3d cf85 e13c
00000140: 2efa 4cbe e9ec 83be 6141 4fbe 92be ddbd
00000150: 4c23 98bd 858e 8f3e 55c7 87be d43b 94be
00000160: a17f 48be 104a a3bc 164c a5be a7b4 5d3e
00000170: a3f9 b2be 4675 84be 239c 00be 0aff 0fbe
00000180: 5480 713e 4ca7 a03d 76ec 75be c0f5 8b3e
00000190: 3c57 443e 8d51 85bd 0864 883d b20c 63be
000001a0: 2bcd 783e b145 bcbe a98d 80be de5f 85be
000001b0: 15f4 8cbe 634c 36be 856a 09be 4919 8abe
000001c0: 623a e7bd 95cc c3bd ee52 89be c273 afbe
000001d0: e9a7 1c3e 5d03 42be 739a 46be 64af 243d
000001e0: 0caf 70be 746d 973e 5db2 72be 4818 a2be
000001f0: 0c7c 93be e3b4 8c3b ca05 623d 75f4 89be
00000200: cede 4ebe cb7c adbd 2a89 e9bd 71dc a2bd
00000210: a9bb 93be 44f9 b5be efb6 5ebe 6237 ebba
00000220: a9ec 56bc 523a 72be f318 26be 7450 79be
00000230: 14fb 43be 9265 90be d6aa b4be 670e c6bd
00000240: cedb 6abe b0ed 48bd 8fb3 69be 3cd2 2cbe
00000250: eced 14be 7c98 3bbd 1dad 16be 13cc 5a3e
00000260: 221a 2abe 7b3b 7dbe 544a 90be c2a1 853e
00000270: f43a 15be c3a0 94be ce00 143e b54a 8bbe
00000280: 2c7c 63be 52b3 e73d 53bf 3e3e 21f4 9cbe
00000290: b5bc 833e 46ff c3be dff1 60bd c8a1 9ebe
000002a0: 09a5 3bbe 095a 90be 161c a1be afa1 a73c
000002b0: bd52 09be c571 4fbe d765 afbe 449c 33bd
000002c0: 4f6b 183c 4e0a 9fbe 2fb8 abbe aa8b 063e
000002d0: cbb2 adbd 22be 44be bf57 58be e4cb a2be
000002e0: d61c 3e3e 4fb1 84be 2416 f0bd db70 863d
000002f0: 85c8 a5be c0f1 cabe e68c debe 4958 573c
00000300: bcae bfbe 2b7c a8be 24ec 27be f059 afbe
00000310: ae5e b3bd 6be6 f3bd 641b 83be 9a29 b4be
00000320: 20f1 9e3e acf3 aabe 0693 293e 8e89 aabe
00000330: 2ff1 613e 0cba 37be 287e 6c3d fac6 c3bc
00000340: 6440 8dba 9061 743e 70dc 1e3e 410f 65bd
00000350: 8153 25bc 41e2 a9be 27e4 a9be 11c1 2e3d
00000360: f15f 64bd 004d 803e e639 a7bd b22f 18be
00000370: 74f8 9fbe c248 9ebe 2077 04be 4b5e 84be
00000380: 1e64 68be 0b91 623e b79a dfbd 1d08 a8bd
00000390: c1c3 edbd 728e 9bbd 3c9f 24be c22e 0c3e
000003a0: 5137 b5bd d23f a33c 2bfa cbbd d746 a23c
000003b0: 50b6 b0bd ffa7 b2bd 9944 993e 1a9a 02bd
000003c0: 33e4 65be 6793 7fbe 2c37 86bd 7fc4 c7be
000003d0: a7dd 8e3e 3127 76bd 4158 1f3e 7db7 483e
000003e0: 10e9 9dbe c454 59be aeca c2be daf3 84be
000003f0: 3a74 b1be 3288 083c 778d a2be 898e b2be

network.3.weight f4 [256, 256]
-0.03310019 -0.05611565 -0.093836464 0.014962971 0.0013049275 -0.016700588 -0.026647167 0.008770145
-0.07336922 -0.04281915 -0.055025287 0.008266091 0.021833729 -0.002456995 -0.028720463 -0.04590388
-0.012075592 0.010379875 -0.04577732 0.0026755724 -0.0071535953 -0.05082366 -0.055752333 -0.07494456
-0.0046236864 -0.04564062 -0.027531723 0.03960563 -0.07556243 -0.049114686 -0.02767517 -0.019830268
-0.021830719 0.018712377 -0.009700165 -0.04339234 -0.026136467 -0.014130536 -0.041019943 0.020257859
-0.052492835 -0.05316754 -0.0712735 0.044675387 -0.00765114 -0.002061332 -0.031227728 -0.008987156
-0.028150385 -0.019258246 -0.04587292 0.02956497 -0.011256913 -0.020734834 -0.032809183 0.01770818
-0.06282837 0.0033198649 -0.04419733 -0.07047441 -0.0490747 -0.07541775 -0.07808118 -0.055337954
-0.044246014 0.01711181 -0.0510357 -0.030038582 -0.057610806 -0.06942324 -0.053880177 -0.07127583
-0.01331849 -0.014590915 0.009717135 1.9398689e-05 0.005692416 -0.026598893 0.01134886 0.038673464
0.009359479 -0.06251583 -0.013471939 -0.033493046 -0.08179398 -0.02806564 -0.08239104 -0.074915476
-0.10119275 0.02522675 4.0991916e-05 -0.05197247 -0.021078777 -0.05336611 -0.012382053 -0.032616388
-0.034088183 -0.00068890734 0.03513703 -0.0318903 0.0054621487 -0.04471051 -0.020306302 0.017339665
0.02057475 -0.071108 -0.03789223 -0.022144891 0.02957382 -0.049192242 -0.04051279 0.047787704
-0.042291608 -0.051926464 0.017170947 -0.019499319 0.011087887 -0.0805512 -0.050201345 0.0525445
0.026640737 0.018033221 0.04947329 -0.0043191323 -0.069651775 0.016106896 -0.07151625 -0.07882012
-0.02453002 0.013599896 -0.044566184 0.039012488 -0.0054847645 -0.03227447 -0.05822651 0.0194613
0.012233096 -0.028983584 -0.055255108 0.0051552444 -0.0003086984 -0.037148274 0.017743567 -0.00023332122
-0.059690688 -0.06963682 0.053566005 0.022338677 -0.035059866 -0.059295148 0.030400332 -0.059410013
-0.07013861 0.026274886 -0.052256178 -0.0514075 -0.03344445 -0.06934497 -0.034405664 -0.009850213
-0.0042530717 -0.05201546 -0.05540326 -0.040808775 0.021005766 -0.023930343 0.030179478 -0.05009312
-0.0064095953 -0.0016892591 -0.01074016 0.054350648 -0.040144492 -0.0047862036 -0.013850676 0.06534221
-0.018498465 -0.01452935 -0.009666541 0.01712396 -0.0036486462 -0.06973575 -0.013285949 -0.03216242
0.05010449 -0.07249099 0.04192347 0.011842695 -0.00089383713 -0.08983767 0.019107914 -0.0181012
-0.071301095 -0.044922534 -0.05985377 -0.04907196 0.017958527 -0.03280108 -0.033148307 -0.0033218688
-0.025594262 -0.06713557 -0.022983084 -0.02075572 -0.016854998 -0.045866396 -0.05357821 -0.035803832
-0.005240097 -0.05933078 -0.011246301 0.004287446 -0.020683575 -0.0074733337 -0.026759846 0.019438686
0.019297287 -0.0017409107 -0.019034587 -0.08694518 -0.040020723 -0.023184614 -0.06656628 -0.05711535
0.015270069 -0.0036697993 -0.026609467 -0.07281487 -0.01102072 -0.037862718 -0.070080794 -0.038316723
-0.03235387 -0.006674916 -0.0875178 -0.008284247 0.015302452 -0.09432052 -0.03299595 -0.0369171
-0.0021937739 -0.050748933 -0.0063221627 -0.005825804 -0.03481138 -0.012353001 0.0037917276 -0.0068754605
-0.08905315 -0.07151518 -0.06481442 -0.007895075 -0.089103445 -0.07014287 -0.0060588564 -0.02287324
00000000: 1194 07bd 86d9 65bd 552d c0bd 4027 753c
00000010: 1a0a ab3a accf 88bc 294b dabc a7b0 0f3c
00000020: 9a42 96bd 2263 2fbd 3262 61bd 806e 073c
00000030: a6dc b23c 8905 21bb 2d47 ebbc b505 3cbd
00000040: b4d8 45bc 5a10 2a3c 0081 3bbd a858 2f3b
00000050: b568 eabb 782c 50bd 8f5c 64bd 897c 99bd
00000060: 4b82 97bb a9f1 3abd 358a e1bc 8339 223d
00000070: 7ac0 9abd 7b2c 49bd 0ab7 e2bc 1673 a2bc
00000080: 56d6 b2bc b34a 993c 71ed 1ebc 2bbc 31bd
00000090: 251c d6bc c383 67bc 8704 28bd cff3 a53c
000000a0: ba02 57bd 35c6 59bd d7f7 91bd 8afd 363d
000000b0: 6ab6 fabb 6a17 07bb 4bd1 ffbc dd3e 13bc
000000c0: a39b e6bc 78c3 9dbc 3ee5 3bbd 3c32 f23c
000000d0: ea6e 38bc 19dc a9bc ec62 06bd bf10 913c
000000e0: 29ac 80bd 1792 593b 4208 35bd e354 90bd
000000f0: 8d02 49bd 9f74 9abd 07e9 9fbd 0daa 62bd
00000100: 4f3b 35bd 112e 8c3c cf0a 51bd 7913 f6bc
00000110: 4ff9 6bbd c62d 8ebd 76b1 5cbd 10f9 91bd
00000120: cc35 5abc bc0e 6fbc 9e34 1f3c 5eba a237
00000130: 7287 ba3b ece5 d9bc 92f0 393c 1168 1e3d
00000140: 8058 193c 4d08 80bd 68b9 5cbc 0130 09bd
00000150: 9a83 a7bd eae9 e5bc a2bc a8bd 496d 99bd
00000160: 253e cfbd 54a8 ce3c bcee 2b38 16e1 54bd
00000170: 66ad acbc 6c96 5abd 18de 4abc c398 05bd
00000180: 0da0 0bbd ca97 34ba d9eb 0f3d 679f 02bd
00000190: d3fb b23b 5e22 37bd 6759 a6bc ea0b 8e3c
000001a0: 618c a83c 12a1 91bd e234 1bbd 3469 b5bc
000001b0: cc44 f23c ce7d 49bd bdf0 25bd 0abd 433d
000001c0: f739 2dbd d8b0 54bd 16aa 8c3c 09bd 9fbc
000001d0: f8a9 353c 07f8 a4bd ed9f 4dbd e738 573d
000001e0: ad3d da3c 68ba 933c 81a4 4a3d 8287 8dbb
000001f0: 97a5 8ebd 9cf2 833c 1d77 92bd 716c a1bd
00000200: 2ef3 c8bc 19d2 5e3c 088b 36bd 8fcb 1f3d
00000210: 8ab9 b3bb 3c32 04bd ec7e 6ebd 4e6d 9f3c
00000220: 536d 483c fb6e edbc 2e53 62bd 53ed a83b
00000230: ccd8 a1b9 ca28 18bd f55a 913c b0a7 74b9
00000240: 397e 74bd c09d 8ebd 0768 5b3d 9aff b63c
00000250: ef9a 0fbd 78df 72bd 1e0a f93c ea57 73bd
00000260: d5a4 8fbd 6e3e d73c 930a 56bd ac90 52bd
00000270: 0cfd 08bd bc04 8ebd f4ec 0cbd ca62 21bc
00000280: 5a5d 8bbb 2a0e 55bd 87ee 62bd 1a27 27bd
00000290: 4914 ac3c 9109 c4bc f43a f73c 722e 4dbd
000002a0: 9507 d2bb 216a ddba 7ff7 2fbc c99e 5e3d
000002b0: 8d6e 24bd 96d5 9cbb f2ed 62bc 23d2 853d
000002c0: 188a 97bc 830c 6ebc 6960 1ebc 8c47 8c3c
000002d0: 201e 6fbb 9ed1 8ebd 4fad 59bc bebc 03bd
000002e0: 5e3a 4d3d 2876 94bd f2b7 2b3d dd07 423c
000002f0: 6550 6aba d0fc b7bd 3388 9c3c f848 94bc
00000300: 4f06 92bd b100 38bd 3a29 75bd aeff 48bd
00000310: c31d 933c 6d5a 06bd 85c6 07bd b6b3 59bb
00000320: 0fab d1bc 607e 89bd 0547 bcbc e607 aabc
00000330: 7e13 8abc 67de 3bbd d374 5bbd 0aa7 12bd
00000340: 1fb5 abbb d504 73bd 6842 38bc b47d 8c3b
00000350: 9a70 a9bc dee2 f4bb 7737 dbbc e13d 9f3c
00000360: 5815 9e3c 452f e4ba 6cee 9bbc 5110 b2bd
00000370: c5ec 23bd a9ed bdbc e753 88bd c9f1 69bd
00000380: 502f 7a3c 0481 70bb 19fc d9bc f61f 95bd
00000390: 4090 34bc f015 1bbd 8586 8fbd fff1 1cbd
000003a0: 7e85 04bd 41b9 dabb 883c b3bd a6ba 07bc
000003b0: 23b7 7a3c 1e2b c1bd c326 07bd 6336 17bd
000003c0: 6bc5 0fbb 1dde 4fbd 252a cfbb 63e6 bebb
000003d0: 6196 0ebd 3e64 4abc a27e 783b 8b4b e1bb
000003e0: 7f61 b6bd 8d76 92bd 6cbd 84bd 585a 01bc
000003f0: de7b b6bd 11a7 8fbd 5f89 c6bb a960 bbbc

network.3.bias f4 [256]
0.11442996 -0.23683353 -0.07489705 -0.21607846 -0.18368937 -0.2157097 -0.12072417 0.05910254
-0.1379281 -0.18589646 0.09598123 0.0030174856 0.08908772 0.12407391 -0.031041617 -0.18268158
0.15451947 0.06779677 -0.20875585 -0.19261956 -0.15828447 -0.15669408 -0.23954369 -0.21006307
-0.24188423 -0.14078094 -0.15811837 -0.2152725 -0.17951374 -0.16688387 -0.0143813435 0.14773022
-0.07148075 -0.10648547 0.064258255 0.12369305 0.024254758 -0.15418245 -0.19266078 -0.066568464
0.014608525 0.04665038 -0.1644676 -0.16207592 0.09629917 -0.19547354 -0.19933996 -0.123252235
-0.0748438 0.017595883 0.100900605 -0.020862523 -0.22744732 0.04185237 -0.007071633 0.0076994747
-0.20743549 0.04997944 -0.016077664 -0.15736778 -0.16653681 0.061675787 -0.099337794 -0.22727543
0.06933725 0.048622474 -0.20622674 -0.22158146 -0.077295505 -0.014011374 -0.13619442 -0.059491914
0.10784352 0.023990575 -0.044173677 -0.18505019 -0.1294142 0.027201263 -0.085431345 -0.19010665
0.06088865 -0.19624817 -0.057646357 -0.22371137 0.08555277 0.052204665 0.04613297 -0.17973387
-0.22892797 -0.17016393 -0.17510934 -0.17677625 -0.14865686 -0.07454108 -0.07883484 -0.07726773
-0.14400932 0.120298296 -0.24061999 -0.24039108 -0.14355962 -0.08150242 -0.1762857 0.059341
-0.0024354067 -0.02649683 0.068656765 -0.23544978 -0.23786919 -0.0154418815 -0.20668498 0.005326194
-0.1796489 -0.07194955 -0.0783132 -0.07367879 0.0011362494 -0.043130565 0.09205515 -0.07493791
0.08896874 -0.00648274 -0.028331392 -0.010698396 -0.047453005 0.066299975 -0.088843815 -0.18180884
-0.053981222 -0.021737235 0.07148495 -0.1824788 -0.12536734 -0.16092627 -0.14070785 -0.14238317
0.09930589 0.054817427 -0.13072412 0.001992205 -0.123919845 -0.17150207 -0.0019229732 0.10885715
0.02037989 -0.12327696 -0.13291886 -0.24441844 -0.22400202 -0.023482028 0.053011943 0.09320052
0.017717814 0.07664287 -0.13341153 -0.2071571 -0.14657705 0.053875726 -0.11675928 0.029643439
-0.19726196 -0.1112389 0.08325967 -0.097568534 0.021544224 -0.14329375 -0.18176879 -0.09892934
-0.218214 -0.15460168 0.08270118 -0.20102465 -0.15299986 -0.16568652 -0.22418699 -0.20446154
0.047547907 -0.07049805 -0.20073442 0.037195962 -0.14747925 0.111209035 -0.1691789 -0.22045872
-0.18471444 -0.1620998 -0.01340481 -0.1698233 0.15327463 -0.1557135 -0.10575123 0.09422944
-0.17244385 -0.10747817 -0.14908145 -0.14729652 -0.061030347 -0.1373165 0.095269285 -0.24914956
-0.09581923 0.08952904 -0.25322273 0.05821087 -0.055125415 -0.04408068 0.07001047 0.07156641
0.13633491 -0.1309508 -0.20078911 -0.08770907 -0.13102858 -0.14861763 -0.035077166 0.09795256
-0.12551673 0.017202381 -0.11382706 0.12739147 -0.015297577 -0.14035016 -0.015754687 -0.14668538
-0.12850535 -0.095754765 -0.11645615 -0.1925428 -0.102290675 0.037493095 -0.23041944 -0.09679002
-0.09667014 0.07787216 -0.124656454 -0.121449724 -0.2571326 -0.18408088 0.11428929 -0.20035057
-0.22187474 0.091431916 -0.17074378 0.025502412 -0.21361394 -0.22221199 -0.07906075 -0.21386036
-0.19799286 -0.18873939 -0.05401875 -0.2441237 -0.19708297 0.063156255 -0.11241651 0.08925782
00000000: 415a ea3d 7d84 72be a063 99bd ac43 5dbe
00000010: 1119 3cbe 01e3 5cbe 3c3e f7bd 8115 723d
00000020: 063d 0dbe a45b 3ebe cf91 c43d 02c1 453b
00000030: 9f73 b63d 761a fe3d fd4a febc e110 3bbe
00000040: 5a3a 1e3e 08d9 8a3d 18c4 55be 103e 45be
00000050: 5315 22be 6a74 20be f14a 75be c61a 57be
00000060: 80b0 77be e128 10be c8e9 21be 6570 5cbe
00000070: 73d2 37be 9be3 2abe ba9f 6bbc 9746 173e
00000080: 8064 92bd 0e15 dabd d599 833d c852 fd3d
00000090: eab1 c63c 01e2 1dbe de48 45be 0c55 88bd
000000a0: 9858 6f3c 7814 3f3d 326a 28be 3bf7 25be
000000b0: 8038 c53d 372a 48be c61f 4cbe ab6b fcbd
000000c0: b547 99bd 3e25 903c faa4 ce3d e2e7 aabc
000000d0: f3e7 68be 646d 2b3d 28b9 e7bb e04b fc3b
000000e0: f869 54be 3eb7 4c3d 4eb5 83bc 0525 21be
000000f0: a088 2abe c09f 7c3d 9d71 cbbd e4ba 68be
00000100: b000 8e3d 5c28 473d 1a2d 53be 40e6 62be
00000110: 1b4d 9ebd f68f 65bc 8d76 0bbe cbad 73bd
00000120: 10dd dc3d e287 c43c 75ef 34bd cc7d 3dbe
00000130: 2885 04be 2fd5 de3c a1f6 aebd 51ab 42be
00000140: 6166 793d 48f5 48be 961e 6cbd 9814 65be
00000150: 4a36 af3d 8fd4 553d edf5 3c3d 280c 38be
00000160: 186c 6abe 743f 2ebe dd4f 33be d504 35be
00000170: 8139 18be fea8 98bd 2974 a1bd 8b3e 9ebd
00000180: 2e77 13be f45e f63d 1665 76be 1429 76be
00000190: 4b01 13be beea a6bd 3d84 34be 8c0f 733d
000001a0: 589b 1fbb e10f d9bc eb9b 8c3d bf19 71be
000001b0: fb93 73be f2ff 7cbc 3aa5 53be 5b87 ae3b
000001c0: e2f5 37be 495a 93bd ac62 a0bd e8e4 96bd
000001d0: 34ee 943a ada9 30bd 6987 bc3d 0c79 99bd
000001e0: 3e35 b63d 2a6d d4bb 3c17 e8bc 5348 2fbc
000001f0: 155e 42bd 48c8 873d bff3 b5bd 192c 3abe
00000200: 6a1b 5dbd 4912 b2bc b466 923d b9db 3abe
00000210: 4c60 00be dbc9 24be b815 10be e5cc 11be
00000220: e360 cb3d 3d88 603d 8bdc 05be a78f 023b
00000230: b0c9 fdbd 3d9e 2fbe 460c fcba 7ff0 de3d
00000240: baf3 a63c a178 fcbd e21b 08be d448 7abe
00000250: c960 65be 625d c0bc 0d23 593d eadf be3d
00000260: f324 913c f0f6 9c3d 089d 08be fe20 54be
00000270: 4b18 16be cbac 5c3d 7d1f efbd ccd6 f23c
00000280: 0aff 49be 38d1 e3bd 0c84 aa3d 03d2 c7bd
00000290: 837d b03c 99bb 12be 9921 3abe 779b cabd
000002a0: 7e73 5fbe e74f 1ebe 3c5f a93d 68d9 4dbe
000002b0: ffab 1cbe baa9 29be 4691 65be 5e5e 51be
000002c0: 98c1 423d 4861 90bd 538d 4dbe cb5a 183d
000002d0: cd04 17be 90c1 e33d 3c3d 2dbe eebf 61be
000002e0: c825 3dbe 7dfd 25be d99f 5bbc 29e6 2dbe
000002f0: 06f4 1c3e 5c73 1fbe 1a94 d8bd 5dfb c03d
00000300: 1f95 30be 841d dcbd cfa8 18be e6d4 16be
00000310: f5fa 79bd b29c 0cbe 8b1c c33d 1021 7fbe
00000320: df3c c4bd 005b b73d 69a6 81be 856e 6e3d
00000330: 30cb 61bd f18d 34bd a661 8f3d 6991 923d
00000340: 619b 0b3e f717 06be a99b 4dbe d0a0 b3bd
00000350: 5b2c 06be 382f 18be 13ad 0fbd 5a9b c83d
00000360: 7587 00be 02ec 8c3c 291e e9bd e972 023e
00000370: b0a2 7abc f4b7 0fbe f90f 81bc b134 16be
00000380: e896 03be 131b c4bd 9080 eebd f129 45be
00000390: c67d d1bd 5c92 193d 13f3 6bbe d939 c6bd
000003a0: fffa c5bd 707b 9f3d e24b ffbd a2ba f8bd
000003b0: e2a6 83be b37f 3cbe 8110 ea3d b328 4dbe
000003c0: 2233 63be a840 bb3d 75d7 2ebe 6fea d03c
000003d0: 9dbd 5abe 8a8b 63be 9aea a1bd 36fe 5abe
000003e0: a4be 4abe e644 41be c442 5dbd 90fb 79be
000003f0: 1ed0 49be 1158 813d a13a e6bd cecc b63d

network.6.weight f4 [128, 256]
-0.0024414011 -0.011925112 0.033005234 0.1655371 0.051728487 0.061745062 -0.027151378 -0.05094595
0.03548508 0.12432594 -0.01412393 0.0471441 0.059878893 -0.014774547 0.0044316095 -0.032757625
-0.10706525 -0.014374333 0.0011522532 0.04633888 0.0113500245 0.11603291 0.18407191 0.06985816
0.042279866 0.043811236 0.043390613 0.019731566 0.016352238 0.06739088 -0.031231157 -0.08456745
-0.015702574 0.030012464 -0.03644284 0.016881637 -0.08939587 0.024136182 0.04712865 -0.02679435
0.03655121 -0.07318105 0.06450566 0.06451584 -0.043916885 0.051227834 0.21148029 0.022009809
0.053910285 -0.048065264 0.015669428 0.015602578 0.23650587 -0.039299548 -0.07090777 -0.05504197
0.028131055 0.0020443262 0.06946849 0.010647179 0.023776507 0.0037757286 -0.028379153 0.080336474
0.011626554 0.0050113513 0.04942078 0.014381646 0.04938215 -0.029914506 -0.005320805 0.04221526
-0.038821425 0.0012166008 0.08362272 0.047292303 -0.047961887 -0.04844607 0.053788118 0.22460936
-0.08454555 0.20886964 0.07133338 0.038431253 -0.049815193 -0.010073105 0.042472176 -0.03648684
-0.096262306 0.048865672 -0.083402455 0.08686495 -0.04162023 0.0361913 0.00047776956 0.038654402
-0.0117434105 0.030495817 0.117811255 0.20769386 0.08405664 0.027293123 -0.025018593 -0.015382828
-0.014502628 0.06047633 0.07379852 0.1750763 0.007014573 0.01932892 0.16748942 -0.03398882
0.01914892 -0.046251774 0.057080675 -0.009552933 -0.03741272 0.046278346 -0.08609411 0.023547264
0.013865014 -0.07128735 0.07527043 0.0064001405 -0.030221447 0.022349682 -0.007602741 0.10631358
-0.026195208 0.09072835 0.08650976 -0.08741116 0.15470743 0.015032277 0.027447997 -0.0038445145
-0.0056302324 0.033318616 -0.0037044513 0.018156594 0.010976887 -0.07542239 -0.0019384868 0.070932895
-0.03789014 0.06638393 -0.010004678 0.1523655 -0.023643853 -0.08424676 -0.034371942 -0.0063886014
-0.04861959 -0.053221706 0.10133225 0.12986907 -0.0014397374 -0.023376618 0.004733765 0.018074537
0.0695681 0.037392523 0.0009883804 0.028737858 0.0043631466 0.027930362 0.03533275 0.034579393
0.18625075 -0.005622838 -0.050176125 0.0328094 0.073309384 0.028113581 -0.0003418892 0.009790398
-0.036968548 0.05522213 0.01670534 -0.07164286 0.07038319 -0.00500148 0.22396392 0.029318718
0.05024162 0.03061815 -0.013520968 -0.117353745 0.0499981 0.061567362 0.053571243 -0.03760924
-0.018265432 0.04056803 0.02638004 0.011952127 0.049308613 -0.01351886 -0.06888144 0.19974987
0.104003444 0.020774629 0.10493396 -0.031246925 0.025094725 0.083783105 -0.048401244 -0.031509228
-0.10309878 0.01282899 0.026044324 0.035014212 0.05824232 0.0641543 0.07849873 -0.027566075
0.027875394 -0.030355487 0.0482289 0.024384899 -0.04754236 -0.002461827 0.031015389 -0.0072200755
0.07421049 0.08436076 0.12448037 0.09641185 0.045478035 -0.079732515 0.052678645 0.0027730037
0.20631151 0.00074494636 0.07999814 0.043678164 0.018556314 -0.071913674 -0.109776 0.033242982
-0.017997101 -0.055771783 0.051202763 -0.023755208 0.08893515 0.005578081 -0.02308004 0.20580737
0.09037351 -0.0086936075 -0.00039007614 -0.022170246 0.18830621 -0.051582493 4.450277e-05 -0.007903175
00000000: eaff 1fbb 8c61 43bc 7f30 073d 8f82 293e
00000010: 40e1 533d 64e8 7c3d 916c debc b3ac 50bd
00000020: ce58 113d 999e fe3d 0e68 67bc 2c1a 413d
00000030: 9243 753d f110 72bc 0937 913b dc2c 06bd
00000040: 0745 dbbd 5382 6bbc 3407 973a d6cd 3d3d
00000050: 74f5 393c aaa2 ed3d 597d 3c3e cc11 8f3d
00000060: a72d 2d3d 6973 333d 5bba 313d 18a4 a13c
00000070: 21f5 853c 3b04 8a3d 7cd8 ffbc b331 adbd
00000080: afa2 80bc b3dc f53c 1645 15bd 5c4b 8a3c
00000090: 2f15 b7bd 3eb9 c53c f909 413d d37f dbbc
000000a0: b9b6 153d f2df 95bd 8b1b 843d e120 843d
000000b0: 31e2 33bd 47d4 513d 4a8e 583e ea4d b43c
000000c0: 08d1 5c3d 15e0 44bd 2c5d 803c f5a1 7f3c
000000d0: 982e 723e 90f8 20bd 1838 91bd b073 61bd
000000e0: 1973 e63c 1afa 053b 7f45 8e3d 8171 2e3c
000000f0: f3c6 c23c 3772 773b 667b e8bc 7387 a43d
00000100: 4d7d 3e3c 4336 a43b 726d 4a3d ffa0 6b3c
00000110: f044 4a3d 440f f5bc 265a aebb e9e9 2c3d
00000120: 3703 1fbd 5976 9f3a 6342 ab3d 93b5 413d
00000130: af73 44bd 636f 46bd ee50 5c3d ffff 653e
00000140: 3826 adbd ece1 553e 3c17 923d 176a 1d3d
00000150: 040b 4cbd aa09 25bc 4ef7 2d3d 3a73 15bd
00000160: 2c25 c5bd 5f27 483d e8ce aabd 40e6 b13d
00000170: f979 2abd 543d 143d 257d fa39 1454 1e3d
00000180: 6f67 40bc 5dd2 f93c 0747 f13d b3ad 543e
00000190: e325 ac3d d495 df3c cbf3 ccbc 4208 7cbc
000001a0: 6e9c 6dbc 07b6 773d ae23 973d 3447 333e
000001b0: 81da e53b af57 9e3c 5982 2b3e dc37 0bbd
000001c0: 32de 9c3c 8072 3dbd 6dcd 693d e883 1cbc
000001d0: 153e 19bd 5d8e 3d3d 1c52 b0bd 31e6 c03c
000001e0: 152a 633c 1aff 91bd 6227 9a3d 45b8 d13b
000001f0: f892 f7bc ae16 b73c 6a20 f9bb efba d93d
00000200: 5597 d6bc c9cf b93d 072c b13d 9f04 b3bd
00000210: a06b 1e3e f149 763c 9fda e03c 40f4 7bbb
00000220: d07d b8bb 1a79 083d 61c6 72bb 23bd 943c
00000230: 67d8 333c 0e77 9abd d314 feba 4445 913d
00000240: b132 1bbd 4cf4 873d a9ea 23bc b405 1c3e
00000250: c1b0 c1bc 9189 acbd 98c9 0cbd 7957 d1bb
00000260: 5625 47bd 01ff 59bd 4887 cf3d 66fc 043e
00000270: 92b5 bcba 5280 bfbc b31d 9b3b 0d11 943c
00000280: b879 8e3d e728 193d 8b8c 813a a86b eb3c
00000290: baf8 8e3b 37ce e43c 13b9 103d 1fa3 0d3d
000002a0: 84b8 3e3e c93f b8bb 7b85 4dbd 2663 063d
000002b0: 3b23 963d 744e e63c 973f b3b9 e867 203c
000002c0: 556c 17bd 9a30 623d a3d9 883c 7eb9 92bd
000002d0: 1025 903d 75e3 a3bb cc56 653e cf2d f03c
000002e0: 28ca 4d3d ead2 fa3c 0d87 5dbc 2957 f0bd
000002f0: cfca 4c3d 0f2e 7c3d 856d 5b3d 250c 1abd
00000300: 63a1 95bc aa2a 263d f41a d83c dbd2 433c
00000310: d4f7 493d 357e 5dbc b611 8dbd 3b8b 4c3e
00000320: c2ff d43d 8e2f aa3c 9ee7 d63d 8df9 ffbc
00000330: 7493 cd3c 7a96 ab3d 6240 46bd d20f 01bd
00000340: 7425 d3bd af30 523c e85a d53c 106b 0f3d
00000350: 808f 6e3d 5463 833d f1c3 a03d 40d2 e1bc
00000360: f05a e43c 12ac f8bc ab8b 453d d7c2 c73c
00000370: c7bb 42bd 9a56 21bb fc13 fe3c 6296 ecbb
00000380: abfb 973d 56c5 ac3d 90ef fe3d 9373 c53d
00000390: 2d47 3a3d cd4a a3bd 90c5 573d 48bb 353b
000003a0: 5343 533e 8148 433a 11d6 a33d e0e7 323d
000003b0: 6903 983c 7a47 93bd 3dd2 e0bd cb29 083d
000003c0: a86e 93bc f470 64bd fdb9 513d 489a c2bc
000003d0: a223 b63d 56c8 b63b 5a12 bdbc 2bbf 523e
000003e0: bf15 b93d a26f 0ebc 2283 ccb9 609e b5bc
000003f0: 58d3 403e 2a48 53bd 7ca8 3a38 527c 01bc

network.6.bias f4 [128]
-0.06084185 -0.041379776 -0.10507082 -0.02839999 0.00023035514 0.0075469203 -0.04703568 -0.05787434
-0.061940324 -0.15296601 -0.012869839 -0.07174043 -0.02389129 -0.007532412 -0.018924262 -0.0223889
-0.008939155 -0.020094993 -0.09585262 0.0014009495 -0.11405374 -0.033493266 -0.013532287 -0.069788955
0.02671097 -0.048851606 -0.09945839 -0.065181755 -0.024776096 -0.02741717 -0.03934229 -0.0567623
-0.049396485 -0.047863096 -0.01621032 0.020827701 -0.0400857 -0.0077277687 0.0035158843 -0.07970164
-0.07880633 -0.032720238 0.036298905 0.048834406 -0.10273951 -0.15998925 0.008627877 -0.0027404858
0.043175478 -0.0072409655 0.04056981 0.09788237 0.029327387 0.0020666725 -0.10817888 -0.032971684
-0.009725328 -0.027049646 -0.04259103 -0.045468763 -0.047324914 0.018380225 -0.05755127 0.02800265
-0.036956444 -0.037814483 -0.06426099 -0.0136968875 -0.050534435 -0.016795848 -0.025277907 -0.04238682
-0.0010048826 0.0088651385 0.00011506164 -0.21719818 0.00843833 0.0507926 -0.013240527 -0.03844927
-0.038655598 -0.04141736 -0.002777912 -0.0989283 -0.030892963 -0.04924957 -0.008697027 -0.07646144
-0.07756613 -0.1312219 -0.017504897 -0.010017146 -0.06875316 0.009251044 -0.0808344 -0.03869979
-0.06747486 0.049381305 -0.0047899014 0.05237499 0.007444742 0.083370686 0.03844476 -0.11169497
-0.06631043 -0.026143868 -0.0126812775 -0.03561784 -0.034934368 -0.11070082 -0.029071879 0.031058582
-0.05751268 -0.011163785 -0.05266843 0.02867076 -0.10455661 -0.006941201 0.0027760677 -0.056701444
0.024092808 -0.0018637589 -0.1495183 -0.04470271 -0.08209748 0.12132631 -0.07819266 0.029046372
00000000: 4e35 79bd d77d 29bd 5f2f d7bd 19a7 e8bc
00000010: 7d8b 7139 284c f73b 7ca8 40bd a50d 6dbd
00000020: 23b5 7dbd 1fa3 1cbe 04dc 52bc a6ec 92bd
00000030: abb7 c3bc 74d2 f6bb 0e07 9bbc ed68 b7bc
00000040: 8975 12bc 419e a4bc 614e c4bd 11a0 b73a
00000050: 0295 e9bd 3c30 09bd 87b6 5dbc 83ed 8ebd
00000060: f7d0 da3c 9f18 48bd d7b0 cbbd 037e 85bd
00000070: 3df7 cabc f999 e0bc 6225 21bd 967f 68bd
00000080: f853 4abd 180c 44bd 81cb 84bc db9e aa3c
00000090: e730 24bd 3939 fdbb c06a 663b 9d3a a3bd
000000a0: 3765 a1bd a805 06bd 29ae 143d 9606 483d
000000b0: 1869 d2bd 39d4 23be f05b 0d3c b999 33bb
000000c0: c5d8 303d 9f45 edbb 872c 263d 8d76 c83d
000000d0: fd3f f03c 0371 073b e38c ddbd 510d 07bd
000000e0: fb56 1fbc 3897 ddbc ef73 2ebd 743d 3abd
000000f0: c5d7 41bd 2092 963c e1ba 6bbd d065 e53c
00000100: a45f 17bd 5ce3 1abd 449b 83bd e968 60bc
00000110: 32fd 4ebd 7297 89bc 9d13 cfbc cd9d 2dbd
00000120: 44b6 83ba 163f 113c 3f4d f138 3369 5ebe
00000130: ec40 0a3c e70b 503d ccee 58bc fb7c 1dbd
00000140: 5555 1ebd 40a5 29bd a10d 36bb ec9a cabd
00000150: 3d13 fdbc ebb9 49bd fa7d 0ebc d197 9cbd
00000160: feda 9ebd 095f 06be 6e66 8fbc f51e 24bc
00000170: 75ce 8cbd b191 173c 828c a5bd ac83 1ebd
00000180: 4230 8abd 0d44 4a3d 9bf4 9cbb 2887 563d
00000190: 06f3 f33b 40be aa3d 4178 1d3d 55c0 e4bd
000001a0: c3cd 87bd aa2b d6bc 22c5 4fbc 03e4 11bd
000001b0: 5717 0fbd 1db7 e2bd 2628 eebc 916e fe3c
000001c0: 6a92 6bbd 4fe8 36bc daba 57bd f1de ea3c
000001d0: c721 d6bd 0473 e3bb b0ee 353b c63f 68bd
000001e0: 485e c53c 5f49 f4ba 531b 19be 301a 37bd
000001f0: b922 a8bd ee79 f83d 7923 a0bd a8f2 ed3c

network.9.weight f4 [1, 128]
0.30748138 -0.14950624 0.30829546 -0.11504523 0.28613082 -0.06065093 0.3087902 0.32006213
-0.12943718 -0.1841962 -0.2321432 0.33685988 -0.19319361 -0.09754144 -0.08975793 -0.10421403
-0.08448684 -0.072410434 0.29999125 -0.08927133 0.31630665 0.3194222 -0.05150689 -0.09341787
0.38656804 0.3065735 0.34606028 0.3218462 -0.10799274 0.3437891 0.34660158 0.31401584
-0.09391974 -0.22420952 -0.07206608 0.32066938 0.34632912 -0.071067795 -0.07558542 -0.09957777
0.39303803 0.33803612 0.3943736 0.3568483 0.32624143 -0.19288498 0.40758353 0.37815434
-0.076807894 -0.10509241 0.38068062 0.45381567 -0.07374202 -0.10267948 0.3149125 0.3371997
0.3035895 0.3363766 0.34621647 0.44480133 -0.13228668 0.33315846 0.35712776 0.45451
0.35711163 0.37961116 -0.100088015 0.38949236 0.40304986 0.38575414 -0.071630724 0.3186878
-0.060361374 0.3273137 -0.07718846 -0.1878413 -0.09126558 0.3868724 -0.051329173 0.3134272
0.34390378 -0.07004017 -0.11509391 -0.08352588 -0.17608806 -0.17392527 0.32923794 -0.109685175
0.33930278 0.29570773 -0.07930336 -0.06271452 -0.10463172 -0.21245787 0.3274939 -0.103894435
0.332704 0.39944133 -0.07769668 0.36643973 0.36679992 0.3125832 0.51161766 0.32854536
-0.2114089 -0.09869095 0.3145967 0.35998058 0.3170899 0.250317 -0.100860074 0.45291802
-0.15681426 -0.07616647 -0.1456871 -0.08081738 0.3097348 -0.10566859 -0.121890895 0.34654236
0.42124885 0.32577536 0.35257745 0.30717734 0.31152403 0.26237732 0.28948462 -0.059732236
00000000: 336e 9d3e 2a18 19be e7d8 9d3e d59c ebbd
00000010: bd7f 923e 1c6d 78bd c019 9e3e 2fdf a33e
00000020: 2e8b 04be ee9d 3cbe f2b6 6dbe e678 ac3e
00000030: 8cd4 45be cec3 c7bd 01d3 b7bd 2a6e d5bd
00000040: 7007 adbd ec4b 94bd 7498 993e e3d3 b6bd
00000050: f2f2 a13e 4e8b a33e e4f8 52bd de51 bfbd
00000060: 3fec c53e 34f7 9c3e d02e b13e 06c9 a43e
00000070: 4c2b ddbd 2005 b03e c375 b13e afc6 a03e
00000080: fe58 c0bd 2e97 65be 6297 93bd c72e a43e
00000090: 0d52 b13e fe8b 91bd 87cc 9abd 6eef cbbd
000000a0: 483c c93e 1213 ad3e 56eb c93e d2b4 b63e
000000b0: 1e09 a73e a483 45be caae d03e 729d c13e
000000c0: 754d 9dbd b13a d7bd 92e8 c23e 875a e83e
000000d0: 0e06 97bd 9f49 d2bd 363c a13e 70a5 ac3e
000000e0: 1570 9b3e 8e39 ac3e 4943 b13e 00bd e33e
000000f0: 2976 07be bf93 aa3e 73d9 b63e 89b5 e83e
00000100: 56d7 b63e 655c c23e f2fa ccbd 8b6b c73e
00000110: 8d5c ce3e 9181 c53e 21b3 92bd 0c2b a33e
00000120: 7d3d 77bd a995 a73e fc14 9ebd 7859 40be
00000130: 73e9 babd 2414 c63e 8a3e 52bd 8879 a03e
00000140: 2814 b03e 3871 8fbd 5bb6 ebbd 9e0f abbd
00000150: 6e50 34be 7719 32be e091 a83e 9fa2 e0bd
00000160: 18b9 ad3e 0167 973e cd69 a2bd 7870 80bd
00000170: 2849 d6bd 8e8e 59be 48ad a73e 9bc6 d4bd
00000180: 2e58 aa3e 9383 cc3e 701f 9fbd fd9d bb3e
00000190: 33cd bb3e e80a a03e 60f9 023f 1937 a83e
000001a0: 937b 58be 7b1e cabd d212 a13e 604f b83e
000001b0: 9b59 a23e 8d29 803e ba8f cebd dfe4 e73e
000001c0: eb93 20be 2bfd 9bbd 002f 15be 9583 a5bd
000001d0: 8f95 9e3e c668 d8bd efa1 f9bd 006e b13e
000001e0: eead d73e 07cc a63e 0885 b43e 5946 9d3e
000001f0: 1480 9f3e 5256 863e 5437 943e caa9 74bd
