models/epoch_60/generator.pth (torch, 485191 bytes, 20 tensors)

network.0.weight f4 [128, 100]
-0.10460803 0.024663683 0.06843855 -0.03342449 -0.019608026 0.027255505 -0.08156199 -0.06546405
-0.057529464 0.012339063 -0.021176422 -0.02193628 -0.08315798 0.025258023 -0.033464633 -0.008750936
-0.08632284 -0.0700654 0.0458539 -0.066427834 -0.06303246 -0.043507647 -0.0028910167 -0.054101493
0.042066697 -0.019504987 -0.07793017 -0.080481865 -0.015377887 -0.09762471 -0.09973598 -0.014826222
-0.022150582 0.108708516 -0.018474262 -0.047528666 -0.05853472 0.0041741775 -0.044862095 -0.08464957
0.063209094 0.060673073 -0.10145162 -0.028651722 0.015406289 0.086227044 0.04919059 -0.010379396
-0.03238664 0.09726076 0.013760988 -0.0065303654 -0.027054388 -0.11737219 -0.051945206 0.053332306
-0.03526497 0.05442175 -0.12132566 0.08993405 -0.009776807 -0.033245992 -0.028882792 -0.02821091
-0.053059038 0.059645843 0.09523487 0.07577961 -0.013202413 0.06678186 -0.14390393 -0.0007067428
0.062830605 -0.04999179 0.01276675 0.11540811 -0.07178306 0.020616924 0.065713435 0.067561634
-0.024069835 0.11827559 -0.051212613 -0.000803447 -0.08185566 0.07190743 -0.012275779 0.0987789
0.03228667 0.016028458 -0.06710471 0.094250664 -0.05063539 -0.01010004 0.055003274 -0.0319895
0.0100570405 -0.10696286 0.05364083 0.09117583 0.057378907 -0.022940988 -0.06344752 -0.024676677
0.0077283876 -0.040341835 0.03330831 -0.09386371 0.030823944 0.022955475 0.12249833 -0.11754375
0.023600508 0.08855721 -0.059709392 -0.003918089 -0.08672389 0.05553597 0.021839792 0.008141496
-0.032160714 -0.06445668 -0.04445571 -0.07165616 0.016711107 0.008293037 -0.05514528 0.03784986
0.10772444 0.083842225 0.079431325 -0.07880976 0.07157232 0.0726871 -0.007400132 0.062058166
-0.06862223 0.008881839 0.06853969 -0.015792046 0.035575055 -0.071382925 -0.008231417 -0.039367024
0.0822747 -0.10016821 0.0049397117 -0.07421223 0.0864409 0.09261892 0.080352105 -0.020988889
0.08727743 -0.035559308 0.068739794 0.056207545 -0.070370674 0.10450546 -0.030758372 0.07547411
-0.04387163 -0.004035936 -0.113637574 -0.023230147 0.00029398256 -0.07973359 0.024180735 -0.03957464
0.06607632 0.043898076 0.11479338 -0.09842817 -0.045629803 0.071380205 0.004444397 0.080817096
0.043020684 -0.059097096 0.06853101 -0.018920368 0.053354375 0.026422722 0.09365418 -0.02548311
-0.0477672 -0.06688647 -0.02059605 0.05446773 -0.0705201 -0.095764786 -0.059186805 0.059337292
-0.08098541 0.06885362 -0.099536836 -0.012381586 0.012902718 0.124296315 0.048153464 -0.01390105
-0.0003668438 0.06338497 -0.008266877 -0.0666713 -0.03548388 -0.013808904 0.050183836 0.053407963
-0.080646455 -0.008726296 -0.041686874 0.031639803 0.08738215 0.08171573 0.0030190034 0.031350672
0.020807046 -0.114797495 -0.008048977 0.004343458 -0.09649347 0.034142565 -0.097395144 0.074883215
0.09273364 -0.09216898 -0.15361853 -0.088863894 0.07325019 -0.005219829 0.04262373 -0.057672266
0.04543842 -0.011881864 -0.13096239 0.038820308 0.041779656 -0.10782828 -0.07480897 0.04218443
0.069307126 -0.048435576 -0.037766397 -0.08823847 0.017135533 -0.045812942 -0.11101543 0.09785289
0.07017866 0.0015134919 -0.0135013545 -0.06973355 -0.041862972 -0.005300552 0.075168766 0.12552957
00000000: bc3c d6bd 7e0b ca3c 8329 8c3d 1ee8 08bd
00000010: 03a1 a0bc f046 df3c f909 a7bd 0412 86bd
00000020: 04a4 6bbd c829 4a3c 2d7a adbc b7b3 b3bc
00000030: bb4e aabd eae9 ce3c 3612 09bd 1660 0fbc
00000040: 07ca b0bd 737e 8fbd 4dd1 3b3d 510b 88bd
00000050: 2a17 81bd 1335 32bd 3677 3dbb 8799 5dbd
00000060: 214e 2c3d ecc8 9fbc da99 9fbd add3 a4bd
00000070: 88f3 7bbc 77ef c7bd 6142 ccbd afe9 72bc
00000080: 2375 b5bc 92a2 de3d 5657 97bc 6bad 42bd
00000090: 1ac2 6fbd 8ac7 883b 51c1 37bd c15c adbd
000000a0: c573 813d 5484 783d dec5 cfbd 04b7 eabc
000000b0: a96a 7c3c ce97 b03d 127c 493d 580e 2abc
000000c0: daa7 04bd a630 c73d c475 613c adfc d5bb
000000d0: 2aa1 ddbc d560 f0bd 7fc4 54bd fa72 5a3d
000000e0: 0072 10bd 57e9 5e3d 9679 f8bd 582f b83d
000000f0: e72e 20bc f32c 08bd 9b9b ecbc 911a e7bc
00000100: 6f54 59bd 334f 743d 800a c33d 5732 9b3d
00000110: ef4e 58bc eec4 883d 8d5b 13be b544 39ba
00000120: 55ad 803d 31c4 4cbd a12b 513c 165b ec3d
00000130: ff02 93bd d3e4 a83c c494 863d c15d 8a3d
00000140: 1a2e c5bc 793a f23d 51c4 51bd 6a9e 52ba
00000150: f1a3 a7bd 3444 933d 5920 49bc 984c ca3d
00000160: 073f 043d 1d4e 833c 326e 89bd 7e06 c13d
00000170: 0e67 4fbd a37a 25bc 1d4b 613d 6c07 03bd
00000180: 49c6 243c 580f dbbd 7db6 5b3d 65ba ba3d
00000190: 2506 6b3d bdee bbbc c6f0 81bd be26 cabc
000001a0: 6a3e fd3b 7b3d 25bd 4b6e 083d 9e3b c0bd
000001b0: 7f82 fc3c 1f0d bc3c 68e0 fa3d c7ba f0bd
000001c0: da55 c13c 7c5d b53d d691 74bd 5063 80bb
000001d0: 4b9c b1bd af79 633d 5de9 b23c e963 053c
000001e0: f4ba 03bd dd01 84bd 3117 36bd 77c0 92bd
000001f0: bbe5 883c 85df 073c 04e0 61bd 7408 1b3d
00000200: a29e dc3d 79b5 ab3d e4ac a23d 0367 a1bd
00000210: 8294 923d f9dc 943d ce7c f2bb b430 7e3d
00000220: d089 8cbd 2285 113c 895e 8c3d 525e 81bc
00000230: 26b7 113d 3631 92bd 11dd 06bc 513f 21bd
00000240: a37f a83d fe24 cdbd 4edd a13b 95fc 97bd
00000250: ed07 b13d fdae bd3d a58f a43d e4f0 abbc
00000260: 82be b23d a3a6 11bd 73c7 8c3d e239 663d
00000270: 801e 90bd f506 d63d fbf8 fbbc 2c92 9a3d
00000280: bdb2 33bd e33f 84bb d1ba e8bd 264d bebc
00000290: ac21 9a39 5d4b a3bd ad16 c63c 0519 22bd
000002a0: 0653 873d 78ce 333d cb18 eb3d b594 c9bd
000002b0: 51e6 3abd c92f 923d 4ea2 913b 6f83 a53d
000002c0: 7536 303d cc0f 72bd fc59 8c3d e3fe 9abc
000002d0: 1e8a 5a3d 7774 d83c c3cd bf3d f5c1 d0bc
000002e0: 8aa7 43bd c6fb 88bd 0cb9 a8bc 8e19 5f3d
000002f0: d86c 90bd 5420 c4bd dd6d 72bd a90b 733d
00000300: aedb a5bd 2003 8d3d f8d9 cbbd 23dc 4abc
00000310: ec65 533c 118f fe3d 913c 453d 3bc1 63bc
00000320: f154 c0b9 fbcf 813d cc71 07bc f68a 88bd
00000330: 8c57 11bd be3e 62bc 918d 4d3d 4fc2 5a3d
00000340: f829 a5bd bdf8 0ebc dbbf 2abd bd98 013d
00000350: 6af5 b23d 945a a73d 79da 453b 9069 003d
00000360: 8a73 aa3c f31a ebbd dbdf 03bc 9153 8e3b
00000370: 5e9e c5bd 13d9 0b3d 1b77 c7bd 5f5c 993d
00000380: 22eb bd3d 17c3 bcbd 2d4e 1dbe 46fe b5bd
00000390: 3204 963d 190b abbb 3896 2e3d c139 6cbd
000003a0: a31d 3a3d 26ac 42bc 011b 06be 0b02 1f3d
000003b0: 2521 2b3d 13d5 dcbd 7235 99bd 95c9 2c3d
000003c0: e5f0 8d3d 6264 46bd f0b0 1abd 5fb6 b4bd
000003d0: d15f 8c3c 5aa6 3bbd 0f5c e3bd 1967 c83d
000003e0: d4b9 8f3d 5c60 c63a c934 5dbc 77d0 8ebd
000003f0: 8278 2bbd 41b0 adbb 15f2 993d d38a 003e

network.0.bias f4 [128]
-0.114942305 0.12054741 0.061743293 0.0044586207 0.055744495 0.016718116 0.08950512 0.11177882
0.016505908 -0.007598714 -0.08940727 -0.016188 0.041509792 0.10888331 0.042286973 0.08911904
-0.08544804 -0.0055758124 -0.023436926 0.06838192 -0.0018102268 -0.060066376 0.009635996 -0.12791844
0.032209 -0.04732165 -0.051311046 -0.04910828 -0.035042036 -0.056489166 0.014609931 -0.069797136
-0.052555177 0.066241436 0.07559151 0.09156694 -0.01728625 -0.070601694 0.13304016 -0.07884754
0.014244561 -0.04433733 -0.1006007 0.020929024 0.015726227 -0.014056586 0.098417744 -0.020534394
-0.08284052 0.021739177 0.07717384 0.11650371 0.055332668 -0.11421289 0.05964406 0.016612664
-0.01789033 -0.0071337684 0.0087541 0.023936233 0.09723902 -0.06978024 0.029898362 -0.10371601
-0.0012995168 -0.090770796 -0.047813084 0.02219843 -0.08743313 0.014010956 0.090613335 -0.023206871
0.043370336 -0.05619827 0.043474466 -0.035878938 0.020839017 -0.07304102 -0.119650945 -0.065045886
-0.07192306 0.09459353 -0.007204503 -0.05882875 0.0748092 -0.009246248 0.097005546 -0.01548817
0.008507097 -0.020707997 -0.044264637 0.030952198 0.059209816 -0.081438676 -0.08432305 -0.0034602028
-0.030411217 0.034002785 -0.0626056 0.09313542 -0.012120645 -0.0019530416 -0.04350607 -0.069063306
-0.007756727 0.07128432 -0.08106071 -0.048988383 -0.040009134 -0.13005109 0.018528786 -0.012693278
-0.05537293 -0.09971248 -0.06507281 0.06851567 -0.070405126 0.030069916 0.075258955 -0.014863123
0.027808823 -0.059380863 -0.0824619 0.032234218 0.13023075 0.12732671 0.023374517 -0.02457643
00000000: df66 ebbd 8fe1 f63d 89e6 7c3d 9f19 923b
00000010: 5754 643d 6ef4 883c 764e b73d 4bec e43d
00000020: 6637 873c a2fe f8bb 291b b7bd b29c 84bc
00000030: 2c06 2a3d 36fe de3d 1b35 2d3d 0b84 b63d
00000040: 62ff aebd 4eb5 b6bb ccfe bfbc d20b 8c3d
00000050: 2245 edba 2908 76bd 4ce0 1d3c 0dfd 02be
00000060: 96ed 033d 59d4 41bd 882b 52bd c425 49bd
00000070: 3d88 0fbd 2f61 67bd 7e5e 6f3c cdf1 8ebd
00000080: 1944 57bd 97a9 873d b9cf 9a3d 7387 bb3d
00000090: e59b 8dbc 9f97 90bd ae3b 083e d27a a1bd
000000a0: 0562 693c 0f9b 35bd bd07 cebd 5873 ab3c
000000b0: 4ad4 803c 984d 66bc 3e8f c93d bf37 a8bc
000000c0: 4aa8 a9bd 5c16 b23c 510d 9e3d 7f99 ee3d
000000d0: 82a4 623d 73e8 e9bd 544d 743d 4817 883c
000000e0: be8e 92bc 63c2 e9bb 5b6d 0f3c eb15 c43c
000000f0: 4025 c73d f1e8 8ebd 69ed f43c 0f69 d4bd
00000100: 8c54 aaba 0ae6 b9bd a7d7 43bd 7bd9 b53c
00000110: 2410 b3bd 358e 653c 7c93 b93d 561c bebc
00000120: 18a5 313d 2830 66bd 4812 323d cbf5 12bd
00000130: 96b6 aa3c 8896 95bd 8e0b f5bd c736 85bd
00000140: 664c 93bd 41ba c13d c013 ecbb 6af6 70bd
00000150: 9135 993d 937d 17bc d8aa c63d 18c2 7dbc
00000160: 5a61 0b3c d1a3 a9bc d64e 35bd 778f fd3c
00000170: fe85 723d 52c9 a6bd 90b1 acbd 92c4 62bb
00000180: f220 f9bc 8146 0b3d 5d37 80bd c8bd be3d
00000190: ab95 46bc 34fd ffba 6c33 32bd 1071 8dbd
000001a0: 242c febb 83fd 913d 2803 a6bd 0ba8 48bd
000001b0: 9ee0 23bd 1d2c 05be aec9 973c 77f7 4fbc
000001c0: bace 62bd 0f36 ccbd e544 85bd f251 8c3d
000001d0: 9030 90bd 2f55 f63c 5e21 9a3d 7584 73bc
000001e0: 54cf e33c 5939 73bd c9e1 a8bd 0708 043d
000001f0: 365b 053e ef61 023e ea7b bf3c 8254 c9bc

network.2.weight f4 [128]
1.0057597 0.9968467 0.9669409 1.0304824 0.93535674 1.0510865 1.0456208 1.0300273
0.96510607 1.0022991 0.96170384 0.9926953 0.95231664 1.0140429 1.0108744 1.0054599
0.99866146 1.0225987 1.0008779 1.0494972 0.99794155 0.9633856 0.9484045 0.99194384
0.99895036 0.9924418 0.97802687 0.9553725 0.96795046 1.0250518 1.0084968 0.9241711
0.9849205 1.0047398 1.0387256 1.0287426 0.9852007 1.0408533 0.9570654 0.9837838
0.9854552 0.97544533 0.9790769 0.97440445 1.0047383 0.9566238 1.1357837 1.0237653
0.98752135 0.9756327 0.9788419 0.996252 1.01747 0.95410633 1.0095656 1.0364206
1.0206345 1.0080132 1.0267525 0.9877579 1.011213 0.9455727 1.031852 0.92425704
0.9940013 1.0443001 0.9656467 0.9845373 1.0044498 0.9683467 0.9989125 0.9954112
1.0469598 0.96409327 0.94056165 0.9443645 0.95676374 1.0200475 0.99445695 1.0141909
0.95132583 1.0262743 0.98403496 0.9773357 1.0095613 1.0097964 1.0026373 0.9724348
0.994425 1.0696251 0.97477335 1.0205193 1.0089034 0.99479467 0.9783824 0.99289703
0.9502179 1.0657309 1.0317615 0.9782171 1.009534 1.0690218 0.9521844 0.98533237
0.9246439 1.0429999 0.9731375 1.0556751 1.0457151 1.0584743 1.0028263 0.99697334
0.94738513 0.9785595 1.0541178 1.0396372 1.0001787 0.9634347 0.96741414 1.0210587
1.0130763 0.97460914 1.0211017 1.0586149 1.0263563 0.98027945 1.0187861 1.0398659
00000000: bcbc 803f 5831 7f3f 7089 773f d9e6 833f
00000010: 8a73 6f3f 018a 863f e7d6 853f efd7 833f
00000020: 3111 773f 564b 803f 3932 763f 4721 7e3f
00000030: 06cb 733f 28cc 813f 5564 813f e9b2 803f
00000040: 47a8 7f3f 84e4 823f c41c 803f ed55 863f
00000050: 1979 7f3f 70a0 763f a3ca 723f 08f0 7d3f
00000060: 36bb 7f3f aa10 7e3f f85f 7a3f 4b93 743f
00000070: 9acb 773f e634 833f 6c16 813f 7a96 6c3f
00000080: c023 7c3f 509b 803f f6f4 843f d6ad 833f
00000090: 1d36 7c3f ae3a 853f 3d02 753f 41d9 7b3f
000000a0: cb46 7c3f c9b6 793f c9a4 7a3f 9272 793f
000000b0: 449b 803f 4ce5 743f 5c61 913f be0a 833f
000000c0: 33ce 7c3f 11c3 793f 6295 7a3f 5f0a 7f3f
000000d0: 753c 823f 5040 743f 7239 813f 6ea9 843f
000000e0: 27a4 823f 9406 813f a06c 833f b4dd 7c3f
000000f0: 6d6f 813f 0d11 723f ba13 843f 1c9c 6c3f
00000100: df76 7e3f a0ab 853f 9f34 773f a30a 7c3f
00000110: d091 803f 92e5 773f bbb8 7f3f 45d3 7e3f
00000120: c702 863f d1ce 763f a6c8 703f dfc1 713f
00000130: 78ee 743f eb90 823f bb94 7e3f 02d1 813f
00000140: 178a 733f f55c 833f b7e9 7b3f ac32 7a3f
00000150: 4e39 813f 0241 813f 6b56 803f 7df1 783f
00000160: a392 7e3f 7ae9 883f bf8a 793f 60a0 823f
00000170: bf23 813f ddaa 7e3f 4577 7a3f 802e 7e3f
00000180: 7b41 733f df69 883f c310 843f 706c 7a3f
00000190: 6938 813f b5d5 883f 5bc2 733f be3e 7c3f
000001a0: 76b5 6c3f 0581 853f 8a1f 793f 5d20 873f
000001b0: fed9 853f 167c 873f 9d5c 803f a539 7f3f
000001c0: d587 723f e082 7a3f 55ed 863f d512 853f
000001d0: db05 803f a8a3 763f 74a8 773f 0db2 823f
000001e0: 7cac 813f fc7f 793f 76b3 823f b180 873f
000001f0: a55f 833f 98f3 7a3f 9567 823f 531a 853f

network.2.bias f4 [128]
0.0016902473 0.055216737 -0.03059419 -0.00030526225 -0.026418325 -0.16803743 -0.10321779 0.0907217
0.058266297 -0.043931667 -0.0063141803 -0.04632705 -0.0027826545 0.09568294 0.11359024 -0.009532578
-0.04589055 0.022211304 0.11344903 -0.16088244 -0.102019906 -0.010688657 -0.083950855 -0.019095797
0.0786278 -0.042252712 0.033195 0.0011394891 -0.03624728 -0.07276276 -0.10632401 0.039763376
-0.037171993 -0.03427193 0.084116556 0.015755048 0.10353477 -0.0728249 0.033343397 0.016059412
-0.1601424 0.089709416 -0.082817525 -0.014910532 -0.077142976 -0.07573197 0.28645805 -0.062333353
-0.082002245 -0.01583605 -0.068388686 -0.026579238 -0.12489769 -0.063237526 -0.043283302 0.12564392
-0.06691259 -0.07815336 0.011708111 -0.09131537 0.041706335 -0.047637507 0.10818759 0.0060332348
0.044307735 -0.1161037 0.05993865 -0.114036866 -0.03565238 0.009323784 0.1392984 0.16122155
-0.05192573 0.05097675 0.06417486 0.019584062 -0.05855888 -0.070545346 0.04477024 -0.124329776
-0.04755942 -0.021220658 0.08487342 0.05989781 -0.11118651 -0.011081786 0.006071338 -0.048941456
-0.02695671 -0.052199237 -0.08656402 -0.044340525 0.1507439 -0.075406015 0.07605751 -0.011927214
-0.013531733 0.11589678 -0.12743667 -0.093929924 -0.12129025 -0.15621811 -0.019339778 -0.10757382
0.04883807 0.15908119 0.0365415 -0.13342498 -0.13471583 -0.10041636 0.019535271 0.061299883
0.04575314 -0.09733555 -0.066297136 -0.05904446 0.025035806 -0.013460804 0.05480182 -0.053559225
-0.05429651 0.10248103 -0.08578119 -0.07168781 0.12616949 -0.017713107 -0.06255641 -0.08119191
00000000: 4a8b dd3a f22a 623d aba0 fabc 9b0b a0b9
00000010: 3e6b d8bc 0112 2cbe d963 d3bd 4ccc b93d
00000020: a4a8 6e3d b1f1 33bd 2fe7 cebb 6fc1 3dbd
00000030: 325d 36bb 6bf5 c33d 00a2 e83d 882e 1cbc
00000040: bbf7 3bbd 7bf4 b53c f757 e83d 5ebe 24be
00000050: d0ef d0bd 7a1f 2fbc 6dee abbd ca6e 9cbc
00000060: 9d07 a13d 2e11 2dbd 7bf7 073d e95a 953a
00000070: 0778 14bd a404 95bd 67c0 d9bd ecde 223d
00000080: a941 18bd b960 0cbd 4d45 ac3d bb10 813c
00000090: 0a0a d43d 3925 95bd 1693 083d 078f 833c
000000a0: 5ffc 23be 92b9 b73d 3c9c a9bd 4e4b 74bc
000000b0: 23fd 9dbd 5d19 9bbd a1aa 923e 4251 7fbd
000000c0: cbf0 a7bd 9bba 81bc 5e0f 8cbd b4bc d9bc
000000d0: 5cca ffbd ad82 81bd d549 31bd cda8 003e
000000e0: 7809 89bd de0e a0bd 60d3 3f3c 8d03 bbbd
000000f0: 43d4 2a3d 8c1f 43bd 7591 dd3d 71b2 c53b
00000100: 077c 353d c7c7 edbd 3b82 753d 298c e9bd
00000110: 3b08 12bd c9c2 183c 3da4 0e3e 4317 253e
00000120: 13b0 54bd ffcc 503d 1c6e 833d c16e a03c
00000130: 70db 6fbd 147a 90bd 0061 373d 9ca0 febd
00000140: abcd 42bd f2d6 adbc 1ed2 ad3d 6857 753d
00000150: c1b5 e3bd 6190 35bc 13f2 c63b d676 48bd
00000160: 51d4 dcbc dece 55bd 7a48 b1bd 699e 35bd
00000170: 9c5c 1a3e 786e 9abd 0ac4 9b3d 5d6a 43bc
00000180: 34b4 5dbc 4a5b ed3d c27e 02be 555e c0bd
00000190: 0667 f8bd a4f7 1fbe 746e 9ebc aa4f dcbd
000001a0: 6e0a 483d 2ee6 223e 8aac 153d 8fa0 08be
000001b0: f2f2 09be 18a7 cdbd 6f08 a03c 9615 7b3d
000001c0: a567 3b3d dc57 c7bd cbc6 87bd 9bd8 71bd
000001d0: e417 cd3c b48a 5cbc e077 603d eb60 5bbd
000001e0: 0466 5ebd 93e1 d13d 0cae afbd 0fd1 92bd
000001f0: 9332 013e 141b 91bc 931d 80bd f247 a6bd

network.2.running_mean f4 [128]
0.10936847 0.2918629 0.21918756 0.19752504 0.22565772 0.2118353 0.27048078 0.28034392
0.20222995 0.18231554 0.1569072 0.20340297 0.21214359 0.26691973 0.24531321 0.30400103
0.14801097 0.18622003 0.18976557 0.24611582 0.20694345 0.16809636 0.21983638 0.11632289
0.23100325 0.18210487 0.14868976 0.15392624 0.19760664 0.14843713 0.24448526 0.15828803
0.1711646 0.2366596 0.24037851 0.25528064 0.19225782 0.158637 0.30440453 0.14336565
0.20135638 0.17803638 0.119281426 0.1824202 0.19092332 0.18148342 0.25176954 0.1851254
0.13424948 0.22008137 0.22267014 0.26711392 0.26874977 0.14657104 0.23934303 0.1993447
0.20645127 0.19731848 0.16058846 0.23341677 0.25699532 0.14258024 0.1914424 0.15130928
0.17677408 0.15595339 0.17332466 0.19715708 0.15677938 0.22095396 0.25599614 0.18446286
0.20594299 0.17523111 0.22596985 0.15974742 0.19446965 0.17650265 0.09942117 0.17463101
0.1760235 0.2465719 0.2262599 0.17412034 0.23310061 0.18083498 0.24474211 0.22491351
0.22224568 0.17427158 0.15234303 0.201048 0.22860588 0.15091059 0.13862585 0.18952876
0.19489434 0.22489876 0.16922495 0.26919058 0.20177063 0.19816734 0.15917276 0.14441961
0.19427784 0.24287528 0.12694964 0.15191084 0.1934888 0.11099302 0.19435708 0.19034795
0.15706968 0.12947297 0.16304614 0.27237767 0.13953175 0.20326066 0.23820285 0.1866678
0.20105095 0.18383773 0.14283402 0.22069994 0.29134378 0.28514895 0.2348846 0.17157686
00000000: 94fc df3d 0e6f 953e b472 603e 0144 4a3e
00000010: d112 673e 5aeb 583e 757c 8a3e 3d89 8f3e
00000020: 5e15 4f3e edb0 3a3e 48ac 203e de48 503e
00000030: 2b3c 593e b4a9 883e 6333 7b3e 06a6 9b3e
00000040: 3090 173e 77b0 3e3e e851 423e c905 7c3e
00000050: fce8 533e 7421 2c3e ca1c 613e b23a ee3d
00000060: 1e8c 6c3e b379 3a3e 2142 183e d79e 1d3e
00000070: 6559 4a3e e7ff 173e 585a 7a3e 4216 223e
00000080: c645 2f3e e556 723e c925 763e 25b4 823e
00000090: 3cdf 443e bd71 223e e9da 9b3e 72ce 123e
000000a0: 5e30 4e3e 2b4f 363e d249 f43d 5ccc 3a3e
000000b0: 6781 433e cad6 393e f0e7 803e 8391 3d3e
000000c0: b278 093e 035d 613e a403 643e 28c3 883e
000000d0: 9299 893e b816 163e 5716 753e 0421 4c3e
000000e0: f667 533e db0d 4a3e 4d71 243e ce04 6f3e
000000f0: e494 833e 8e00 123e 7a09 443e d2f0 1a3e
00000100: 4404 353e 3fb2 1f3e 057c 313e 8ce3 493e
00000110: c68a 203e c141 623e ed11 833e d5e3 3c3e
00000120: b8e2 523e c96f 333e a464 673e d494 233e
00000130: 0d23 473e 1cbd 343e 549d cb3d 79d2 323e
00000140: 813f 343e 587d 7c3e adb0 673e 9a4c 323e
00000150: edb1 6e3e ce2c 393e ad9d 7a3e ba4f 663e
00000160: 5f94 633e 4074 323e d0ff 1b3e 87df 4d3e
00000170: a917 6a3e 4e88 1a3e eff3 0d3e d413 423e
00000180: 6292 473e dc4b 663e 4e49 2d3e 59d3 893e
00000190: f69c 4e3e 61ec 4a3e 2ffe 223e bce2 133e
000001a0: c5f0 463e 4cb4 783e 16ff 013e 848e 1b3e
000001b0: ee21 463e 4f50 e33d 8b05 473e 93ea 423e
000001c0: e0d6 203e 9094 043e 91f5 263e 1675 8b3e
000001d0: 69e1 0e3e 9023 503e 73eb 733e d825 3f3e
000001e0: 4de0 4d3e f53f 3c3e 1543 123e 2aff 613e
000001f0: 032b 953e 0bff 913e 9785 703e d8b1 2f3e

network.2.running_var f4 [128]
0.13002129 0.21101718 0.16680177 0.1675225 0.17652553 0.15924789 0.20774256 0.19047071
0.15556288 0.13567565 0.13934967 0.14494145 0.16608164 0.17274296 0.18077594 0.23964043
0.15734912 0.15677558 0.15773305 0.20415173 0.16701385 0.13776769 0.18291253 0.13343848
0.1831324 0.15574042 0.12841003 0.1364804 0.18485902 0.12859203 0.207474 0.14443614
0.14970721 0.18740296 0.15447988 0.19507925 0.14936078 0.16359113 0.20222847 0.123035744
0.16300926 0.14973204 0.115687214 0.15373813 0.15416028 0.1542748 0.171125 0.14765376
0.11248862 0.1788658 0.15720382 0.20550516 0.21083681 0.1295655 0.17093511 0.16271779
0.16222331 0.18273042 0.12437152 0.1645155 0.18799572 0.12326286 0.1558293 0.14851624
0.13560233 0.15036799 0.15837625 0.152654 0.1500233 0.18145473 0.20379822 0.15631607
0.1842405 0.14490825 0.1707763 0.14423877 0.1446992 0.16482976 0.10594951 0.15939873
0.16396065 0.1925579 0.18599823 0.15384677 0.17523897 0.13786012 0.17450935 0.19679633
0.18577358 0.14131881 0.13193178 0.13705757 0.16862011 0.14550975 0.14096116 0.1632259
0.16696003 0.17408657 0.14564577 0.19736798 0.16256985 0.16283937 0.14085716 0.12905571
0.15911219 0.16009627 0.12353259 0.14591727 0.14902969 0.11757032 0.16978335 0.15112387
0.15116861 0.12326353 0.14877035 0.2195665 0.13016774 0.1643297 0.17953677 0.15638712
0.1597613 0.17423132 0.1437769 0.17249274 0.1824935 0.1884699 0.19889902 0.12997903
00000000: 4d24 053e e314 583e 15ce 2a3e 058b 2b3e
00000010: 1cc3 343e e111 233e 77ba 543e c10a 433e
00000020: e04b 1f3e 8fee 0a3e aeb1 0e3e 886b 143e
00000030: 4e11 2a3e 88e3 303e 541d 393e 4d64 753e
00000040: 2120 213e c789 203e c684 213e 270d 513e
00000050: ae05 2b3e f912 0d3e 6c4d 3b3e 19a4 083e
00000060: 0f87 3b3e 6b7a 1f3e eb7d 033e 85c1 0b3e
00000070: af4b 3d3e a1ad 033e 1074 543e 11e7 133e
00000080: d94c 193e 90e6 3f3e f92f 1e3e dbc2 473e
00000090: 08f2 183e 6f84 273e fb14 4f3e 2afa fb3d
000000a0: e6eb 263e 5b53 193e 6bed ec3d 876d 1d3e
000000b0: 31dc 1d3e 37fa 1d3e 643b 2f3e 8c32 173e
000000c0: 6f60 e63d 9928 373e 0afa 203e f26f 523e
000000d0: 9be5 573e d2ac 043e 9d09 2f3e 7e9f 263e
000000e0: de1d 263e af1d 3b3e 7fb6 fe3d c076 283e
000000f0: f381 403e 3d71 fc3d b791 1f3e a414 183e
00000100: 56db 0a3e 11fa 193e 622d 223e 5551 1c3e
00000110: b59f 193e 45cf 393e 7bb0 503e 5211 203e
00000120: 8ba9 3c3e d462 143e fbdf 2e3e 54b3 133e
00000130: 072c 143e 22c9 283e 0ffc d83d 6c39 233e
00000140: 4de5 273e e62d 453e 5276 3e3e 028a 1d3e
00000150: d871 333e 342b 0d3e 94b2 323e fa84 493e
00000160: 6e3b 3e3e e1b5 103e 2019 073e d258 0c3e
00000170: c0aa 2c3e 8200 153e 1f58 103e b124 273e
00000180: 92f7 2a3e c043 323e 2a24 153e d51a 4a3e
00000190: b678 263e 5dbf 263e dc3c 103e 2e27 043e
000001a0: 4eee 223e 47f0 233e a8fe fc3d 566b 153e
000001b0: 3d9b 183e b5c8 f03d b0db 2d3e 37c0 1a3e
000001c0: f2cb 1a3e 9771 fc3d 4157 183e 0ad6 603e
000001d0: b14a 053e 0b46 283e 7dd8 373e f223 203e
000001e0: 7798 233e b269 323e 403a 133e f0a1 303e
000001f0: 93df 3a3e 41fe 403e 2fac 4b3e 3919 053e

network.3.weight f4 [256, 128]
-0.019309923 0.064790025 -0.007301358 0.026534684 -0.08224787 0.048836287 0.10094327 -0.03633179
-0.009278852 0.0830466 0.055761077 -0.060230687 -0.012398547 -0.05007811 0.039187863 0.041951682
0.08907926 0.013095758 -0.043464243 0.056339536 -0.01204016 -0.0642554 -0.07833374 -0.07143217
-0.039828263 0.028544221 -0.06799982 -0.0867983 0.026576675 -0.00802255 0.06441994 0.04663462
0.023885585 0.03828405 -0.06942418 -0.08895539 0.039856207 -0.00027531633 0.013611143 -0.08271973
0.066374436 -0.0033605804 -0.015398202 0.017801708 0.07604978 0.093418226 -0.06251541 0.042989638
-0.07493126 -0.06324337 0.0076307016 0.022688655 0.051318794 0.052757394 -0.045121327 -0.04846788
0.016964387 0.12351227 -0.05409731 -0.03406294 -0.05684858 0.0079960255 -0.028674312 0.0022497277
-0.055127095 0.049648587 -0.018191336 -0.014590144 0.050586227 0.02146915 0.05877389 -0.018704388
-0.026086986 0.04970395 0.037389122 -0.06681523 -0.015472098 -0.0051665204 0.006456645 0.0024762426
-0.07731657 -0.039226137 0.014596715 -0.008572601 0.06532693 0.06241414 -0.084887214 -0.02455468
-0.03725837 -0.07326525 0.048973158 0.07967782 -0.040143926 0.045767546 0.04233203 -0.0009354891
0.024982631 -0.11848394 0.051437754 0.040445067 0.06497627 0.07267819 -0.017518789 0.092314534
-0.039510343 0.00010001224 0.022497512 0.076084964 -0.07707368 -0.06576357 -0.019399866 0.0584671
-0.012147361 0.0014557408 0.073735975 -0.113069296 -0.037868597 -0.06959978 0.090084426 0.01995399
0.02043839 -0.053679273 0.10656057 0.010376001 0.019907666 -0.0859876 -0.0069313785 -0.034989707
-0.01631607 0.023842225 0.08669176 0.055103466 -0.03954878 0.0011156863 0.043681044 0.08317303
0.07764098 0.12000159 -0.02624904 0.06365767 0.10377224 -0.05060035 0.05272487 0.09638164
-0.008533769 0.051910423 -0.00952559 -0.08320627 -0.004145489 0.031929787 0.0076980717 0.094928816
0.10061331 0.08686016 -0.09017125 0.01666411 -0.12358974 -0.04995695 0.06750676 0.0072058965
-0.0035389212 -0.006461157 -0.04098459 0.039473366 0.01102941 0.05222005 0.038611773 0.025006792
-0.06307503 -0.033265673 -0.0055746147 0.07504285 0.053267807 0.04631436 -0.07200957 -0.0034153112
-0.06827288 -0.08922888 -0.066311516 0.036522567 0.0008249298 0.0502348 0.024452696 -0.013261637
0.06299156 0.045896456 0.077548005 0.030867288 -0.011704851 0.0076059764 0.038341384 0.07625145
-0.11288777 0.013934899 -0.015115759 -0.05580019 0.06793359 0.009909524 -0.038652655 -0.069477305
0.0797602 0.08526532 0.042795796 -0.020561265 0.030926531 0.027599063 0.012075263 0.08150875
0.012614501 0.039459858 -0.029193616 -0.0970585 -0.014105763 0.097612664 -0.07513777 -0.023091273
0.021309903 0.06651452 0.032676328 -0.00460225 0.04253458 0.057359494 -0.088786386 -0.0023286268
0.010910153 -0.046051834 -0.116912425 -0.09462848 0.0068600234 0.08733204 -0.057427704 -0.042324565
-0.07593437 -0.012957946 -0.037228823 -0.10153983 0.002384885 0.07602143 0.015772227 0.110825844
0.028117973 -0.07775034 0.06592883 0.04051669 -0.0008885575 0.07287834 -0.06986316 -0.02127634
-0.032645177 -0.06705097 -0.044548944 -0.02177295 -0.088271216 0.0052526104 0.06878577 -0.0843689
00000000: d82f 9ebc a2b0 843d 3b40 efbb 445f d93c
00000010: 9271 a8bd 8f08 483d 58bb ce3d a5d0 14bd
00000020: 5306 18bc 5614 aa3d ba65 643d 74b4 76bd
00000030: 4623 4bbc b41e 4dbd 7483 203d 87d5 2b3d
00000040: 306f b63d 978f 563c 9007 32bd 49c4 663d
00000050: 1744 45bc 5698 83bd 716d a0bd 084b 92bd
00000060: f622 23bd 92d5 e93c 7d43 8bbd 4fc3 b1bd
00000070: 54b7 d93c 0371 03bc 9aee 833d f103 3f3d
00000080: b4ab c33c bccf 1c3d 442e 8ebd 3e2e b6bd
00000090: 4340 233d 5558 90b9 4601 5f3c f668 a9bd
000000a0: 52ef 873d 2f3d 5cbb be48 7cbc e3d4 913c
000000b0: fdbf 9b3d 0e52 bf3d 1408 80bd e715 303d
000000c0: 8f75 99bd bd85 81bd f70a fa3b 8fdd b93c
000000d0: a833 523d 2318 583d 24d1 38bd 4186 46bd
000000e0: e6f8 8a3c 00f4 fc3d 2495 5dbd 9585 0bbd
000000f0: 0eda 68bd c301 033c 64e6 eabc 2b70 133b
00000100: f3cc 61bd 515c 4b3d ff05 95bc 800b 6fbc
00000110: 8133 4f3d 12e0 af3c e4bc 703d f239 99bc
00000120: 60b4 d5bc 5e96 4b3d 5625 193d 6cd6 88bd
00000130: af7e 7dbc ea4b a9bb 4492 d33b 7548 223b
00000140: 2658 9ebd 96ab 20bd 0f27 6f3c 1874 0cbc
00000150: 20ca 853d f8a5 7f3d 59d9 adbd e526 c9bc
00000160: 3c9c 18bd 170c 96bd 1498 483d 202e a33d
00000170: f56d 24bd c076 3b3d 5a64 2d3d 9c3b 75ba
00000180: 60a8 cc3c b5a7 f2bd 65b0 523d baa9 253d
00000190: 4712 853d 4ed8 943d 9083 8fbc 670f bd3d
000001a0: 99d5 21bd aabd d138 b44c b83c 6fd2 9b3d
000001b0: ced8 9dbd 0daf 86bd 78ec 9ebc 337b 6f3d
000001c0: ba05 47bc 8ece be3a e302 973d e090 e7bd
000001d0: 1a1c 1bbd 548a 8ebd 2f7e b83d 8d76 a33c
000001e0: 696e a73c ccde 5bbd 6e3c da3d 1a00 2a3c
000001f0: 6715 a33c 441a b0bd 9e20 e3bb 5e51 0fbd
00000200: 47a9 85bc c550 c33c 738b b13d 2cb4 613d
00000210: e7fd 21bd 383c 923a e5ea 323d 9f56 aa3d
00000220: 3c02 9f3d 65c3 f53d 3a08 d7bc f45e 823d
00000230: 8a86 d43d 5042 4fbd 09f6 573d bd63 c53d
00000240: 39d1 0bbc 06a0 543d 3811 1cbc 0d68 aabd
00000250: e2d6 87bb cfc8 023d 1b40 fc3b 0a6a c23d
00000260: 5a0e ce3d bde3 b13d b4ab b8bd 2c83 883c
00000270: 9e1c fdbd a99f 4cbd fc40 8a3d 711f ec3b
00000280: 3fed 67bb 1db8 d3bb 75df 27bd d3ae 213d
00000290: b3b4 343c b1e4 553d 6127 1e3d 0bdb cc3c
000002a0: 7b2d 81bd 9641 08bd 42ab b6bb 11b0 993d
000002b0: 582f 5a3d 20b4 3d3d c179 93bd 6ad3 5fbb
000002c0: a7d2 8bbd a2bd b6bd 55ce 87bd b098 153d
000002d0: 1a40 583a 01c3 4d3d 0551 c83c 5647 59bc
000002e0: b801 813d ecfd 3b3d 7dd1 9e3d 65dd fc3c
000002f0: b4c5 3fbc 8e3b f93b db0b 1d3d b829 9c3d
00000300: b431 e7bd 344f 643c 17a8 77bc bd8e 64bd
00000310: c420 8b3d 8e5b 223c 3f52 1ebd 1e4a 8ebd
00000320: 5159 a33d 969f ae3d a54a 2f3d 1970 a8bc
00000330: a359 fd3c 6e17 e23c 53d7 453c 0fee a63d
00000340: 0dad 4e3c a9a0 213d 7327 efbc 9bc6 c6bd
00000350: dc1b 67bc 26e9 c73d d5e1 99bd e929 bdbc
00000360: 1b92 ae3c c438 883d 9dd7 053d 79ce 96bb
00000370: bd38 2e3d caf1 6a3d a3d5 b5bd e09b 18bb
00000380: 80c0 323c d9a0 3cbd c86f efbd 94cc c1bd
00000390: 0cca e03b 24db b23d 5039 6bbd 865c 2dbd
000003a0: 7b83 9bbd 914d 54bc 407d 18bd 1df4 cfbd
000003b0: bb4b 1c3b 20b1 9b3d c234 813c a9f8 e23d
000003c0: aa57 e63c 923b 9fbd b205 873d d4f4 253d
000003d0: 16ee 68ba 3d41 953d 6b14 8fbd b84b aebc
000003e0: f3b6 05bd 0552 89bd f478 36bd 305d b2bc
000003f0: 8ac7 b4bd 171e ac3b 8edf 8c3d 9ac9 acbd

network.3.bias f4 [256]
-0.010847577 -0.0089487685 -0.0013915213 -0.02726949 0.05922294 0.06326362 -0.11605523 -0.08141237
-0.099353276 -0.0074316678 0.0010143159 -0.017525293 0.06592572 0.0153634865 0.117748365 0.10128818
-0.018972639 0.022392718 0.051994096 -0.018134657 0.1305944 -0.08693721 -0.06552093 0.031115703
-0.11034838 0.0381452 -0.047303148 0.0029751263 0.03230752 0.04619906 0.021202581 0.09726206
0.08642922 -0.03767059 -0.054217 -0.031181771 0.034920745 0.018639809 -0.01485871 0.032808427
-0.015245313 0.0044940077 -0.0067396997 0.023823604 -0.09918725 -0.021572666 -0.11037378 -0.06228578
0.17861502 -0.027656235 0.05300197 -0.07704879 -0.103232525 0.032694273 0.04731141 -0.051884048
-0.0011009537 -0.09814886 -0.068931945 -0.14087985 -0.06759913 -0.054662324 -0.02217732 0.007820844
0.0005666325 0.01628317 0.08396615 0.0024364232 -0.07649376 0.061757326 -0.05465519 0.057714466
-0.00606415 -0.037708174 -0.069287516 -0.068518095 -0.034217767 0.016403666 -0.04738657 -0.08820582
0.022724405 0.0141992755 0.09820979 -0.09168483 0.014901311 -0.132093 0.030368747 0.08605073
-0.08213945 0.0062131616 0.03012123 0.021705471 0.012052818 0.051022455 -0.07696899 -0.0011004775
0.03733022 0.076043285 0.013346799 0.04750135 -0.0239332 0.04748126 0.058548354 0.052006207
-0.05521784 -0.017286561 -0.0010253366 0.050363548 -0.008985039 -0.10449281 0.09153543 0.076167464
0.06655244 0.01039768 -0.09186163 -0.042368073 -0.02593217 -0.03787782 -0.047543876 -0.05680615
-0.065730445 0.017456101 -0.047713988 -0.0612214 -0.03867438 -0.04642792 -0.0031579547 0.016576253
-0.048488606 -0.013902512 0.05020687 -0.09798839 0.0236828 0.016826838 -0.01959181 0.044632252
-0.022216974 0.08223773 -0.026828058 0.009759241 0.07518243 -0.056633484 0.17710699 0.08175236
0.07880646 0.060928747 0.0666072 0.074207254 -0.017053101 0.07786726 0.029948646 -0.0677292
0.0036365408 0.18615697 0.019368047 0.03019437 0.051898826 0.0030776656 0.12608002 -0.037654825
-0.07445894 -0.006307776 -0.022937369 0.037005797 -0.03652865 0.02982677 -0.118966624 -0.1204719
0.002829334 -0.028006284 -0.025948394 -0.050302703 0.08406216 0.0042957 -0.08169187 0.07976626
-0.13719386 -0.075686336 -0.028139593 -0.11997391 -0.0073458026 -0.064753085 -0.04651147 0.004085206
0.030211763 0.028567068 -0.07149975 -0.102590956 0.015204154 0.05725779 8.451182e-05 0.0003153918
-0.037057485 -0.08714077 0.08184791 -0.08141485 0.04466281 -0.054018658 0.010597623 -0.019532658
-0.013165154 -0.03489978 -0.041483384 -0.030777989 0.1297772 0.04792931 0.024471998 0.054446943
-0.09390418 -0.00020760743 0.030891474 -0.05141936 -0.06166118 0.03188593 -0.11652789 -0.05270519
0.0136307515 -0.09459418 0.10547016 0.0075377533 -0.021094225 0.0042806426 -0.085287385 0.073366165
-0.006412618 -0.032054666 0.019072063 -0.007165304 -0.037092026 -0.00027759638 -0.011855192 -0.08964924
-0.042210884 0.08924842 0.0017847106 -0.057785146 -0.004941117 0.0055877026 -0.03438831 -0.015380115
0.0047943294 0.08654209 -0.117284216 -0.004727412 -0.09342816 -0.07511986 -0.0029583322 0.013119407
-0.05503995 0.024844142 0.12228228 -0.048178185 -0.0688093 0.03660756 -0.06067188 -0.0075958483
00000000: 09ba 31bc db9d 12bc b563 b6ba 4464 dfbc
00000010: c193 723d 5b90 813d 5dae edbd 87bb a6bd
00000020: bb79 cbbd 5985 f3bb cbf2 843a 3491 8fbc
00000030: 1004 873d 22b7 7b3c 0e26 f13d 2d70 cf3d
00000040: 826c 9bbc ef70 b73c c3f7 543d 228f 94bc
00000050: 8aba 053e 230c b2bd d62f 86bd 5ce6 fe3c
00000060: 55fe e1bd 243e 1c3d f2c0 41bd 56fa 423b
00000070: e454 043d 3a3b 3d3d 09b1 ad3c 5531 c73d
00000080: ce01 b13d 7a4c 1abd a512 5ebd ea70 ffbc
00000090: 0e09 0f3d 83b2 983c f271 73bc 2162 063d
000000a0: 7ac7 79bc 7842 933b b3d8 dcbb b829 c33c
000000b0: af22 cbbd 29b9 b0bc a60b e2bd 601f 7fbd
000000c0: dbe6 363e 548f e2bc 9818 593d c2cb 9dbd
000000d0: 936b d3bd 6eea 053d 9cc9 413d 5e84 54bd
000000e0: e04d 90ba 4502 c9bd 312c 8dbd cf42 10be
000000f0: 6a71 8abd 9ae5 5fbd 36ad b5bc ff22 003c
00000100: 108a 143a 4864 853c 72f6 ab3d 66ac 1f3b
00000110: c3a8 9cbd 40f5 7c3d 1fde 5fbd 0166 6c3d
00000120: c7b5 c6bb e373 1abd 9de6 8dbd 3753 8cbd
00000130: ee27 0cbd fb60 863c 6c18 42bd 41a5 b4bd
00000140: 8828 ba3c 14a4 683c 3722 c93d 42c5 bbbd
00000150: a124 743c 6343 07be e1c7 f83c 5d3b b03d
00000160: ba38 a8bd c797 cb3b ccc0 f63c accf b13c
00000170: 2f79 453c ecfc 503d eba1 9dbd e63d 90ba
00000180: 93e7 183d 95bc 9b3d 88ac 5a3c c790 423d
00000190: 8f0f c4bc b67b 423d 66d0 6f3d 7604 553d
000001a0: 1a2c 62bd 8c9c 8dbc 9664 86ba 024a 4e3d
000001b0: fc35 13bc 5400 d6bd ed76 bb3d b0fd 9b3d
000001c0: a54c 883d 085b 2a3c f321 bcbd 258a 2dbd
000001d0: b46f d4bc c625 1bbd 5ebd 42bd 91ad 68bd
000001e0: af9d 86bd 1900 8f3c be6f 43bd 4ac3 7abd
000001f0: 0769 1ebd 342b 3ebd b0f5 4ebb ecca 873c
00000200: fd9b 46bd 5dc7 63bc b8a5 4d3d 23ae c8bd
00000210: 6e02 c23c 70d8 893c 017f a0bc 4fd0 363d
00000220: 5f00 b6bc 416c a83d 84c6 dbbc 39e5 1f3c
00000230: 3ff9 993d 83f8 67bd 895b 353e c86d a73d
00000240: 4865 a13d 6c90 793d 5b69 883d f9f9 973d
00000250: f2b2 8bbc df78 9f3d dd56 f53c 9bb5 8abd
00000260: 0853 6e3b ef9f 3e3e bda9 9e3c 2f5a f73c
00000270: dd93 543d a9b2 493b 1f1b 013e f23b 1abd
00000280: ee7d 98bd 76b1 cebb 26e7 bbbc 6493 173d
00000290: 119f 15bd 4557 f43c c6a4 f3bd f9b9 f6bd
000002a0: 596c 393b 6f6d e5bc ba91 d4bc 350a 4ebd
000002b0: c828 ac3d f2c2 8c3b 114e a7bd 7e5c a33d
000002c0: 8c7c 0cbe 7001 9bbd 0185 e6bc e2b4 f5bd
000002d0: 0fb5 f0bb 449d 84bd d082 3ebd 31dd 853b
000002e0: a97e f73c 7c05 ea3c 766e 92bd 351b d2bd
000002f0: d81a 793c 2587 6a3d f03b b138 2c5b a539
00000300: 97c9 17bd dc76 b2bd e19f a73d d4bc a6bd
00000310: 5af0 363d ab42 5dbd a7a1 2d3c f402 a0bc
00000320: a8b2 57bc 12f3 0ebd 7bea 29bd 1f22 fcbc
00000330: 50e4 043e 8651 443d 8079 c83c c203 5f3d
00000340: d650 c0bd 32b1 59b9 1e10 fd3c 1b9d 52bd
00000350: 6f90 7cbd d29a 023d 2da6 eebd 66e1 57bd
00000360: 8453 5f3c 98ba c1bd bd00 d83d 42ff f63b
00000370: cccd acbc a244 8c3b 27ab aebd 0041 963d
00000380: f020 d2bb c14b 03bd 043d 9c3c edca eabb
00000390: cfed 17bd 5b8a 91b9 473c 42bc 059a b7bd
000003a0: 52e5 2cbd e0c7 b63d f3ec e93a 1eb0 6cbd
000003b0: 18e9 a1bb 0c19 b73b c2da 0cbd e1fc 7bbc
000003c0: c019 9d3b fb3c b13d b532 f0bd 68e8 9abb
000003d0: 4357 bfbd 71d8 99bd 94e0 41bb c8f2 563c
000003e0: 9271 61bd f185 cb3c 226f fa3d 7d56 45bd
000003f0: e4eb 8cbd cff1 153d 1483 78bd 98e6 f8bb

network.5.weight f4 [256]
1.0054471 0.9321699 0.98146474 0.990504 0.9655988 1.0001577 0.9599648 0.9858457
0.9954741 1.0500245 0.9938145 0.9775835 1.0142392 1.0564383 0.96677125 0.97130764
0.99299437 0.95983785 0.997525 1.0114099 1.0162264 0.9754793 1.0488712 0.99212676
0.9868976 1.0168641 0.99920386 0.96649927 1.0254773 0.9675606 0.9977409 0.9457087
1.0374134 1.0165931 1.0185697 0.9625475 1.0197625 0.9600159 0.95607823 1.0192974
1.025075 0.99140877 1.0470388 0.97973 1.0249258 1.0110266 0.99560934 0.9721442
1.0231941 1.0215194 0.9758135 1.0448039 1.0227168 1.0368804 0.97506297 1.0235349
1.0419126 1.0595978 1.0031741 0.9660145 1.0523515 1.0523926 1.007247 0.96603656
1.0492678 1.0000813 1.0243108 0.9854968 0.98321897 0.98210186 0.9582896 0.9671593
1.0065032 1.0275065 0.9593819 1.0500193 0.93577176 1.0195951 1.0520775 1.0630517
0.99433357 1.0259249 1.0033809 0.9524437 0.9971477 1.01582 1.0357956 0.94820833
0.95136076 0.9935371 1.0398579 0.9914247 1.0190433 1.0477968 1.0101948 1.0215236
0.98863554 1.0111841 0.98674965 0.92180413 1.0074527 0.9564515 0.97667015 0.9924017
0.9856128 1.0260255 0.973684 0.9773521 0.9894379 0.96297485 1.0027645 1.0227227
0.94513965 1.0165403 1.017842 1.0495955 1.0423039 1.0388651 1.030243 0.99124855
0.94340104 1.0644298 0.9781633 1.1016195 0.96244526 1.0115958 0.99276644 1.0121326
0.9792562 0.9133748 0.988928 0.959142 0.98981506 1.033371 1.0279292 1.0249642
1.0170757 0.93485105 1.0113378 0.97582066 0.9963378 1.0279316 0.95001775 1.0063115
1.0304186 0.9809363 0.98966026 0.9946973 1.020278 0.9672155 1.0396484 0.9704316
1.0611135 0.9739766 0.97951096 1.0110104 1.0223299 0.9554849 0.97780895 1.0373646
0.9896459 1.0056678 1.0234333 0.9675384 0.97926265 0.9613592 1.0161152 1.0565193
1.0451978 1.0250553 1.0452385 0.9727579 0.971805 0.998753 1.0267738 0.9681349
1.0046096 1.0356681 1.006002 1.0208584 0.9903061 1.0011333 0.9744883 0.9787564
0.9799587 1.0197527 0.9197029 1.0057033 0.9913341 0.9811347 0.98876506 0.89531106
0.9558105 1.0365986 0.9642536 1.0202696 1.0283623 1.0045087 0.97491026 0.96711916
0.9790882 0.9374943 0.9920791 0.93592507 0.9939641 1.0882119 0.98693675 0.9251174
1.0338452 0.9833606 0.9969696 0.9859334 0.9783134 1.0109375 1.0195239 1.0388312
0.94556296 0.9724887 1.0077213 1.0032444 1.0246477 1.018463 1.0422488 0.9786034
0.98922235 0.9752283 1.0182042 1.0338721 0.9812069 0.9352864 1.0171908 1.025209
0.93666303 0.98934907 1.0199779 1.000131 1.010412 1.0267841 0.9759621 0.9647586
0.97773296 1.0362074 0.9775057 0.9796056 1.0029106 0.97268087 1.050475 1.0070387
0.99514127 1.0206307 0.99245346 0.99198306 0.9876272 0.96835464 1.0256068 1.0483123
00000000: 7eb2 803f b0a2 6e3f 4641 7b3f ac91 7d3f
00000010: 7c31 773f 2b05 803f 41c0 753f 6260 7c3f
00000020: 64d7 7e3f 3467 863f a16a 7e3f ea42 7a3f
00000030: 97d2 813f 5f39 873f 527e 773f 9ea7 783f
00000040: e134 7e3f efb7 753f cc5d 7f3f e175 813f
00000050: b513 823f 03b9 793f 6941 863f 05fc 7d3f
00000060: 52a5 7c3f 9a28 823f d3cb 7f3f 7f6c 773f
00000070: d742 833f 0db2 773f f36b 7f3f f719 723f
00000080: f6c9 843f b91f 823f 7e60 823f 8369 763f
00000090: 9487 823f 9ac3 753f 8bc1 743f 5678 823f
000000a0: a835 833f f7cc 7d3f 5e05 863f 96cf 7a3f
000000b0: c530 833f 5269 813f 41e0 7e3f 71de 783f
000000c0: 06f8 823f 26c1 823f eace 793f 22bc 853f
000000d0: 62e8 823f 7fb8 843f ba9d 793f 3103 833f
000000e0: 645d 853f e7a0 873f 0268 803f ba4c 773f
000000f0: 74b3 863f cdb4 863f 78ed 803f 2c4e 773f
00000100: 684e 863f aa02 803f 9e1c 833f 8549 7c3f
00000110: 3db4 7b3f 076b 7b3f 7852 753f c097 773f
00000120: 19d5 803f 5585 833f 0d9a 753f 0867 863f
00000130: bd8e 6f3f 1882 823f 7aaa 863f 1412 883f
00000140: a58c 7e3f 8251 833f c96e 803f 5ad3 733f
00000150: 1245 7f3f 6406 823f f394 843f c8bd 723f
00000160: 618c 733f 7358 7e3f 101a 853f 02ce 7d3f
00000170: 0370 823f 351e 863f 104e 813f 49c1 823f
00000180: 3817 7d3f 7b6e 813f a09b 7c3f 5bfb 6b3f
00000190: 36f4 803f 01da 743f 0e07 7a3f 0a0e 7e3f
000001a0: 1f51 7c3f ce54 833f 5b43 793f bf33 7a3f
000001b0: cd4b 7d3f 8585 763f 965a 803f 94e8 823f
000001c0: acf4 713f fe1d 823f a648 823f 2559 863f
000001d0: 376a 853f 88f9 843f 01df 833f 77c2 7d3f
000001e0: bb82 713f 3c3f 883f e968 7a3f de01 8d3f
000001f0: d062 763f f97b 813f f125 7e3f 908d 813f
00000200: 89b0 7a3f eed2 693f 632a 7d3f 558a 753f
00000210: 8564 7d3f 8045 843f 2f93 833f 0732 833f
00000220: 892f 823f 6652 6f3f 8473 813f 62cf 793f
00000230: fe0f 7f3f 4393 833f 5d34 733f d1ce 803f
00000240: c2e4 833f a41e 7b3f 605a 7d3f 7ba4 7e3f
00000250: 7898 823f 6f9b 773f 3313 853f 356e 783f
00000260: 91d2 873f 8856 793f 3bc1 7a3f ca68 813f
00000270: b5db 823f a99a 743f b051 7a3f 5dc8 843f
00000280: 6f59 7d3f b9b9 803f ddff 823f 99b0 773f
00000290: f5b0 7a3f a31b 763f 1010 823f 063c 873f
000002a0: 0bc9 853f 0335 833f 60ca 853f a906 793f
000002b0: 36c8 783f 47ae 7f3f 536d 833f b0d7 773f
000002c0: 0c97 803f c690 843f acc4 803f 7dab 823f
000002d0: b384 7d3f 2325 803f 1178 793f c88f 7a3f
000002e0: 93de 7a3f 4287 823f a671 6b3f e3ba 803f
000002f0: 12c8 7d3f a52b 7b3f b51f 7d3f 1b33 653f
00000300: ffaf 743f 43af 843f 53d9 763f 3298 823f
00000310: 60a1 833f be93 803f b893 793f 1f95 773f
00000320: 86a5 7a3f a0ff 6f3f e5f8 7d3f c998 6f3f
00000330: 6e74 7e3f 874a 8b3f e3a7 7c3f 7ed4 6c3f
00000340: 0a55 843f 85bd 7b3f 6639 7f3f 2266 7c3f
00000350: bf72 7a3f 6666 813f c27f 823f 6cf8 843f
00000360: 6a10 723f 05f5 783f 03fd 803f 506a 803f
00000370: a827 833f ff5c 823f 6968 853f c185 7a3f
00000380: ad3d 7d3f 90a8 793f 8454 823f ec55 843f
00000390: 6030 7b3f ee6e 6f3f 4f33 823f 0c3a 833f
000003a0: 26c9 6f3f fb45 7d3f a38e 823f 4b04 803f
000003b0: 2e55 813f a96d 833f a7d8 793f 6bfa 763f
000003c0: b54c 7a3f 72a2 843f d03d 7a3f 6fc7 7a3f
000003d0: 605f 803f 9d01 793f f775 863f a5e6 803f
000003e0: 94c1 7e3f 07a4 823f 6e11 7e3f 9af2 7d3f
000003f0: 23d5 7c3f 17e6 773f 1547 833f 192f 863f

network.5.bias f4 [256]
-0.048450742 0.010330249 0.0966044 0.060648613 0.21867059 -0.11065833 0.0044326666 0.12686193
0.013530482 -0.084839515 0.04926515 0.08836482 -0.1258452 -0.067265466 0.09871855 -0.12891449
0.19023664 -0.09327061 -0.07072898 0.07641243 0.23462392 -0.05520122 0.011287764 -0.023208851
0.0047098533 0.007215562 0.10784855 0.10559083 -0.20092556 0.026372857 0.16714646 0.15111771
0.07707205 -0.07410609 -0.18658751 0.011049155 -0.110599004 0.098423146 0.13098341 -0.10261354
-0.22086935 0.037968222 -0.18961054 -0.03523369 -0.17054743 -0.1503238 -0.21526465 -0.16674921
0.23411977 0.09599488 0.16525008 -0.119197644 0.032263752 -0.07096257 -0.040375683 -0.22244512
-0.05648848 -0.15015697 0.17813261 -0.004194407 -0.080064446 -0.16744642 -0.051280703 0.21714625
-0.034749307 0.059326205 -0.07748182 0.12553075 -0.13089365 0.12618093 -0.06341807 0.022093093
0.038115732 -0.10742681 -0.1501406 -0.031131329 0.04524849 -0.034966398 -0.053999033 -0.1176374
0.17522544 -0.04280209 0.09442355 -0.002323328 -0.101074755 0.018120227 -0.068629056 0.019920463
0.12815939 -0.22251159 -0.08434328 -0.038365472 -0.046247073 -0.11011917 -0.06072694 0.02911851
0.03339078 0.051775794 0.05175236 0.057697047 0.1007371 0.0415233 0.11734652 -0.042967197
0.09388505 -0.09992365 0.03482871 -0.013264897 -0.18067423 0.0043204576 0.2341559 -0.09300202
0.087405644 -0.15193316 -0.21727459 -0.044610463 0.2674237 -0.12088341 -0.11225834 -0.080435514
0.12798919 -0.20963565 0.035135888 -0.16523853 -0.05052062 0.043478694 -0.05956005 0.12021664
0.019915957 0.06595155 -0.01372755 -0.05061032 -0.028943568 -0.035363145 -0.15683663 -0.008931357
-0.11884771 0.11058514 0.026651548 -0.0035899568 -0.18169796 0.038636684 0.11975699 -0.13099934
-0.108801015 0.023656927 -0.035717912 0.1333469 -0.17288594 -0.0007097833 -0.034207553 -0.102221094
-0.18176436 0.270721 0.04111579 0.05038596 -0.052622925 0.025077593 0.15328278 -0.16245706
-0.19779342 -0.06375893 -0.13702327 -0.08073227 0.06248601 -0.052188102 -0.1012259 -0.062260576
-0.10098129 -0.22420014 -0.14666851 0.094676025 0.09379719 0.0054994756 -0.12465662 0.028915998
0.01992453 -0.1277517 -0.0686723 -0.0108136 0.11326357 -0.08940297 -0.08996008 -0.08389583
0.07592576 -0.057107892 -0.026085824 -0.082637176 -0.12726039 0.024776904 -0.061501738 0.11099411
0.01743171 0.00602151 0.0014476224 -0.02325326 -0.049634133 -0.13195421 -0.01704992 0.11499096
-0.05023472 0.12481051 0.04162614 0.081724234 0.010849126 0.24984454 -0.17474212 -0.10441454
-0.0027812866 -0.039197985 -0.03237979 -0.03358263 -0.08820308 -0.2916144 -0.13237295 -0.10957425
0.14814568 0.004606281 0.13245754 -0.12522535 0.012412454 -0.04499593 -0.15553832 0.0683878
-0.1377434 -0.052318208 -0.036902234 -0.14708771 0.04166699 0.11805863 -0.0448098 -0.008808796
0.046539124 0.0456401 -0.15593989 -0.0720708 -0.1466564 0.113739826 0.15654914 0.06548777
-0.0042167134 -0.18308255 -0.099199004 0.048668057 0.053492926 -0.08208184 0.17150085 -0.21801744
-0.035483927 0.06523137 0.11976958 -0.047974974 0.0056409454 0.17547682 -0.0394483 -0.13572367
00000000: 4974 46bd 3440 293c 87d8 c53d ae6a 783d
00000010: 2feb 5f3e d6a0 e2bd e73f 913b 18e8 013e
00000020: f4ae 5d3c 57c0 adbd 41ca 493d 9df8 b43d
00000030: 90dd 00be 7ac2 89bd f32c ca3d 2902 04be
00000040: 65cd 423e a904 bfbd 5bda 90bd 1f7e 9c3d
00000050: 4141 703e ad1a 62bd 50f0 383c 7d20 bebc
00000060: 1d55 9a3b 8570 ec3b b3df dc3d 0140 d83d
00000070: 6ebf 4dbe e40b d83c 7128 2b3e 9abe 1a3e
00000080: f3d7 9d3d efc4 97bd cc10 3fbe 8407 353c
00000090: bb81 e2bd 1392 c93d 8420 063e 0c27 d2bd
000000a0: 932b 62be 9184 1b3d 4429 42be 3451 10bd
000000b0: fca3 2ebe 7bee 19be 566e 5cbe 4ec0 2abe
000000c0: 18bd 6f3e f798 c43d 5137 293e e51d f4bd
000000d0: ff26 043d d354 91bd f960 25bd a7c8 63be
000000e0: 7760 67bd c0c2 19be 6568 363e 3c71 89bb
000000f0: d4f8 a3bd 1377 2bbe b70b 52bd 965b 5e3e
00000100: 4a55 0ebd 0900 733d caae 9ebd 228b 003e
00000110: fc08 06be 9335 013e 55e1 81bd 93fc b43c
00000120: 3e1f 1c3d 9602 dcbd 75be 19be 2107 ffbc
00000130: 7b56 393d ed38 0fbd 172e 5dbd e1eb f0bd
00000140: 4c6e 333e 3f51 2fbd 2261 c13d fa42 18bb
00000150: 4800 cfbd df70 943c 648d 8cbd 3d30 a33c
00000160: 373c 033e 14da 63be 2bbc acbd 1d25 1dbd
00000170: 926d 3dbd 2986 e1bd d0bc 78bd f189 ee3c
00000180: c5c4 083d db12 543d 48fa 533d bd53 6c3d
00000190: 414f ce3d 5614 2a3d 5f53 f03d 5ffe 2fbd
000001a0: ce46 c03d c5a4 ccbd 8da8 0e3d 0355 59bc
000001b0: aa02 39be a092 8d3b 90c6 6f3e d877 bebd
000001c0: bb01 b33d 5e94 1bbe 3b7d 5ebe 76b9 36bd
000001d0: c2eb 883e b991 f7bd b3e7 e5bd 60bb a4bd
000001e0: 990f 033e baaa 56be a6ea 0f3d 4a34 29be
000001f0: b6ee 4ebd b716 323d 3df5 73bd 2434 f63d
00000200: ca26 a33c 9b11 873d 85e9 60bc c44c 4fbd
00000210: 101b edbc f2d8 10bd c899 20be d454 12bc
00000220: 6e66 f3bd 767a e23d 5954 da3c 7b45 6bbb
00000230: 080f 3abe 8041 1e3d 2743 f53d b124 06be
00000240: 11d3 debd 2ccc c13c f24c 12bd 178c 083e
00000250: 0309 31be c010 3aba 381d 0cbd 4b59 d1bd
00000260: 7020 3abe f19b 8a3e 0869 283d 8261 4e3d
00000270: 238b 57bd 866f cd3c 29f6 1c3e 255b 26be
00000280: 5c8a 4abe 0b94 82bd d44f 0cbe f656 a5bd
00000290: 55f1 7f3d 31c3 55bd 864f cfbd f204 7fbd
000002a0: 47cf cebd b994 65be 4530 16be 81e5 c13d
000002b0: be18 c03d f234 b43b f84b ffbd 3ee1 ec3c
000002c0: c538 a33c 57d1 02be 10a4 8cbd 872b 31bc
000002d0: bbf6 e73d e818 b7bd fe3c b8bd 94d1 abbd
000002e0: f77e 9b3d f7e9 69bd f0b1 d5bc ae3d a9bd
000002f0: 8c50 02be eff8 ca3c 3fe9 7bbd e150 e33d
00000300: f2cc 8e3c 1650 c53b 26be bd3a 9f7d bebc
00000310: 294d 4bbd 011f 07be 46ac 8bbc 6180 eb3d
00000320: ecc2 4dbd a79c ff3d 2c80 2a3d 095f a73d
00000330: 88c0 313c 3fd7 7f3e 99ef 32be 4ad7 d5bd
00000340: 3f46 36bb 118e 20bd aca0 04bd f18d 09bd
00000350: d1a3 b4bd 7c4e 95be c68c 07be 7768 e0bd
00000360: 80b3 173e 49f0 963b f3a2 073e 133b 00be
00000370: 9b5d 4b3c a74d 38bd 7045 1fbe e70e 8c3d
00000380: 9b0c 0dbe 9e4b 56bd cc26 17bd 299e 16be
00000390: 01ab 2a3d b9c8 f13d 7b8a 37bd c552 10bc
000003a0: cf9f 3e3d 1df1 3a3d b5ae 1fbe db99 93bd
000003b0: 182d 16be 6df0 e83d 6b4e 203e 741e 863d
000003c0: 5b2c 8abb fe79 3bbe d928 cbbd 2858 473d
000003d0: 661b 5b3d 861a a8bd eb9d 2f3e f73f 5fbe
000003e0: 9857 11bd 0698 853d c149 f53d 6881 44bd
000003f0: aed7 b83b 32b0 333e 8a94 21bd 25fb 0abe
