models/epoch_80/discriminator.pth (torch, 420232 bytes, 7 tensors)

network.0.weight f4 [256, 20]
0.002102211 -0.0008660482 -0.04943855 0.21695803 0.18869409 -0.10786959 0.068058155 -0.06316988
-0.06921972 0.025057424 -0.06239114 0.2576881 0.022723816 -0.014348657 -0.058744572 -0.12078908
-0.09510977 -0.045758713 0.009704433 -0.28006077 0.029637378 -0.048297174 0.026782615 0.014712401
0.010898047 -0.045954328 -0.18884054 0.09476878 0.090448216 0.020146865 -0.05543147 -0.06537552
0.083370775 0.082227364 0.031458333 -0.10526556 0.045106042 0.3448164 0.19491808 -0.023347199
0.00811641 0.009137468 0.004390599 0.017041713 0.0021958556 0.0012575206 -0.006771935 -0.0006980144
0.0029549184 0.0036388987 0.00019216674 0.5349805 0.0037526097 -0.0009573655 0.002920358 -0.0010074019
0.009482309 -0.005078208 -0.0020430638 -0.2129953 -0.00088490325 -0.055703882 0.023489147 -0.09194476
-0.045777116 0.0979282 0.053220253 0.25681764 -0.08241657 0.03153891 0.18699268 0.047835793
-0.0066364836 -0.058047466 0.089536816 -0.010981673 0.1664977 -0.121821046 0.3139184 0.14108561
-0.005399233 0.0404971 0.008565266 -0.1081331 -0.10816142 -0.09431288 0.16158351 0.28180972
0.20003892 -0.07594777 -0.0731931 0.010469795 -0.10774172 0.08894315 0.20703553 -0.06323215
-0.08250982 -0.08711695 -0.1522629 0.10213232 -0.051780663 0.042603556 -0.02134323 0.046644166
0.10462938 0.048333853 0.01956937 -0.10945429 0.012591818 -0.080978476 -0.091562815 0.0053941933
0.4134354 -0.12638609 -0.09810221 0.032492425 -0.013230568 0.1370247 -0.10658722 -0.012916308
0.10429859 0.047175217 0.019695928 0.1487502 0.12089638 0.09427688 -0.08772539 0.014718011
0.0022143207 0.0036399993 -0.021393413 -0.053053085 0.0048011765 -0.027044533 0.5135392 0.024106232
-0.030565808 -0.040781833 0.05876353 0.12699649 -0.06428387 0.0801729 -0.046888508 -0.01792002
-0.0617985 0.042044878 -0.21225333 0.050243944 -0.07954163 0.02752529 -0.04738484 -0.0841527
0.08303545 0.02903589 0.09917588 0.18618645 -0.12580536 0.04498393 -0.044940356 0.07320057
-0.119782194 -0.051470567 -0.006376976 0.120871425 0.011145535 0.03662112 0.09906886 -0.16650815
-0.10988569 0.14803323 0.06461697 -0.15513773 -0.059116174 -0.04056603 -0.06630934 -0.095246896
0.034301125 -0.08008708 -0.062267184 -0.17960975 0.1323212 0.03454405 0.083594084 0.16659023
0.06457831 0.07541705 0.5447692 -0.030581845 -0.015392474 -0.014809411 -0.0034702246 -0.02879606
-0.03246531 0.0048177056 -0.014056266 -0.035042666 -0.012796647 -0.033904217 -0.012415122 0.01616345
-0.005360181 -0.04460952 0.054107245 -0.02310193 0.015518769 -0.043124177 -0.3049911 0.16529584
0.19433229 0.06906091 0.15510026 0.07890622 -0.15046455 -0.076823704 -0.056917384 0.06774872
0.056162603 0.058838423 0.095819175 -0.264616 0.05319701 0.22492124 0.10649907 -0.07286843
0.16863337 0.16916284 -0.11711591 -0.05606922 -0.024472471 0.056166995 -0.044324767 -0.07635592
0.04736567 0.07203903 -0.044063184 -0.091635935 0.089209124 0.095812656 0.02055007 -0.2127525
-0.0016813043 0.12912591 0.02567115 0.011991977 0.11408526 -0.021181287 -0.011306405 0.0009905389
-0.018785315 0.0072224108 0.011427564 0.48083046 0.019390222 -0.04749322 -0.0027142 -0.0017560862
00000000: 3fc5 093b 8307 63ba 1480 4abd 3f2a 5e3e
00000010: 0639 413e bbea dcbd 1362 8b3d 365f 81bd
00000020: 12c3 8dbd 3a45 cd3c da8d 7fbd b2ef 833e
00000030: 4c27 ba3c a116 6bbc 269e 70bd 4460 f7bd
00000040: e9c8 c2bd 7d6d 3bbd 58ff 1e3c 2064 8fbe
00000050: 16ca f23c 42d3 45bd 3767 db3c 480c 713c
00000060: b98d 323c 9b3a 3cbd 6a5f 41be 2216 c23d
00000070: ea3c b93d 0a0b a53c 1c0c 63bd 9ae3 85bd
00000080: 4cbe aa3d d266 a83d 74da 003d 7895 d7bd
00000090: 1dc1 383d c68b b03e 9b98 473e a042 bfbc
000000a0: b1fa 043c 52b5 153c 04df 8f3b 109b 8b3c
000000b0: 58e8 0f3b 64d3 a43a 1ce7 ddbb f4fa 36ba
000000c0: 4ea7 413b 977a 6e3b 5e80 4939 7bf4 083f
000000d0: 58ee 753b b6f7 7aba 7a63 3f3b cc0a 84ba
000000e0: b05b 1b3c 1967 a6bb ece4 05bb 711b 5abe
000000f0: daf8 67ba c129 64bd 506c c03c 894d bcbd
00000100: c980 3bbd 958e c83d 7bfd 593d 9a7d 833e
00000110: 05ca a8bd f22e 013d 027b 3f3e 77ef 433d
00000120: dc76 d9bb 2ec3 6dbd 145f b73d 7aec 33bc
00000130: 607e 2a3e 507d f9bd eab9 a03e bf78 103e
00000140: 0dec b0bb 4ae0 253d 5455 0c3c e374 ddbd
00000150: bc83 ddbd 1c27 c1bd 2676 253e 5d49 903e
00000160: 01d7 4c3e 818a 9bbd 44e6 95bd 8189 2b3c
00000170: b1a7 dcbd d427 b63d 1f01 543e dc7f 81bd
00000180: e9fa a8bd 5f6a b2bd ceea 1bbe c02a d13d
00000190: f617 54bd 1181 2e3d ffd7 aebc f40d 3f3d
000001a0: ee47 d63d b8f9 453d f24f a03c 9229 e0bd
000001b0: ea4d 4e3c 0bd8 a5bd 4985 bbbd c6c1 b03b
000001c0: cead d33e 5b6b 01be d0e9 c8bd c716 053d
000001d0: 06c5 58bc 3450 0c3e 674a dabd ec9e 53bc
000001e0: 809a d53d cd3a 413d 5b59 a13c f951 183e
000001f0: 8598 f73d 3d14 c13d 5fa9 b3bd d023 713c
00000200: 231e 113b 0e8d 6e3b 3d41 afbc 314e 59bd
00000210: 3053 9d3b 7f8c ddbc 4e77 033f 6f7a c53c
00000220: 2565 fabc da0a 27bd 07b2 703d 5e0b 023e
00000230: 43a7 83bd b031 a43d 2a0e 40bd 01cd 92bc
00000240: 6d20 7dbd 4037 2c3d f058 59be 98cc 4d3d
00000250: b9e6 a2bd b87c e13c 9b16 42bd 4058 acbd
00000260: 7d0e aa3d addc ed3c b91c cb3d a9a7 3e3e
00000270: 1fd3 00be 1241 383d 6113 38bd 2eea 953d
00000280: 5e50 f5bd cdd2 52bd f4f5 d0bb 708b f73d
00000290: c39b 363c 0700 163d 9de4 ca3d 1d81 2abe
000002a0: c00b e1bd 0696 173e e755 843d 6ddc 1ebe
000002b0: cd23 72bd 9128 26bd 31cd 87bd ce10 c3bd
000002c0: 567f 0c3d b204 a4bd e00b 7fbd 9eeb 37be
000002d0: 357f 073e 107e 0d3d 6033 ab3d a196 2a3e
000002e0: a241 843d 4174 9a3d ff75 0b3f c786 fabc
000002f0: b730 7cbc 2ca3 72bc b56c 63bb b7e5 ebbc
00000300: 58fa 04bd d8dd 9d3b 414c 66bc e688 0fbd
00000310: 07a9 51bc 26df 0abd cc68 4bbc 3669 843c
00000320: 75a4 afbb 79b8 36bd 8f9f 5d3d 4240 bdbc
00000330: 6f42 7e3c faa2 30bd cb27 9cbe 5043 293e
00000340: 0bff 463e ce6f 8d3d 9ad2 1e3e 9699 a13d
00000350: 6113 1abe bf55 9dbd 3422 69bd d7bf 8a3d
00000360: c20a 663d 8f00 713d d83c c43d c07b 87be
00000370: 1ce5 593d c151 663e 2f1c da3d 0b3c 95bd
00000380: 3aae 2c3e 0639 2d3e 77da efbd d7a8 65bd
00000390: 7e7a c8bc 5d0f 663d e38d 35bd 7e60 9cbd
000003a0: 8102 423d 3389 933d 997b 34bd 9fab bbbd
000003b0: 46b3 b63d 6d39 c43d 9f58 a83c cbdb 59be
000003c0: 365f dcba 9539 043e 4e4c d23c ff79 443c
000003d0: 88a5 e93d 6184 adbc 803e 39bc f8d4 813a
000003e0: a9e3 99bc f9a9 ec3b ad3a 3b3c 692f f63e
000003f0: 3ed8 9e3c 4088 42bd b8e0 31bb 7a2c e6ba

network.0.bias f4 [256]
0.2434993 -0.2748947 -0.45021024 -0.12881687 -0.33143726 -0.3032582 -0.08906205 -0.11773251
0.24006511 -0.2331925 -0.21031965 0.2777457 -0.13233066 -0.39734396 -0.24253845 0.14179963
0.021125302 -0.23525663 -0.20867777 -0.3504103 0.23219939 -0.23455639 -0.21722184 -0.25037813
-0.2711132 0.1630276 0.1818966 -0.034246888 -0.16264278 -0.3527023 -0.24114923 0.007821703
-0.26521957 0.3036725 -0.2841651 0.15034726 -0.33410063 -0.30221635 0.0055915113 -0.26524812
-0.28838018 0.2629287 -0.35390228 -0.18372148 -0.1357743 -0.21547328 0.23762992 0.035928503
0.25180516 0.24454452 -0.25395957 -0.31312776 -0.06424329 -0.2399568 -0.3345275 -0.1479232
-0.13129663 0.14066003 -0.26255897 -0.14760916 -0.38034227 -0.0030935172 -0.28980115 -0.13718362
-0.1657455 -0.124010906 -0.079309866 -0.20188822 0.13513798 -0.30366695 -0.2622469 0.08825871
0.09892179 -0.25119594 -0.3044906 -0.18345901 -0.17222917 -0.31767005 0.056555826 0.039081845
-0.1917519 -0.25616992 -0.19375977 -0.11624641 -0.12985241 0.23825842 -0.34154427 -0.2945766
-0.24694064 -0.037355438 -0.34180075 0.19919486 -0.42147285 -0.24728267 -0.13911842 -0.14465909
0.2393522 0.079949126 -0.23777026 0.27518502 0.17418605 -0.075724356 0.05322167 -0.29786977
0.2326919 -0.36940038 -0.25419608 -0.2592337 -0.2881905 -0.17436916 -0.13878426 -0.33802086
-0.13864455 -0.101537436 -0.33840752 -0.3496592 0.15637906 -0.23437534 -0.21509571 0.010590168
-0.27445158 0.2883688 -0.23646665 -0.3089227 -0.29023558 -0.01793487 0.038515642 -0.3478327
-0.21134622 -0.095988445 -0.13112372 -0.1400164 -0.3024201 -0.38417533 -0.23106004 -0.08927387
-0.024812518 -0.27068993 -0.15217687 -0.23884885 -0.19846629 -0.3129132 -0.37747142 -0.15198503
-0.22526854 -0.07123781 -0.22094627 -0.17578141 -0.19039103 -0.106964484 -0.16809547 0.20596758
-0.18536454 -0.2545466 -0.29989874 0.25909355 -0.1714833 -0.30211917 0.11891746 -0.28891507
-0.23270407 0.0567977 0.20264219 -0.3247981 0.25344986 -0.46283233 -0.07182109 -0.3529852
-0.18696682 -0.28870878 -0.39537707 -0.011056324 -0.20635892 -0.25195584 -0.33438653 -0.04462992
0.022426616 -0.31478977 -0.3456582 0.06553323 -0.10876905 -0.20736201 -0.21511772 -0.34321976
0.18074383 -0.30664742 -0.10279324 0.06070307 -0.33629343 -0.41389894 -0.48029393 -0.0015447481
-0.40627182 -0.32930475 -0.20026438 -0.34997165 -0.07838046 -0.10022486 -0.2829941 -0.35541973
0.31217405 -0.34147367 0.12517913 -0.37724912 0.21425703 -0.23714902 0.016832417 -0.046905324
-0.028939726 0.23185861 0.13498259 -0.08477051 -0.07053853 -0.3363313 -0.34502265 0.0152470255
-0.06577965 0.22125208 -0.106003284 -0.17054233 -0.329808 -0.36049485 -0.14634828 -0.26023862
-0.2638907 0.21583602 -0.122641444 -0.14345177 -0.11130768 -0.09996487 -0.15566094 0.1121432
-0.15502009 -0.00056630175 -0.12017536 -0.0048658783 -0.10991088 -0.10361358 0.3005715 -0.03607104
-0.23173188 -0.24849686 -0.07542495 -0.46717024 0.2708036 -0.06715338 0.15316097 0.20682323
-0.31499997 -0.20640817 -0.39324948 -0.2892396 -0.42560467 -0.02371035 -0.36325088 -0.33755004
00000000: e157 793e 00bf 8cbe f581 e6be 92e8 03be
00000010: 25b2 a9be a944 9bbe 2a66 b6bd be1d f1bd
00000020: a1d3 753e 04ca 6ebe 095e 57be af34 8e3e
00000030: b081 07be ab70 cbbe 005c 78be ec33 113e
00000040: f80e ad3c 1de7 70be a0af 55be fb68 b3be
00000050: adc5 6d3e 8d2f 70be 676f 5ebe 9031 80be
00000060: 59cf 8abe b5f0 263e 1a43 3a3e 7746 0cbd
00000070: d48b 26be 6595 b4be d3ef 76be 9a26 003c
00000080: dcca 87be f67a 9b3e 177e 91be a2f4 193e
00000090: 3d0f abbe 1abc 9abe ff38 b73b 9ace 87be
000000a0: 91a6 93be 979e 863e ae32 b5be 7c21 3cbe
000000b0: 6b08 0bbe 07a5 5cbe 4255 733e c429 133d
000000c0: 9bec 803e e169 7a3e fd06 82be 4852 a0be
000000d0: fc91 83bd 3cb7 75be 3047 abbe 2e79 17be
000000e0: a072 06be 2f09 103e 216e 86be db26 17be
000000f0: 39bc c2be 9bbc 4abb d160 94be dd79 0cbe
00000100: 30b9 29be 6ef9 fdbd 366d a2bd c9bb 4ebe
00000110: 9c61 0a3e 3c7a 9bbe 3a45 86be fcc0 b43d
00000120: 8297 ca3d c19c 80be 31e6 9bbe aedc 3bbe
00000130: d85c 30be a6a5 a2be 15a7 673d 4914 203d
00000140: 9c5a 44be b428 83be f668 46be 9912 eebd
00000150: 08f8 04be 04fa 733e e4de aebe bed2 96be
00000160: 02de 7cbe 0402 19bd 8200 afbe bdf9 4b3e
00000170: 4acb d7be ab37 7dbe 0f75 0ebe 8321 14be
00000180: be18 753e 5ebc a33d 0c7a 73be 0de5 8c3e
00000190: d45d 323e 5f15 9bbd f7fe 593d 6382 98be
000001a0: c946 6e3e 0c22 bdbe fd25 82be 48ba 84be
000001b0: b58d 93be d48d 32be 761d 0ebe 1211 adbe
000001c0: d6f8 0dbe dcf2 cfbd c043 adbe 8806 b3be
000001d0: d521 203e 1700 70be 0d42 5cbe 6282 2d3c
000001e0: eb84 8cbe 13a5 933e 5024 72be 1e2b 9ebe
000001f0: c299 94be 26ec 92bc 94c2 1d3d 2117 b2be
00000200: 256b 58be 9795 c4bd 4c45 06be 7660 0fbe
00000210: cfd6 9abe a1b2 c4be 019b 6cbe 38d5 b6bd
00000220: 9f43 cbbc df97 8abe 41d4 1bbe cb94 74be
00000230: bf3a 4bbe 2936 a0be ef43 c1be f7a1 1bbe
00000240: ccac 66be 21e5 91bd bd3f 62be 0b00 34be
00000250: def5 42be 3210 dbbd 3821 2cbe 2ae9 523e
00000260: 34d0 3dbe ef53 82be 548c 99be e9a7 843e
00000270: 5199 2fbe 5daf 9abe ff8a f33d adec 93be
00000280: fa49 6ebe b4a4 683d 6f81 4f3e f04b a6be
00000290: 2ec4 813e 5cf8 ecbe f016 93bd 7aba b4be
000002a0: 3b74 3fbe a3d1 93be dd6e cabe 9525 35bc
000002b0: c14f 53be 5b00 81be b634 abbe ddcd 36bd
000002c0: 06b8 b73c 202c a1be 1dfa b0be 4936 863d
000002d0: 4fc2 debd b556 54be d247 5cbe 80ba afbe
000002e0: e914 393e e400 9dbe 4385 d2bd c8a3 783d
000002f0: a72e acbe 90ea d3be 16e9 f5be 2579 caba
00000300: dc02 d0be a29a a8be 1b12 4dbe 7c2f b3be
00000310: ef85 a0bd b142 cdbd 9ae4 90be 93f9 b5be
00000320: 47d5 9f3e a3d5 aebe f52e 003e cc26 c1be
00000330: 3266 5b3e 31d7 72be 23e4 893c cc1f 40bd
00000340: 0113 edbc 586c 6d3e e038 0a3e 299c adbd
00000350: 8176 90bd 9e33 acbe cfa6 b0be a9ce 793c
00000360: 7bb7 86bd e88f 623e 4018 d9bd a6a2 2ebe
00000370: 98dc a8be c892 b8be 53dc 15be ff3d 85be
00000380: af1c 87be 1e04 5d3e 702b fbbd 05e5 12be
00000390: 48f5 e3bd 62ba ccbd 9565 1fbe 56ab e53d
000003a0: 96bd 1ebe de73 14ba 801e f6bd f271 9fbb
000003b0: f518 e1bd 5b33 d4bd 82e4 993e 3abf 13bd
000003c0: 1f4b 6dbe f675 7ebe 6578 9abd f030 efbe
000003d0: c5a6 8a3e b687 89bd 3bd6 1c3e 78c9 533e
000003e0: ad47 a1be aa5c 53be ff57 c9be 3617 94be
000003f0: dbe8 d9be 353c c2bc 05fc b9be 5cd3 acbe

network.3.weight f4 [256, 256]
-0.046771087 -0.060891356 -0.053751327 0.008129571 -0.032354902 -0.012501727 -0.031707447 0.02855349
-0.067199 -0.057898078 -0.0412671 0.003670132 0.05245826 -0.018022843 -0.041758075 -0.040753506
-0.013157774 -0.013350584 -0.05876567 0.0017496544 -0.011370015 -0.07367509 -0.063409425 -0.09319665
-0.013908629 -0.04639855 -0.03577249 0.02570578 -0.108111374 -0.05304067 -0.02119757 -0.061159495
-0.046471097 0.0022422967 0.008771374 -0.045474157 -0.04563097 -0.012464646 -0.019771105 0.013075294
-0.056370925 -0.049727015 -0.058849566 0.03677756 -0.005320476 0.0042213094 -0.02356395 -0.017400252
-0.040291004 -0.0075002247 -0.057982903 0.049067777 -0.013189192 -0.030334484 -0.013358041 0.0062130247
-0.04403685 -0.005833645 -0.044126295 -0.08564069 -0.05639827 -0.07198364 -0.07853463 -0.07150392
-0.055022277 -0.0010283218 -0.019253442 -0.0355838 -0.08100859 -0.06563165 -0.05480324 -0.06845487
-0.024990331 0.0050287237 -0.0015899441 -0.00787701 0.007582143 -0.042349257 0.0064277574 0.06117808
0.008231946 -0.06769218 -0.040143903 -0.051871356 -0.067974634 -0.018466484 -0.08491738 -0.070501804
-0.10279229 0.03011865 -0.0131578 -0.050813254 -0.04803692 -0.055945974 -0.029941425 -0.027249191
-0.048382685 0.016061988 0.05718049 -0.0377243 0.013657523 -0.053067457 -0.040547796 0.0218912
0.019792644 -0.053922478 -0.04498674 -0.06135052 0.022868944 -0.071036 -0.020053146 0.054103743
-0.031432386 -0.06717404 0.003990765 -0.027022114 -0.018849405 -0.052748777 -0.062150095 0.046566892
0.020465456 0.026087299 0.07447593 -0.009348338 -0.09570126 0.008047005 -0.07017802 -0.080995046
-0.034636486 0.027896803 -0.029667849 0.04640505 -0.009843929 -0.03978029 -0.058141317 0.028210206
0.005990272 -0.027163856 -0.078063585 0.008941951 -0.011034327 -0.034369923 0.015092057 -0.0008347243
-0.06931397 -0.056307506 0.051634714 0.009262991 -0.04263658 -0.048008025 0.030430019 -0.06796244
-0.066120446 0.010664512 -0.06423254 -0.045424722 -0.033367578 -0.060413312 -0.03844661 -0.006538417
0.015568652 -0.0659671 -0.06877382 -0.040596165 0.027735684 -0.021990353 0.03303118 -0.04896598
-0.03870143 -0.023212466 -0.009370312 0.047982775 -0.057974022 0.023741746 -0.0006485627 0.0556508
-0.008337842 -0.0010931804 -0.0013904158 0.019021891 -0.01662926 -0.0760355 -0.012950089 -0.018602671
0.05243399 -0.07586135 0.01209165 0.0010650225 -0.017374206 -0.0757487 0.025740806 -0.0148807475
-0.09698094 -0.07011977 -0.045896787 -0.06534121 0.011971772 -0.03377786 -0.032386288 -0.025570892
-0.01767039 -0.08113958 -0.018067302 -0.037891477 -0.024951357 -0.041086685 -0.042430066 -0.0246167
0.010158247 -0.059971917 -0.012236015 0.0033809391 -0.006829417 -0.012704098 -0.013523777 0.032749873
0.006665675 -0.024837496 -0.035257794 -0.09006208 -0.041751783 -0.03831323 -0.04687857 -0.036936942
0.011628578 -0.005018134 -0.026939534 -0.07199618 0.003175176 -0.06304175 -0.07506542 -0.016833723
-0.030624328 0.02189065 -0.07187047 -0.008681555 0.00976844 -0.09634692 -0.016775245 -0.039751537
-0.034448273 -0.070887715 -0.017658515 -0.020354014 -0.041643895 -0.017800918 -0.0061453823 -0.013420853
-0.104408674 -0.07828043 -0.05619007 -0.021799915 -0.08680562 -0.042936347 -0.020325754 -0.049042955
00000000: 0a93 3fbd 3769 79bd 5a2a 5cbd e431 053c
00000010: 9386 04bd 0bd4 4cbc abdf 01bd 02e9 e93c
00000020: a19f 89bd 8926 6dbd b107 29bd 9986 703b
00000030: 79de 563d a4a4 93bc 840a 2bbd 26ed 26bd
00000040: b493 57bc 68bc 5abc 45b4 70bd a954 e53a
00000050: 4d49 3abc f7e2 96bd cddc 81bd e3dd bebd
00000060: 05e1 63bc 680c 3ebd 2d86 12bd ee94 d23c
00000070: 7f69 ddbd 2c41 59bd 87a6 adbc 6182 7abd
00000080: 7a58 3ebd 7ff3 123b cfb5 0f3c 1c43 3abd
00000090: 8ae7 3abd 8438 4cbc 03f7 a1bc c239 563c
000000a0: 33e5 66bd 8eae 4bbd 3e0c 71bd 11a4 163d
000000b0: 6357 aebb e952 8a3b 2f09 c1bc f98a 8ebc
000000c0: 2e08 25bd 72c4 f5bb 7b7f 6dbd 4bfb 483d
000000d0: 7b17 58bc 0680 f8bc afdb 5abc a196 cb3b
000000e0: fc5f 34bd 2928 bfbb c6bd 34bd 6364 afbd
000000f0: df01 67bd 296c 93bd c4d6 a0bd a670 92bd
00000100: 0a5f 61bd c1c8 86ba 65b9 9dbc 52c0 11bd
00000110: d5e7 a5bd e369 86bd 5d79 60bd 1132 8cbd
00000120: 86b8 ccbc fec7 a43b ac65 d0ba 930e 01bc
00000130: a073 f83b 6a76 2dbd f09f d23b de95 7a3d
00000140: 49df 063c 33a2 8abd ef6d 24bd 0f77 54bd
00000150: 4936 8bbd 0647 97bc 2ae9 adbd 4063 90bd
00000160: c484 d2bd 63bb f63c d093 57bc 8f21 50bd
00000170: 5dc2 44bd 9b27 65bd b847 f5bc b239 dfbc
00000180: ec2c 46bd 6e94 833c 1736 6a3d cc84 1abd
00000190: cec3 5f3c 435d 59bd 7215 26bd 2d55 b33c
000001a0: 2f24 a23c d1dd 5cbd 0444 38bd af4a 7bbd
000001b0: a757 bb3c 537b 91bd 7f46 a4bc e39b 5d3d
000001c0: 3fbf 00bd 8b92 89bd f7c4 823b 7b5d ddbc
000001d0: 116a 9abc 1a0f 58bd 1991 7ebd edbc 3e3d
000001e0: 2ca7 a73c 08b5 d53c d686 983d c529 19bc
000001f0: 06ff c3bd 96d7 033c 7eb9 8fbd bbe0 a5bd
00000200: fdde 0dbd d687 e43c fd09 f3bc 3913 3e3d
00000210: 6e48 21bc a8f0 22bd 9725 6ebd 1719 e73c
00000220: 0b4a c43b bc86 debc cddf 9fbd 4381 123c
00000230: 52c9 34bc 7ac7 0cbd ad44 773c 66d1 5aba
00000240: 7cf4 8dbd b3a2 66bd ec7e 533d cdc3 173c
00000250: b2a3 2ebd 10a4 44bd 6048 f93c e42f 8bbd
00000260: 286a 87bd 35ba 2e3c 5a8c 83bd 460f 3abd
00000270: 71ac 08bd f373 77bd 317a 1dbd 3840 d6bb
00000280: a913 7f3c c219 87bd 4ad9 8cbd 2a48 26bd
00000290: f235 e33c 1d25 b4bc b44b 073d 8d90 48bd
000002a0: 6485 1ebd 1228 bebc f085 19bc 9689 443d
000002b0: 2b76 6dbd 0d7e c23c 4e04 2aba 18f2 633d
000002c0: 729b 08bc 0c49 8fba 9d3e b6ba ccd3 9b3c
000002d0: 163a 88bc 80b8 9bbd 9c2c 54bc a164 98bc
000002e0: 06c5 563d 325d 9bbd 0e1c 463c 3a98 8b3a
000002f0: 5a54 8ebc 2222 9bbd 62de d23c 61ce 73bc
00000300: f19d c6bd f49a 8fbd 45fe 3bbd 9dd1 85bd
00000310: 4025 443c a75a 0abd 7ca7 04bd 0c7a d1bc
00000320: 7ec1 90bc 822c a6bd e101 94bc 1834 1bbd
00000330: ca66 ccbc 834a 28bd 26cb 2dbd f6a8 c9bc
00000340: c76e 263c 1da5 75bd 9179 48bc bf92 5d3b
00000350: 4dc9 dfbb d924 50bc d592 5dbc bb24 063d
00000360: bc6b da3b 0178 cbbc 7a6a 10bd 7872 b8bd
00000370: eb03 2bbd 55ee 1cbd be03 40bd 314b 17bd
00000380: cb85 3e3c 296f a4bb 4cb0 dcbc bc72 93bd
00000390: 9d16 503b 081c 81bd e6bb 99bd e0e6 89bc
000003a0: dfdf fabc 0554 b33c d330 93bd 153d 0ebc
000003b0: cf0b 203c 8951 c5bd 3d6c 89bc 82d2 22bd
000003c0: a219 0dbd 942d 91bd 97a8 90bc 76bd a6bc
000003d0: ca92 2abd 3bd3 91bc 345f c9bb 23e3 5bbc
000003e0: 37d4 d5bd 7d51 a0bd 8f27 66bd bc95 b2bc
000003f0: 25c7 b1bd 06de 2fbd 3282 a6bc 44e1 48bd

network.3.bias f4 [256]
0.12895787 -0.23033284 -0.087401435 -0.23484476 -0.18387963 -0.2419386 -0.14085963 0.057256278
-0.15531911 -0.2154023 0.06652435 -0.012903932 0.068297766 0.11810548 -0.048221324 -0.21650083
0.15738584 0.06674447 -0.19988015 -0.18886624 -0.18970963 -0.17056677 -0.25480017 -0.20775133
-0.24551947 -0.11795247 -0.16494505 -0.20586838 -0.16304934 -0.16766141 -0.01929692 0.1334176
-0.077815734 -0.11255617 0.049394596 0.12092807 0.018860577 -0.152192 -0.22174543 -0.07296778
0.0055419635 0.037722856 -0.19087262 -0.1749001 0.08611619 -0.19037923 -0.22111584 -0.09446862
-0.06415288 0.019070365 0.0846888 -0.06231885 -0.23878005 0.029492483 -0.011603288 -0.008640385
-0.18051337 0.029766662 -0.026257409 -0.16563489 -0.16931042 0.055874042 -0.12697825 -0.22447269
0.080992244 0.048622463 -0.22374581 -0.24278684 -0.07252949 -0.032723293 -0.13221732 -0.06127979
0.10294997 0.035979528 -0.07141557 -0.17643027 -0.13188729 0.02171782 -0.09805582 -0.22078776
0.0632247 -0.2289436 -0.048823602 -0.22090521 0.08141224 0.056560606 0.04670139 -0.19902554
-0.25761738 -0.1775487 -0.16299431 -0.1554563 -0.17516574 -0.07350905 -0.09114983 -0.07996039
-0.1510107 0.11922591 -0.2612873 -0.2565989 -0.1455452 -0.08208456 -0.19654997 0.059900306
0.007884604 -0.04840838 0.054714624 -0.25178888 -0.23883104 -0.025872208 -0.21892591 -0.01795456
-0.1680075 -0.075691275 -0.08082519 -0.08504647 -0.019123739 -0.0519839 0.08346053 -0.069567166
0.061289284 0.00038972113 -0.05329915 -0.018315641 -0.05494287 0.045868658 -0.09255083 -0.17697726
-0.020798631 -0.046510443 0.045308217 -0.19981626 -0.14966841 -0.17180663 -0.1264856 -0.13742313
0.093001135 0.047550756 -0.13377206 0.013283354 -0.103739664 -0.1919066 -0.041690364 0.10323217
0.014019896 -0.1359315 -0.12571461 -0.25363633 -0.2394823 -0.033246975 0.05259951 0.0824999
0.017981287 0.06965179 -0.1505464 -0.21820705 -0.14297503 0.05235418 -0.12319367 0.011771584
-0.18134344 -0.11869583 0.057816032 -0.11028051 0.021275366 -0.15173396 -0.17051068 -0.09488774
-0.23420893 -0.1470883 0.077892564 -0.18817644 -0.14071794 -0.16355473 -0.24533696 -0.2084513
0.0443373 -0.06516564 -0.18986674 0.032310855 -0.16019318 0.10981117 -0.20121214 -0.22771557
-0.17498942 -0.18596713 -0.051630363 -0.1850033 0.15102029 -0.18140158 -0.11326448 0.07920718
-0.18470572 -0.11208624 -0.14172381 -0.1529739 -0.061193217 -0.13568027 0.08447287 -0.27481428
-0.09431641 0.06274382 -0.24888243 0.05361679 -0.084619775 -0.07322948 0.068498455 0.06100645
0.1319264 -0.14779362 -0.19497158 -0.08231956 -0.13835937 -0.15391521 -0.023478417 0.09179423
-0.12940963 0.03121047 -0.103445336 0.1332714 -0.024434682 -0.13157141 -0.01913284 -0.14005809
-0.13579574 -0.10565431 -0.09615348 -0.19009762 -0.12795378 0.03610846 -0.25273842 -0.10231714
-0.118159294 0.08642242 -0.12316272 -0.114729166 -0.25062683 -0.20226845 0.09326976 -0.21686652
-0.22559525 0.082771525 -0.1856422 0.03419014 -0.2220252 -0.23326066 -0.06700951 -0.2330427
-0.19450037 -0.16170597 -0.038951293 -0.2563557 -0.21225621 0.057344634 -0.11426458 0.08625427
00000000: 880d 043e 5fdc 6bbe 86ff b2bd 257b 70be
00000010: f14a 3cbe c1be 77be 823d 10be 8f85 6a3d
00000020: f90b 1fbe 6c92 5cbe eb3d 883d 036b 53bc
00000030: b3df 8b3d 49e1 f13d b983 45bd 65b2 5dbe
00000040: c129 213e 53b1 883d 62ad 4cbe 2766 41be
00000050: 3e43 42be 0ea9 2ebe 2b75 82be c4bc 54be
00000060: 7569 7bbe 1191 f1bd 5be7 28be 29cf 52be
00000070: 68f6 26be 6faf 2bbe 9314 9ebc a09e 083e
00000080: db5d 9fbd d983 e6bd fd51 4a3d 23a9 f73d
00000090: 7f81 9a3c 38d8 1bbe 3c11 63be 2270 95bd
000000a0: 5c99 b53b 4883 1a3d 1d74 43be 0319 33be
000000b0: af5d b03d c6f2 42be 316c 62be c478 c1bd
000000c0: 9662 83bd 7439 9c3c 5271 ad3d 0d42 7fbd
000000d0: c282 74be 389a f13c b81b 3ebc 6790 0dbc
000000e0: 7fd8 38be 37d9 f33c c719 d7bc 319c 29be
000000f0: b65f 2dbe 2edc 643d 9606 02be 2bdc 65be
00000100: 43df a53d 5928 473d 9f1d 65be 1d9d 78be
00000110: 578a 94bd dc08 06bd fa63 07be 8400 7bbd
00000120: 6fd7 d23d 455f 133d 5442 92bd 23aa 34be
00000130: 760d 07be 92e9 b13c 7dd1 c8bd 3016 62be
00000140: f47b 813d 3170 6abe 42fb 47bd fa34 62be
00000150: 76bb a63d 18ac 673d f549 3f3d 5acd 4bbe
00000160: 6de6 83be 54cf 35be fbe7 26be f02f 1fbe
00000170: a65e 33be ea8b 96bd c3ac babd 46c2 a3bd
00000180: 8da2 1abe b72c f43d 73c7 85be ee60 83be
00000190: cd09 15be f31b a8bd 6544 49be 065a 753d
000001a0: 6d2e 013c de47 46bd 711c 603d 79ea 80be
000001b0: 2090 74be f4f1 d3bc 1d2e 60be 7115 93bc
000001c0: 280a 2cbe 0704 9bbd ad87 a5bd d82c aebd
000001d0: 63a9 9cbc 12ed 54bd 5bed aa3d 3b79 8ebd
000001e0: 790a 7b3d 7c53 cc39 3650 5abd af0a 96bc
000001f0: c60b 61bd c6e0 3b3d 4a8b bdbd 8739 35be
00000200: e461 aabc bc81 3ebd 1c95 393d a29c 4cbe
00000210: ad42 19be 14ee 2fbe 7185 01be a6b8 0cbe
00000220: 6177 be3d 95c4 423d 8bfb 08be 6da2 593c
00000230: 7675 d4bd 2a83 44be 84c3 2abd 636b d33d
00000240: b5b3 653c a131 0bbe 55bb 00be 9fdc 81be
00000250: d93a 75be fb2d 08bd 9572 573d b5f5 a83d
00000260: 7e4d 933c 99a5 8e3d d628 1abe ab71 5fbe
00000270: 0c68 12be 5671 563d f64c fcbd 9add 403c
00000280: 18b2 39be cd16 f3bd 81d0 6c3d bfda e1bd
00000290: ad49 ae3c 2660 1bbe 5a9a 2ebe 8154 c2bd
000002a0: 77d4 6fbe 519e 16be 2386 9f3d 53b1 40be
000002b0: 5d18 10be e47a 27be 9d39 7bbe 4274 55be
000002c0: 079b 353d 9075 85bd 6d6c 42be 6358 043d
000002d0: ae09 24be aee4 e03d 8e0a 4ebe 452e 69be
000002e0: 6d30 33be 2b6e 3ebe 5c7a 53bd 8171 3dbe
000002f0: 10a5 1a3e 56c1 39be 35f7 e7bd 6037 a23d
00000300: 7f23 3dbe 788d e5bd 0c20 11be 31a5 1cbe
00000310: bda5 7abd c5ef 0abe 1d00 ad3d 75b4 8cbe
00000320: f628 c1bd d57f 803d 09db 7ebe 479d 5b3d
00000330: 224d adbd 56f9 95bd eb48 8c3d e6e1 793d
00000340: b717 073e 3657 17be a1a6 47be 2897 a8bd
00000350: 14ae 0dbe f39b 1dbe cf55 c0bc 9dfe bb3d
00000360: f583 04be 19ad ff3c 26db d3bd 4c78 083e
00000370: 3e2b c8bc a8ba 06be 79bc 9cbc 636b 0fbe
00000380: 0a0e 0bbe 4961 d8bd 1eec c4bd f3a8 42be
00000390: 5106 03be 77e6 133d ee66 81be a68b d1bd
000003a0: 80fd f1bd 3dfe b03d bc3c fcbd 20f7 eabd
000003b0: 2952 80be 761f 4fbe 3704 bf3d 4212 5ebe
000003c0: 7102 67be 1e84 a93d fd18 3ebe f60a 0c3d
000003d0: 935a 63be e2db 6ebe 483c 89bd bfa2 6ebe
000003e0: 1b2b 47be 4096 25be 648b 1fbd 0e41 83be
000003f0: b159 59be 35e2 6a3d 8c03 eabd 14a6 b03d

network.6.weight f4 [128, 256]
-0.029145388 -0.0008171941 0.05446975 0.18689053 0.033687994 0.025177492 -0.030176666 -0.05656287
0.050822973 0.16105841 0.0015055042 0.042178772 0.034166016 -0.017969668 0.008688658 -0.07312064
-0.11310828 -0.028937723 0.003023728 0.05616559 -0.030041113 0.1575189 0.17695975 0.061569847
0.053462707 0.038509097 0.05072733 0.023548072 0.016554244 0.074184634 -0.027251132 -0.08091166
-0.0114720445 0.025610542 -0.03750724 0.0013802764 -0.07290387 0.023297133 0.019299276 -0.0320172
0.036789685 -0.0493374 0.049713247 0.099669725 -0.039210424 0.046386138 0.22010887 0.00594687
0.07758714 -0.03332186 0.0101358425 0.0068827877 0.2589334 -0.027317986 -0.06709182 -0.051911384
0.033363406 0.0066303774 0.07473506 0.033796474 0.037824314 -0.016403152 -0.031657044 0.07943464
0.020587068 0.010996839 0.01590814 -0.01581017 0.067211546 -0.02069154 0.015669767 0.05510614
-0.04162233 0.010942153 0.085482895 0.043098446 -0.04539415 -0.06441784 0.035628904 0.26191887
-0.07853248 0.2377407 0.08827324 0.04315537 -0.057159156 -0.0060866084 0.03694415 -0.06683392
-0.14042147 0.06731484 -0.10006847 0.12853174 -0.044607323 0.015648337 0.021189421 0.058702853
-0.031306583 0.016553968 0.10439745 0.2255128 0.11289048 0.038700018 -0.05792892 -0.03921579
0.0011285907 0.04778793 0.0858857 0.19156656 0.010763304 0.017784327 0.19030635 -0.007780698
0.02630843 -0.043606997 0.06568187 -0.027770644 -0.047665752 0.054461934 -0.10256192 0.03165099
-0.012208499 -0.074034914 0.05518791 0.014556741 -0.030649194 0.003162046 0.003352109 0.10343438
-0.023119727 0.102469385 0.10927961 -0.10573016 0.16726613 -0.0015148359 0.039972626 0.005674046
-0.01656217 0.02223188 0.0042360458 -0.0064418623 0.003453375 -0.09622963 -0.055977475 0.08983622
-0.04123843 0.08317648 0.016676158 0.13055725 -0.04272898 -0.08300639 -0.035182305 -0.02010602
-0.06598343 -0.03969841 0.106963135 0.11137516 0.004129362 -0.015008512 0.013980423 0.01906439
0.07108129 0.053399857 -0.00049149944 0.047278486 -0.007946372 0.03045034 0.019862076 0.03368941
0.17307867 -0.016752044 -0.043006428 0.024165826 0.07875339 0.017012825 -0.04050046 0.010791072
-0.05718496 0.05241283 0.032237098 -0.07452062 0.12161846 0.009137938 0.23799208 0.021964233
0.062529124 0.008621546 -0.055243246 -0.14017999 0.052373923 0.035103746 0.06242758 -0.048197728
-0.0055562234 0.0732644 0.05196579 0.028155537 0.05510363 0.009764762 -0.07550339 0.22023141
0.11785471 0.00650274 0.108193025 -0.046754885 0.05821579 0.10709558 -0.0382523 -0.03054748
-0.096677735 0.029528929 0.016075613 0.014259939 0.08009993 0.07539176 0.059288483 -0.025783591
0.031989273 -0.030689823 0.050102357 0.014444466 -0.058592528 -0.007916396 0.008166114 0.0054255836
0.0976626 0.09202861 0.13411604 0.09953635 0.04272437 -0.062853545 0.014708947 0.013260076
0.23858042 0.020175692 0.08460169 0.045466643 0.0043164664 -0.09535548 -0.0872662 0.073034585
-0.046606928 -0.057225395 0.031175891 -0.046629567 0.14283457 -0.035406508 -0.02284354 0.23147435
0.115564555 0.007865908 0.03872947 -0.045731094 0.21530308 -0.07563525 0.020135406 -0.0074626207
00000000: 4fc2 eebc f838 56ba ac1b 5f3d 3b60 3f3e
00000010: 6cfc 093d 0741 ce3c 0e35 f7bc 78ae 67bd
00000020: c02b 503d 7fec 243e 5754 c53a a6c3 2c3d
00000030: aaf1 0b3d 2035 93bc df5a 0e3c 46c0 95bd
00000040: 50a5 e7bd ce0e edbc bd29 463b e40d 663d
00000050: c818 f6bc a24c 213e f034 353e aa30 7c3d
00000060: b6fb 5a3d b7bb 1d3d 76c7 4f3d e3e7 c03c
00000070: c49c 873c 1dee 973d c43d dfbc 03b5 a5bd
00000080: 3ef5 3bbc 33cd d13c 31a1 19bd 64ea b43a
00000090: a04e 95bd a1d9 be3c 8419 9e3c 7824 03bd
000000a0: c8b0 163d 0316 4abd 1ea0 4b3d a41f cc3d
000000b0: 1c9b 20bd 64ff 3d3d 3864 613e f6dd c23b
000000c0: 02e6 9e3d 817c 08bd ce10 263c 0289 e13b
000000d0: eb92 843e f8c9 dfbc 7067 89bd 08a1 54bd
000000e0: 11a8 083d a343 d93b b20e 993d 2c6e 0a3d
000000f0: abed 1a3d e75f 86bc d1aa 01bd a1ae a23d
00000100: 36a6 a83c 162c 343c ca51 823c 5484 81bc
00000110: 35a6 893d 4e81 a9bc e25d 803c fab6 613d
00000120: 2d7c 2abd b746 333c a811 af3d ff87 303d
00000130: 37ef 39bd 80ed 83bd 9def 113d 3b1a 863e
00000140: a3d5 a0bd 4c72 733e 9ac8 b43d afc3 303d
00000150: b81f 6abd 2c72 c7bb c052 173d 39e0 88bd
00000160: a5ca 0fbe 5ddc 893d b3f0 ccbd d39d 033e
00000170: 2bb6 36bd f130 803c 7095 ad3c 6772 703d
00000180: 553b 00bd 309c 873c 55ce d53d d4ec 663e
00000190: 2033 e73d e983 1e3d e046 6dbd bca0 20bd
000001a0: 38ed 933a 47bd 433d d8e4 af3d 062a 443e
000001b0: 9258 303c 70b0 913c abdf 423e 3af5 febb
000001c0: c784 d73c 409d 32bd 3784 863d 437f e3bc
000001d0: 2a3d 43bd 7a13 5f3d fc0b d2bd 78a4 013d
000001e0: 2806 48bc 9e9f 97bd b80c 623d 667f 6e3c
000001f0: 0514 fbbc 543a 4f3b 0faf 5b3b 67d5 d33d
00000200: 9565 bdbc 78db d13d fdcd df3d 0e89 d8bd
00000210: d047 2b3e 758d c6ba 56ba 233d 59ed b93b
00000220: 63ad 87bc a21f b63c 87ce 8a3b 4216 d3bb
00000230: 0552 623b 0a14 c5bd a348 65bd 0dfc b73d
00000240: a1e9 28bd 6e58 aa3d 709c 883c cdb0 053e
00000250: 9504 2fbd 41ff a9bd 521b 10bd 61b5 a4bc
00000260: 5222 87bd cd9a 22bd 7d0f db3d a918 e43d
00000270: 994f 873b 43e6 75bc 250e 653c ec2c 9c3c
00000280: 1193 913d cfb9 5a3d f8d7 00ba 16a7 413d
00000290: 8031 02bc fe72 f93c cbb5 a23c e8fd 093d
000002a0: 893b 313e 953b 89bc 8227 30bd 69f7 c53c
000002b0: 7549 a13d 7b5e 8b3c cfe3 25bd 09cd 303c
000002c0: c73a 6abd d6ae 563d 0c0b 043d 449e 98bd
000002d0: 1913 f93d 4ab7 153c 32b4 733e 56ee b33c
000002e0: 450f 803d 6341 0d3c be46 62bd 588b 0fbe
000002f0: 0a86 563d f2c8 0f3d 10b4 7f3d fb6a 45bd
00000300: fb10 b6bb a50b 963d 15da 543d 71a6 e63c
00000310: 58b4 613d 61fc 1f3c 85a1 9abd 5884 613e
00000320: cf5d f13d f014 d53b 4e94 dd3d 0d82 3fbd
00000330: ae73 6e3d ed54 db3d 72ae 1cbd b53e fabc
00000340: fafe c5bd a7e6 f13c 01b1 833c 85a2 693c
00000350: 6f0b a43d ff66 9a3d 7bd8 723d 1c38 d3bc
00000360: 2f07 033d 3969 fbbc 2138 4d3d 7ba8 6c3c
00000370: b8fe 6fbd c5b3 01bc 2acb 053c 18c9 b13b
00000380: 5403 c83d 7f79 bc3d b755 093e b7d9 cb3d
00000390: c0ff 2e3d 5cb9 80bd ccfd 703c ca40 593c
000003a0: 6d4e 743e 7e47 a53c a743 ad3d 3b3b 3a3d
000003b0: 2571 8d3b bc49 c3bd 9fb8 b2bd 2893 953d
000003c0: e8e6 3ebd 2d65 6abd 9564 ff3c a5fe 3ebd
000003d0: 3a43 123e 6a06 11bd 6022 bbbc 9d07 6d3e
000003e0: 1cad ec3d 02e0 003c cba2 1e3d 8750 3bbd
000003f0: 6978 5c3e a7e6 9abd 02f3 a43c 0089 f4bb

network.6.bias f4 [128]
-0.046747018 -0.046175107 -0.070913024 -0.03582602 0.010995043 0.0036245643 -0.035329692 -0.05569903
-0.06023696 -0.15758754 -0.019527946 -0.05830923 -0.036853395 -0.012528549 -0.026827373 -0.027788254
-0.0098181255 -0.02043087 -0.08072685 4.4280652e-05 -0.08823827 -0.02602533 -0.014177396 -0.06606001
0.038009156 -0.0395169 -0.09005201 -0.03705735 -0.03036414 -0.012105384 -0.023974948 -0.0357232
-0.051046263 -0.050463535 -0.016504178 0.02602453 -0.027666125 -0.0016537647 -0.0066074487 -0.07490919
-0.056058764 -0.023361748 0.04356812 0.055992372 -0.0893561 -0.1692138 0.01800296 -0.0053969636
0.036048602 -0.021170728 0.047150012 0.0987563 0.029907053 -0.006540962 -0.08159747 -0.024942437
-0.0019572764 -0.008950482 -0.025768591 -0.026951857 -0.05641191 0.027856955 -0.0499066 0.033288274
-0.036659595 -0.027950311 -0.073742226 -0.008321536 -0.028800938 -0.013142617 -0.031166553 -0.01994304
-0.006068338 0.023362176 -0.0072794226 -0.22413388 -0.004279358 0.051459897 -0.010715431 -0.021991974
-0.021162938 -0.045207735 -0.016149824 -0.098194934 -0.039292082 -0.06099664 -0.0034081491 -0.0862578
-0.06314763 -0.117924586 -0.004874889 -0.017778698 -0.070140146 -0.012019052 -0.05599348 -0.04282131
-0.056115035 0.06611839 -0.0046288627 0.05889828 0.009140794 0.081783324 0.04087122 -0.101203546
-0.08200935 -0.029239625 -0.0050276136 -0.03543814 -0.023275657 -0.0798782 -0.02289481 0.041685436
-0.056282967 -0.016810318 -0.05645567 0.025839118 -0.07570896 -0.011364744 -0.0003662646 -0.037855748
0.03734133 0.0024510375 -0.113986455 -0.035413407 -0.057728082 0.12155665 -0.0557116 0.028686091
00000000: cd79 3fbd 1c22 3dbd d93a 91bd 4ebe 12bd
00000010: 8e24 343c 198a 6d3b deb5 10bd ab24 64bd
00000020: 08bb 76bd a15e 21be 12f9 9fbc a9d5 6ebd
00000030: 96f3 16bd 8b44 4dbc 14c5 dbbc 31a4 e3bc
00000040: 34dc 20bc a45e a7bc 1e54 a5bd fdb9 3938
00000050: 44b6 b4bd 1333 d5bc 4f48 68bc 784a 87bd
00000060: 7daf 1b3d 79dc 21bd 306d b8bd 73c9 17bd
00000070: 38be f8bc a955 46bc 1c67 c4bc 7d52 12bd
00000080: e315 51bd dab2 4ebd c533 87bc 6531 d53c
00000090: 12a4 e2bc 23c3 d8ba 4c83 d8bb fd69 99bd
000000a0: e09d 65bd 2361 bfbc 7c74 323d 4258 653d
000000b0: 5500 b7bd 6246 2dbe f27a 933c 03d9 b0bb
000000c0: b3a7 133d 3c6e adbc 5f20 413d be40 ca3d
000000d0: a3ff f43c 9155 d6bb 931c a7bd 1554 ccbc
000000e0: a645 00bb 0ba5 12bc a718 d3bc 24ca dcbc
000000f0: 2d10 67bd 4534 e43c dd6a 4cbd 4959 083d
00000100: 5f28 16bd 0df8 e4bc 2a06 97bd 0d57 08bc
00000110: f2ef ebbc 2254 57bc 0051 ffbc 965f a3bc
00000120: e9d8 c6bb 0962 bf3c 3988 eebb 5a83 65be
00000130: db39 8cbb 9dc7 523d c68f 2fbc 8328 b4bc
00000140: e65d adbc bf2b 39bd a34c 84bc 6d1a c9bd
00000150: bcf0 20bd 9dd7 79bd 415b 5fbb eea7 b0bd
00000160: 8b53 81bd 7282 f1bd 88bd 9fbb a2a4 91bc
00000170: a3a5 8fbd 8feb 44bc 6b59 65bd 6665 2fbd
00000180: e1d8 65bd 1469 873d b7ad 97bb 533f 713d
00000190: 45c3 153c 047e a73d 9568 273d ce43 cfbd
000001a0: 85f4 a7bd f087 efbc aebe a4bb 9527 11bd
000001b0: 97ac bebc 2f97 a3bd e68d bbbc 59be 2a3d
000001c0: f888 66bd cbb5 89bc 103e 67bd 8fac d33c
000001d0: 4d0d 9bbd 3133 3abc 3407 c0b9 a10e 1bbd
000001e0: 39f3 183d 96a1 203b bb71 e9bd a60d 11bd
000001f0: 4874 6cbd b1f2 f83d d931 64bd 18ff ea3c

network.9.weight f4 [1, 128]
0.37591055 -0.17035605 0.38448083 -0.11068893 0.3503167 -0.06456905 0.38975435 0.3954728
-0.1368391 -0.18592069 -0.26103255 0.4324004 -0.20237553 -0.11160255 -0.0887264 -0.100129314
-0.084427886 -0.07569443 0.38585606 -0.09712378 0.4201231 0.39559117 -0.06639852 -0.08131254
0.44537243 0.38657522 0.40715334 0.40666908 -0.09344435 0.42797887 0.4133944 0.38992524
-0.09512273 -0.24494274 -0.07476305 0.3973147 0.43435022 -0.084369436 -0.07501218 -0.10552403
0.4743469 0.4034232 0.46036208 0.45155907 0.40778938 -0.19259547 0.4816818 0.46410203
-0.0799377 -0.094464615 0.47438234 0.5164398 -0.07934634 -0.10065562 0.40517563 0.44034103
0.38135403 0.4415706 0.41394588 0.53000855 -0.15647475 0.41280797 0.43048015 0.5267074
0.44041592 0.44689962 -0.094010785 0.47254896 0.49336687 0.4783859 -0.06587736 0.4001879
-0.07519761 0.39518517 -0.08729124 -0.18748614 -0.08088063 0.44903484 -0.05776902 0.39479554
0.4379637 -0.072599865 -0.1173908 -0.08513973 -0.22639666 -0.18332216 0.411835 -0.11569586
0.41954502 0.387862 -0.09668768 -0.062690705 -0.111507736 -0.23008004 0.418369 -0.10276281
0.43588796 0.4884061 -0.07337466 0.4500895 0.44330594 0.3524185 0.5852576 0.41251695
-0.2479941 -0.085430264 0.41755998 0.43031573 0.40008307 0.3003599 -0.107329935 0.5261501
-0.18215697 -0.08078265 -0.16296294 -0.08676495 0.38776976 -0.10228262 -0.115418755 0.42252484
0.48941636 0.3948078 0.4486305 0.38402176 0.38861924 0.3331967 0.37496957 -0.06954835
00000000: 5977 c03e d171 2ebe acda c43e e1b0 e2bd
00000010: b65c b33e c73c 84bd e28d c73e 697b ca3e
00000020: 8d1f 0cbe fe61 3ebe 0fa6 85be 9663 dd3e
00000030: 883b 4fbe e18f e4bd 30b6 b5bd 9910 cdbd
00000040: 87e8 acbd ae05 9bbd ed8e c53e d5e8 c6bd
00000050: 601a d73e ed8a ca3e f2fb 87bd 3087 a6bd
00000060: db07 e43e 30ed c53e 6776 d03e ee36 d03e
00000070: c05f bfbd 0c20 db3e 6ea8 d33e 48a4 c73e
00000080: b5cf c2bd 45d2 7abe 5f1d 99bd d56c cb3e
00000090: 2763 de3e e2c9 acbd fc9f 99bd fc1c d8bd
000000a0: 99dd f23e 7c8d ce3e 94b4 eb3e c032 e73e
000000b0: c5c9 d03e bf37 45be ff9e f63e c89e ed3e
000000c0: 60b6 a3bd aa76 c1bd 3ee2 f23e 6635 043f
000000d0: 5580 a2bd 8924 cebd 2e73 cf3e 6174 e13e
000000e0: d640 c33e 8b15 e23e b7f0 d33e a4ae 073f
000000f0: eb3a 20be 915b d33e e567 dc3e 4cd6 063f
00000100: 327e e13e 07d0 e43e ba88 c0bd f0f1 f13e
00000110: 959a fc3e ffee f43e b6ea 86bd 6ee5 cc3e
00000120: 3401 9abd b655 ca3e c0c5 b2bd 5efc 3fbe
00000130: bea4 a5bd e5e7 e53e 359f 6cbd a422 ca3e
00000140: c73c e03e 3daf 94bd 966a f0bd bd5d aebd
00000150: 87d4 67be ceb8 3bbe 0adc d23e f3f1 ecbd
00000160: 9bce d63e d995 c63e 3104 c6bd fc63 80bd
00000170: 2b5e e4bd 1a9a 6bbe 7634 d63e 4f75 d2bd
00000180: b52c df3e 5d10 fa3e 7445 96bd 2272 e63e
00000190: fff8 e23e 3370 b43e 71d3 153f 6c35 d33e
000001a0: 2af2 7dbe 10f6 aebd 6cca d53e 5852 dc3e
000001b0: b0d7 cc3e c6c8 993e cccf dbbd c6b1 063f
000001c0: 5b87 3abe 6071 a5bd c2df 26be d2b1 b1bd
000001d0: c289 c63e 8d79 d1bd ab60 ecbd 2d55 d83e
000001e0: c894 fa3e 3f24 ca3e e6b2 e53e 809e c43e
000001f0: 1af9 c63e c298 aa3e 03fc bf3e 5e6f 8ebd
