models/epoch_80/generator.pth (torch, 485191 bytes, 20 tensors)

network.0.weight f4 [128, 100]
000000 26 76 bd bd 96 80 16 3d c2 94 78 3d 26 ed 40 bd
       -0.09251051 0.036743723 0.06068874 -0.047101162
000010 a6 15 95 bb c6 71 21 3d 7d cc 8c bd 2c 1f 94 bd
       -0.0045497 0.039415143 -0.068749405 -0.07232508
000020 16 c8 4b bd ac 97 a1 3c 88 a0 a6 bc 04 98 0a bd
       -0.049751364 0.019725643 -0.02034022 -0.03383638
000030 98 01 8c bd 1a 20 6f 3c 81 76 00 bd c7 af c6 bc
       -0.068362415 0.014595056 -0.031363014 -0.024253739
000040 07 48 c4 bd dc 76 7d bd 73 e0 46 3d a8 0b 46 bd
       -0.095840506 -0.06188093 0.048553895 -0.04835096
000050 26 ba 68 bd 65 45 19 bd 92 75 96 bb 2e d1 6a bd
       -0.05681815 -0.037419695 -0.004591652 -0.057328396
000060 42 ce 77 3d a0 c8 a4 bb 7b e5 9b bd 94 c1 a5 bd
       0.060499437 -0.005028799 -0.07612129 -0.08093563
000070 d5 bf d4 bc ac 99 aa bd 6d d9 dd bd c8 8d 9f bc
       -0.025970379 -0.08330092 -0.10832486 -0.019476786
000080 cf 2b 6c bc 5e 40 d5 3d 83 e9 c6 bc 8d fc 51 bd
       -0.014414742 0.10412668 -0.024281269 -0.05126624
000090 96 62 3f bd 3e 0a f6 b9 99 f8 3d bd 98 39 c8 bd
       -0.04672488 -0.00046928407 -0.04637966 -0.0977661
0000a0 94 7f 23 3d 66 5d 62 3d fa 97 db bd 14 1e d9 bc
       0.03991659 0.055264853 -0.107223466 -0.0265036
0000b0 b0 21 b8 3c 82 df 96 3d 52 3b 1c 3d 1c 6f ea b8
       0.022477001 0.073668495 0.03814251 -0.00011178685
0000c0 9f 5c 50 bd f5 92 e6 3d 7b 16 ad 3c 51 71 35 3c
       -0.05086958 0.112584986 0.021128884 0.01107438
0000d0 b5 5a 0d bd 0a 04 eb bd 54 1f 5c bd bf 6a 19 3d
       -0.034510333 -0.1147538 -0.053740814 0.037455317
0000e0 8a 7b 22 bc 91 5a 90 3d 17 ce f7 bd 96 7a e1 3d
       -0.009917149 0.07048524 -0.120998554 0.110097095
0000f0 b5 64 da bc ce 8c 11 bd 1e 23 c7 bc bc c5 0e bd
       -0.026659349 -0.035534672 -0.024308737 -0.034856543
000100 4d 53 83 bd df 10 85 3d 35 f3 c7 3d 18 06 90 3d
       -0.06412373 0.064973585 0.09763185 0.07032412
000110 9c e2 91 bc 10 b8 af 3d e3 c6 1f be 31 bd 9a bc
       -0.017808251 0.08580029 -0.15603213 -0.018889042
000120 d6 7b 53 3d 90 f7 73 bd 7c 3a 1b 3b 3e dc 06 3e
       0.05163177 -0.059562266 0.0023685982 0.13169953
000130 07 75 87 bd 65 12 85 3c 12 f9 3b 3d 3b a2 82 3d
       -0.06614118 0.016244123 0.04589183 0.06378599
000140 ac 72 99 bc 24 f4 0c 3e 48 7a 20 bd ac 54 5a 3c
       -0.018731438 0.13765007 -0.039179116 0.013325851
000150 c3 b5 b2 bd e3 a8 9a 3d 79 d2 d3 3a 92 cd d6 3d
       -0.087260745 0.07551744 0.0016160748 0.10488428
000160 30 e3 eb 3c cf 0e 06 3c c1 6d b7 bd c5 19 b0 3d
       0.028794855 0.008182242 -0.08956481 0.08598665
000170 b0 3c 37 bd 03 a1 ad bc 38 de 46 3d a7 74 c3 bc
       -0.04473561 -0.02119494 0.048551768 -0.023859335
000180 ab 6d 91 3c dc 6b e7 bd 77 a8 5f 3d e6 b7 a6 3d
       0.01775249 -0.112998694 0.05460402 0.081405446
000190 95 ab 7d 3d 1e 36 ed bc 1d fc 1b bd cf 25 91 bc
       0.06193121 -0.02895647 -0.03808223 -0.017718224
0001a0 5c c5 4c 3c 68 49 2f bd 64 e8 f1 3c 3e 3e ca bd
       0.012498226 -0.042794615 0.029529758 -0.09875153
0001b0 70 06 34 3d e7 d1 17 3b 0f c5 0f 3e 8d 9f dd bd
       0.04395145 0.0023165883 0.14040016 -0.108214475
0001c0 82 bd ea 3c 21 b4 b3 3d f1 ee 04 bd 9e fc c2 bb
       0.028654817 0.08774591 -0.032454435 -0.0059505245
0001d0 ee 62 94 bd 4a 53 62 3d 1e 09 c3 bb 1b 23 33 bc
       -0.07245432 0.055255212 -0.0059520146 -0.010933663
0001e0 35 ef 2d bd f5 5b 72 bd 4a fa 73 bd 50 d0 75 bd
       -0.042464454 -0.05916973 -0.059564866 -0.060013115
0001f0 7d e4 3a 3d ff 14 87 3c 6c 75 0e bd 1f aa 9a 3c
       0.04562806 0.016489504 -0.03477995 0.018879948
000200 8b 48 c6 3d d9 37 c1 3d 24 4a a0 3d b1 54 cf bd
       0.09681805 0.0943448 0.07826641 -0.101235755
000210 78 2f b7 3d 8e 1d 45 3d 14 2b ee bb 73 bc 8b 3d
       0.08944601 0.04812389 -0.007268319 0.06823053
000220 c3 57 98 bd fe 70 37 3a fd cb a0 3d 88 d7 dc bc
       -0.07438614 0.0006997733 0.07851408 -0.026958242
000230 1b 8c 0f 3d 90 a0 a6 bd 55 49 10 bc c4 a5 0a bd
       0.035045724 -0.081360936 -0.008806546 -0.033849493
000240 a8 3b a1 3d 2a 9f dc bd 0a c3 b2 ba 6c 8e c8 bd
       0.07872707 -0.10772546 -0.0013638448 -0.0979279
000250 ce e1 bb 3d 9f 7d b7 3d b3 53 ca 3d 29 81 64 bc
       0.09173928 0.08959507 0.098792456 -0.01394681
000260 c1 2a 9f 3d fd e1 06 bd f4 bf 94 3d 96 da 64 3d
       0.077718265 -0.032930363 0.07263175 0.055872522
000270 a2 d2 9f bd df 73 f1 3d 51 ce 94 bc 5b 64 8c 3d
       -0.07803847 0.11789679 -0.018164786 0.06855079
000280 90 aa 35 bd 1e b2 3b bb 43 65 cd bd 7c 7e a8 bc
       -0.044352114 -0.0028640102 -0.1002908 -0.020568125
000290 3d 04 2d 3c c1 48 a0 bd 92 05 e0 3c 5c db f9 bc
       0.0105600925 -0.07826377 0.027346406 -0.030500107
0002a0 70 40 2a 3d e3 d8 db 3c 6c bc df 3d 77 f8 02 be
       0.04156536 0.026836818 0.109246105 -0.12790094
0002b0 55 ab 1a bd 01 ed 51 3d db c2 36 bc 77 7d b8 3d
       -0.03776105 0.051251415 -0.011154856 0.090083055
0002c0 f8 96 14 3d 87 b6 a2 bd 47 f8 42 3d 4c 74 81 bc
       0.036276788 -0.079449706 0.047600057 -0.015802525
0002d0 20 7d 70 3d 7c 77 c6 3c 77 84 c5 3d c0 fe 37 bc
       0.05871308 0.024226896 0.09644406 -0.011230171
0002e0 e1 ee 44 bd c9 0f c7 bd 31 bf 34 bc 91 9d 77 3d
       -0.048079375 -0.09719808 -0.011031912 0.060453
0002f0 12 81 ae bd 56 db c2 bd 72 39 31 bd 93 8c 6e 3d
       -0.08520712 -0.09514491 -0.043267675 0.05823953
000300 be 04 a5 bd 96 5a af 3d 48 ce da bd ab 10 11 bd
       -0.08057545 0.085622 -0.10683876 -0.035416286
000310 c1 09 25 3c 87 58 df 3d c7 07 e4 3c 0f 83 d4 bc
       0.010073126 0.10905557 0.02783574 -0.0259414
000320 d9 ed 40 ba 95 fa 42 3d b7 36 2d bc 98 f2 a6 bd
       -0.0007359661 0.047602255 -0.010572127 -0.0815174
000330 6d fa f3 bc 42 cb 25 bc e2 7d 47 3d a8 b9 6c 3d
       -0.029782498 -0.010119261 0.048704036 0.057794243
000340 49 6c 98 bd 59 56 31 bb 9f 71 d1 bc f8 2d 72 3c
       -0.07442529 -0.0027059524 -0.025566874 0.014781468
000350 5a d8 ba 3d fb d8 d2 3d 17 49 28 bb cb 67 f6 3c
       0.09123297 0.10295292 -0.002567833 0.03007879
000360 57 5e d3 3b 63 02 17 be 90 26 db 3b 86 15 97 bc
       0.006450455 -0.14747004 0.0066879466 -0.01844288
000370 0a 15 b7 bd 20 77 1d 3d 6e 25 c7 bd ff 07 9f 3d
       -0.0893956 0.038443685 -0.09723936 0.07765197
000380 18 40 ce 3d 02 ad 97 bd 0e 7f 2a be 3b 17 b9 bd
       0.10070819 -0.074060455 -0.1665003 -0.09037634
000390 09 d3 9f 3d ac d0 a5 3b 91 ad 5f 3d c0 2f 5a bd
       0.07803924 0.005060276 0.054608885 -0.053268194
0003a0 8f 1c cc 3c 5d fe c5 bc d1 c1 e9 bd 09 da 22 3d
       0.024915962 -0.024169141 -0.11413921 0.039758716
0003b0 cf 6c 1c 3d 9a cb e0 bd 80 3f 9c bd 1b 82 47 3d
       0.038189705 -0.10976334 -0.07629299 0.048708063
0003c0 3d 5b 4e 3d cf 43 39 bd 68 7c b3 bc 1a 11 be bd
       0.05037998 -0.045230683 -0.021909907 -0.092806056
0003d0 7f 50 89 3c a5 b2 86 bd 6c 94 d2 bd 4d e3 c2 3d
       0.016762016 -0.065770425 -0.102822155 0.095160104
0003e0 16 ab 70 3d f9 6c 2c 3c 40 92 b0 bc ed 5d 85 bd
       0.05875691 0.010524028 -0.021554112 -0.065120555
0003f0 26 21 36 bd 58 03 2b bc d4 aa 9c 3d 33 77 04 3e
       -0.044465207 -0.010437809 0.076497704 0.12936096

network.0.bias f4 [128]
000000 25 46 c5 bd fb a7 ca 3d 91 a4 3f 3d 59 a6 05 bc
       -0.0963252 0.09895321 0.046787802 -0.008157336
000010 d3 01 77 3d 2f e2 ed 3c b7 04 be 3d 61 53 f3 3d
       0.060304474 0.029038517 0.09278243 0.11881138
000020 0c 91 cf 3c dc a3 41 3a da 71 af bd 87 37 d1 bb
       0.025337718 0.00073867827 -0.08566637 -0.006384793
000030 72 82 48 3d 30 3a d3 3d aa b9 47 3d 51 af aa 3d
       0.048952527 0.10313833 0.048761047 0.0833422
000040 48 35 9f bd e9 02 48 bc 10 df b1 bc d1 f6 36 3d
       -0.077738345 -0.012207725 -0.02171281 0.044668976
000050 e3 cb 3b bc a7 b5 3d bd 84 03 fb 3c d2 07 17 be
       -0.011462185 -0.046315815 0.030641325 -0.14749077
000060 10 c1 11 3d 10 73 40 bd 41 53 52 bd d8 fe 6d bd
       0.03558451 -0.046984732 -0.05134893 -0.058104366
000070 45 bf 92 bc c0 b5 c6 bd 4b 69 b9 3b bc 69 9e bd
       -0.01791347 -0.09702635 0.005658304 -0.07735011
000080 bb d9 74 bd b1 7a 9b 3d 96 79 82 3d 2a 61 f0 3d
       -0.059777956 0.07591761 0.06370847 0.117372826
000090 10 d4 40 bc c9 60 ab bd 3f f8 04 3e 46 eb af bd
       -0.01176931 -0.0836807 0.12985323 -0.08589797
0000a0 92 55 e3 bc d8 e1 cb bc c5 23 bc bd 3b 7a ca 3b
       -0.027750764 -0.024887964 -0.0918651 0.006179122
0000b0 09 79 9e bb 16 e1 ba bb 1f 56 56 3d 6b 12 c8 bc
       -0.004836206 -0.005703102 0.052328225 -0.024422845
0000c0 55 7c a4 bd 08 a4 f3 3c 37 3c ab 3d 74 8f e5 3d
       -0.08031527 0.029741302 0.083610944 0.11209002
0000d0 5b a9 4e 3d cb 57 fb bd 37 11 a9 3d 7c 2d 25 3c
       0.05045448 -0.122726046 0.082552366 0.010081645
0000e0 87 96 b0 bb 0a a0 c8 bc f4 7b a5 3b 21 dd 02 3d
       -0.005389038 -0.024490375 0.0050501768 0.031949166
0000f0 22 b6 c9 3d 90 61 6f bd 6b e8 79 3d 90 74 db bd
       0.09849192 -0.058442652 0.061012667 -0.10715592
000100 c4 e9 a1 bc f7 42 bd bd be 9d 34 bd 1e aa 26 bc
       -0.019764788 -0.09241288 -0.044095747 -0.010172395
000110 69 5c c7 bd cf cc bd 3c 60 e9 ad 3d a8 93 26 bd
       -0.09734423 0.02316895 0.084917784 -0.04066816
000120 84 08 73 3d 01 9b 74 bd 5a 21 91 3d ee d8 30 bd
       0.059334293 -0.059718136 0.070864394 -0.04317563
000130 2d aa b8 3c 0a e8 55 bd f7 99 dd bd ed bc 96 bd
       0.022542084 -0.052223243 -0.10820382 -0.073602535
000140 92 d0 80 bd f8 b3 b7 3d 10 2e 09 3b 3b f6 1c bd
       -0.06289782 0.08969873 0.0020931996 -0.03832076
000150 d1 5d 57 3d 47 34 10 3c 8e 06 d3 3d fb 21 04 bc
       0.052579705 0.008801526 0.103039846 -0.008064742
000160 34 99 01 ba 1c 32 05 bd 7b 60 38 bd 6d b0 53 3d
       -0.00049437885 -0.03251849 -0.045013886 0.051681925
000170 ba 08 6f 3d 55 45 54 bd ec 27 98 bd 9f 73 3a bc
       0.05835793 -0.051823933 -0.074294895 -0.011380105
000180 db cf ad bc c9 64 38 3b c6 2f 82 bd 58 30 8d 3d
       -0.021217277 0.0028136245 -0.06356768 0.068939865
000190 ae e7 5e bb 5e ab 22 bd 2b 3e 47 bd 50 c0 92 bd
       -0.0034012604 -0.03971421 -0.048643272 -0.07165587
0001a0 a6 bf a2 bc 3f 3e 68 3d 64 c5 a6 bd f8 be 8d bd
       -0.019866776 0.056699988 -0.08143118 -0.0692119
0001b0 7f 0d 11 bd bf 68 05 be 61 c1 c5 3b 1a c4 23 b8
       -0.03541326 -0.13028239 0.0060350155 -3.9044862e-05
0001c0 74 ab 7b bd 48 e2 d1 bd 93 b7 6c bd 04 9d 93 3d
       -0.061442807 -0.10248238 -0.057792258 0.07207683
0001d0 96 71 4c bd d3 8f 43 3d c9 90 8a 3d c7 33 04 3c
       -0.04991301 0.047744583 0.06765897 0.008068985
0001e0 22 86 16 3d 50 52 b7 bd 45 7f b9 bd fd f2 62 3c
       0.036749013 -0.08951247 -0.09057478 0.013851878
0001f0 57 f9 03 3e 8a 62 f8 3d e9 49 47 3b 33 a5 2b bc
       0.12888084 0.1212817 0.0030409044 -0.010476398

network.2.weight f4 [128]
000000 43 56 7d 3f 5a e4 81 3f 8f d6 74 3f 4b f0 80 3f
       0.9895975 1.0147812 0.9563989 1.0073332
000010 e1 46 6d 3f 59 c9 85 3f d7 01 85 3f 05 e0 84 3f
       0.9268628 1.0452071 1.0391186 1.0380865
000020 ea a5 77 3f 5a f6 7d 3f d5 4c 73 3f 88 39 7b 3f
       0.9673754 0.9920403 0.9503911 0.9813466
000030 a8 46 77 3f 9c 0b 80 3f 89 67 7d 3f 93 af 7f 3f
       0.9659219 1.0003543 0.9898611 0.9987728
000040 ab bf 7e 3f fb 0a 81 3f 9d 02 7a 3f 49 c8 86 3f
       0.9951121 1.0081476 0.9766024 1.0529872
000050 34 46 7f 3f 9d dd 76 3f 5e 5c 70 3f 26 e0 79 3f
       0.99716496 0.96431905 0.9389094 0.9760765
000060 6a 66 7f 3f 5b 54 80 3f b3 df 7c 3f 89 f5 73 3f
       0.99765646 1.0025743 0.9877884 0.9529653
000070 12 78 77 3f 83 46 85 3f 97 7d 81 3f e6 43 6b 3f
       0.9666759 1.0412143 1.0116452 0.9190048
000080 45 51 7b 3f 7e c4 7e 3f 54 91 85 3f c7 1d 84 3f
       0.9817088 0.99518573 1.0434976 1.0321587
000090 db d0 7f 3f 81 7e 85 3f 85 e9 6f 3f af e2 7e 3f
       0.99928063 1.0429231 0.937157 0.9956464
0000a0 0b 6b 80 3f 60 2a 7a 3f 61 fb 78 3f 1c a0 75 3f
       1.0032667 0.9772091 0.97258574 0.9594743
0000b0 75 b6 82 3f 57 25 75 3f 05 72 94 3f 9d 6c 81 3f
       1.0211931 0.957601 1.1597296 1.0111271
0000c0 38 b8 79 3f 20 83 80 3f 06 91 7d 3f 05 0b 81 3f
       0.9754672 1.0040016 0.99049413 1.0081488
0000d0 18 23 84 3f 84 16 7a 3f 9e 7f 7d 3f 71 ef 86 3f
       1.032321 0.97690606 0.99022853 1.0541822
0000e0 bf 6d 80 3f 00 72 82 3f ba b5 83 3f 6e 18 7d 3f
       1.0033492 1.019104 1.0289834 0.988654
0000f0 45 2b 82 3f 72 58 74 3f 07 8b 87 3f f8 0f 69 3f
       1.0169455 0.95447457 1.0589303 0.9103999
000100 27 ad 79 3f 70 be 86 3f 65 8a 78 3f 98 58 7b 3f
       0.97529835 1.0526867 0.97086173 0.9818206
000110 8b d2 7f 3f ef 78 78 3f 4c b4 7d 3f be 09 80 3f
       0.9993064 0.9705953 0.99103236 1.0002973
000120 5c 12 85 3f a7 d3 75 3f 1b 60 6e 3f 7d 5c 71 3f
       1.0396228 0.9602608 0.93115395 0.9428175
000130 f6 04 72 3f 51 1a 84 3f 6b f5 7a 3f 6d a5 84 3f
       0.9453882 1.0320531 0.9803073 1.0362984
000140 22 fb 70 3f 0b 03 7f 3f 55 d2 79 3f e5 e1 7c 3f
       0.941332 0.9961402 0.97586566 0.9878219
000150 38 1a 82 3f c5 9d 82 3f fd 25 7c 3f e7 cc 78 3f
       1.0164251 1.0204397 0.98495466 0.97187656
000160 a3 0b 7a 3f 33 0f 8b 3f 0b 39 76 3f ba bf 81 3f
       0.97674006 1.0864013 0.9618079 1.0136635
000170 8b 19 81 3f d9 a9 7a 3f c4 5b 75 3f dc 31 7e 3f
       1.008592 0.97915417 0.9584315 0.9929483
000180 4c e0 73 3f 28 c8 8e 3f 2a ad 84 3f a1 2f 76 3f
       0.95264125 1.1154833 1.0365345 0.96166426
000190 9f bf 83 3f 80 02 8d 3f f2 4f 75 3f 1a b7 7a 3f
       1.0292853 1.1016388 0.9582511 0.9793564
0001a0 7e 20 6b 3f ac 6a 84 3f 0f c7 6d 3f f2 25 86 3f
       0.91846454 1.0345054 0.92881864 1.048033
0001b0 80 ea 87 3f 0d e5 87 3f 5d 10 7e 3f e5 b3 7f 3f
       1.0618439 1.0616776 0.9924372 0.9988387
0001c0 f5 7d 72 3f 36 fc 78 3f de 55 86 3f 06 68 84 3f
       0.94723445 0.97259843 1.0494955 1.0344245
0001d0 77 78 7d 3f 9f f9 70 3f b9 44 77 3f 91 b8 82 3f
       0.9901194 0.9413089 0.9658924 1.0212575
0001e0 8c 1b 80 3f d4 d4 76 3f 84 1c 81 3f fc 16 8a 3f
       1.0008407 0.964185 1.0086827 1.0788264
0001f0 13 96 82 3f 7f b0 76 3f f4 7f 82 3f 7f e2 81 3f
       1.0202049 0.9636306 1.0195298 1.0147246

network.2.bias f4 [128]
000000 99 ae aa bc 88 d7 5e 3d 3c 67 81 bd 0c 6a c5 bd
       -0.020835208 0.054404765 -0.063185185 -0.096393675
000010 2d fc 94 bc 30 4a 78 be 80 45 10 be 19 78 1a 3e
       -0.018186653 -0.2424705 -0.14089012 0.15084876
000020 f8 f4 dc 3d 49 bf cb bd 43 d0 d7 bc 21 2d 74 bd
       0.107889116 -0.09948594 -0.026344424 -0.05961335
000030 8b f9 65 bc cd d9 1b 3e 13 18 cd 3d 15 88 36 bd
       -0.014036546 0.15219803 0.100143574 -0.04456337
000040 af f0 5a bd 2b fc df 3c ea 4d 2e 3e 74 ab 6f be
       -0.05345219 0.027341923 0.1702191 -0.23405248
000050 53 b6 f8 bd 5d 12 80 bd 29 91 dc bd b5 b9 8f bd
       -0.121441506 -0.062535025 -0.107698746 -0.07017843
000060 96 e3 d0 3d 7f b4 6b bd 92 fd a4 3b 49 93 60 bc
       0.101996586 -0.05754518 0.0050351107 -0.0137069905
000070 df f3 83 bd 14 21 bc bd 75 ad 1d be b7 ff 4f 3d
       -0.06442999 -0.09185997 -0.153982 0.050780978
000080 a1 9e 9b bd f3 d2 85 bd 2b e6 b2 3d ff e4 09 3c
       -0.075986154 -0.06534376 0.08735307 0.008416413
000090 65 b7 51 3e 37 41 e8 bd b8 8b cc 3c cb 7c 4a 3b
       0.20480116 -0.11340564 0.024968967 0.0030897136
0000a0 f5 fe 5d be 7d 3c ae 3d 53 26 1c be 4e 2a fe bc
       -0.2167929 0.08507631 -0.15248995 -0.031026032
0000b0 dc 8f 58 bd 90 c3 e6 bd 90 a6 b6 3e 8d d7 14 be
       -0.05287157 -0.11267769 0.35673952 -0.14535351
0000c0 0c d5 27 be 97 a2 b7 bc 76 be 0d be 36 4a a8 bd
       -0.16389865 -0.022416396 -0.13842186 -0.082172796
0000d0 27 c4 1e be 73 26 11 be 74 5d 1e bd fe a5 38 3e
       -0.15504514 -0.14174823 -0.038663343 0.18032071
0000e0 9e 22 ef bd 91 0d 12 be e0 09 12 3d 1f b5 ca bd
       -0.116765246 -0.14262988 0.03565395 -0.09897827
0000f0 02 2f bc 3d d2 90 02 bd 93 c2 1d 3e 2e 26 49 3d
       0.091886535 -0.031876393 0.15406255 0.049108677
000100 0b f1 84 3d cf 20 3a be 3b dc 3f 3d cd 0b 52 be
       0.06491288 -0.18176578 0.046840888 -0.20512314
000110 10 a4 98 bd a7 5e 93 bc 32 62 42 3e de b8 70 3e
       -0.074531674 -0.01798947 0.18982771 0.23508021
000120 b9 ab e7 bd 5f e3 fd 3d 74 ef 6e 3d fd 02 75 3c
       -0.1131205 0.12396883 0.05833383 0.014954326
000130 af 3c 08 be 89 67 fe bd df 19 56 3d bb 76 27 be
       -0.13304399 -0.124220915 0.052270766 -0.16353886
000140 7a 97 15 be 93 89 24 3c b8 50 04 3e 4a 77 fa 3d
       -0.14608565 0.010042566 0.12921417 0.12229784
000150 c3 38 0d be bf 64 2b bc 49 f3 e3 3c b3 4e 5d bd
       -0.13791184 -0.010461031 0.027825968 -0.05403013
000160 00 83 05 bc 7c 12 b1 bd f4 e5 f4 bd fc a1 c1 bd
       -0.008148909 -0.08646104 -0.119579226 -0.09454724
000170 dc 0b 4f 3e dc 4a 8e bd 97 a0 f0 3d 1a 98 d5 ba
       0.20219368 -0.06947872 0.1174938 -0.001629594
000180 e9 3d bf bc fa c2 fd 3d d5 fb ca bd 07 3c 29 be
       -0.02334495 0.123907045 -0.099113144 -0.16526805
000190 d8 93 54 be 3f 1a 74 be 0f da 86 bd d4 33 0b be
       -0.20759523 -0.23838137 -0.0658456 -0.1359399
0001a0 43 20 0d 3e 3b 42 82 3e 24 d5 22 3d 75 28 3e be
       0.13781838 0.25441155 0.039754048 -0.1857012
0001b0 cc e7 3b be 0a 09 d7 bd 1f 1e 9f 3d 76 bd e4 3d
       -0.18350142 -0.10499771 0.07769417 0.11168949
0001c0 a1 b8 d5 3c 86 ec 12 be 56 a3 e8 bd 6c 17 f8 bd
       0.026089014 -0.14348039 -0.11359279 -0.12113842
0001d0 50 fd d4 3a 0e 05 08 bd 02 96 1c 3b 00 fb a4 bd
       0.0016249809 -0.033207946 0.0023893123 -0.08055687
0001e0 14 1a fc bd d0 69 08 3e 31 82 ed bd c5 43 1f be
       -0.123096615 0.13321614 -0.11597098 -0.15553196
0001f0 73 89 58 3e ce 80 b5 bd bc f0 13 be 99 a7 da bd
       0.21146183 -0.08862458 -0.14447302 -0.10676498

network.2.running_mean f4 [128]
000000 05 1f 1a 3e 9d 2f 8c 3e 42 48 7a 3e b0 00 6f 3e
       0.15050896 0.27380076 0.24441627 0.23340106
000010 35 d3 80 3e 8f c4 5d 3e 4a 69 7f 3e 0b f0 8f 3e
       0.25161138 0.21657012 0.24942508 0.28112826
000020 79 48 55 3e d3 27 3d 3e 03 c2 21 3e 36 47 3e 3e
       0.20828427 0.18472223 0.15796666 0.18581852
000030 27 3d 69 3e f2 e6 89 3e 9c b0 80 3e 14 7e 83 3e
       0.22777234 0.2693401 0.25134742 0.25682127
000040 6b e7 30 3e c7 90 44 3e 76 36 62 3e 20 01 6b 3e
       0.17275779 0.19195853 0.22091088 0.22949648
000050 09 08 59 3e 70 d3 35 3e 41 66 6a 3e 17 6e 05 3e
       0.21194471 0.17756438 0.2289057 0.13030277
000060 ad 9c 76 3e de 3f 48 3e 6c a7 36 3e 26 f9 17 3e
       0.24083205 0.19555613 0.17837304 0.14841136
000070 72 3b 47 3e e5 bc fc 3d ef f3 48 3e ad c4 26 3e
       0.1945627 0.12340716 0.19624303 0.16285963
000080 5f 1f 2d 3e 82 75 8c 3e 32 15 65 3e af 3a 8f 3e
       0.16906498 0.274334 0.22371367 0.2797446
000090 dd d8 41 3e 24 85 1b 3e b8 61 86 3e db 5e 19 3e
       0.18930383 0.15187508 0.26246428 0.1497759
0000a0 7b 6f 31 3e 0a b7 3a 3e 3a ea 1b 3e 46 94 43 3e
       0.17327683 0.18233886 0.15226069 0.1909953
0000b0 cd be 4b 3e da 1e 3b 3e 01 06 72 3e e4 76 54 3e
       0.19897003 0.18273488 0.23635103 0.20748478
0000c0 ef ed 10 3e 4f 23 56 3e ff 09 73 3e fd 63 a1 3e
       0.14153264 0.20911907 0.23734282 0.31521598
0000d0 59 7b 60 3e b3 db 05 3e 2b ad 81 3e b9 00 5d 3e
       0.21922053 0.1307209 0.2532743 0.21582307
0000e0 4e 7a 41 3e bb ff 52 3e e1 5a 3b 3e 0c fd 45 3e
       0.18894312 0.20605366 0.18296386 0.19334811
0000f0 4d 49 78 3e 59 b2 21 3e c3 e6 65 3e e4 1e 15 3e
       0.24246712 0.1579069 0.2245131 0.14562565
000100 8c d9 3b 3e 96 48 13 3e 20 2d 28 3e 77 34 36 3e
       0.18344706 0.14383158 0.16423464 0.17793451
000110 8a 2d 05 3e c9 8f 72 3e 19 77 8c 3e ad 43 2f 3e
       0.13005653 0.23687662 0.27434614 0.1711566
000120 12 8d 74 3e 34 0c 11 3e fa ef 7a 3e 3b 0d 41 3e
       0.23881939 0.14164811 0.24505606 0.18852703
000130 a7 30 56 3e 50 4f 1d 3e e0 21 e5 3d 8b 0d 16 3e
       0.20916997 0.15362287 0.11188102 0.14653604
000140 91 ed 23 3e c2 88 86 3e 93 f4 51 3e e1 5a 1a 3e
       0.16008593 0.26276213 0.20503454 0.1507373
000150 b3 0b 7e 3e 1b 81 3f 3e da e7 88 3e d7 bf 58 3e
       0.2480915 0.18701594 0.2673939 0.21166931
000160 a4 45 6a 3e f7 cd 23 3e 69 24 28 3e 31 52 49 3e
       0.22878128 0.15996538 0.1642014 0.1966026
000170 f1 eb 4e 3e c0 36 34 3e 76 39 2a 3e 2d 88 43 3e
       0.20207192 0.1759901 0.16623482 0.19094916
000180 da b4 3c 3e 0d de 59 3e 9d eb 1f 3e c5 04 81 3e
       0.18428364 0.21276112 0.15617223 0.2519895
000190 15 5e 4a 3e 75 65 3f 3e dc 79 21 3e d8 3d 28 3e
       0.19762452 0.18691047 0.15769142 0.16429842
0001a0 0f a6 39 3e 56 70 61 3e 91 6e 1e 3e 01 71 25 3e
       0.18129753 0.22015509 0.15471865 0.16156389
0001b0 6a 4b 1c 3e c4 9a cc 3d d9 4e 45 3e 02 a0 44 3e
       0.15263143 0.09990457 0.19268359 0.19201663
0001c0 72 3e 23 3e 72 a1 1d 3e 74 01 35 3e 2c fe 96 3e
       0.1594179 0.15393618 0.17676336 0.29490793
0001d0 33 29 1c 3e b6 7e 6d 3e 43 40 84 3e de 81 5b 3e
       0.15250091 0.23192868 0.25830278 0.21436259
0001e0 8b 2c 6d 3e 3b cc 42 3e dc b0 2d 3e aa 3b 60 3e
       0.23161523 0.1902322 0.16961998 0.2189776
0001f0 68 b4 86 3e e0 b9 7d 3e 54 ce 4f 3e 8b 1a 37 3e
       0.26309514 0.24777937 0.20293552 0.17881219

network.2.running_var f4 [128]
000000 e8 27 20 3e 56 cd 56 3e bd 65 36 3e 1f de 45 3e
       0.15640223 0.20976767 0.17812248 0.19323014
000010 2d 1e 44 3e 86 8a 42 3e 2c 36 41 3e 64 bf 50 3e
       0.19152136 0.18998155 0.18868321 0.2038551
000020 91 9e 24 3e cd 63 12 3e 77 bd 15 3e 1b 94 24 3e
       0.16076113 0.14295883 0.14623056 0.16072123
000030 c0 3d 36 3e d0 49 41 3e 7e 46 46 3e 01 79 50 3e
       0.17796993 0.18875813 0.19362828 0.2035866
000040 f9 1e 31 3e 67 7c 29 3e 85 15 4a 3e 71 b6 3e 3e
       0.17296971 0.16551362 0.19734772 0.18624283
000050 50 26 46 3e a3 c5 12 3e 41 47 37 3e 49 ee 09 3e
       0.19350553 0.14333205 0.17898275 0.13469805
000060 e4 9c 3e 3e 40 a8 2f 3e 61 95 21 3e 09 cd f4 3d
       0.18614537 0.17154026 0.1577964 0.1195317
000070 37 11 30 3e b7 f1 e0 3d 04 6b 3c 3e 36 8a 0b 3e
       0.17194067 0.109836034 0.18400198 0.13626942
000080 13 28 1a 3e d0 ec 58 3e 45 07 2b 3e e2 2c 51 3e
       0.1505435 0.21184087 0.16701992 0.20427278
000090 02 32 26 3e f6 7e 1b 3e 73 24 40 3e ac cc 06 3e
       0.16230014 0.1518515 0.18763904 0.13164014
0000a0 58 45 12 3e f5 f7 1e 3e 12 08 0a 3e 4f 4e 2a 3e
       0.14284265 0.15524276 0.13479641 0.16631435
0000b0 a6 2c 28 3e b3 9c 25 3e 18 57 21 3e 22 71 21 3e
       0.16423282 0.16173057 0.1575588 0.15765813
0000c0 c4 1a 02 3e 99 31 2d 3e 56 7c 2d 3e dc 7a 62 3e
       0.12705523 0.16913451 0.16941962 0.2211718
0000d0 53 bf 30 3e 73 0f 0e 3e 93 ee 4d 3e 2c 51 28 3e
       0.17260484 0.13873081 0.2011054 0.16437215
0000e0 8a 49 2b 3e 82 5f 40 3e f1 a6 0e 3e 12 0a 0f 3e
       0.16727272 0.18786433 0.1393087 0.13968685
0000f0 9b f3 40 3e ae a4 09 3e 7e f9 1d 3e 4e c6 17 3e
       0.18842928 0.13441727 0.15427205 0.14821741
000100 ee ee 19 3e 1b ba 08 3e f3 10 2b 3e fb da 13 3e
       0.1503255 0.13352244 0.16705684 0.14439003
000110 34 76 02 3e 90 4a 4e 3e 89 e4 4e 3e 23 ba 21 3e
       0.12740403 0.20145631 0.20204367 0.15793662
000120 4d bb 3a 3e 6e 09 00 3e 9a 80 43 3e b9 30 27 3e
       0.18235512 0.12503597 0.19092026 0.1632718
000130 b5 db 16 3e 0d 4c 10 3e 27 5a e4 3d 3b 74 0a 3e
       0.14732249 0.14091511 0.11150008 0.13520901
000140 b8 a2 17 3e 83 f7 44 3e 32 d3 36 3e e4 8e 00 3e
       0.14808166 0.19235043 0.17854002 0.12554508
000150 fe 98 3c 3e d4 8d 2b 3e 65 6e 39 3e 19 b4 38 3e
       0.18417737 0.16753322 0.18108518 0.18037452
000160 69 cc 51 3e fe ad 12 3e c6 16 0e 3e d2 9d 0d 3e
       0.20488133 0.14324185 0.13875875 0.13829735
000170 32 6e 20 3e d9 7c 26 3e 85 d7 24 3e d6 c0 38 3e
       0.15667036 0.16258563 0.16097839 0.18042311
000180 89 e7 20 3e 73 61 30 3e 7f b0 17 3e f1 51 44 3e
       0.15713324 0.17224674 0.14813422 0.19171883
000190 14 3f 34 3e db fb 21 3e cc 5b 10 3e 0d a6 20 3e
       0.17602187 0.15818731 0.14097518 0.15688343
0001a0 5f b2 1a 3e 2b ca 28 3e 14 b9 09 3e cd b8 1f 3e
       0.15107106 0.16483371 0.13449508 0.1559784
0001b0 49 5b 17 3e bc e1 00 3e c6 29 32 3e f7 70 26 3e
       0.14780916 0.12586111 0.17398748 0.1625403
0001c0 a3 bf 08 3e 07 cd 0f 3e f5 8d 29 3e d9 96 6a 3e
       0.13354354 0.14043055 0.16558059 0.22909106
0001d0 95 51 0e 3e d8 3f 2c 3e 1e 2d 3d 3e 4a da 34 3e
       0.13898309 0.1682123 0.18474242 0.17661396
0001e0 b9 25 36 3e db 78 46 3e 97 fd 28 3e 69 24 28 3e
       0.17787828 0.1938204 0.16502987 0.1642014
0001f0 18 d9 40 3e b9 fd 38 3e df 22 42 3e 85 87 19 3e
       0.18832815 0.18065538 0.18958615 0.14993103

network.3.weight f4 [256, 128]
000000 35 4d 12 bc ca 5b 9b 3d 8c 66 1b 3b 48 6f 11 3d
       -0.00892954 0.07585867 0.0023712246 0.035506517
000010 e7 83 b3 bd b9 9e 81 3d 61 b9 cf 3d 95 5d 84 bc
       -0.08765393 0.06329102 0.1014278 -0.016157905
000020 cd 80 d2 bc 4e b8 bb 3d c2 c7 4f 3d 2e 09 4e bd
       -0.025696183 0.09166013 0.050727613 -0.050301723
000030 e3 18 73 bc 32 8e 65 bd 09 b3 7a 3d 09 a8 13 3d
       -0.014837476 -0.05604381 0.061205897 0.036048923
000040 fe 96 a4 3d 48 6d 91 3c de f5 05 bd f8 d6 9f 3d
       0.08036612 0.017752305 -0.03270518 0.07804674
000050 56 32 f3 ba 07 74 28 bd 63 42 91 bd 25 97 52 bd
       -0.001855443 -0.041126277 -0.070927404 -0.051413674
000060 ca 06 1b bd a4 f0 18 3d b6 b3 9a bd ad 0c e1 bd
       -0.03784827 0.037338868 -0.075538084 -0.10988746
000070 85 62 a0 3c 42 05 23 bc 16 18 64 3d c1 b1 2a 3d
       0.019578228 -0.009949984 0.055687033 0.041673426
000080 29 65 16 3d d2 ff 75 3d 6d 22 96 bd 4a 48 b9 bd
       0.036717568 0.060058422 -0.07330785 -0.09046991
000090 e7 5b c2 3c 51 15 7e bc 95 02 6d 3c 5d f3 84 bd
       0.023725463 -0.015508012 0.014465948 -0.0649173
0000a0 f6 85 b6 3d 2b f3 94 bc c4 df 2a bc 6f cb af 3c
       0.0891227 -0.018182358 -0.010429326 0.02145931
0000b0 4e e4 9e 3d 74 85 c5 3d 49 96 a0 bd 89 0b dd 3c
       0.077583894 0.09644595 -0.078411646 0.02698304
0000c0 93 f8 8d bd e9 ef 83 bd 30 92 a4 ba 9c 0c 7e 3c
       -0.069321774 -0.064422436 -0.0012555774 0.015505936
0000d0 02 26 27 3d a5 36 e4 3c 1b 29 35 bd 66 87 7a bd
       0.04080773 0.027858088 -0.044228654 -0.061164282
0000e0 44 3c 58 3c 59 80 10 3e b3 98 77 bd f1 47 1d bd
       0.013197962 0.14111461 -0.06044836 -0.038398687
0000f0 0e fc 80 bd d1 6f 7c 3b 2b 0e ec bc 7d 79 0f ba
       -0.062980756 0.0038518796 -0.02881535 -0.000547312
000100 71 f7 38 bd 2c 9d 2e 3d f1 e9 91 bc 85 12 04 3c
       -0.045157854 0.04263036 -0.017811747 0.008061056
000110 36 95 7b 3d b7 a4 5a 3c 0f 89 59 3d 30 6b 11 bd
       0.061421596 0.013344935 0.053109225 -0.035502613
000120 eb de ea bc 8b a2 27 3d 7c 77 05 3d c3 f6 87 bd
       -0.028670749 0.040926497 0.032584652 -0.06638863
000130 9b 1b 5d bc 75 10 fc bb ab 4b be bb 65 2c a2 bb
       -0.013495351 -0.0076923915 -0.00580736 -0.00494914
000140 9d fc 9a bd 5e 1c e8 bc 3d 83 9f 3b ae 2b ce bc
       -0.075677134 -0.028333839 0.0048679397 -0.025167312
000150 7b f9 80 3d fb 62 96 3d 68 e9 b7 bd ac 0a 71 bc
       0.062975846 0.07343098 -0.089800656 -0.014712017
000160 b0 69 9f bc 37 91 ae bd b3 34 6f 3d 59 b9 88 3d
       -0.019459575 -0.08523791 0.058399867 0.06675977
000170 ad 5a 47 bd 2f 94 14 3d 92 f7 37 3d f6 d4 9e 3b
       -0.04867046 0.03627413 0.044913836 0.0048471643
000180 59 f7 3e 3d 09 e9 ee bd 4a e3 0c 3d ba cc 28 3d
       0.046622608 -0.11665542 0.034396447 0.041210867
000190 be db 78 3d c4 3a c7 3d ac 49 2a bc 6b 36 a8 3d
       0.060756437 0.097280055 -0.010393541 0.082135044
0001a0 fd 8e fa bc 38 fd 22 39 31 98 ac bb 18 4d 7d 3d
       -0.03058576 0.00015543855 -0.005267166 0.0618411
0001b0 f9 3b 90 bd b1 03 87 bd 1c 8c f3 bc 5e d6 8e 3d
       -0.07042689 -0.06592501 -0.029729895 0.06974481
0001c0 b2 e8 64 bc 00 49 a5 3c 37 99 dd 3d b9 92 b5 bd
       -0.0139714945 0.02017641 0.10820239 -0.08865876
0001d0 39 c2 31 bd 4a 62 72 bd b7 69 a4 3d 01 89 7e 3c
       -0.043398116 -0.059175767 0.08027976 0.015535594
0001e0 69 d6 dc 3c 7a 19 aa bd b0 14 d8 3d 9e ae c2 bb
       0.026957707 -0.083056405 0.10550821 -0.005941226
0001f0 68 0a 65 3c a4 cb a3 bd 3f f1 d2 bc c1 a3 34 bd
       0.013979532 -0.07997826 -0.0257498 -0.04410148
000200 a1 5a 22 bc 37 69 08 3d 71 c9 a0 3d b4 e2 60 3d
       -0.009909303 0.033303466 0.07850922 0.0549037
000210 fd 72 eb bc e4 49 62 3c a5 59 36 3d ec bc 59 3d
       -0.028741354 0.013811562 0.044519085 0.053158686
000220 9f 72 b2 3d 29 0c df 3d 43 f8 0b bd 41 0a 73 3d
       0.087132685 0.10890991 -0.034172308 0.05933595
000230 cd 89 fb 3d 14 da 4c bd b1 e1 36 3d 1e f1 ad 3d
       0.12282143 -0.050012663 0.04464883 0.08493255
000240 a3 10 cf bb 48 90 08 3d 93 d6 38 bc ba ea 96 bd
       -0.006319122 0.033340722 -0.011281627 -0.07368989
000250 81 33 18 bc 59 85 01 3d e3 c6 da 3b a1 33 ed 3d
       -0.009289623 0.03162131 0.006676541 0.11582113
000260 e0 1c d7 3d ec d6 c5 3d 9f fd cc bd f5 b6 0b 3d
       0.10503554 0.09660134 -0.10009312 0.03411003
000270 f2 88 f2 bd 5c 36 53 bd 1f 8f 67 3d 07 99 02 bc
       -0.118425265 -0.051565513 0.056532975 -0.007971055
000280 1a 58 c4 bc 00 30 5d bc fb 94 58 bd 2d 2b 9e 3d
       -0.023967791 -0.013500214 -0.052876454 0.07723079
000290 aa 7c 2f 3d 30 3f 4d 3d 75 30 2e 3d 97 98 8d 3b
       0.0428435 0.05010909 0.04252668 0.0043211686
0002a0 c2 c4 69 bd e5 74 46 3b 3d b2 8f 3c 38 07 92 3d
       -0.05707241 0.0030282077 0.017541045 0.07130283
0002b0 01 fd 27 3d 79 8a 56 3d a4 73 67 bd d6 5c 7b bc
       0.041012768 0.05237815 -0.056506768 -0.015341958
0002c0 b3 f8 85 bd 14 b6 f1 bd a1 f1 81 bd 73 e9 b6 3c
       -0.06541576 -0.11802307 -0.06344915 0.022328114
0002d0 89 ee a7 3c ae 40 18 3d 95 6a 3c 3d c7 fe 6b bc
       0.020499485 0.03717106 0.046000082 -0.014404005
0002e0 91 e3 81 3d e9 82 46 3d c1 96 a4 3d 75 7c ce 3c
       0.06342233 0.04846469 0.080365665 0.02520583
0002f0 57 30 1d bc 8d c1 10 bc 90 00 c7 3c 5e 69 ab 3d
       -0.009594045 -0.008835209 0.02429226 0.083697066
000300 2e 03 e0 bd 09 cd 82 3c d3 58 f6 bc 76 4a 68 bd
       -0.109381065 0.015966909 -0.030071652 -0.056711636
000310 da 14 7f 3d d5 ba 35 3d 18 0a ed bc 30 29 8e bd
       0.062275745 0.04436763 -0.028935477 -0.0694145
000320 8d 9f af 3d d0 9a c2 3d 96 9e 7f 3d 2e 3e 10 bd
       0.08575354 0.095021844 0.0624071 -0.03521555
000330 92 79 06 3d 89 4b 87 3c 97 b3 fe 3c 1d d2 c3 3d
       0.032830782 0.01651551 0.031091494 0.0956156
000340 f7 8e f4 3c 17 24 10 3d ad b5 2f bd 42 34 9f bd
       0.029853327 0.035190668 -0.04289787 -0.07773639
000350 74 1b 93 ba f9 1c b8 3d c2 1d 76 bd 31 40 10 bd
       -0.0011223392 0.08989901 -0.060086973 -0.035217468
000360 87 f5 0f 3c e5 cc 57 3d 1b 61 18 3d 5b a3 c2 3b
       0.008786566 0.052685637 0.037201982 0.0059398836
000370 01 6f 57 3d a1 20 95 3d c6 9a c2 bd b2 d1 7f ba
       0.052596096 0.07281614 -0.09502177 -0.0009758725
000380 44 d6 e4 bb 7f ed 8b bc 5d 97 db bd 38 7b bf bd
       -0.0069835503 -0.01708102 -0.1072223 -0.09349674
000390 24 3c 5b 3c 9e e8 ba 3d f0 4f ae bd 92 ee 2e bd
       0.013381038 0.091263995 -0.085113406 -0.042707987
0003a0 69 23 89 bd c2 13 99 bb 4d 75 ca bc df 11 dd bd
       -0.06696207 -0.004671545 -0.024714136 -0.10794424
0003b0 a7 6e 81 bc 98 0d 93 3d 2d 8e ea 3c f8 3b da 3d
       -0.015799833 0.07180327 0.028632248 0.106559694
0003c0 70 e2 36 3d ba b0 b9 bd 27 38 9c 3d 0e 2d 3f 3d
       0.04464954 -0.09066911 0.07627898 0.046673827
0003d0 31 a0 d0 bb f7 a0 c6 3d b1 ae 89 bd 1c ff a9 bc
       -0.0063667526 0.0969867 -0.06722773 -0.020751528
0003e0 fe e7 2f bd ed 79 49 bd 6b c0 02 bd 4c 2c 32 bc
       -0.042945854 -0.049188543 -0.031921785 -0.010874819
0003f0 60 5e dd bd 48 8d b5 3c fc d1 84 3d 8d 43 85 bd
       -0.10809016 0.022162095 0.06485364 -0.06507025

network.3.bias f4 [256]
000000 a2 e8 9a bc 69 c4 27 bd 13 c1 30 ba 58 fa be bc
       -0.018909756 -0.040958796 -0.00067426375 -0.023312733
000010 df ef 81 3d dc 52 ba 3c ad 16 01 be d5 a9 3a be
       0.0634458 0.022744589 -0.12606306 -0.18228848
000020 e1 b1 d7 bd db 51 7e bc 35 57 98 3a b8 f8 c9 bc
       -0.105319746 -0.015522446 0.0011622669 -0.024654731
000030 6a 8f 00 3d 11 b1 db bb 09 df 14 3d 69 9e cf 3d
       0.03138677 -0.0067044576 0.036345515 0.10137636
000040 c2 e5 af bc c3 a4 07 3c 76 0b 52 3d 7c 8f e2 bb
       -0.021471862 0.008279028 0.05128046 -0.0069140773
000050 02 ec b1 3d d7 ae c4 bd 7e ee bf bd 8a 0f 6a bc
       0.08687593 -0.096036606 -0.09371661 -0.014285931
000060 bc ca f5 bd dd e7 1a 3d b8 d9 c6 bd 51 4e e8 bb
       -0.12001559 0.03781878 -0.09709495 -0.007089414
000070 fe 8b 3e bb 47 8e f3 bb a5 7e ab 3c 65 50 ce 3d
       -0.002907514 -0.0074327323 0.020934412 0.10073928
000080 c0 8c ab 3d 91 3a 1b bd 13 56 ca bd d1 eb 2f bd
       0.08376455 -0.03789765 -0.098796986 -0.0429495
000090 93 6d 6d 3c 7f 97 0b 3c 84 22 28 bc 71 b9 d3 3c
       0.014491457 0.008520006 -0.010262135 0.025845261
0000a0 7d 5f 49 bd e1 73 a7 3a 8c 53 ba bc 45 ec 97 3c
       -0.04916333 0.0012775623 -0.022744916 0.01854528
0000b0 ea 57 16 be 81 7b 6c bc 5b 04 f4 bd be 17 a8 bd
       -0.14681974 -0.0144337425 -0.11914893 -0.082076535
0000c0 4d 27 dc 3d cd 5a 21 bd f2 db 89 3d 50 02 e8 bd
       0.107496835 -0.039393235 0.06731404 -0.11328566
0000d0 1d bc 0d be 1d e8 7e 3b 2f ed 86 3d d3 14 9a bd
       -0.13841291 0.0038895675 0.06588208 -0.07523503
0000e0 9a e0 14 bd 56 a5 02 be 56 e9 d0 bd a2 af 20 be
       -0.03634701 -0.12758383 -0.10200755 -0.15691999
0000f0 6b 9e 9e bd c5 bf 8a bd f7 86 32 bd 78 c1 1e bc
       -0.077450596 -0.067748584 -0.043585744 -0.009689681
000100 b2 a7 02 bc 70 17 b7 3c a7 ed b4 3d 5a b9 a8 3a
       -0.007974552 0.022350043 0.08834391 0.0012872622
000110 5a 4b 8d bd cc bc 88 3d 93 29 73 bd b3 f7 0d 3d
       -0.06899138 0.06676635 -0.05936582 0.034660053
000120 ba 04 d7 bc e5 54 72 bd a7 10 e0 bd da 6a b5 bd
       -0.026247371 -0.059162993 -0.10940676 -0.08858271
000130 f0 13 48 bd d3 be e7 bc 19 b1 6e bd 39 f9 01 be
       -0.04884714 -0.028289234 -0.058274362 -0.12692727
000140 a0 02 0b 3d fc 92 86 bc 2c 33 bf 3d 7c 32 e6 bd
       0.03393805 -0.01642751 0.09335932 -0.11240098
000150 2c e6 d3 bc 83 8b ff bd 30 0f 1d 3d be 94 ba 3d
       -0.02586659 -0.124777816 0.038344562 0.091104016
000160 69 38 a4 bd 4f 99 19 bb 71 37 8b 3c 15 c9 7b 3c
       -0.08018572 -0.0023437326 0.01699421 0.015367766
000170 df ff f1 3b ef 54 37 3d 99 b0 a6 bd d3 f0 e5 bb
       0.0073852385 0.044758733 -0.08139152 -0.007017234
000180 3a 54 4a 3d 31 4f d9 3d 8f f8 f3 3a 83 7d 32 3d
       0.04939673 0.10610808 0.0018613505 0.04357673
000190 37 20 d3 bc 5f 83 81 3d f9 b4 1e 3d d9 22 8d 3d
       -0.025772197 0.06323885 0.038746808 0.06891412
0001a0 4a bd b7 bd 85 50 15 bd 75 60 88 ba ed 9e 36 3d
       -0.08971651 -0.036453743 -0.0010404723 0.044585157
0001b0 a4 58 ea bc 87 66 ec bd 79 ab a1 3d 8b 4b 0b 3d
       -0.02860672 -0.11542993 0.07894034 0.03400759
0001c0 6c 3b 0a 3d c8 81 3d 3c ff ab a6 bd 3e dc 66 bd
       0.033748075 0.011566587 -0.081382744 -0.056362383
0001d0 c1 91 9d bb 82 53 a0 bd f6 00 5a bd f7 b5 56 bd
       -0.004808635 -0.07828428 -0.053223573 -0.05241963
0001e0 e6 09 9d bd 3c 56 c2 3c 49 08 81 bd 26 1b 1a be
       -0.076679036 0.02372276 -0.063004084 -0.15049419
0001f0 16 f6 a0 bd 15 6a 91 bd 56 fb 1d bc af dd 14 bc
       -0.07859437 -0.07100312 -0.009642443 -0.009086057
000200 e6 ba 49 bd 1f 6e b5 bc c3 d3 91 3d b4 ef e3 bd
       -0.049250506 -0.022147236 0.071204685 -0.11129704
000210 bf df 3b 3d 85 b1 2a 3c 09 2b 37 bd a0 1e 44 3d
       0.045867678 0.0104183005 -0.044718776 0.04788077
000220 43 bf a5 bc 8e 2a 87 3d d9 5e 31 bd b0 b6 8e 3c
       -0.020232802 0.065999135 -0.043303344 0.017421097
000230 8e 4e c9 3b b3 a7 9d bd 44 4e 27 3e a3 48 80 3d
       0.0061433977 -0.07698002 0.1633845 0.06263854
000240 53 20 66 3d f9 ba 96 3d 14 64 e2 3c 36 91 9a 3d
       0.05618317 0.07359881 0.027635612 0.07547228
000250 ef f2 43 bd c6 63 9c 3d e8 6d 08 3d 65 ce 82 bd
       -0.0478391 0.07636218 0.03330794 -0.06387023
000260 fb 42 10 ba bc 26 32 3e dd 70 46 3c 77 bc b4 3b
       -0.0005503145 0.17397588 0.01211187 0.005515631
000270 81 ac ef 3c 30 c6 17 bc d8 eb 1d 3e dd a3 4a bd
       0.029257061 -0.00926356 0.15421999 -0.04947268
000280 f9 c4 bc bd 5b dc 0c 3c fb bd 5b bd 60 02 49 3d
       -0.09217257 0.008597459 -0.053647976 0.04907453
000290 ce d9 40 bc 8e 31 c6 3c 4c 3e 0c be 08 1c 27 be
       -0.011770679 0.024193551 -0.1369564 -0.16319287
0002a0 2f 22 1e 3b 44 30 26 bd fe dc 17 bd 7f fb 66 bd
       0.0024129262 -0.040573373 -0.03707599 -0.05639219
0002b0 dc cd b2 3d c8 4f 83 bd be 88 d1 bd 2e 54 a4 3d
       0.08730671 -0.064117014 -0.102311596 0.080238685
0002c0 7f 0f 08 be 27 ad 8b bd e0 9b 33 bd 8e 5b 63 be
       -0.13287161 -0.068201356 -0.043849826 -0.22202894
0002d0 ce a4 1b bc 9d d2 b6 bd cb bc 4f bd 85 6e cf bc
       -0.009499742 -0.0892689 -0.050717156 -0.025321255
0002e0 73 9a 2a 3c fc cb f1 3b f9 65 57 bd 68 ca 06 be
       0.0104128 0.007379053 -0.052587483 -0.1316315
0002f0 9b a6 c3 3b 86 c0 c9 3c 09 8c cd 3c fd 0c a9 bb
       0.0059707887 0.024627935 0.025091188 -0.005159019
000300 1d 1e 4a bd dc b1 24 be fe b5 7d 3d 6a 29 bf bd
       -0.049345125 -0.16083473 0.06194114 -0.09334071
000310 ea b5 25 3d a3 37 9d bd f3 db c2 3c 11 a6 30 3c
       0.04045669 -0.076766275 0.02378652 0.010781781
000320 11 6e 62 bc d6 3c ca bc 74 d0 02 be 90 54 d0 bc
       -0.013820187 -0.024687212 -0.12774831 -0.025430948
000330 99 63 c1 3d f7 db 68 3d 87 63 6d 3c 51 38 ea 3c
       0.09442825 0.0568504 0.014489061 0.028591307
000340 b3 46 34 be 6a 40 19 3b 45 c6 1c 3d ac fd c1 bd
       -0.17605095 0.002338434 0.038275022 -0.09472212
000350 97 18 8e bd eb 51 0d bd c0 a8 e5 bd 19 e8 64 bd
       -0.06938284 -0.03450195 -0.11213827 -0.055885408
000360 be c6 50 bb 0b 89 ad bd f4 49 c0 3d 3e fa 18 bc
       -0.003185674 -0.084734045 0.093891054 -0.009337006
000370 98 45 c4 bc a7 62 91 3b 00 97 a7 bd 9d a2 90 3d
       -0.023958966 0.004436809 -0.08183098 0.07062266
000380 7d 60 c1 3a 69 98 38 bc 0c 40 d4 3c 7b 9c a9 bc
       0.0014753487 -0.011266806 0.025909446 -0.020704499
000390 f3 8d d8 bc c1 c1 cb 3b f8 a9 08 bd 43 88 bc bd
       -0.026434874 0.0062181656 -0.03336522 -0.09205677
0003a0 39 ca 1a bd 17 fa 93 3d c6 06 be bb 06 1f 8b bd
       -0.03779051 0.07225435 -0.0057991473 -0.067930266
0003b0 19 26 25 bd e5 a9 e7 bb 8c 10 57 bd 84 21 ea bc
       -0.040319536 -0.0070698136 -0.052506015 -0.028580435
0003c0 f5 41 a6 3c 75 58 8b 3d 50 e2 fe bd f9 3a 83 bb
       0.020295123 0.06803981 -0.124455094 -0.004004833
0003d0 82 24 cb bd f4 c3 9c bd cd c4 bf bc b1 d5 ce bc
       -0.09919073 -0.076545626 -0.023409272 -0.02524838
0003e0 bf b7 a0 bd 14 5b 19 bc 37 8c d2 3d 4f e9 63 bd
       -0.07847547 -0.009360094 0.1028065 -0.055642422
0003f0 ba 6b 7e bd f5 46 93 3c 67 ff 1a bd 22 6e 0b bd
       -0.062114455 0.01797817 -0.037841227 -0.034040578

network.5.weight f4 [256]
000000 56 a7 7f 3f 4d a8 72 3f c7 fd 77 3f c0 de 7b 3f
       0.9986471 0.94788057 0.9687161 0.98386765
000010 51 87 75 3f 9f b2 7f 3f 86 61 75 3f 5c f7 81 3f
       0.959096 0.9988193 0.95851934 1.0153613
000020 48 8c 7d 3f 63 b0 83 3f f7 56 7e 3f f8 28 71 3f
       0.9904218 1.0288204 0.9935145 0.9420314
000030 3b 7c 84 3f 5b 20 87 3f b3 ef 79 3f 6e e8 75 3f
       1.0350412 1.0556749 0.97631377 0.96057785
000040 ee 92 7a 3f 09 d8 70 3f a6 b4 7a 3f 9c 9c 81 3f
       0.97880447 0.94079643 0.979319 1.0125918
000050 da f1 84 3f ec b4 77 3f df f8 84 3f 65 e9 7c 3f
       1.0386307 0.9676044 1.038845 0.9879363
000060 c0 fd 7a 3f f8 03 82 3f 91 b5 81 3f 41 7b 75 3f
       0.9804344 1.0157461 1.0133535 0.95891196
000070 de 23 81 3f 1c 05 7a 3f 17 6f 7a 3f 4c 58 74 3f
       1.0089071 0.97664046 0.9782576 0.9544723
000080 f8 33 84 3f be 17 82 3f 3a 6a 85 3f cf 18 74 3f
       1.032836 1.0163496 1.0423043 0.95350355
000090 8f 8a 82 3f ae 09 74 3f 51 fe 74 3f ae 05 81 3f
       1.0198535 0.9532727 0.95700556 1.0079858
0000a0 69 04 82 3f 1f 9e 7c 3f d1 a3 84 3f 3a 1f 78 3f
       1.0157596 0.98678774 1.0362493 0.9692265
0000b0 48 14 84 3f ef 0c 7f 3f 38 40 79 3f 01 c2 77 3f
       1.0318689 0.9962911 0.97363615 0.967804
0000c0 30 2e 87 3f 95 63 81 3f 6f 25 77 3f a0 73 87 3f
       1.056097 1.0108515 0.96541494 1.0582161
0000d0 32 3c 80 3f ed 05 86 3f 31 81 79 3f a2 c4 81 3f
       1.001837 1.0470558 0.97462755 1.0138133
0000e0 c6 42 84 3f 11 7e 85 3f fc 4e 7f 3f e9 d3 77 3f
       1.0332878 1.0429097 0.99729896 0.96807724
0000f0 9d ca 84 3f 6b b9 85 3f 1e 9f 80 3f e5 18 6f 3f
       1.0374333 1.044721 1.0048559 0.9339736
000100 0d e2 87 3f 76 88 77 3f 57 db 81 3f e2 a1 7c 3f
       1.061586 0.966926 1.0145062 0.98684514
000110 07 ee 79 3f fa f0 74 3f 76 36 70 3f 49 05 76 3f
       0.97628826 0.956802 0.938331 0.96101815
000120 be 3b 7e 3f 80 cf 81 3f 5d f1 70 3f de f0 86 3f
       0.9930991 1.0141449 0.9411829 1.0542257
000130 1e c0 6d 3f 06 17 7f 3f 64 26 86 3f 69 65 89 3f
       0.9287127 0.99644506 1.0480466 1.0734073
000140 43 ef 78 3f a2 b5 83 3f ce bd 7a 3f 3a d5 72 3f
       0.97240084 1.0289805 0.9794587 0.9485661
000150 6c 23 78 3f c5 23 82 3f f6 2d 81 3f a9 7e 6f 3f
       0.9692905 1.0167166 1.0092151 0.93552643
000160 b9 63 72 3f 85 0d 7b 3f 7c 84 85 3f a1 54 80 3f
       0.94683415 0.98067504 1.0431056 1.0025827
000170 64 5f 82 3f d7 13 85 3f 66 c3 81 3f b4 16 84 3f
       1.0185361 1.039668 1.0137756 1.0319428
000180 3a c7 77 3f de 48 80 3f ea 66 7f 3f 35 7e 68 3f
       0.9678837 1.0022237 0.9976641 0.90817577
000190 7a e9 76 3f 18 f3 6e 3f 6f 2a 79 3f df d4 7f 3f
       0.96450007 0.9333968 0.97330374 0.9993419
0001a0 46 f6 79 3f f4 9b 83 3f cd b5 77 3f 8e 31 74 3f
       0.9764141 1.0281968 0.9676178 0.95388114
0001b0 c1 18 7c 3f 37 da 76 3f 4a 9b 7f 3f b5 b5 82 3f
       0.9847527 0.9642672 0.9984633 1.0211703
0001c0 f0 d6 6c 3f c5 49 82 3f a6 f3 80 3f 3d e6 87 3f
       0.9251547 1.0178763 1.0074356 1.0617138
0001d0 98 1a 82 3f 33 26 86 3f 30 a0 81 3f 13 c8 79 3f
       1.0164366 1.0480407 1.012701 0.97570914
0001e0 05 58 72 3f 79 6d 86 3f 3c 9b 74 3f 4f 66 93 3f
       0.9466556 1.0502158 0.9554937 1.1515597
0001f0 99 61 71 3f 98 2b 82 3f 85 2c 80 3f 9e 86 81 3f
       0.9428955 1.0169554 1.0013586 1.0119207
000200 7f 3d 7b 3f 22 2d 64 3f ec b9 7c 3f 25 67 79 3f
       0.9814071 0.8913137 0.98721194 0.9742301
000210 3a a7 7a 3f 0d 31 80 3f f2 2c 83 3f 2a 60 80 3f
       0.9791142 1.0014969 1.0248091 1.0029347
000220 fc c5 7d 3f 95 35 63 3f 6a 9b 7c 3f 8b 1f 75 3f
       0.99130225 0.88753635 0.98674643 0.95751256
000230 7b 93 7f 3f b9 4b 80 3f d1 f0 72 3f 87 be 7f 3f
       0.9983441 1.0023109 0.94898707 0.99900097
000240 25 22 81 3f 70 10 7b 3f 43 74 83 3f d3 45 79 3f
       1.0088545 0.98071957 1.0269855 0.9737217
000250 0d 9d 84 3f 8a 8d 77 3f ef b9 85 3f 48 74 72 3f
       1.0360428 0.96700346 1.0447367 0.9470868
000260 52 3a 87 3f 61 42 7a 3f d8 3a 7c 3f 30 14 83 3f
       1.0564673 0.97757536 0.9852729 1.0240536
000270 0b 93 7e 3f 2b 7a 74 3f df ab 74 3f 1f 14 84 3f
       0.9944312 0.95498914 0.95574754 1.031864
000280 61 30 7a 3f a9 66 81 3f 55 51 84 3f 09 97 73 3f
       0.9773007 1.0109454 1.033732 0.95152336
000290 db d6 76 3f d5 3f 73 3f 35 91 80 3f a0 1e 8e 3f
       0.96421593 0.95019275 1.0044314 1.1103096
0002a0 32 c2 85 3f 44 7a 81 3f 3c 24 85 3f 1d da 70 3f
       1.0449889 1.0115438 1.0401683 0.94082814
0002b0 48 40 78 3f 69 40 82 3f 49 ad 7e 3f 13 0d 71 3f
       0.96973085 1.0175906 0.9948316 0.94160575
0002c0 5d 8b 7c 3f 0e 22 84 3f e2 10 81 3f 56 3d 8b 3f
       0.9865015 1.0322893 1.0083277 1.0878093
0002d0 68 e4 7c 3f 36 30 80 3f d4 25 72 3f 67 ac 79 3f
       0.9878602 1.0014713 0.9458897 0.9752869
0002e0 e9 ba 77 3f 07 57 81 3f 50 f1 67 3f 52 4d 81 3f
       0.9676958 1.0104684 0.9060259 1.0101721
0002f0 e8 2f 7c 3f 3c a4 7d 3f 82 11 78 3f 33 a8 64 3f
       0.985106 0.99078727 0.96901715 0.8931915
000300 6d 18 74 3f 8f e7 88 3f e5 9b 71 3f a3 c3 81 3f
       0.9534977 1.0695666 0.943785 1.0137829
000310 41 64 82 3f 69 c9 80 3f dc 7f 75 3f 48 50 79 3f
       1.0186845 1.0061466 0.9589822 0.97388124
000320 af ff 7b 3f fa b5 6f 3f 8a a6 83 3f 4d a6 65 3f
       0.9843702 0.9363705 1.0285199 0.8970688
000330 df 9c 7e 3f f5 97 89 3f f1 c2 78 3f 2a aa 67 3f
       0.99458116 1.0749499 0.97172457 0.90494025
000340 8d c5 8a 3f f3 b0 76 3f 53 ca 80 3f c5 52 7f 3f
       1.0841538 0.96363753 1.0061744 0.9973567
000350 c0 8e 7a 3f 70 31 82 3f 9b ae 82 3f 1d e9 83 3f
       0.9787407 1.0171337 1.0209535 1.0305516
000360 0c 0f 6d 3f 5d 21 75 3f fc af 7d 3f f9 6b 7e 3f
       0.92601085 0.95754033 0.99096656 0.99383503
000370 43 97 81 3f fe 96 80 3f 06 fb 83 3f 4f 4e 79 3f
       1.0124286 1.0046079 1.0310981 0.97385114
000380 99 ce 77 3f 96 9e 75 3f 0e 76 80 3f f5 c1 81 3f
       0.9679962 0.9594511 1.0036027 1.0137316
000390 5f bb 78 3f c6 64 6f 3f e5 9b 80 3f e2 86 83 3f
       0.97160906 0.93513143 1.0047575 1.0275538
0003a0 13 06 79 3f 2b 5d 7d 3f f3 60 82 3f 73 a9 7d 3f
       0.97274894 0.9897029 1.0185837 0.99086684
0003b0 92 c4 80 3f cb 58 82 3f ec 35 77 3f a4 8b 75 3f
       1.0059988 1.0183347 0.96566653 0.959162
0003c0 81 d3 77 3f 22 3b 86 3f 2f 09 7a 3f 49 50 74 3f
       0.96807104 1.0486796 0.97670263 0.95435005
0003d0 03 4d 7e 3f 52 2a 79 3f fb f8 84 3f 3f 8c 80 3f
       0.9933626 0.973302 1.0388483 1.00428
0003e0 0e 3c 71 3f 4f 14 81 3f e5 20 7c 3f c5 e5 76 3f
       0.9423226 1.0084323 0.98487693 0.9644435
0003f0 62 a0 7b 3f 10 a3 73 3f 54 3d 81 3f df d2 83 3f
       0.982916 0.9517069 1.0096841 1.0298728
