models/epoch_70/discriminator.pth (torch, 420232 bytes, 7 tensors)

network.0.weight f4 [256, 20]
000000 97 9c 8f 3b e7 aa 56 bc 23 a4 7b bd 38 e6 63 3e
       0.0043826806 -0.01310227 -0.06143583 0.2225579
000010 48 ef 4a 3e 8f 89 f7 bd 85 c7 ac 3d 31 80 71 bd
       0.19817841 -0.12086784 0.08436493 -0.058960143
000020 76 f9 8d bd 13 e5 08 3d 5b 7e 99 bd 88 ef 7d 3e
       -0.069323465 0.033421587 -0.074948035 0.24798405
000030 6b e0 c2 3c a3 ea c4 bc 1f 64 81 bd c6 63 f4 bd
       0.023788651 -0.024037665 -0.06317925 -0.11933093
000040 f2 a1 a5 bd a8 9c 80 bd f9 26 c0 3b d3 9f 89 be
       -0.08087529 -0.0627988 0.005864021 -0.2687975
000050 f8 3d 2e 3d 0a 6d 50 bd 67 60 3f 3d fc 6e 52 3c
       0.042539567 -0.050885238 0.046722796 0.012843844
000060 36 05 aa 3c fd 3f 56 bd 2d 35 3a be 6f e8 d8 3d
       0.020754438 -0.052307118 -0.18184347 0.10591208
000070 7a da ba 3d e5 35 56 3c a8 d6 69 bd c8 5d 8f bd
       0.09123702 0.013074373 -0.057089478 -0.07000309
000080 d6 d8 b7 3d e3 a8 b6 3d 4d 54 19 3d b5 bf b8 bd
       0.08976905 0.08918931 0.03743391 -0.0902094
000090 58 3f 29 3d 42 c3 ad 3e 89 23 4f 3e e0 83 e2 bc
       0.041320175 0.33938032 0.202284 -0.027650774
0000a0 1f 12 18 3c c6 76 95 3b 3b 96 21 3c 17 9a 56 3c
       0.009281664 0.004561278 0.009862478 0.013098261
0000b0 55 fd b6 3c 61 a6 b5 3b 31 f6 9e ba f6 27 f4 ba
       0.022337595 0.0055435156 -0.0012127814 -0.0018627632
0000c0 b5 74 05 bb f6 51 27 3b e4 79 80 bb f7 b5 06 3f
       -0.0020363752 0.002553103 -0.0039207805 0.52621406
0000d0 6a 79 93 3b 7d 9b c5 3a e0 cc 3a 3b c6 f5 b0 3b
       0.0045005577 0.0015076246 0.0028503463 0.005400392
0000e0 e8 eb de 3b 8f 89 b3 3a 92 69 00 ba 42 11 6c be
       0.0068030246 0.0013697612 -0.00048985437 -0.23053458
0000f0 c9 bf 6b bb e0 e9 56 bd a3 ef e2 3a 19 97 c3 bd
       -0.0035972467 -0.052469134 0.0017313849 -0.09550304
000100 40 dc 2c bd 50 7e d6 3d 68 10 6b 3d 15 5b 85 3e
       -0.042202234 0.10473311 0.057388693 0.26046053
000110 3e 15 c1 bd 70 e9 b7 3c 39 d8 33 3e ef bb 39 3d
       -0.0942788 0.022450179 0.17562951 0.045345243
000120 12 8a 6c 3b 04 7d 92 bd c6 f4 bd 3d 9d 8e 59 bc
       0.0036093039 -0.07152751 0.092752025 -0.013278631
000130 91 90 20 3e e1 89 01 be 71 99 a4 3e 31 f8 12 3e
       0.15680148 -0.12650253 0.32148317 0.1435249
000140 69 01 5c bc 83 39 11 3d 21 3f c7 3b 92 05 fe bd
       -0.013428071 0.035455238 0.0060805236 -0.12403406
000150 7d fb f5 bd d2 c9 ef bd 0f 0c 3c 3e ea 74 94 3e
       -0.12010858 -0.11708416 0.18363975 0.28995448
000160 6c 49 55 3e a5 9d 8f bd 25 89 a6 bd f0 61 a3 3b
       0.2082879 -0.0701249 -0.08131627 0.0049860403
000170 ad 9b bd bd 67 49 a9 3d 63 27 44 3e 27 ea 87 bd
       -0.092582084 0.082659535 0.1915565 -0.06636458
000180 de 19 a0 bd 4e 2d d0 bd 0d 3a 0e be ca 31 cb 3d
       -0.07817434 -0.10164891 -0.13889332 0.09921606
000190 b3 cd 80 bd bd 06 21 3d 9f 27 a8 bc 9c b5 f4 3c
       -0.06289234 0.039313067 -0.020526705 0.029871754
0001a0 21 80 df 3d 5b 81 52 3d f5 55 0e 3d eb 2c d1 bd
       0.109131105 0.051392894 0.034749944 -0.102136455
0001b0 bf aa 3b 3c d7 84 b7 bd f0 65 bb bd 15 f3 e9 39
       0.011454283 -0.08960884 -0.091503024 0.00044622333
0001c0 3b b7 c5 3e 3c c0 15 be 67 aa e6 bd 20 03 f7 3c
       0.38616356 -0.14624113 -0.112629704 0.030152857
0001d0 72 0e 04 bd 7f 50 28 3e 87 36 ef bd f8 1d e8 bb
       -0.03224034 0.16436957 -0.11680322 -0.0070836507
0001e0 9f 24 c7 3d ee 97 09 3d bc 0f 2c 3b c9 ef 15 3e
       0.09723782 0.033592157 0.0026254496 0.14642252
0001f0 93 7d e9 3d 2c 62 b9 3d 0a 39 dd bd 16 83 60 bb
       0.114009045 0.09051928 -0.10801895 -0.003425782
000200 ef b1 15 bc ce db 2a 3b 6d 85 ae bc 95 d1 a2 bd
       -0.009136661 0.0026070955 -0.021303857 -0.07950131
000210 15 1a 53 bc 1c 2f 4b bd 29 49 ff 3e 29 2f f5 3c
       -0.012884636 -0.049605474 0.49860504 0.029929714
000220 a2 23 2a bd 34 27 64 bd ea 59 bc 3d f5 16 22 3e
       -0.04153789 -0.05570145 0.09196837 0.1582907
000230 78 d2 8d bd 00 39 ce 3d 2f da 78 bd f8 65 b0 bc
       -0.06924909 0.10069466 -0.06075495 -0.021532997
000240 ff 6f ac bd 1a c2 37 3d 0d 92 5a be b1 2c 76 3d
       -0.08419799 0.044862844 -0.21344776 0.060101215
000250 1a 5a b5 bd 31 96 e4 3c 5a 66 80 bd 4a d4 a1 bd
       -0.08855076 0.027903648 -0.06269522 -0.07901819
000260 2d 8e b9 3d ba 12 0c 3d d2 8b bc 3d ba 70 49 3e
       0.09060321 0.034197547 0.09206356 0.19671908
000270 9e 79 f9 bd 6e c8 4a 3d 0c 15 3b bd 13 a7 a4 3d
       -0.121814 0.04950755 -0.04567437 0.080396794
000280 8f 92 f7 bd 06 de 6a bd 84 a4 98 bc 08 fe df 3d
       -0.12088501 -0.057340644 -0.018633135 0.109371245
000290 04 db be bb 2a 85 38 3d 81 39 e1 3d 5b d3 28 be
       -0.0058244485 0.04504887 0.10997296 -0.16486876
0002a0 37 7c e5 bd a6 6e 17 3e 22 83 9c 3d 91 a7 22 be
       -0.11205333 0.14788303 0.07642199 -0.15884234
0002b0 a7 99 94 bd c1 a2 31 bd 24 49 9c bd 87 19 d4 bd
       -0.07255869 -0.043368105 -0.07631138 -0.103564315
0002c0 fc 5c 21 3d ff 45 af bd 63 86 9d bd f5 c0 1d be
       0.039395317 -0.085582726 -0.07691648 -0.15405639
0002d0 13 b4 f7 3d d8 2c ac 3c 9d 68 ba 3d 95 cc 26 3e
       0.12094893 0.021017477 0.09101985 0.1628898
0002e0 6b 51 28 3d f2 92 99 3d 3a 81 0e 3f 56 b6 f1 bc
       0.04109327 0.07498731 0.55665934 -0.02950589
0002f0 1b 4c 52 bc 3f b0 1c bb a1 bd ba ba 92 7c c7 bc
       -0.012835528 -0.0023908762 -0.0014247188 -0.024351392
000300 95 3d 0e bd 8a 63 df ba 20 03 d8 bc ca 83 23 bd
       -0.034726698 -0.0017043215 -0.026368678 -0.039920606
000310 3f 40 b8 bb 82 ef f1 bc bb 0d 2c bc 3c e4 31 3d
       -0.005622893 -0.029533152 -0.0105013205 0.043430552
000320 b8 8e ea 39 fc 02 19 bd 02 39 38 3d 85 f2 09 bd
       0.00044738292 -0.03735636 0.044976242 -0.03367855
000330 c9 15 03 3d da 5a 2b bd 51 d1 96 be 5a a2 33 3e
       0.032003198 -0.04183469 -0.2945657 0.17542401
000340 7c 8f 40 3e 16 71 97 3d 05 63 27 3e f9 93 a0 3d
       0.18804735 0.07394616 0.16346367 0.078407235
000350 2c 6b 1a be 0a e4 89 bd 96 c4 4f bd c4 e7 8e 3d
       -0.15079945 -0.06732948 -0.05072459 0.069777995
000360 bc c3 5c 3d 47 85 62 3d 1d 3f bb 3d 70 a8 87 be
       0.053897604 0.055302884 0.09142897 -0.26495695
000370 bb 9e 54 3d 23 a7 61 3e 38 67 d4 3d 24 99 aa bd
       0.05190919 0.22036414 0.1037125 -0.083299905
000380 ee 4f 22 3e 26 8c 2c 3e 93 44 ff bd f5 39 4e bd
       0.15850803 0.16850337 -0.12464251 -0.05034824
000390 f6 e6 ad bc 90 23 54 3d 05 fb 1e bd 4b 8c c8 bd
       -0.021228295 0.051791728 -0.03881361 -0.09792384
0003a0 1b e3 4c 3d 92 a2 91 3d f6 c0 0e bd 0f b8 b2 bd
       0.050021272 0.07111086 -0.03485199 -0.08726513
0003b0 75 14 c4 3d 51 76 bd 3d 7f 63 b7 3c c7 24 3e be
       0.09574214 0.09251083 0.02238631 -0.18568717
0003c0 97 6c 4c bc d7 1e 04 3e 3e 16 05 3d bc d8 ee 38
       -0.012477062 0.1290239 0.032491915 0.00011389094
0003d0 0d c3 f2 3d 94 02 f2 bc ce 85 88 bc 6c dd 24 3b
       0.11853609 -0.029542245 -0.016665366 0.0025156392
0003e0 2c 09 c5 bc 77 56 88 3b 0c c1 39 3c 28 a3 ed 3e
       -0.024052225 0.004160698 0.01133753 0.4641354
0003f0 c9 88 20 3d 49 00 5d bd aa ed ae bb 13 9f 8d bb
       0.03919295 -0.05395535 -0.0053383904 -0.0043219416

network.0.bias f4 [256]
000000 95 58 79 3e 61 46 8d be 4a 61 d9 be 71 b3 f7 bd
       0.24350198 -0.27592757 -0.42457038 -0.120947726
000010 7e 00 a7 be 4c 42 96 be 09 f6 5a bd f9 ac cd bd
       -0.32617563 -0.29347456 -0.053457294 -0.100427575
000020 58 8a 7e 3e ec f7 43 be 16 ad 5c be 61 41 93 3e
       0.24857461 -0.19137543 -0.21550402 0.28760818
000030 ff 38 de bd ac cf c4 be d9 45 6f be 4d ec 1a 3e
       -0.10850715 -0.3843969 -0.23366489 0.15129204
000040 83 82 14 3d 2f 53 68 be a2 67 57 be 2f ac ad be
       0.03625728 -0.22687982 -0.21035627 -0.33920428
000050 07 59 7f 3e f7 47 64 be 33 5d 57 be 89 b5 7c be
       0.24936305 -0.22293077 -0.21031646 -0.24678625
000060 0a 52 8e be 0d 96 2b 3e df 30 40 3e e0 70 24 bd
       -0.27796966 0.16756459 0.18768643 -0.04014671
000070 f6 6a 29 be f1 fa b5 be c0 b7 5b be 7d d6 bf 3b
       -0.16544709 -0.35543016 -0.21456814 0.0058544264
000080 bd e4 7f be 05 19 9b 3e 92 98 92 be d1 b5 1a 3e
       -0.249896 0.30292526 -0.28632027 0.1510842
000090 a2 cb a7 be f6 f9 99 be 91 9b 50 3c 59 25 85 be
       -0.32772547 -0.30073518 0.012732402 -0.26005057
0000a0 6e e3 89 be 0e ec 83 3e a7 f0 b0 be 07 97 2a be
       -0.26931328 0.25766033 -0.34558603 -0.16659175
0000b0 84 de e7 bd 0a 77 4c be fa 10 78 3e 5e 24 53 3d
       -0.11321738 -0.19967285 0.24225226 0.051548354
0000c0 ea 22 80 3e 99 6d 6e 3e 3f e4 7f be ce 85 a2 be
       0.25026637 0.23283996 -0.24989413 -0.3174271
0000d0 68 07 92 bd af 7a 56 be da 07 ac be 24 b1 14 be
       -0.07130319 -0.20945238 -0.3359974 -0.14520699
0000e0 f6 b7 dd bd e2 de 04 3e 53 a7 74 be 85 32 17 be
       -0.108261034 0.12975648 -0.23891954 -0.14765365
0000f0 7d 64 b6 be b8 b2 dd 39 a1 c1 94 be 00 ac 17 be
       -0.3562354 0.0004228556 -0.29053977 -0.14811707
000100 44 a7 24 be 72 0a 02 be 34 36 8f bd 88 ad 43 be
       -0.16079432 -0.12699297 -0.0699276 -0.19109166
000110 a0 24 19 3e c9 f5 9c be 74 28 70 be 40 03 d4 3d
       0.14955378 -0.3065627 -0.23452932 0.103521824
000120 8c 4a d7 3d db 2e 6b be 20 39 9e be b5 5d 38 be
       0.105122656 -0.22967093 -0.30902958 -0.18004496
000130 f8 6d 23 be 45 36 9c be 0b 35 89 3d 3e 90 0a 3d
       -0.15959918 -0.30510154 0.0669957 0.033828966
000140 1c b1 4a be 09 12 82 be 1e 3b 4a be 44 38 e2 bd
       -0.19794124 -0.25404385 -0.19749114 -0.11045888
000150 cb db cd bd 75 7d 83 3e c9 6c 9c be 9a df 99 be
       -0.10051688 0.25681654 -0.30551746 -0.30053407
000160 27 4b 65 be 5d cd c3 bc 90 74 aa be 46 3d 57 3e
       -0.2239195 -0.023901636 -0.33292055 0.21019468
000170 a0 08 c9 be d8 8e 83 be 23 95 0d be 51 a7 12 be
       -0.39264393 -0.2569492 -0.13826422 -0.14321639
000180 4f 3f 72 3e a9 aa 8b 3d 80 32 77 be f0 31 8d 3e
       0.23656963 0.0681966 -0.24140358 0.27577162
000190 b8 1d 36 3e 92 96 8e bd b6 f8 7d 3d a4 4d 81 be
       0.17784774 -0.06962313 0.062004767 -0.25254548
0001a0 7f c8 72 3e e2 5a bc be ae 1c 7d be ef 75 82 be
       0.23709296 -0.36788088 -0.24717972 -0.254806
0001b0 f0 72 8e be 5d d8 3a be 51 e4 12 be 8f d7 9d be
       -0.27822065 -0.18246599 -0.14344908 -0.3082852
0001c0 c3 38 ff bd 59 1e cb bd cc ee 95 be 48 2e b1 be
       -0.12461998 -0.09917898 -0.2928375 -0.34605622
0001d0 d6 3b 1d 3e 08 ae 58 be ad e7 49 be 7f 8b d8 3c
       0.15354857 -0.21160138 -0.19717284 0.026433704
0001e0 0b 6d 7d be 22 4d 96 3e c1 1f 72 be 25 5d 9f be
       -0.24748628 0.29355723 -0.23644926 -0.3112575
0001f0 64 4c 95 be 40 01 49 bc f9 a0 4a 3d cd 20 a0 be
       -0.29159844 -0.012268364 0.04946992 -0.31275025
000200 78 7c 53 be 45 f8 be bd 0a 07 03 be 4c 43 e4 bd
       -0.2065295 -0.093246974 -0.12795654 -0.11145648
000210 e0 12 98 be dd a8 be be e2 8e 6c be 23 1c 45 bd
       -0.297019 -0.37238207 -0.2310138 -0.048122536
000220 57 41 a5 bc 55 96 7e be 96 e6 1e be 2a 17 7f be
       -0.020172758 -0.24862035 -0.15517649 -0.2491118
000230 9a 11 48 be fd 2f 99 be e2 2d ba be 44 54 00 be
       -0.19537964 -0.29919425 -0.3636313 -0.12532145
000240 23 17 68 be d4 b6 67 bd 57 f7 65 be 33 40 34 be
       -0.22665076 -0.056570843 -0.22457634 -0.17602615
000250 c2 49 28 be 1b 9c ad bd cb 9a 21 be 2f f1 5a 3e
       -0.16434386 -0.084770404 -0.15781705 0.21381067
000260 a2 ed 2e be a9 20 80 be 08 a9 98 be e7 97 82 3e
       -0.17082837 -0.25024918 -0.2981646 0.25506517
000270 eb 4b 1d be 29 60 98 be 21 d4 0c 3e 09 e4 8e be
       -0.15360992 -0.29760864 0.13752796 -0.27908352
000280 f8 dd 6a be 3e 96 b2 3d 22 c2 3b 3e a4 0a a0 be
       -0.22936237 0.08720063 0.18335775 -0.31258118
000290 5e f8 80 3e 08 96 da be 3f 7f 86 bd a2 6a a8 be
       0.2518949 -0.4269259 -0.06567239 -0.32893854
0002a0 b5 fa 3b be 13 30 96 be 84 28 b3 be d3 80 80 3a
       -0.18357356 -0.29333553 -0.34991848 0.0009804018
0002b0 b2 4b 2b be 50 de 67 be e9 16 ae be 04 51 14 bd
       -0.16728094 -0.22643399 -0.34001854 -0.036210075
0002c0 55 3e 9b 3c aa 00 9f be b0 4f ac be 49 2a cd 3d
       0.01895062 -0.31055194 -0.33654547 0.10017831
0002d0 9f ee d1 bd cc 02 49 be dd 64 5e be 6b 85 ab be
       -0.102505915 -0.19629973 -0.21718164 -0.33500227
0002e0 4f 3e 3e 3e b3 3f 94 be da 77 e1 bd de 75 8d 3d
       0.18578456 -0.2895485 -0.11009188 0.06907247
0002f0 5c 5f a8 be 28 85 ce be 18 5d ed be 0a 7c 8d 3b
       -0.32885253 -0.40335965 -0.46360087 0.004317765
000300 a4 0e c9 be ae fe a9 be f0 38 3c be ee 09 b3 be
       -0.39268982 -0.33202118 -0.18381095 -0.34968513
000310 e6 22 af bd 91 81 e0 bd c4 9f 86 be 21 a0 b2 be
       -0.08551578 -0.10962213 -0.26293766 -0.34887794
000320 71 e4 9f 3e 53 1a ac be 9f 2e 0c 3e 79 19 b7 be
       0.31228974 -0.33613834 0.1368966 -0.35761622
000330 93 02 5c 3e f4 3a 53 be 8b d2 13 3d 8c 82 0e bd
       0.21485357 -0.20627958 0.03608946 -0.034792468
000340 14 71 4d bc c9 01 76 3e e7 8b 0e 3e b4 e0 88 bd
       -0.012539167 0.24024118 0.13920556 -0.06683484
000350 d2 bb 48 bd 42 af a9 be 6b f7 ab be 26 fc 13 3d
       -0.049007244 -0.33141524 -0.33587202 0.03612914
000360 05 6e 73 bd 81 02 7c 3e e7 5c be bd 95 5a 27 be
       -0.059431095 0.2461033 -0.092950635 -0.16343148
000370 69 50 a1 be a3 04 ac be d8 cc 08 be 28 f3 85 be
       -0.3150666 -0.33597288 -0.13359392 -0.26162076
000380 eb b3 75 be bc 4b 67 3e 6b 07 f0 bd d0 2d f9 bd
       -0.23994415 0.22587484 -0.11720165 -0.12166941
000390 05 56 db bd 57 15 aa bd f0 80 1f be 4e 89 f6 3d
       -0.10709766 -0.083048515 -0.1557653 0.120379075
0003a0 29 10 fb bd 04 6c 2d 3c 3c 7d df bd 69 0b 12 3b
       -0.12258942 0.010584835 -0.109125584 0.0022284633
0003b0 25 68 c8 bd 73 bc c8 bd f5 9c 99 3e 54 ba 14 bd
       -0.09785489 -0.09801569 0.3000256 -0.03631051
0003c0 23 bd 69 be 10 9d 7e be 00 c5 96 bd a0 5e de be
       -0.22826056 -0.24864602 -0.073617935 -0.43431568
0003d0 a1 e2 8e 3e 94 d8 6e bd 1b 80 18 3e ee b3 4f 3e
       0.2790728 -0.058312014 0.14892618 0.20283481
0003e0 0b ff 9f be a6 d2 56 be c0 3f c5 be 92 5e 8a be
       -0.3124927 -0.20978794 -0.385252 -0.27025276
0003f0 d6 b6 c7 be 9f 08 2c bc 0b 77 b1 be 48 14 b1 be
       -0.3900668 -0.010500102 -0.34661135 -0.34585786

network.3.weight f4 [256, 256]
000000 3e ba 23 bd 2e 75 79 bd ba 98 8d bd 04 db 7d 3c
       -0.039972536 -0.060902767 -0.06913896 0.015494112
000010 77 3e 8f bc 83 66 ac bc 1b 05 78 bc 7b 1d 6d 3c
       -0.01748584 -0.021044975 -0.015137936 0.014472361
000020 79 82 87 bd 74 6b 71 bd f8 75 11 bd 42 9c ec 3b
       -0.066166826 -0.058940366 -0.035512894 0.007220776
000030 c9 79 36 3d fc 93 22 bb 41 2d 19 bd 4e 3e 49 bd
       0.044549737 -0.0024807444 -0.037396673 -0.049131684
000040 31 ad 88 bc 4e e0 0f 3a 71 3a 5b bd 25 31 c6 bb
       -0.016684147 0.0005488441 -0.05352253 -0.006048339
000050 b2 27 3d bc 64 d8 66 bd 2b ca 69 bd 2b 6a 98 bd
       -0.011545109 -0.05635871 -0.057077568 -0.07442125
000060 6c 7f 93 bc 33 eb 48 bd 5d c1 0a bd 86 ac b7 3c
       -0.018005095 -0.04905243 -0.03387581 0.022421133
000070 02 ab c3 bd fa 08 f9 bc dd 62 8d bc 65 9f 4b bd
       -0.095541015 -0.030399788 -0.017259056 -0.049712557
000080 43 46 01 bd f2 0f 92 3b db 0c bc bb a4 8c 1c bd
       -0.031561147 0.0044574672 -0.005738837 -0.038220063
000090 59 45 bb bc 9b 00 90 bc 50 dd 40 bc d9 d3 80 3c
       -0.022860216 -0.017578414 -0.011771515 0.015726017
0000a0 32 39 6a bd 72 7e 59 bd c0 9f 7d bd bc 46 e3 3c
       -0.057183452 -0.053099103 -0.061919928 0.02774369
0000b0 38 51 d1 bb eb bb fe 3b aa 77 dd bc ff 0c 9d bc
       -0.006387856 0.0077738664 -0.0270346 -0.019171236
0000c0 32 a6 12 bd ba 97 61 bc 0e 23 83 bd 94 0b 0b 3d
       -0.035803027 -0.013769085 -0.064031705 0.03394659
0000d0 40 9b 61 bb c7 22 a9 bc 87 f0 79 bc e6 c5 d8 3c
       -0.0034424812 -0.020646466 -0.0152551 0.026461553
0000e0 2e 9b 4f bd 27 89 e0 3a 77 27 25 bd a6 22 a7 bd
       -0.0506851 0.0017130718 -0.04032084 -0.081609055
0000f0 25 eb 4b bd d1 0d 96 bd 82 8c ac bd bb fe 86 bd
       -0.0497848 -0.07326854 -0.08425237 -0.06591555
000100 dc a7 3c bd 0a 0f 83 ba ea 3b 0c bd ff 9a 00 bd
       -0.04605852 -0.0009998989 -0.034236826 -0.031397816
000110 12 68 87 bd 01 0f 8f bd d7 fd 39 bd 24 c0 8f bd
       -0.06611647 -0.06985284 -0.045408096 -0.0701907
000120 9c d5 b0 bc 01 c9 2b bc b4 e1 a9 3b bb 4b 95 bc
       -0.021586232 -0.010484935 0.0051843766 -0.018224588
000130 75 7f 2d ba 2d 02 0e bd ad 75 82 3c 24 52 1e 3d
       -0.0006618419 -0.034670044 0.015925253 0.038652554
000140 f6 29 6b 3c d3 21 7e bd f3 6e ef bc 1c 88 40 bd
       0.014353266 -0.062043976 -0.02922771 -0.047004804
000150 53 c7 a4 bd 8f 13 db bc 5d a8 ad bd fe 18 4c bd
       -0.080458306 -0.026742725 -0.08479378 -0.049828522
000160 99 85 e2 bd b6 4e b6 3c 00 61 57 bc 00 50 44 bd
       -0.11060638 0.02225433 -0.013145685 -0.047927856
000170 4e 78 05 bd bf 7b 4c bd f6 54 08 bd 1a a2 fe bc
       -0.032585435 -0.0499227 -0.03328415 -0.031083155
000180 af 6c 1f bd 94 08 70 3c 70 e4 45 3d 64 89 36 bd
       -0.038922008 0.014650483 0.048313558 -0.04456462
000190 97 83 8f 3c bd 35 74 bd 4a 64 d0 bc 46 10 cc 3c
       0.017518802 -0.05962156 -0.025438447 0.024910104
0001a0 2a ce a9 3c e0 2f 5d bd 87 b6 57 bd d1 0a 3f bd
       0.02072819 -0.054000735 -0.052664306 -0.046641175
0001b0 48 2c b9 3c e6 5a 50 bd 5a f3 1e bd b9 35 32 3d
       0.022604123 -0.050867938 -0.038806297 0.043508265
0001c0 59 5a d5 bc 95 19 5e bd 11 a2 5e 3b 2b cd 3d bc
       -0.026044058 -0.054223616 0.003397111 -0.01158456
0001d0 d9 d6 5e b9 1c 9c 5a bd 39 2e 85 bd bd 9a 5f 3d
       -0.00021251607 -0.053371534 -0.06502957 0.05459093
0001e0 96 23 8b 3c 02 bb bd 3c e1 81 4d 3d e4 ec 4f bc
       0.016984742 0.023160461 0.05017269 -0.0126907565
0001f0 8b cf 9d bd cf a7 61 3c e4 94 85 bd 9f 63 a2 bd
       -0.07705601 0.013772919 -0.06522539 -0.079291575
000200 c4 68 03 bd 62 bc 3d 3c 4c 63 31 bd 17 e8 3a 3d
       -0.032082334 0.0115805585 -0.043307588 0.045631494
000210 dc d1 45 bc 6d a8 61 bd b1 23 66 bd 05 5c 18 3d
       -0.01207396 -0.055092264 -0.05618638 0.03719713
000220 29 3d 96 3b 20 6c c0 bc cd 69 a5 bd 8b f9 84 ba
       0.0045849276 -0.023489058 -0.080768205 -0.001014517
000230 20 27 8d 39 66 0e 18 bd 7c c5 8d 3c 2c 46 8b b9
       0.00026922766 -0.037123106 0.017306082 -0.00026564428
000240 2d 4a 76 bd 13 b8 74 bd 4c 89 1c 3d bd db 49 3b
       -0.060129333 -0.05974586 0.038216874 0.003080114
000250 af 1e 0b bd b2 64 71 bd b0 3a c3 3c 19 f5 7c bd
       -0.03396481 -0.05893392 0.023831695 -0.06175718
000260 69 fa 92 bd 63 3a 55 3b 1e 8c 77 bd fb f8 6d bd
       -0.07176668 0.0032536022 -0.06043636 -0.058098774
000270 23 a4 e0 bc cd 1e 89 bd 50 dc 13 bd 09 e3 5e 3b
       -0.027422016 -0.06695328 -0.03609878 0.0034009835
000280 0c 27 8e 3c 09 09 5a bd d7 41 81 bd ad 82 31 bd
       0.017352603 -0.053231273 -0.06311386 -0.043337513
000290 d7 9e 00 3d e4 bf e0 bc c2 a3 b9 3c a7 34 6a bd
       0.03140148 -0.02743525 0.022661094 -0.05717912
0002a0 11 31 dc bc df ec 3a 3b cc 14 62 bc 7e 33 4a 3d
       -0.026878865 0.0028522534 -0.013798904 0.049365513
0002b0 bd 69 62 bd 04 ad 99 3c 49 9b e5 bb 6c ee 74 3d
       -0.05527662 0.018759258 -0.007007037 0.05979769
0002c0 29 8d 46 bc 4a d2 57 bc f0 c6 ba bb a1 42 9f 3c
       -0.012118616 -0.013172695 -0.0056999847 0.01944095
0002d0 a0 8b 51 bc 01 ee a1 bd 9c 25 d3 bb 0d c8 00 bd
       -0.012789637 -0.07906724 -0.0064436924 -0.031440783
0002e0 55 53 3d 3d 07 7c a6 bd 7d 22 1c 3d 2c 47 e8 3b
       0.04622205 -0.08129125 0.038118828 0.0070885625
0002f0 2e 31 85 bb cf 64 9e bd 6e ab c9 3c fc 89 f2 bb
       -0.0040647006 -0.077340715 0.024617877 -0.007401703
000300 b7 9f a7 bd 6e 8c 55 bd d6 77 67 bd 65 f2 7b bd
       -0.0818476 -0.052135877 -0.05651077 -0.061510462
000310 69 57 19 3c d2 4d 1d bd 60 26 f8 bc 6c 3b 6a bc
       0.009359219 -0.038404293 -0.030291736 -0.014296394
000320 eb 3f c7 bc cf 29 87 bd fa c0 3e bc ac 9b d7 bc
       -0.02432247 -0.06599771 -0.011642689 -0.026319347
000330 75 91 d2 bc 60 a8 36 bd 2f ed 38 bd c0 3b 08 bd
       -0.025704125 -0.04459417 -0.04514807 -0.033260107
000340 7d 27 56 3c 8e e8 6c bd 6e 1b 27 bc 99 73 30 3c
       0.013070938 -0.05783897 -0.010199411 0.010769748
000350 af e3 a0 bb 14 65 ba bb b1 2e c3 bc 99 ac 23 3d
       -0.0049099545 -0.005688319 -0.023825975 0.039959524
000360 f5 c1 13 3c d0 51 af bc 1c 1a 16 bd 60 01 b3 bd
       0.009018411 -0.021401316 -0.036645994 -0.08740497
000370 fe 66 49 bd c6 83 07 bd d8 de 69 bd 51 87 44 bd
       -0.049170487 -0.033084653 -0.057097286 -0.04798061
000380 c2 c3 4b 3c 15 23 d9 ba 23 e2 21 bd 53 4d 66 bd
       0.012436809 -0.0016566241 -0.0395223 -0.056226086
000390 b5 54 5f bb c1 24 66 bd cf 8b a4 bd 81 cf c9 bc
       -0.003407759 -0.056187395 -0.08034479 -0.024635078
0003a0 26 f8 c4 bc 23 7d e4 3b 55 3b 95 bd aa 78 58 bb
       -0.024044108 0.0069729253 -0.07286707 -0.0033030906
0003b0 24 36 59 3c 49 83 cf bd 55 25 ce bc a4 29 18 bd
       0.013257537 -0.101324625 -0.025164286 -0.037149087
0003c0 f7 97 87 bc 94 89 7f bd 94 78 23 bc dc e5 ec bc
       -0.016551955 -0.062387064 -0.0099774785 -0.0289182
0003d0 b5 3c 0e bd 66 33 ac bc 01 f9 86 3b 93 af 90 bc
       -0.034725863 -0.021020602 0.004119039 -0.017661845
0003e0 31 88 d6 bd 7c 30 90 bd 55 f2 8f bd 2b 0c db bc
       -0.10475195 -0.07040498 -0.07028643 -0.0267392
0003f0 b9 a4 ba bd c6 8e 49 bd a4 b2 c8 bc a0 2f 03 bd
       -0.091134496 -0.049208425 -0.024499245 -0.03202784

network.3.bias f4 [256]
000000 31 39 ff 3d 1d f8 6e be 3c 6d 9d bd 7f 44 66 be
       0.1246208 -0.23336835 -0.076868504 -0.22487067
000010 eb 0c 39 be c4 45 6d be 0c e9 03 be fa 99 76 3d
       -0.18071334 -0.23171145 -0.12881869 0.060205437
000020 d6 0a 18 be c5 15 4e be 45 e1 a1 3d 88 d8 cd ba
       -0.14847884 -0.20125492 0.07904295 -0.001570479
000030 9e 46 aa 3d 09 18 fe 3d 5b 3c 33 bd d0 5a 4e be
       0.083142504 0.12406928 -0.04375873 -0.2015183
000040 76 0e 1f 3e 24 fc a0 3d 63 6e 54 be 30 64 4d be
       0.1553286 0.07860592 -0.20745234 -0.2005775
000050 4c fb 33 be a9 30 28 be 11 32 7e be 25 1a 54 be
       -0.17576331 -0.16424812 -0.24823786 -0.20713098
000060 5b d1 76 be 01 5e 06 be 16 af 23 be cf b9 55 be
       -0.241033 -0.13121797 -0.15984759 -0.20871662
000070 ca ba 31 be b3 86 2e be af 18 5e bc c5 b6 10 3e
       -0.1735641 -0.17043571 -0.01355569 0.14132221
000080 a6 39 8e bd d2 a4 ce bd 26 d4 65 3d 24 3f f5 3d
       -0.06944589 -0.10090031 0.056110524 0.11974934
000090 ea f6 c3 3c 01 27 1c be df 92 54 be c8 c9 93 bd
       0.023921449 -0.15249254 -0.20759152 -0.07216221
0000a0 23 0f 73 3c 3b 1f 37 3d f6 77 33 be 34 68 27 be
       0.014835152 0.044707518 -0.1752623 -0.16348344
0000b0 c4 e9 b7 3d e9 77 48 be 22 5a 5c be 22 6b e0 bd
       0.08980134 -0.19576992 -0.21518758 -0.10957934
0000c0 69 9e 8e bd 2c 89 7d 3c 63 1a c3 3d 07 c3 43 bd
       -0.06963808 0.015474599 0.09526517 -0.047793414
0000d0 84 93 70 be 57 d6 15 3d 92 5e 0b bc 95 ce 02 3c
       -0.23493773 0.036581364 -0.008506434 0.007983823
0000e0 ab 8a 48 be b2 29 2d 3d ea d5 9a bc d2 07 1f be
       -0.19584148 0.042276092 -0.01890083 -0.15530327
0000f0 77 4e 31 be e2 df 8b 3d 6d 14 e8 bd 7a 3c 6c be
       -0.17315088 0.06829812 -0.11332021 -0.23069945
000100 36 b3 95 3d 37 04 3d 3d 94 ad 5c be d2 fe 6e be
       0.073095724 0.046146598 -0.2155059 -0.23339394
000110 66 ed 9c bd 00 82 ad bc 94 3f 08 be 12 20 65 bd
       -0.07662468 -0.021180153 -0.13305503 -0.055938788
000120 de 15 da 3d 7e c1 09 3d 11 cc 72 bd 46 3c 3b be
       0.10648702 0.033631794 -0.059276644 -0.18284711
000130 6d 26 03 be a6 4e f1 3c 87 ca b9 bd 5a 67 54 be
       -0.12807627 0.029456448 -0.09071832 -0.2074255
000140 84 e1 83 3d 9c 85 5d be 19 c5 43 bd e8 5a 62 be
       0.06439498 -0.21632999 -0.04779539 -0.2210499
000150 13 d9 a2 3d f7 ec 5c 3d 3e 69 3f 3d 16 26 42 be
       0.0795156 0.053936925 0.046731226 -0.18959841
000160 90 02 7d be 74 f0 36 be 68 12 30 be e2 6c 32 be
       -0.24708009 -0.17865163 -0.17194521 -0.17424348
000170 14 cf 2a be ec ae 97 bd 71 08 b5 bd fb 9c 93 bd
       -0.16680557 -0.074064106 -0.08839501 -0.07207676
000180 a2 cd 17 be d3 17 f5 3d 9c 8a 80 be b1 06 80 be
       -0.14824536 0.11967435 -0.2510575 -0.25005105
000190 3a b6 14 be 77 9c aa bd 09 17 43 be c1 2f 87 3d
       -0.14522639 -0.083306246 -0.19051756 0.06600905
0001a0 fe 89 1b 3a a5 38 15 bd 3c e3 84 3d 3a 2c 7b be
       0.0005933343 -0.036430974 0.06488654 -0.2452859
0001b0 c8 06 77 be e0 dd 8c bc 3c 77 58 be 03 ec 9d bb
       -0.2412368 -0.017195642 -0.21139234 -0.0048193946
0001c0 23 c0 2f be 02 61 a1 bd 63 1c 9f bd 19 a8 a4 bd
       -0.17163138 -0.07879831 -0.07769086 -0.080398746
0001d0 34 e3 0d bc 0e 22 47 bd ae a1 ac 3d f4 8d a2 bd
       -0.0086601265 -0.04861646 0.084292755 -0.07937232
0001e0 18 4d 9a 3d 5e ff cc ba ea 2c 2a bd 25 86 66 bc
       0.07534236 -0.001564007 -0.04154674 -0.0140700685
0001f0 b7 52 5e bd c6 62 5c 3d ef ab b6 bd 4b 66 37 be
       -0.0542781 0.053805135 -0.089195125 -0.17910115
000200 14 fb 31 bd 21 2d 06 bd 21 82 6c 3d 08 d1 41 be
       -0.043452337 -0.032757882 0.057741288 -0.18927395
000210 9a db 0c be ee e4 22 be a1 fb 0d be f1 ff 11 be
       -0.13755646 -0.15907642 -0.1386552 -0.1425779
000220 38 5f da 3d 27 cd 4b 3d 87 63 0a be 39 cc 0f 3c
       0.10662693 0.049756195 -0.13514529 0.008776718
000230 ef 9b e7 bd d2 3f 3c be 43 54 9e bc 6e 7a ce 3d
       -0.11309039 -0.1838372 -0.019327288 0.10081945
000240 a7 8f 5a 3c 23 90 04 be e8 37 02 be 9c a1 7e be
       0.013339913 -0.12945609 -0.12716639 -0.24866337
000250 07 b6 6e be e0 d0 e0 bc f5 a4 43 3d 39 78 b6 3d
       -0.23311625 -0.02744335 0.047764737 0.089096494
000260 34 38 9e 3c cc c9 92 3d 74 03 12 be cc f2 5a be
       0.01931391 0.07167396 -0.1425913 -0.21381682
000270 f0 3f 17 be 88 b2 65 3d c7 ab f9 bd 2b 5d bb 3c
       -0.14770484 0.056078464 -0.12190967 0.022871574
000280 50 4c 3d be 24 cd e4 bd f3 26 88 3d 56 1d d9 bd
       -0.18486142 -0.1117194 0.06648054 -0.106012985
000290 a8 59 b1 3c 9b 40 1c be 2d 6f 35 be 45 83 ca bd
       0.021649197 -0.1525902 -0.17718191 -0.09888319
0002a0 a8 fb 67 be de be 15 be 1b c2 b0 3d 2f e2 46 be
       -0.22654593 -0.14623591 0.08630773 -0.1942222
0002b0 d2 c0 19 be ad 43 2c be ca 92 6c be 79 97 53 be
       -0.15014961 -0.16822691 -0.2310287 -0.20663251
0002c0 76 82 64 3d fe 6f 92 bd ad ef 46 be ae 5a 28 3d
       0.05578848 -0.07150267 -0.19427367 0.041102104
0002d0 8c c9 1d be ab 2d e1 3d 72 f8 3d be c2 bf 67 be
       -0.15408915 0.109950386 -0.18551806 -0.22631744
0002e0 dd 0e 3f be 5f ea 36 be 05 b4 0e bd b7 24 35 be
       -0.18658014 -0.17862843 -0.03483965 -0.17689787
0002f0 38 02 1e 3e 10 46 2f be 47 e7 e5 bd 2a ab bc 3d
       0.15430534 -0.1711657 -0.11225753 0.092123345
000300 07 2e 3e be 15 7f f5 bd 91 6f 18 be 65 77 1e be
       -0.18572246 -0.119871296 -0.14886309 -0.15475233
000310 33 86 7b bd 86 e1 0a be cc 1c b4 3d f0 95 85 be
       -0.06140728 -0.13562593 0.08794555 -0.26090956
000320 4a 2a c3 bd 4a fe 97 3d b9 7f 82 be 0c bf 6f 3d
       -0.095295504 0.07421549 -0.2548807 0.058531806
000330 1a f6 87 bd 0b eb 6b bd 89 90 8f 3d 8c 4e 8b 3d
       -0.06638737 -0.0575972 0.0700999 0.06802091
000340 f2 1a 08 3e 6f f6 0e be 7b 2d 4b be a6 e2 a5 bd
       0.13291529 -0.13961194 -0.19841568 -0.080998704
000350 32 ea 0e be 7a c0 18 be e0 83 ec bc 51 f0 c5 3d
       -0.13956526 -0.14917174 -0.028871477 0.09664977
000360 00 87 0a be 32 6c df 3c 24 22 d9 bd 04 7a 04 3e
       -0.13528061 0.027273271 -0.10602215 0.1293717
000370 02 c6 7b bc 7d 43 06 be 91 6a 6f bc ab 67 11 be
       -0.015367033 -0.13111682 -0.01461281 -0.14199702
000380 c1 f1 0a be 1e c5 d8 bd 32 17 d6 bd b7 83 49 be
       -0.13568784 -0.10584472 -0.10453643 -0.19679151
000390 88 90 e1 bd 9a bf 1b 3d ca 3d 77 be 28 c9 cb bd
       -0.11013895 0.038024522 -0.24144664 -0.09950477
0003a0 84 3b da bd 6c d1 b9 3d c5 84 f9 bd ed b9 fd bd
       -0.10655883 0.09073147 -0.12183527 -0.12388978
0003b0 0f ba 83 be e9 fd 44 be f0 16 d4 3d ca b7 53 be
       -0.2572789 -0.19237484 0.103559375 -0.20675579
0003c0 89 e6 6a be 81 24 b5 3d cd 14 3c be 95 9c 13 3d
       -0.22939505 0.08844853 -0.1836731 0.036038
0003d0 6a a7 60 be ae b3 70 be f2 43 92 bd 4f 55 66 be
       -0.21938863 -0.23506042 -0.07141866 -0.2249348
0003e0 85 93 4a be ca 29 39 be f8 2d 39 bd 40 0d 80 be
       -0.19782837 -0.18082348 -0.045209855 -0.2501011
0003f0 57 86 53 be 66 e2 72 3d 9f 11 e3 bd b5 88 aa 3d
       -0.20656715 0.05929794 -0.11087345 0.08326856

network.6.weight f4 [128, 256]
000000 10 ec 13 bc 0c db f0 b9 77 7a 18 3d 56 42 2d 3e
       -0.00902845 -0.0004593957 0.037226167 0.16919836
000010 95 d4 09 3d 3a 28 19 3d 82 2f eb bc dd 88 53 bd
       0.03365 0.03739188 -0.028709177 -0.051644195
000020 75 16 14 3d b0 6d 11 3e 19 a7 b0 bc 19 2e 25 3d
       0.03615423 0.14201999 -0.021564053 0.040327165
000030 85 8d 52 3d b2 85 79 bc 8e cd 0e 3c 00 2f 6a bd
       0.051404495 -0.015229629 0.008716 -0.05717373
000040 48 0c ea bd e4 aa 70 bc 3a f9 90 3a 0d 19 64 3d
       -0.11428124 -0.014689181 0.0011060603 0.055687953
000050 e3 2d 3d bc c0 5e 16 3e 22 20 3b 3e f1 56 80 3d
       -0.011546585 0.14684582 0.18273976 0.06266583
000060 26 fd 67 3d 08 02 14 3d f2 88 42 3d d7 65 cb 3c
       0.056637906 0.03613475 0.047493882 0.024828834
000070 ac 64 7c 3c 32 dd a0 3d 5d 36 c0 bc 50 cd ba bd
       0.015404861 0.0785469 -0.023463422 -0.091211915
000080 d9 35 7a bc bf e8 e7 3c 48 3b 39 bd dc 5a 1f 3c
       -0.015271627 0.028309224 -0.04522255 0.009726252
000090 ca 55 a7 bd d1 d9 9c 3c 17 05 16 3d f7 8f 09 bd
       -0.0817066 0.019146832 0.036625948 -0.03358456
0000a0 e0 a7 1f 3d 3b 74 7b bd 07 b4 57 3d 21 22 98 3d
       0.038978457 -0.061390143 0.05266192 0.074283846
0000b0 cc b9 2f bd c6 1e 44 3d 38 61 5e 3e 61 35 c0 3b
       -0.0429018 0.04788091 0.21716774 0.0058657383
0000c0 cc c4 71 3d e5 38 29 bd c9 c9 90 3c 22 cb f3 3b
       0.05902557 -0.041314024 0.017674344 0.007439987
0000d0 9b fa 7d 3e 91 0e e5 bc 68 b0 88 bd ca cb 67 bd
       0.2480263 -0.027961047 -0.06674272 -0.056590833
0000e0 e3 6f e5 3c 68 93 8c 3b 8d 97 8d 3d 41 80 f9 3c
       0.028007453 0.004290033 0.06913672 0.030456664
0000f0 27 b8 ec 3c c6 a8 27 bc 52 17 e1 bc d1 b3 a5 3d
       0.028896404 -0.01023311 -0.02747694 0.08090938
000100 d4 94 8d 3c 93 3c 40 3c 85 bf 06 3d 9e 5b ff bb
       0.01728288 0.011733192 0.03289749 -0.007792904
000110 35 58 70 3d f3 24 d5 bc 7b e8 21 3c 04 b0 3b 3d
       0.05867787 -0.026018595 0.009882088 0.04582216
000120 ae 81 2e bd b5 fa 29 3c 76 f2 b6 3d 34 71 38 3d
       -0.04260414 0.010374715 0.089329645 0.045029834
000130 6f 65 4f bd d9 e3 63 bd 16 eb 3e 3d d3 d2 7a 3e
       -0.050633844 -0.055637214 0.046610914 0.24494486
000140 cc 16 aa bd fa 6d 64 3e f3 18 9b 3d b0 71 18 3d
       -0.083051294 0.22307578 0.07573118 0.037217796
000150 89 56 4d bd 35 d0 28 bc da 01 19 3d 1b e6 55 bd
       -0.050131354 -0.010303547 0.03735528 -0.0522214
000160 1d bf fd bd ba 4f 85 3d 6b 6d b6 bd 86 b3 d8 3d
       -0.123899676 0.06509347 -0.089075886 0.105811164
000170 8b 14 0b bd 9a 5c de 3c 75 7a cc 3b 13 e7 40 3d
       -0.03395514 0.027143765 0.006240184 0.04709537
000180 62 9a ae bc 75 71 01 3d 2f 16 e1 3d 82 08 56 3e
       -0.02131385 0.03160234 0.10990559 0.20901683
000190 ab 3e c1 3d ef f8 00 3d 32 fb 1c bd a0 62 be bc
       0.09435781 0.0314874 -0.038325496 -0.023240387
0001a0 93 fb ec bb 44 ee 6b 3d 49 2b a3 3d 1a 4c 38 3e
       -0.0072321384 0.057600275 0.0796724 0.1799778
0001b0 fc e2 09 3c 9a 98 a6 3c d0 e4 36 3e 11 d0 a6 bc
       0.008415934 0.020336438 0.17860723 -0.020362886
0001c0 e0 01 f5 3c bf cf 37 bd 15 48 80 3d f0 ce a5 bc
       0.02990812 -0.044875856 0.062637486 -0.020240277
0001d0 be 97 33 bd b9 e6 6c 3d 56 59 cc bd 11 18 f6 3c
       -0.043845885 0.05783722 -0.09977977 0.030040773
0001e0 7c 90 ad bb 64 b4 91 bd 9a 70 92 3d e6 6a 4b 3c
       -0.005296765 -0.07114485 0.07150383 0.012415623
0001f0 5e c3 fc bc 51 85 1a 3b 16 b9 5f 3a b6 41 db 3d
       -0.030854877 0.0023577998 0.0008534355 0.10705893
000200 09 52 eb bc 2c 55 c1 3d ac 7f ca 3d 05 37 c3 bd
       -0.02872564 0.09440073 0.09887633 -0.095319785
000210 ec b4 29 3e f4 c1 ba 3b a5 07 0e 3d 4d b0 15 3a
       0.16572922 0.0056993905 0.03467526 0.000571017
000220 15 b9 cb bb ec 21 fe 3c 50 45 8c ba 43 a3 8f 3b
       -0.006217132 0.031022035 -0.0010701809 0.004383476
000230 68 e9 c6 3b 0c c8 b3 bd 44 7a f9 bc 77 19 9d 3d
       0.0060703047 -0.0877839 -0.030453809 0.07670873
000240 c7 bb 26 bd 5f 6d 9a 3d b7 eb a4 bb 78 bb 10 3e
       -0.040706422 0.07540392 -0.005032982 0.14134014
000250 f5 e9 04 bd 1b 1b a5 bd c0 61 18 bd 69 97 47 bc
       -0.03244968 -0.080618106 -0.037202597 -0.012182095
000260 1c f2 7a bd 4f 37 50 bd 98 44 db 3d 42 85 f8 3d
       -0.06126605 -0.050833996 0.107064426 0.12134792
000270 f3 a4 b3 bb c4 69 85 bc fd 91 25 3c 80 a1 34 3c
       -0.00548231 -0.016285785 0.010105607 0.011024833
000280 a7 52 92 3d 66 44 39 3d 48 7f 92 3b ed 33 1d 3d
       0.07144671 0.045231245 0.0044707395 0.0383796
000290 e2 81 b0 bb e8 40 b7 3c 94 3f 03 3d 60 d1 0b 3d
       -0.005386577 0.022369817 0.032043055 0.034135222
0002a0 99 30 39 3e 8b 7f 87 bc 29 be 37 bd ed 10 dc 3c
       0.18084945 -0.01654031 -0.044859085 0.02686354
0002b0 9f a7 a1 3d eb e2 aa 3c 50 9a b2 bc 02 76 27 3c
       0.07893299 0.020860156 -0.021802098 0.010221006
0002c0 2b 54 4d bd 56 66 65 3d fb 85 a8 3c 6b 77 96 bd
       -0.050129097 0.0560058 0.0205717 -0.07346996
0002d0 7c 43 c8 3d 6e 7f cf 3b 94 b7 70 3e 7b 33 00 3d
       0.097784966 0.0063323295 0.2350753 0.031299096
0002e0 7f 81 76 3d f7 05 f8 3c 25 66 12 bd b6 21 02 be
       0.06018209 0.030276282 -0.035741944 -0.12708172
0002f0 c5 7b 6a 3d ef f6 44 3d 02 aa 51 3d 38 25 3b bd
       0.057246942 0.048087057 0.051187523 -0.04568979
000300 7d 44 59 bc f8 38 61 3d c1 a7 25 3d 0e 6e ac 3c
       -0.013260958 0.05498597 0.040443186 0.021048572
000310 01 75 4f 3d a5 fa aa ba 4d aa 87 bd 83 0e 53 3e
       0.050648693 -0.0013044669 -0.06624279 0.20611005
000320 3a bf e0 3d 68 16 11 3c 0f 1b d7 3d e8 35 27 bd
       0.109739736 0.00885544 0.10503208 -0.040822893
000330 07 a8 2f 3d ff 7c dc 3d 34 f4 11 bd 8a f8 09 bd
       0.042884853 0.107660286 -0.03563328 -0.03368429
000340 b4 ef b7 bd 7c 73 b4 3c a3 41 66 3c ae d8 77 3c
       -0.089812666 0.022027723 0.014053735 0.015127344
000350 b6 4e 90 3d 47 76 99 3d 41 18 8b 3d b5 4d e1 bc
       0.07046263 0.07493263 0.067917354 -0.027502874
000360 d3 62 fc 3c 83 9c ef bc 51 04 40 3d 53 fc b7 3c
       0.030808842 -0.029249435 0.046879116 0.022459185
000370 a4 12 5c bd ec 96 d5 bb 22 47 c1 3c d0 d7 2a bb
       -0.053728715 -0.0065182354 0.02359349 -0.0026068576
000380 bb 2a a6 3d 1b fc ae 3d e4 b3 fa 3d 08 0b cc 3d
       0.08113619 0.08544179 0.12241343 0.099630415
000390 e3 78 34 3d 61 94 80 bd 7c d5 15 3d b5 78 bf 3b
       0.0440606 -0.06278301 0.036580548 0.005843247
0003a0 c2 6a 62 3e d4 cf 53 3c 10 6c b2 3d 4f fe 3d 3d
       0.22111037 0.012927968 0.087120175 0.046385106
0003b0 ed bb 35 3b 4c 0d a2 bd ab 6a d0 bd 60 50 5f 3d
       0.002773042 -0.079126924 -0.10176595 0.05452001
0003c0 59 ab b2 bc 01 0e 58 bd 62 41 2e 3d d0 cb 28 bd
       -0.02181022 -0.05274773 0.042542823 -0.041209996
0003d0 1f e5 f3 3d 1d 85 0c bc 9b 8f bf bc 86 d9 5f 3e
       0.11908936 -0.008576659 -0.023383906 0.21860322
0003e0 77 77 de 3d 54 44 29 3b e0 63 48 3c 72 6b 0d bd
       0.1086263 0.002582808 0.012230843 -0.034526296
0003f0 cd b9 52 3e 5e 42 7d bd b4 04 87 3c f3 49 0e bb
       0.2057869 -0.06183087 0.016481735 -0.0021711558

network.6.bias f4 [128]
000000 15 20 6a bd d0 a3 33 bd b4 c2 b1 bd d4 2a 1d bd
       -0.057159502 -0.043857396 -0.08679715 -0.038370922
000010 5a 4b d6 39 3f d1 27 3c 0b 76 23 bd 68 58 6e bd
       0.00040873402 0.010242759 -0.039907496 -0.05818978
000020 df 4f 88 bd 50 79 1f be f0 14 89 bc 8c 4f 80 bd
       -0.06655859 -0.15573621 -0.016733617 -0.06265172
000030 d5 33 03 bd 3d c5 32 bc 26 75 aa bc 25 c9 ab bc
       -0.032031853 -0.010911283 -0.020807814 -0.020969937
000040 d6 16 19 bc b9 e5 ce bc 38 98 b5 bd bf 7f df ba
       -0.009343823 -0.025256025 -0.08866924 -0.0017051621
000050 44 b0 d2 bd 75 98 e9 bc 5c 63 8f bb ac 73 91 bd
       -0.10287526 -0.02851508 -0.004375858 -0.07102141
000060 b1 70 f4 3c af af 3b bd df fe b8 bd 10 84 58 bd
       0.029838892 -0.04582184 -0.09032988 -0.05286032
000070 55 b9 eb bc 9e a8 77 bc 63 1f 07 bd 45 71 55 bd
       -0.028774897 -0.015115885 -0.032988917 -0.052109975
000080 28 5f 39 bd 9e 47 49 bd 68 d4 a1 bc 83 52 de 3c
       -0.045256764 -0.049140565 -0.019754604 0.027138954
000090 4b 2f 1f bd eb 75 e4 bb a7 ae 2b bb e0 4a 9e bd
       -0.03886346 -0.0069720647 -0.002619663 -0.07729125
0000a0 e3 8c 88 bd 7a 24 d0 bc f7 b6 25 3d 0d d1 49 3d
       -0.06667497 -0.025408018 0.040457692 0.049271632
0000b0 a4 d6 c3 bd 38 bd 2b be 40 be 66 3c f3 e5 95 ba
       -0.09562424 -0.167714 0.014083445 -0.0011436328
0000c0 1a 3f 1d 3d f7 07 5a bc 06 42 2a 3d fc 0d c5 3d
       0.038390256 -0.013307563 0.04156687 0.09621808
0000d0 d9 11 0c 3d dc 91 12 3a 2f 5f c5 bd 39 d9 cc bc
       0.03419671 0.0005591193 -0.096372955 -0.025005924
0000e0 39 9d c8 bb 44 20 a8 bc 4c 0a 1b bd 66 46 1e bd
       -0.006122258 -0.020523198 -0.037851617 -0.038641356
0000f0 b9 2a 56 bd f4 97 ab 3c 26 8c 5f bd 1e 88 ee 3c
       -0.052286837 0.02094648 -0.054577015 0.02911764
000100 f0 28 1f bd 8d 40 02 bd 2a 35 88 bd 93 0a 11 bc
       -0.0388574 -0.03179984 -0.06650765 -0.008852619
000110 7c a7 2a bd 01 35 93 bc 6e 1f bd bc 49 c0 f0 bc
       -0.04166363 -0.01796961 -0.023086276 -0.029388564
000120 37 76 9c bb ce b3 58 3c 02 ad bf bb 9d 22 66 be
       -0.0047748345 0.0132264625 -0.0058494816 -0.22474141
000130 50 ea 0f 3c f6 51 3a 3d fd 9e 4d bc d7 05 e7 bc
       0.008783892 0.04548832 -0.012550113 -0.028201027
000140 11 80 e5 bc dd c1 20 bd 15 d0 f7 bb c0 91 d3 bd
       -0.028015168 -0.039247382 -0.007562647 -0.10330534
000150 e5 5b 1a bd 55 a6 63 bd 2b aa 09 bc 67 f4 a9 bd
       -0.037685294 -0.05557855 -0.008402388 -0.08298569
000160 60 e6 8f bd 7d 02 fc bd 84 5c 4e bc 6c f5 8e bc
       -0.070263624 -0.12305162 -0.0125953 -0.01745101
000170 ab ee 87 bd 90 f5 67 bb 45 7e 87 bd 22 53 2e bd
       -0.06637319 -0.003539417 -0.06615881 -0.04255975
000180 51 8f 8a bd 55 1f 80 3d 3b 1e ad bb 98 e7 61 3d
       -0.06765617 0.06255976 -0.005283145 0.055152506
000190 76 72 2c 3c 21 95 b7 3d c1 be 17 3d ba 5d d9 bd
       0.0105253365 0.08963991 0.03704715 -0.1061358
0001a0 72 7d 99 bd 4f 8d fe bc 43 1a 3f bc fb 97 18 bd
       -0.0749463 -0.03107324 -0.011663976 -0.037254315
0001b0 af 05 03 bd da ad c1 bd 96 7c d3 bc 89 ce 15 3d
       -0.031987842 -0.09456988 -0.025816243 0.03657392
0001c0 8f 2d 6e bd 8c 92 41 bc 5c b9 53 bd 2d 1d d2 3c
       -0.058148917 -0.011814725 -0.051690444 0.025648678
0001d0 60 82 b6 bd ad c0 42 bc b9 71 13 3b 55 17 32 bd
       -0.08911586 -0.011886758 0.0022498204 -0.043479282
0001e0 3e 7d ec 3c 68 a8 e0 bb 47 36 09 be dd 07 22 bd
       0.028868314 -0.006856013 -0.13399611 -0.03955828
0001f0 47 88 8d bd 15 16 e1 3d f9 90 8a bd a7 bc ec 3c
       -0.069107585 0.1099054 -0.067659326 0.02889855

network.9.weight f4 [1, 128]
000000 fc 09 ac 3e e1 ae 28 be ab 00 af 3e 8a cf d8 bd
       0.33601367 -0.16472961 0.34180197 -0.1058646
000010 e5 b1 a3 3e bc a7 88 bd 42 b5 b3 3e 6e fd b8 3e
       0.3197166 -0.06672618 0.35099226 0.36130852
000020 3e 35 04 be 09 a1 3a be f4 09 7e be ff 85 c4 3e
       -0.12910935 -0.18225493 -0.24808484 0.3838348
000030 7b 68 4c be ab 65 d3 bd 7f 54 b5 bd 75 f9 d7 bd
       -0.19961731 -0.10322126 -0.08854007 -0.10545627
000040 a9 5e af bd 91 df 89 bd e3 48 b1 3e 3e 11 b4 bd
       -0.08562977 -0.06732095 0.3462592 -0.08792351
000050 49 50 bd 3e 3b 4c b7 3e de 89 83 bd 0e 7e a6 bd
       0.36975315 0.35800347 -0.064227805 -0.08129512
000060 73 e7 d2 3e 77 fc ae 3e a9 f0 c5 3e 0b b8 b7 3e
       0.41192207 0.3417699 0.38660172 0.358826
000070 4b 95 c2 bd c6 cd c7 3e f2 eb c2 3e e4 38 b2 3e
       -0.095011316 0.3902418 0.38070637 0.3480903
000080 6c e8 c5 bd 00 2a 6d be 68 4f 91 bd 75 7f b4 3e
       -0.096634716 -0.23160553 -0.07095224 0.35253492
000090 98 b2 c9 3e cf 89 99 bd 08 4a 9a bd ce 56 d2 bd
       0.3939407 -0.07496988 -0.075336516 -0.10270463
0000a0 2f 79 db 3e 36 20 c0 3e 73 55 dd 3e 95 33 cc 3e
       0.42865893 0.37524575 0.43229255 0.39883104
0000b0 52 f1 bc 3e 63 e2 46 be 0c e7 e3 3e e7 16 d9 3e
       0.36902863 -0.19422297 0.44512212 0.42400286
0000c0 d9 bb 9a bd 85 35 d1 bd 5c ee dc 3e 8b d1 f8 3e
       -0.0755536 -0.10215286 0.43150604 0.4859737
0000d0 ed 5b 9f bd 36 c0 d3 bd 49 14 ba 3e 57 53 c8 3e
       -0.07781205 -0.10339396 0.363436 0.39126083
0000e0 a8 1d af 3e 26 c3 c4 3e 8c fa c1 3e c6 8f fe 3e
       0.34202313 0.38430136 0.37886465 0.49719065
0000f0 cc 97 13 be 39 90 bd 3e 7e 64 cb 3e 19 20 fa 3e
       -0.14413375 0.37024096 0.39725107 0.48852614
000100 93 48 cb 3e 99 0c d6 3e 12 21 cd bd 2d 1c da 3e
       0.39703807 0.41806486 -0.10016073 0.4259962
000110 fb 1b e5 3e 29 74 df 3e e1 97 8e bd 57 9a b5 3e
       0.4474791 0.4364331 -0.06962562 0.35469314
000120 47 20 81 bd 07 61 b5 3e c4 be a8 bd 13 85 41 be
       -0.063049845 0.35425588 -0.08239511 -0.1889842
000130 96 1d b0 bd b5 ae d5 3e e2 4e 4e bd 89 d5 b6 3e
       -0.08599393 0.41734853 -0.050368197 0.3570979
000140 e6 ff c6 3e e0 4e 99 bd 99 31 fa bd c2 3c a0 bd
       0.3886711 -0.07485747 -0.12216491 -0.07824089
000150 61 c7 4e be 52 8b 3b be 91 4f b9 3e 5a a0 e5 bd
       -0.20193245 -0.18314865 0.36193517 -0.11212225
000160 ba 51 c2 3e a0 92 ae 3e 1d 54 aa bd 9c d8 6b bd
       0.37952977 0.3409624 -0.083168246 -0.05757962
000170 a8 ac e5 bd 2f 13 64 be 39 6e bd 3e fd d1 cb bd
       -0.11214572 -0.22272943 0.36998156 -0.099521615
000180 39 30 c3 3e 4b 66 e9 3e d9 37 9a bd 6c ce d1 3e
       0.38122728 0.45585856 -0.07530183 0.409778
000190 31 ef cd 3e 64 8d a8 3e 5e df 0c 3f b2 a4 c0 3e
       0.4022155 0.32920372 0.5502833 0.37625653
0001a0 7e 8a 6c be e5 96 b3 bd e4 13 b8 3e 8f 6e cb 3e
       -0.23099706 -0.08769015 0.35952675 0.39732787
0001b0 a6 b8 b5 3e 8c 98 8c 3e 56 7d df bd 7b 4d 00 3f
       0.35492438 0.27460134 -0.10912578 0.50118226
0001c0 3f 53 29 be 74 c1 a9 bd 3d 30 21 be 5c ac a0 bd
       -0.16535662 -0.082888514 -0.15741058 -0.07845375
0001d0 d4 98 b2 3e ec e9 d7 bd e5 68 f9 bd f4 4d c6 3e
       0.34882224 -0.10542664 -0.1217821 0.3873135
0001e0 7a d8 ea 3e 2e 9e b6 3e c7 f3 c8 3e 3c 1c b0 3e
       0.45868284 0.35667557 0.39248487 0.3439654
0001f0 68 f4 b1 3e ee 2a 91 3e 30 1d a9 3e 24 c3 80 bd
       0.3475678 0.28353065 0.3303008 -0.0628722
