models/epoch_70/generator.pth (torch, 485191 bytes, 20 tensors)

network.0.weight f4 [128, 100]
000000 4f 6f c0 bd 28 fe 34 3d b2 c7 70 3d 74 23 2d bd
       -0.093962304 0.044187695 0.058784194 -0.04227014
000010 a8 4b 68 bc 3c 4f c9 3c c6 57 97 bd 28 23 8a bd
       -0.014178194 0.024573915 -0.07389788 -0.06744987
000020 d2 96 68 bd 9c e9 33 3c c0 6d 52 bc a4 5a de bc
       -0.05678446 0.01098099 -0.012843549 -0.02714283
000030 52 77 8f bd d6 01 d0 3c 3f 65 0c bd 65 2d 71 bb
       -0.070051804 0.0253915 -0.034276243 -0.003680074
000040 93 09 c2 bd 35 95 87 bd 2f a4 44 3d 3b 59 83 bd
       -0.094744824 -0.06620256 0.04800814 -0.06413504
000050 f1 85 88 bd d3 29 08 bd 5c 12 11 bc 3c 3f 5f bd
       -0.06666172 -0.03324301 -0.008854475 -0.054503664
000060 4a 20 56 3d fa af 92 bc 82 22 ae bd 1e 5a 9d bd
       0.052276887 -0.017906178 -0.085026756 -0.07683204
000070 77 7c b2 bc 34 ea b2 bd 92 7d d5 bd 11 3c 20 bc
       -0.021787865 -0.08736077 -0.10424341 -0.009779946
000080 60 a6 a4 bc 66 35 d9 3d 07 1d 22 bc 7f e7 46 bd
       -0.020098865 0.10605888 -0.009894616 -0.048560616
000090 ca 81 4e bd be 87 d0 3b 55 c6 40 bd 7e 31 b3 bd
       -0.050416745 0.006363838 -0.047064144 -0.08749674
0000a0 d4 46 6b 3d 98 7a 61 3d f8 fd dd bd a3 62 d3 bc
       0.057440594 0.055048555 -0.10839456 -0.02580387
0000b0 ab 5c 9d 3c 8f 15 97 3d 34 e3 18 3d 97 03 6d bc
       0.019209227 0.07377159 0.037326053 -0.014466188
0000c0 4a e5 0c bd 76 e9 c5 3d 3d 42 2a 3c 10 21 5e 3a
       -0.034398355 0.0966367 0.010391769 0.00084735546
0000d0 9d e1 f9 bc d2 f0 f1 bd 4f d7 4d bd be e3 5a 3d
       -0.030503089 -0.11813511 -0.050254162 0.053439848
0000e0 71 23 c5 bc 85 7b 5e 3d 3f 50 ff bd 7d e5 cc 3d
       -0.024064751 0.054317016 -0.124664776 0.10004709
0000f0 fd f5 e1 bc ff 0a e6 bc 0e 25 06 bd 84 0a 00 bd
       -0.027583117 -0.028081415 -0.03275018 -0.03126003
000100 d6 ff 64 bd 9a e2 7b 3d a8 1c d0 3d 1f f0 ae 3d
       -0.055908047 0.0614954 0.10161716 0.08541893
000110 95 c2 d5 bc dc 53 9e 3d 01 b3 1c be 19 a5 16 bc
       -0.02609376 0.07730839 -0.1530266 -0.009194636
000120 c3 36 94 3d 6a 97 74 bd fc 1c 05 3c dc fa e6 3d
       0.072370075 -0.059714712 0.008124586 0.112783164
000130 af 0e 9c bd 53 71 3a 3c 04 f4 58 3d 2f 3f 87 3d
       -0.07619988 0.011379558 0.052967086 0.06603848
000140 d7 22 d3 bc 3a 69 f7 3d f1 bc 28 bd ad 86 0a bb
       -0.025773449 0.12080617 -0.041195814 -0.0021137402
000150 e6 d9 b5 bd 38 b7 98 3d 2b a5 08 bc 19 de d4 3d
       -0.088794515 0.07456821 -0.00834016 0.10393924
000160 24 ba dc 3c 70 32 53 3c 34 83 a0 bd 9e 44 a6 3d
       0.026944228 0.012890443 -0.07837525 0.081185564
000170 53 23 63 bd 39 b8 9c bb 10 09 4e 3d ad bb 0d bd
       -0.05545361 -0.0047827032 0.05030161 -0.03460281
000180 d8 b2 5c 3c a4 3b f9 bd 9a 07 65 3d 6a 19 a4 3d
       0.013470374 -0.12169579 0.055915453 0.0801266
000190 e1 88 75 3d 9f fd 03 bd 1f 96 18 bd fa 0d 7f bc
       0.05994499 -0.032224294 -0.03725254 -0.015567297
0001a0 36 2d a7 3c 0f d3 23 bd 54 f0 e2 3c b3 76 c9 bd
       0.0204073 -0.039996203 0.027702488 -0.09837093
0001b0 e9 7c f9 3c 5c 61 8f 3c 50 8b 03 3e 21 e4 de bd
       0.03045507 0.01750248 0.12846112 -0.10883356
0001c0 a3 ef f1 3c 45 1d b4 3d a6 7e 36 bd b0 5e d5 3b
       0.029533213 0.08794645 -0.044554375 0.006511532
0001d0 be 15 b1 bd ee d1 6c 3d b1 bf ae 3b aa 23 5d bc
       -0.08646725 0.057817392 0.00533291 -0.0134972725
0001e0 f1 04 2f bd e5 00 72 bd b2 e7 3e bd 62 90 85 bd
       -0.042729322 -0.059082884 -0.04660768 -0.065216795
0001f0 68 2d e3 3c f5 44 00 3c ba 72 19 bd 53 92 2c 3d
       0.027731612 0.007828941 -0.037462927 0.042131733
000200 12 c8 c4 3d a2 ba c6 3d d2 03 9d 3d 6d 90 b3 bd
       0.09608473 0.09703566 0.07666744 -0.087677814
000210 ac c1 a8 3d 48 7a 6c 3d ae f3 e9 bb 7d f1 77 3d
       0.08240065 0.057733804 -0.0071396446 0.060533036
000220 6c 81 9b bd 3a 94 14 3c 1c 24 a5 3d 3c 0d 8e bc
       -0.07593045 0.009068543 0.08063528 -0.017340295
000230 4e dc 14 3d ef 04 9a bd 9c ad 83 3b b3 65 0e bd
       0.03634291 -0.07520472 0.0040184986 -0.034764957
000240 18 70 9a 3d d3 6f d1 bd 88 e8 89 bc b6 03 b4 bd
       0.075409114 -0.10226407 -0.016834512 -0.0878977
000250 b0 5f b4 3d 64 91 bf 3d 4e c2 a8 3d 43 9a 90 bc
       0.088073134 0.09353903 0.08240186 -0.017651683
000260 12 75 ae 3d 08 27 0b bd 67 29 99 3d d9 cc 70 3d
       0.08518423 -0.03397277 0.074786 0.058789108
000270 6a fb 97 bd 77 77 df 3d e6 33 ce bc 8a 1d 8c 3d
       -0.07421 0.10911458 -0.025171231 0.06841572
000280 2c 92 41 bd 8b 78 b5 bb 10 4b dd bd 63 fb d3 bc
       -0.04725854 -0.0055380515 -0.10805333 -0.025876706
000290 8a 17 39 39 b9 aa 9b bd 2f a6 d4 3c dc 28 0f bd
       0.00017651744 -0.07600922 0.025958149 -0.034951076
0002a0 14 ad 5e 3d 45 5f ff 3c 2b 12 ea 3d 68 dd e1 bd
       0.05436428 0.031173358 0.114292465 -0.11028558
0002b0 d8 af 1b bd 19 4a 81 3d 28 d3 c0 3a f1 38 b2 3d
       -0.038009495 0.06312961 0.0014711367 0.08702267
0002c0 c2 4b 1c 3d d6 de a3 bd 2b c1 6b 3d 2e 00 e6 bc
       0.038158186 -0.08001487 0.057557266 -0.028076258
0002d0 e5 36 64 3d 29 f1 cb 3c fd cf cc 3d da 7c b6 bc
       0.055716414 0.024895268 0.10000608 -0.02227633
0002e0 36 e1 53 bd ac 2d b4 bd ca 11 7a bc 1d 56 81 3d
       -0.05172845 -0.08797774 -0.01526303 0.06315253
0002f0 4d 8f 9f bd 8d 77 d3 bd 44 ce 58 bd 0a 11 5b 3d
       -0.07791004 -0.10325537 -0.052931085 0.053483047
000300 0f bc 98 bd 83 ee 91 3d 20 03 cf bd 62 97 ae bc
       -0.07457744 0.071255706 -0.10108018 -0.02131242
000310 a5 fb 0b 3c 7d 4f 02 3e 8f 83 fc 3c 02 b8 a4 bc
       0.008543883 0.12725635 0.03082445 -0.020107273
000320 e2 6f 6c 3a 46 d7 56 3d 54 04 3b bb d6 af a0 bd
       0.00090193574 0.052451394 -0.0028536515 -0.07846038
000330 65 50 9e bc 34 05 9e bc c0 35 48 3d d0 2a 66 3d
       -0.019325444 -0.01928959 0.048879385 0.056193173
000340 23 db b9 bd dd 80 79 3a 0a 57 10 bd 4c 5e 5b 3c
       -0.09075 0.00095177983 -0.035239257 0.013389181
000350 86 82 b9 3d 6b 41 b2 3d 0a 37 b6 bb 52 81 25 3d
       0.090580985 0.08703884 -0.0055607604 0.040406533
000360 3f de 82 3c 5d 08 07 be c5 93 28 bc 2b d5 5f bc
       0.015975116 -0.13186784 -0.010289137 -0.013661663
000370 6a ee ae bd 0b e5 34 3d c8 42 cf bd 67 1d 8d 3d
       -0.085415676 0.044163745 -0.101201594 0.06890374
000380 a0 d8 c1 3d 52 65 98 bd 25 f3 29 be 31 11 b4 bd
       0.09465146 -0.074412 -0.16596659 -0.087923415
000390 46 5a 9f 3d 74 41 d1 bb 13 d0 36 3d 03 f3 68 bd
       0.0778089 -0.0063859764 0.04463203 -0.05687238
0003a0 b6 57 11 3d 38 b8 aa bc 79 2b 01 be 43 72 2f 3d
       0.03548404 -0.020839795 -0.1261424 0.042833578
0003b0 81 e0 37 3d 0f 46 de bd 6d 60 75 bd 73 69 47 3d
       0.044891838 -0.10853206 -0.059906412 0.04868455
0003c0 06 c4 7a 3d 1c 69 1b bd ac c7 01 bd 08 55 c4 bd
       0.0612221 -0.037942037 -0.031684563 -0.09586531
0003d0 5c 57 3d 3c 60 c4 5c bd fd fa dc bd c2 96 b8 3d
       0.011556473 -0.053898215 -0.1079006 0.0901313
0003e0 0a c8 95 3d 9b 99 2e 3c 63 b5 d5 bc 7e 7f 83 bd
       0.07313545 0.01065674 -0.026087468 -0.064208016
0003f0 8a 1c 0c bd 2f e4 56 bc 39 6f a3 3d f1 cf 00 3e
       -0.034206904 -0.013115927 0.079801984 0.12579323

network.0.bias f4 [128]
000000 ce 9f da bd 5c 28 f7 3d fa ee 42 3d b3 0a 5d 3b
       -0.106750116 0.12068245 0.047591187 0.00337283
000010 37 54 8c 3d 04 52 84 3c 98 72 c3 3d a8 8a e4 3d
       0.06852 0.01615239 0.095433414 0.11159259
000020 86 a6 3f 3c 5e 8c 3e 3b 7a 5d b5 bd 6c 64 e3 bb
       0.011697417 0.0029075365 -0.0885572 -0.0069394615
000030 a8 eb 42 3d 91 52 d5 3d 22 52 4b 3d b1 26 cf 3d
       0.04758802 0.10416139 0.049638875 0.10114802
000040 9a 85 a5 bd a1 ca 4a bc f9 76 9f bc 64 2d 84 3d
       -0.08082123 -0.012377412 -0.01946591 0.0645397
000050 75 30 11 bc a8 bc 6d bd 12 1b cb 3c b5 9e 0c be
       -0.008861651 -0.058041245 0.024793182 -0.13732417
000060 0c 4a e5 3c e4 4d 63 bd 87 ae 44 bd e9 b3 49 bd
       0.02798941 -0.055494204 -0.048018005 -0.04924384
000070 c0 b9 bc bc e7 c1 8f bd 52 33 24 bb a7 75 8e bd
       -0.023037791 -0.07019406 -0.0025055003 -0.06956034
000080 2b 05 72 bd 81 a9 95 3d e3 5a 91 3d 0d 46 d0 3d
       -0.05908696 0.07307721 0.070974134 0.10169611
000090 5a 49 7b bc 6d ef 8e bd 44 3d 06 3e 0e c4 b1 bd
       -0.015337313 -0.069792606 0.13109308 -0.086799726
0000a0 c0 36 45 bb 85 d1 18 bd 45 a7 bd bd b9 6c 15 3c
       -0.0030092448 -0.03730919 -0.0926042 0.00912016
0000b0 d0 6c cb 3b da 14 25 bb 17 8c 81 3d d7 ed 95 bc
       0.00620804 -0.002518943 0.06325548 -0.018301887
0000c0 4e 73 8e bd 6c 9d ee 3c dc 6e af 3d b1 d8 e4 3d
       -0.069555864 0.029127799 0.085660666 0.11174143
0000d0 4d 7c 6b 3d 77 ae f4 bd ec ae 71 3d 35 f9 6f 3c
       0.05749159 -0.11947339 0.05900471 0.014646818
0000e0 44 3d 4a bc 78 d0 8b bc 3a 99 09 3c 02 ca 09 3d
       -0.012343708 -0.01706718 0.008398348 0.033639915
0000f0 ae 2f d5 3d 6c 0f 80 bd 68 5c 6a 3d 30 2d d1 bd
       0.10409485 -0.062529415 0.05721703 -0.10213697
000100 71 35 97 bb 65 d1 b5 bd d7 e1 55 bd c1 b5 ee 3b
       -0.004614525 -0.088778295 -0.05221733 0.0072848503
000110 11 d2 d9 bd 04 cf 97 3c 06 55 bd 3d 8d 7b a1 bc
       -0.1063577 0.01853133 0.092447326 -0.019712234
000120 d9 98 59 3d 33 51 84 bd c7 0a 73 3d 07 57 f8 bc
       0.053124283 -0.064608 0.05933645 -0.030314935
000130 b3 ec b2 3c e1 6b 63 bd f4 0d e5 bd 1a 57 82 bd
       0.021841383 -0.055522803 -0.11184302 -0.063642696
000140 7c 14 94 bd 2a f1 c5 3d e1 e8 5c 3b af 65 48 bd
       -0.072304696 0.09665139 0.0033708143 -0.048925098
000150 84 f8 7e 3d dd f8 d2 3b 81 97 c8 3d bf 7e 42 bc
       0.06224872 0.006438358 0.09794522 -0.011871039
000160 e2 d0 aa bb cd 07 bf bc 2b 92 48 bd fb 8f 39 3d
       -0.005212889 -0.02331915 -0.04896752 0.045303326
000170 d4 69 47 3d d5 d8 87 bd fa 99 9a bd 88 bf 90 bb
       0.04868491 -0.06633154 -0.075489 -0.0044173636
000180 4f 2e fc bc f5 f1 96 3c 32 aa 5f bd 65 48 a9 3d
       -0.0307838 0.018425921 -0.05460567 0.08265761
000190 69 06 1a bc 5c 96 c1 bc 66 26 0d bd 9e 56 9b bd
       -0.009400942 -0.023631267 -0.034460448 -0.0758488
0001a0 cd 54 9c bc 0e 76 87 3d f6 75 9b bd 5e fc 76 bd
       -0.019083405 0.06614314 -0.07590859 -0.06029927
0001b0 b9 ae 0b bd 72 93 01 be a7 ff b1 3c 5f 46 d1 bb
       -0.034102175 -0.12653902 0.02172835 -0.0063865627
0001c0 0e 60 56 bd e9 e4 f0 bd e5 0e 8b bd b8 21 95 3d
       -0.0523377 -0.11762411 -0.0678995 0.07281822
0001d0 0a 26 71 bd 36 7f 18 3d 0f 50 82 3d 39 34 c5 3b
       -0.058874168 0.037230693 0.06362926 0.0060181883
0001e0 36 6f a7 3c 56 bd a2 bd 39 93 c3 bd 71 00 7e 3c
       0.020438772 -0.07946269 -0.09549565 0.015503035
0001f0 56 c4 04 3e a3 1b 00 3e 13 a8 91 3b ca 2f de bc
       0.12965521 0.12510543 0.004445085 -0.027122397

network.2.weight f4 [128]
000000 57 2f 80 3f 73 c6 80 3f 6d cb 76 3f 80 b1 81 3f
       1.0014447 1.0060562 0.96404153 1.0132294
000010 30 dd 6e 3f e0 31 86 3f 2b 13 85 3f 4a 82 85 3f
       0.93306255 1.0483971 1.0396475 1.0430386
000020 93 ed 78 3f 7a bb 80 3f ea 62 74 3f a8 0b 7d 3f
       0.9723751 1.0057213 0.9546343 0.9884591
000030 9b ca 77 3f 0b c3 80 3f 27 15 7e 3f af 3f 7e 3f
       0.96793526 1.0059522 0.99251026 0.99315923
000040 f8 22 81 3f a8 26 82 3f 46 31 79 3f 47 46 85 3f
       1.0088797 1.0168047 0.9734081 1.0412072
000050 5d 4a 7e 3f 25 f5 76 3f e8 55 70 3f bf 97 7a 3f
       0.9933222 0.9646781 0.9388108 0.97887796
000060 1a b7 7e 3f 63 ed 7f 3f bb 83 7e 3f 03 df 76 3f
       0.9949814 0.999716 0.99419755 0.9643404
000070 dd 95 76 3f 3a 16 83 3f 17 6e 81 3f 9f e1 6d 3f
       0.96322423 1.0241158 1.0111722 0.92922395
000080 ee e3 7b 3f 37 6d 80 3f 73 5c 86 3f 36 0f 84 3f
       0.9839467 1.003333 1.0496963 1.0317142
000090 76 96 7b 3f 65 de 84 3f fc a4 71 3f a2 92 79 3f
       0.9827646 1.038037 0.9439237 0.9748937
0000a0 c9 b6 7f 3f 24 7a 7a 3f 3c d2 79 3f b1 4e 76 3f
       0.99888283 0.9784262 0.9758642 0.96213824
0000b0 65 0d 81 3f 61 c4 74 3f f0 76 92 3f 9e 8d 82 3f
       1.0082213 0.9561215 1.1442547 1.0199468
0000c0 9f 00 7c 3f b2 31 7c 3f 98 a8 7b 3f 98 ee 7f 3f
       0.9843845 0.9851333 0.9830413 0.9997344
0000d0 03 73 82 3f ae ce 78 3f 6f 1b 7e 3f c8 6e 86 3f
       1.0191349 0.9719037 0.9926061 1.0502558
0000e0 e0 da 80 3f e2 90 82 3f 64 d7 83 3f 73 8b 7d 3f
       1.0066795 1.0200465 1.0300107 0.9904091
0000f0 aa 4e 83 3f 7f 0d 73 3f ce 83 86 3f a8 c3 68 3f
       1.0258381 0.9494247 1.0508974 0.9092355
000100 cb 53 7d 3f 2b 4c 85 3f b3 64 78 3f 5e b8 7c 3f
       0.9895598 1.041387 0.97028655 0.9871882
000110 7e 7d 81 3f 9d c1 74 3f c7 25 7e 3f 2f d7 80 3f
       1.0116422 0.9560793 0.99276394 1.0065669
000120 e3 46 85 3f 8f 94 77 3f 12 d1 6c 3f 69 27 70 3f
       1.0412258 0.9671106 0.92506516 0.93810135
000130 db 19 72 3f 13 88 82 3f 26 52 7c 3f 72 05 84 3f
       0.945707 1.0197777 0.9856285 1.0314162
000140 65 66 72 3f 0f ea 80 3f 12 c8 7a 3f 03 5a 7b 3f
       0.9468749 1.0071429 0.97961533 0.9818422
000150 30 c5 81 3f 9a 16 83 3f 48 00 7f 3f 49 38 7b 3f
       1.0138302 1.0241272 0.99609804 0.9813276
000160 f1 a5 7a 3f a8 22 8a 3f 69 c1 76 3f ec 27 81 3f
       0.97909456 1.0791826 0.9638887 1.0090308
000170 22 b4 81 3f 9f de 7c 3f 86 2a 79 3f a9 67 7e 3f
       1.0133097 0.9877719 0.9733051 0.9937692
000180 c1 b1 72 3f e0 2d 8b 3f ad 15 84 3f f4 8e 7a 3f
       0.9480248 1.0873375 1.0319115 0.9787438
000190 89 28 82 3f 95 5e 8b 3f 9c 2f 73 3f ac 0a 7c 3f
       1.016862 1.0888239 0.9499452 0.98453784
0001a0 dd 6b 6b 3f 86 d7 84 3f 8b c1 73 3f e6 84 86 3f
       0.9196146 1.0378273 0.952172 1.0509307
0001b0 af b5 86 3f 8b e7 87 3f 18 40 7f 3f aa d0 7e 3f
       1.0524195 1.0617536 0.99707174 0.99537146
0001c0 93 a0 72 3f 38 f0 7a 3f 4e 78 87 3f 65 95 85 3f
       0.94776267 0.98022795 1.0583589 1.0436217
0001d0 6f 35 7f 3f 09 d7 73 3f 33 32 79 3f 48 56 81 3f
       0.9969091 0.9524999 0.9734222 1.0104456
0001e0 ba 95 80 3f 61 6d 79 3f 17 d6 82 3f 30 7a 89 3f
       1.0045693 0.97432524 1.0221585 1.0740414
0001f0 8a 98 83 3f 16 9a 7a 3f 6c 72 82 3f 91 48 84 3f
       1.0280926 0.97891366 1.0191169 1.0334646

network.2.bias f4 [128]
000000 02 9b 88 bb 8d d1 4c 3d 3b be 4c bd 17 8f 3e bd
       -0.004168869 0.05000453 -0.049986105 -0.04652318
000010 b2 b2 03 bd a7 b8 3f be a2 97 f5 bd 89 61 fd 3d
       -0.03215284 -0.18722783 -0.11991812 0.12372119
000020 07 d3 a4 3d c6 ca 87 bd f8 af a8 bc 70 f2 3b bd
       0.08048063 -0.06630473 -0.020591721 -0.045885503
000030 ac 5b 83 bc 63 8c ca 3d 6d af d3 3d f3 0e 98 bc
       -0.016034923 0.09890058 0.10336194 -0.018561816
000040 67 70 55 bd b4 ea 8d 3c 89 91 0d 3e b8 68 42 be
       -0.05210915 0.01732383 0.13825049 -0.1898526
000050 4d a6 d6 bd 1f c8 af bc 52 6e a9 bd 95 4c 31 bd
       -0.10480938 -0.02145773 -0.08272995 -0.043285925
000060 da 25 ab 3d b8 18 5f bd 1e 42 c2 3c f7 f4 83 bc
       0.08356829 -0.054466933 0.023713168 -0.01610802
000070 26 c7 38 bd 2e ae 9e bd 6b ca 00 be f1 1a 07 3d
       -0.045111798 -0.07748066 -0.12577216 0.032984678
000080 85 c3 47 bd 25 68 6a bd c6 01 ac 3d 98 5e 28 3c
       -0.048770446 -0.057228226 0.08398776 0.010276459
000090 36 0f 1b 3e 9b a1 c3 bd 00 63 f3 3c 62 87 82 3c
       0.15142521 -0.09552308 0.029710293 0.015933696
0000a0 3b 4e 3f be 33 35 b9 3d ac 3a d2 bd ff 0c cc bc
       -0.18682186 0.0904335 -0.10265097 -0.02490854
0000b0 e7 d5 85 bd 20 c0 bc bd 75 5c a5 3e 75 6e ba bd
       -0.06534939 -0.092163324 0.32297102 -0.09103099
0000c0 0b 96 ee bd 78 c5 8a bc b3 5b e9 bd f9 0a 30 bd
       -0.11649712 -0.016939864 -0.11394443 -0.042979214
0000d0 5f 6c 14 be da 87 c5 bd 23 59 0a bd 99 fe 15 3e
       -0.14494465 -0.09645052 -0.033776414 0.14647903
0000e0 e4 b7 b6 bd 66 25 d6 bd 19 51 8a 3c 74 8b bd bd
       -0.08921793 -0.10456352 0.016884374 -0.09255114
0000f0 96 97 48 3d 47 5b 05 bd 0b 29 0b 3e 3a 1e ad 3c
       0.04897269 -0.032557752 0.13589875 0.021132577
000100 18 c9 5d 3d 82 f0 1e be 71 97 2a 3d 1b 8a 21 be
       0.054146856 -0.15521434 0.041648332 -0.1577534
000110 81 9b 36 bd 8d 2c 97 bc 95 05 25 3e 8d 0a 3c 3e
       -0.044581894 -0.01845386 0.1611541 0.183634
000120 c4 eb a0 bd 0a 6c aa 3d 65 93 72 3d a2 24 b5 3c
       -0.07857469 0.08321388 0.059222598 0.022112194
000130 88 f3 aa bd ad 9a b3 bd ea 6e 15 3d 5e 2d 10 be
       -0.08347231 -0.087697364 0.03648273 -0.14079806
000140 dd 4f b2 bd 04 2d b1 ba 0d b7 b3 3d 83 9f cb 3d
       -0.08706639 -0.0013517444 0.087751485 0.09942534
000150 02 f3 02 be 3d 79 1b bc 02 12 de 3b 41 08 4e bd
       -0.12788013 -0.009489355 0.006777049 -0.05030084
000160 d7 ca 55 bc 3a b5 86 bd 5f e1 c2 bd da 8d a6 bd
       -0.013048849 -0.06577535 -0.095156424 -0.08132525
000170 bb 6f 39 3e 3a ea 88 bd 47 db ad 3d e3 db 00 bc
       0.18109028 -0.066853 0.084890895 -0.007864925
000180 e8 2c ab bc a8 91 03 3e a7 f9 02 be 3f 98 f2 bd
       -0.020895436 0.12848532 -0.12790547 -0.11845445
000190 1d 5b 1e be a9 f5 3a be 15 15 57 bd 49 eb ec bd
       -0.15464444 -0.18257774 -0.05251034 -0.115683146
0001a0 92 45 ae 3d c0 84 4e 3e 05 16 de 3c 0b d3 19 be
       0.08509363 0.20167828 0.02711011 -0.15021913
0001b0 9b 77 21 be 8a 90 dc bd 49 86 36 3d 23 ac a9 3d
       -0.15768282 -0.10769756 0.044561658 0.082847856
0001c0 db d1 04 3d bc 20 f8 bd e7 61 b3 bd 3e 51 9c bd
       0.032426696 -0.121156186 -0.08758908 -0.07632683
0001d0 13 68 d2 3c 82 ac 9d bc 48 c1 11 3d e2 a4 8b bd
       0.025684392 -0.019247297 0.035584718 -0.06818558
0001e0 6c aa a9 bd eb e9 e4 3d b6 0a b2 bd 68 56 d7 bd
       -0.082844585 0.11177429 -0.08693449 -0.105145276
0001f0 45 4b 25 3e 39 e6 57 bd de 5d d0 bd b6 6c be bd
       0.16141994 -0.05270979 -0.10174154 -0.09298079

network.2.running_mean f4 [128]
000000 36 d0 02 3e 01 4f 8d 3e 64 17 6e 3e e1 0d 3f 3e
       0.12774739 0.27599338 0.2325111 0.18657638
000010 e8 c6 5e 3e f3 0b 4d 3e 81 81 90 3e ac a5 96 3e
       0.21755564 0.2002409 0.28223804 0.29423273
000020 76 c2 42 3e b5 56 58 3e 3e e6 28 3e c7 49 3b 3e
       0.19019493 0.21126826 0.1649408 0.18289863
000030 b6 77 6a 3e 25 3b 87 3e e0 99 66 3e fc 79 8c 3e
       0.22897229 0.2641231 0.22519636 0.27436817
000040 c2 c5 1b 3e 18 e9 45 3e 31 a1 4e 3e 5b 40 81 3e
       0.15212157 0.193272 0.20178677 0.25244412
000050 80 5f 48 3e 54 d7 1a 3e 2a 31 4a 3e 61 a3 ea 3d
       0.1956768 0.15121204 0.19745317 0.11456943
000060 fc 2d 57 3e 1a b3 23 3e f0 2b 21 3e 3f 87 18 3e
       0.21013635 0.1598629 0.15739417 0.14895342
000070 8a 44 41 3e bc dd 19 3e 38 29 57 3e bb 3f 28 3e
       0.18873802 0.15025991 0.21011817 0.16430561
000080 4b 7e 2a 3e 62 fc 77 3e b1 b2 82 3e 9a 13 92 3e
       0.1664974 0.2421737 0.25526956 0.2853058
000090 3e bb 37 3e 04 0b 41 3e 06 bb 8c 3e 9c 9b 03 3e
       0.17942521 0.18851858 0.27486438 0.12852329
0000a0 d6 35 4b 3e 55 54 27 3e e2 1e 0d 3e 0c 45 54 3e
       0.19844756 0.16340764 0.13781312 0.20729464
0000b0 7d b1 46 3e 43 6f 59 3e 71 24 6d 3e 13 91 50 3e
       0.19403644 0.21233849 0.23158433 0.20367841
0000c0 2f 99 19 3e e4 18 67 3e d1 40 80 3e af 9f 8a 3e
       0.14999841 0.22568089 0.2504945 0.27074954
0000d0 13 66 7e 3e 62 05 05 3e 02 43 77 3e f0 f1 55 3e
       0.24843626 0.12990335 0.24146655 0.20893073
0000e0 ac 71 4c 3e d3 56 45 3e eb 52 30 3e c1 62 52 3e
       0.19965237 0.19271402 0.1721913 0.20545484
0000f0 9b fd 8a 3e b0 23 19 3e aa 97 60 3e a2 26 05 3e
       0.2714661 0.1495502 0.21932855 0.13003018
000100 9e b7 39 3e ba 2e 2d 3e eb f3 29 3e 8b 58 53 3e
       0.1813645 0.16912356 0.16596954 0.20639245
000110 d2 4e f0 3d ae f7 72 3e 3e cc 87 3e 90 d7 41 3e
       0.11733784 0.23727295 0.26523012 0.18929887
000120 ac 3a 83 3e 07 d6 20 3e a9 98 87 3e 6d 78 3c 3e
       0.256307 0.15706645 0.26483658 0.18405314
000130 70 23 5e 3e 7d 6e 29 3e 2d 50 e1 3d 6f e4 1c 3e
       0.21693206 0.16546054 0.110016204 0.15321516
000140 c9 0f 2a 3e e5 e6 8b 3e 86 cd 49 3e 42 4f 25 3e
       0.16607584 0.27324596 0.19707307 0.16143516
000150 0a 58 75 3e cd b2 3f 3e cf 63 80 3e c4 4e 52 3e
       0.23959365 0.18720551 0.25076148 0.20537859
000160 51 86 59 3e 7a e2 30 3e b2 21 2e 3e bb ec 55 3e
       0.21242644 0.17273894 0.17005041 0.20891087
000170 7b cb 4f 3e 55 2c 1d 3e 86 50 32 3e e0 b4 5a 3e
       0.20292465 0.15348943 0.1741353 0.21358061
000180 77 68 3f 3e 80 42 4b 3e 53 a8 39 3e a2 bc 84 3e
       0.18692194 0.19849586 0.18130617 0.25925165
000190 90 ef 5e 3e 9a e2 43 3e b8 cd 28 3e b6 1c 0b 3e
       0.21771073 0.1912941 0.16484725 0.13585171
0001a0 8a 97 3b 3e 94 81 7b 3e 58 22 22 3e 10 03 33 3e
       0.18319526 0.24561149 0.15833414 0.17481637
0001b0 ac de 46 3e 3a 85 eb 3d a4 7f 4b 3e 3b d6 48 3e
       0.1942088 0.1150002 0.1987291 0.19612972
0001c0 30 88 34 3e 28 9a 0e 3e 07 2a 27 3e b0 78 86 3e
       0.17630076 0.13925993 0.16324626 0.26263952
0001d0 e5 ab 31 3e 38 06 5f 3e 16 a3 7d 3e 6f 71 40 3e
       0.17350729 0.21779716 0.24769244 0.18793271
0001e0 c0 82 3f 3e d8 dc 36 3e 4b df 17 3e d5 9c 5d 3e
       0.18702221 0.17857683 0.14831273 0.21641858
0001f0 68 76 8a 3e 20 7b 94 3e 22 0d 6c 3e f1 0d 44 3e
       0.27043462 0.29000187 0.23051885 0.19145943

network.2.running_var f4 [128]
000000 d9 69 06 3e c1 8f 4f 3e ce d0 31 3e 0e be 21 3e
       0.13126315 0.20269682 0.17364809 0.15795156
000010 96 a2 28 3e d7 ae 2c 3e 67 b8 5d 3e 04 39 55 3e
       0.16468272 0.16863571 0.21652375 0.20822531
000020 a9 72 16 3e a8 70 1f 3e cb 0a 20 3e d8 5b 1a 3e
       0.14692177 0.15570319 0.15629117 0.15074098
000030 32 a0 2d 3e 2a d1 36 3e df 75 39 3e cf 8a 58 3e
       0.16955641 0.17853227 0.1811137 0.21146701
000040 b9 d7 14 3e d8 fc 14 3e ec cb 35 3e f3 29 4e 3e
       0.14535417 0.14549577 0.17753571 0.2013319
000050 b3 10 27 3e 7e 96 f6 3d 25 c8 26 3e 6c c8 03 3e
       0.16314964 0.12040423 0.16287287 0.12869424
000060 3b d6 39 3e 83 b4 24 3e 56 34 09 3e 22 fd ee 3d
       0.18148129 0.16084485 0.13398871 0.11669375
000070 94 50 37 3e de 41 fa 3d 0f ef 39 3e ef eb 19 3e
       0.17901832 0.122195944 0.181576 0.15031408
000080 67 0f 13 3e 4f 53 47 3e a6 bf 3e 3e 06 f6 45 3e
       0.14361344 0.19465373 0.18627796 0.19332132
000090 87 4f 1c 3e 1c 15 2e 3e 50 b1 46 3e b2 3d f8 3d
       0.15264712 0.1700024 0.19403577 0.121211424
0000a0 08 c5 2c 3e ff 80 0e 3e f1 84 02 3e 65 e8 31 3e
       0.16872036 0.13916396 0.12746026 0.17373808
0000b0 7d 57 1c 3e f7 f7 2b 3e da 04 28 3e 85 3b 28 3e
       0.15267749 0.1679381 0.164081 0.16428955
0000c0 2a dd 03 3e 0b fc 37 3e e5 7b 36 3e 90 34 49 3e
       0.12877336 0.1796724 0.178207 0.19648957
0000d0 71 f4 3d 3e 76 38 09 3e 25 71 41 3e a4 74 2d 3e
       0.18550278 0.13400444 0.18890817 0.16939026
0000e0 03 1d 26 3e 24 5d 2a 3e 6d f2 0c 3e 3e b3 1d 3e
       0.16222005 0.16637093 0.13764353 0.15400407
0000f0 a0 25 47 3e 93 66 08 3e 21 54 17 3e a2 73 0e 3e
       0.19447947 0.13320379 0.14778186 0.13911298
000100 24 de 19 3e 50 19 1d 3e 2d 95 2c 3e 37 ea 24 3e
       0.15026146 0.15341687 0.16853781 0.16104971
000110 73 e0 f0 3d 06 2c 41 3e 53 37 44 3e 1d e5 29 3e
       0.1176156 0.1886445 0.1916173 0.16591306
000120 9a 6f 4f 3e 03 c7 13 3e 63 6b 51 3e 14 b3 26 3e
       0.20257416 0.14431386 0.20451121 0.1627925
000130 40 88 21 3e 43 1d 1e 3e f1 9c d1 3d a2 71 10 3e
       0.15774632 0.1544085 0.10235012 0.14105847
000140 83 15 1d 3e 1a 62 48 3e 67 82 2d 3e 0c 55 12 3e
       0.15340237 0.19568673 0.16944276 0.14290255
000150 44 8f 34 3e 66 9d 11 3e 42 6b 2f 3e a6 27 33 3e
       0.17632776 0.14220199 0.1713076 0.17495593
000160 4a d1 3d 3e bc df 0d 3e 5d 6d 15 3e d3 e6 05 3e
       0.18536869 0.13854879 0.145925 0.13076334
000170 2b 4c 11 3e 18 51 1a 3e 5b 7d 2f 3e 51 19 30 3e
       0.14189212 0.15069997 0.17137663 0.17197157
000180 0a 25 21 3e d3 e1 28 3e d1 06 17 3e 39 bc 3f 3e
       0.15736786 0.16492395 0.14748694 0.18724145
000190 26 85 3f 3e 70 38 2b 3e ef 85 15 3e e9 cd 06 3e
       0.18703136 0.16720748 0.14601873 0.13164486
0001a0 a3 ed 15 3e d1 f5 33 3e fe a1 0f 3e c1 0e 2b 3e
       0.14641432 0.1757424 0.14026639 0.16704847
0001b0 e9 03 18 3e 5f 8b f2 3d b1 11 2c 3e 30 26 30 3e
       0.14845242 0.11842989 0.16803624 0.17202067
0001c0 a8 fb 20 3e 1f dc 01 3e 09 5e 29 3e dc ed 6c 3e
       0.15720999 0.12681626 0.16539778 0.23137611
0001d0 dd ed 13 3e ed 4b 2c 3e c1 f7 44 3e 35 04 2c 3e
       0.14446206 0.16825838 0.19235136 0.1679848
0001e0 cf ec 19 3e 33 18 28 3e 4f 0b 13 3e da 1d 2d 3e
       0.15031742 0.16415481 0.14359783 0.16905919
0001f0 98 b1 37 3e c3 da 5a 3e e1 0c 5a 3e 08 90 17 3e
       0.1793884 0.21372513 0.21293975 0.14801037

network.3.weight f4 [256, 128]
000000 76 6c 70 bc af 1c 85 3d 6a 72 79 bb ac a5 03 3d
       -0.014674297 0.064996116 -0.003806258 0.03214042
000010 de f1 9e bd a6 82 33 3d 9a fd c3 3d c9 0f 8f bc
       -0.07760976 0.043825768 0.09569855 -0.017463582
000020 cf fb 8a bc d6 c2 c2 3d ca ae 3c 3d 3d 47 67 bd
       -0.016965775 0.09509818 0.04606513 -0.056464422
000030 75 e3 d4 bb 04 0b 6b bd a4 82 41 3d e0 ae 2e 3d
       -0.0064968416 -0.057383552 0.04724373 0.042647243
000040 5c 54 a3 3d 29 d9 1a 3c ce 9c f1 bc 84 35 8b 3d
       0.07975075 0.009451189 -0.029493716 0.06797317
000050 02 f5 84 bb fa 25 5f bd 55 07 9c bd 68 20 7b bd
       -0.0040575275 -0.054479577 -0.07618586 -0.061310202
000060 78 99 18 bd 88 38 1a 3d c8 dd a7 bd b7 b0 d5 bd
       -0.037255734 0.03765157 -0.08196598 -0.10434096
000070 d9 d7 c1 3c 32 57 66 bc 16 55 6b 3d e8 b4 31 3d
       0.023662494 -0.014058875 0.05745419 0.043385416
000080 99 b5 f3 3c be d8 4b 3d d5 fb 91 bd 71 5f af bd
       0.029749678 0.04976725 -0.07128111 -0.08563126
000090 32 e4 09 3d 43 4c 5f bc 5a 1f e3 3b 21 62 97 bd
       0.03366489 -0.013629022 0.0069312276 -0.073917635
0000a0 58 e8 ac 3d ad 1b 05 bc fd ea 0d bc b3 6a ab 3c
       0.084427536 -0.008124274 -0.008661983 0.020924902
0000b0 36 a7 9a 3d 85 ae c9 3d e5 1c 70 bd e2 94 15 3d
       0.07551424 0.0984774 -0.058621306 0.03651894
0000c0 c0 0f 9c bd 7a 75 8d bd 91 dd 4e bb 61 fd cd 3c
       -0.076201916 -0.069071725 -0.003156517 0.025145235
0000d0 ac 85 0d 3d ab 6c 36 3d 59 c5 3c bd 74 a1 3d bd
       0.034551308 0.044537228 -0.046086643 -0.04629655
0000e0 11 45 62 3c 9d 37 11 3e 55 c2 7c bd 6c 59 0a bd
       0.013810412 0.14181371 -0.061708767 -0.033776686
0000f0 1f 31 8b bd e4 53 84 3b 50 95 14 bd a0 7f a1 ba
       -0.067964785 0.004038321 -0.036275208 -0.001232136
000100 ea 3d 29 bd a9 3e 2d 3d c0 0f 96 bc 0b 6f dd b9
       -0.04131881 0.042296086 -0.018318057 -0.00042235138
000110 8b 10 68 3d 6c 18 79 3c 5c 5f 66 3d a6 a6 d9 bc
       0.0566564 0.015203577 0.056243286 -0.026568722
000120 e0 74 03 bd d1 3d 4c 3d 67 bb 02 3d ee 25 94 bd
       -0.032093883 0.04986364 0.031917002 -0.07233797
000130 cb 4e 2f bc 66 04 63 bb f8 15 89 bb e6 13 17 bb
       -0.010699938 -0.0034640073 -0.004183527 -0.0023052632
000140 33 d0 98 bd 6b a8 0c bd 3f 90 ce 3b f8 de a4 bc
       -0.07461586 -0.034340303 0.0063038166 -0.020125851
000150 36 fb 87 3d 84 33 88 3d 32 b5 ad bd ed 8b ee bc
       0.066397116 0.06650451 -0.08481826 -0.029119456
000160 16 76 99 bc 84 c9 a9 bd b9 de 4f 3d 66 01 9f 3d
       -0.018733066 -0.08290389 0.050749514 0.077639386
000170 84 d5 42 bd 42 f5 1b 3d 8d d8 24 3d d5 e2 9a b9
       -0.047566906 0.038075693 0.04024558 -0.00029542172
000180 b2 11 0e 3d c2 e0 f3 bd 0a 5a 25 3d 97 6c 40 3d
       0.034684844 -0.119081035 0.04036907 0.04697856
000190 7e f1 8f 3d 7a 7b aa 3d 8e a1 25 bc 9d 43 af 3d
       0.07028483 0.083243325 -0.010109318 0.08557818
0001a0 17 bb 13 bd 64 f6 dc bb 77 8a ba 3b c9 f4 a4 3d
       -0.036067095 -0.0067432392 0.005692776 0.080545016
0001b0 02 78 90 bd e5 c7 74 bd af 1f fd bc e8 c3 82 3d
       -0.0705414 -0.059760947 -0.030898897 0.063850224
0001c0 8f 77 3d bc 21 8d 69 3c a8 3f bf 3d 41 77 e3 bd
       -0.0115641495 0.014254839 0.09338313 -0.1110673
0001d0 50 1d 16 bd a9 b8 85 bd 8c f1 b3 3d 4c 3d a4 3c
       -0.03664905 -0.06529362 0.08786306 0.02004876
0001e0 bb 96 b5 3c fa 3f 85 bd a7 ff d1 3d e0 e8 bf 3b
       0.0221666 -0.06506343 0.1025384 0.0058566183
0001f0 a4 80 1e 3c 24 23 98 bd dc 26 16 bc 01 ad 03 bd
       0.009674225 -0.074285775 -0.009164538 -0.03214741
000200 83 e7 83 bc 05 cb 08 3d 69 a4 b4 3d 68 a2 73 3d
       -0.016101604 0.03339674 0.08820421 0.059481055
000210 95 c8 19 bd c5 07 56 3c 64 59 22 3d a7 b4 7f 3d
       -0.037544806 0.013063376 0.03963603 0.062428143
000220 0f 5f c6 3d 31 1b ef 3d de 6d c0 bc 09 c7 6b 3d
       0.096861 0.11675108 -0.023489889 0.05756286
000230 ad 79 e9 3d e7 8c 32 bd 48 65 39 3d 8f ef b8 3d
       0.11400161 -0.043591406 0.045262605 0.09030067
000240 8f 9d 25 bc df fc 29 3d c5 6f a1 bc a6 bc a7 bd
       -0.010108366 0.041500922 -0.019706616 -0.08190279
000250 71 db 95 ba 30 01 0a 3d c8 c7 75 3c 29 2b c7 3d
       -0.0011433196 0.03369254 0.015001245 0.09725029
000260 15 8f e1 3d 4e e2 bf 3d 03 ee aa bd f4 ee a3 3c
       0.11013619 0.09369336 -0.083461784 0.020011403
000270 3b e9 02 be 86 4b 66 bd 3e a7 5e 3d db 2c f8 3b
       -0.12784283 -0.05622437 0.054358713 0.0075737066
000280 ff 45 bc bc 9a e7 b3 bc db 4d 53 bd f5 9a 66 3d
       -0.022982595 -0.021961022 -0.05158792 0.056300122
000290 c1 7c fd 3c 83 a9 37 3d d7 a7 3a 3d fb 08 c1 3c
       0.030943276 0.044839393 0.04557022 0.023563853
0002a0 b5 5e 8f bd bc 7d 3c bc 7b ec 82 3c 24 3b 87 3d
       -0.07000486 -0.011504587 0.015981903 0.06603077
0002b0 01 fb 41 3d 0a 3c 20 3d e6 da 8d bd 18 ba 05 bb
       0.047358517 0.039119758 -0.06926517 -0.002040511
0002c0 2c 56 72 bd 01 7a c1 bd ec e4 85 bd e4 d0 b8 3c
       -0.05916421 -0.094470985 -0.06537804 0.022560544
0002d0 e1 2d 44 3c c3 bf 62 3d 0d b7 f6 3c 09 30 69 bc
       0.011973829 0.05535866 0.030116582 -0.014232644
0002e0 6c 0e 86 3d 99 e7 30 3d 28 26 b2 3d 99 a0 ca 3c
       0.065457195 0.04318962 0.08698684 0.024734782
0002f0 79 ca 83 bb 13 42 4a bb 74 e7 e0 3c 33 cb 9b 3d
       -0.0040219394 -0.0030862137 0.027454115 0.076071166
000300 2a 16 e5 bd 92 77 4e 3c 7b 56 c6 bc 13 2d 85 bd
       -0.11185868 0.01260175 -0.024211159 -0.06502738
000310 73 34 60 3d 7f a6 9e 3c 60 11 ff bc 9b 76 9b bd
       0.05473752 0.0193665 -0.031136215 -0.075909816
000320 a3 69 a7 3d bb 2a b1 3d 59 27 6a 3d d4 8f be bc
       0.081744455 0.08650728 0.05716643 -0.023261942
000330 0a f0 02 3d b1 ff 86 3c 2e 0a 7e 3c 2a 8d bd 3d
       0.0319672 0.016479345 0.015505357 0.092554405
000340 41 d6 78 3c dc 91 1b 3d bc 23 d0 bc 8d c9 c5 bd
       0.015187801 0.0379809 -0.025407664 -0.096575834
000350 36 b7 97 bb 38 93 c1 3d 4b dd a8 bd a9 54 88 bc
       -0.0046299947 0.09451908 -0.08245333 -0.016641932
000360 51 fc 5a 3c ec 0f 4b 3d c9 ff 09 3d fe b3 b2 3a
       0.013365821 0.04957573 0.0336912 0.0013633964
000370 81 16 6d 3d e6 c9 8a 3d 80 da 96 bd b8 d9 a6 bb
       0.05788279 0.0677679 -0.07365894 -0.005091872
000380 79 f3 9a bb 19 a8 15 bd 25 5e e1 bd d6 68 bb bd
       -0.0047287312 -0.036537264 -0.11004285 -0.09150855
000390 b2 3c 0c 3c 42 5b a6 3d 52 72 95 bd 3c 10 18 bd
       0.008559393 0.08122875 -0.072971955 -0.037124857
0003a0 d0 05 99 bd 23 41 c4 bb cd bd 23 bd d4 e9 de bd
       -0.07471812 -0.00598921 -0.03997593 -0.10884443
0003b0 d5 46 92 bc 02 f4 8e 3d 5c f6 0d 3d c4 a3 ed 3d
       -0.017856041 0.069801345 0.034658775 0.116035014
0003c0 d3 a0 20 3d c6 98 9a bd 5e a9 84 3d 36 d8 54 3d
       0.039215874 -0.075486705 0.06477617 0.051964007
0003d0 26 b7 aa bb 15 22 ba 3d 89 02 94 bd 64 fc 7a bc
       -0.0052098213 0.09088532 -0.07227046 -0.015318964
0003e0 64 db 38 bd ff 9a 3a bd 93 aa 3f bd 40 dc c7 bc
       -0.045131102 -0.045557972 -0.04679353 -0.024397016
0003f0 b5 61 c7 bd 91 74 3b 3c 9c f3 7f 3d d9 42 b8 bd
       -0.09735433 0.011441366 0.062488183 -0.08997125

network.3.bias f4 [256]
000000 1e b1 cb bc ad f7 93 bc 92 8a fe bb 3d e3 5e bc
       -0.02486473 -0.018062437 -0.0077679837 -0.0136039825
000010 03 0d 87 3d 26 b6 1d 3d d3 e8 06 be 35 5d 01 be
       0.06594279 0.03850379 -0.13174753 -0.12633212
000020 2a f1 d5 bd 3c b8 94 bc d6 06 90 38 fc 27 97 bc
       -0.10446389 -0.018154256 6.8677284e-05 -0.018451683
000030 0e 90 13 3d 72 9c ae 39 0a be 9a 3d 29 03 d6 3d
       0.036026053 0.00033304427 0.07555778 0.104498215
000040 4d 0f 81 bc f9 f2 f0 3c e4 c6 57 3d c3 44 0c bc
       -0.015754366 0.029412733 0.05267991 -0.008561316
000050 b2 e4 fb 3d 59 9e b3 bd 46 6a 91 bd 06 00 6d 3c
       0.122994795 -0.08770437 -0.07100348 0.014465338
000060 47 f2 e4 bd 21 a8 1a 3d df ac 8a bd 12 c9 9e ba
       -0.11179023 0.037757996 -0.06771254 -0.0012114367
000070 9a 1c 88 3c a5 ed 00 3d 6b 08 bc 3c 7f 3a c8 3d
       0.0166152 0.031476635 0.022953233 0.09776782
000080 50 25 c0 3d 82 a5 46 bd 79 d1 80 bd 89 a9 1b bd
       0.09382117 -0.048497684 -0.06289954 -0.03800348
000090 43 a1 b3 3c fe 39 43 3c 32 0a 70 bc 1f 36 0a 3d
       0.021927482 0.011915682 -0.014650868 0.03374302
0000a0 ac ec e3 bc 11 fe 00 bc b8 cd 7d bc 8b 3d e5 3c
       -0.027822815 -0.007873074 -0.015490942 0.027983448
0000b0 ed 36 ee bd 09 cb 5e bc 9d 75 e3 bd 52 1e 8f bd
       -0.1163157 -0.013598212 -0.11106417 -0.06988205
0000c0 eb e8 0e 3e 1d fc ff bc 0b 45 52 3d d9 22 b6 bd
       0.13956039 -0.031248147 0.051335376 -0.088933654
0000d0 c0 20 e5 bd ed 34 b4 3c 99 1e 86 3d 8a 14 8f bd
       -0.11187887 0.021997893 0.06548805 -0.069863394
0000e0 ab f3 9b bc b8 a5 ef bd 29 2c b3 bd 2f 2a 13 be
       -0.019037088 -0.1170153 -0.08748657 -0.1437156
0000f0 f6 c3 87 bd 8f 41 84 bd 64 80 f5 bc 19 04 28 bb
       -0.066291735 -0.06457817 -0.029968448 -0.0025637208
000100 f4 ba ba 3a 63 15 d0 3b 08 bc 95 3d 19 77 ff 3b
       0.001424639 0.0063502057 0.07311255 0.00779618
000110 6f a5 9b bd ec 62 6a 3d 02 ed 4c bd 5f 63 25 3d
       -0.07599913 0.057223246 -0.050030716 0.04037797
000120 44 62 b7 bc 9e 47 22 bd 7c 89 a6 bd 85 8e b3 bd
       -0.022385724 -0.03961908 -0.08131692 -0.08767418
000130 5d 7a 2f bd 02 68 3e bc e2 b6 40 bd c7 50 d3 bd
       -0.042841304 -0.011621477 -0.04704941 -0.103181414
000140 d4 1c e0 3c f2 1c 1e ba db 45 c7 3d 0b e9 df bd
       0.027357496 -0.0006031535 0.09730121 -0.10933121
000150 06 73 97 3b 80 7f 00 be a1 0d 04 3d a4 78 b5 3d
       0.004621866 -0.12548637 0.03223956 0.08860901
000160 be d8 a7 bd 34 1c af 3b c8 4e 9b 3c db 06 da 3c
       -0.08195637 0.0053439382 0.018958464 0.026614597
000170 2e 2c 8a 3c 4d 60 4e 3d 8c 0b bb bd 51 7e 07 3b
       0.01686677 0.05038481 -0.09133062 0.0020674656
000180 c2 3e 3b 3d d7 e4 a0 3d ea 7f 2e 3c ac e7 3b 3d
       0.045714147 0.07856148 0.010650614 0.045875236
000190 48 be bb bc d0 d5 4d 3d 61 23 4f 3d be 25 6e 3d
       -0.022917882 0.050252736 0.05057085 0.058141463
0001a0 41 a3 8d bd 04 24 a6 bc b6 23 f6 bb 4a 48 48 3d
       -0.06915904 -0.020280845 -0.0075115813 0.048897065
0001b0 02 04 06 bc 0c 84 ed bd 8d c2 bf 3d 14 92 70 3d
       -0.0081796665 -0.115974516 0.093632795 0.05873306
0001c0 fd 6a 40 3d 12 c5 8c 3c 41 3b c4 bd 44 87 35 bd
       0.046977032 0.017183814 -0.09581614 -0.044318452
0001d0 2d cc 8c bc da cc 32 bd ca 86 59 bd 50 3a 5b bd
       -0.017187202 -0.043652393 -0.05310706 -0.053522408
0001e0 1b f0 8a bd db 1e 9d 3c ed ec 47 bd c2 c1 cf bd
       -0.06784078 0.019179752 -0.048809934 -0.10144378
0001f0 89 01 42 bd 9a 22 5f bd dc 59 90 bc 82 d4 a5 3a
       -0.047364745 -0.054476358 -0.017620973 0.0012651833
000200 84 72 54 bd 98 84 53 bc 01 8f 59 3d 4c bc c5 bd
       -0.051867023 -0.012910031 0.053114895 -0.096550554
000210 10 3b 23 3d 83 52 86 3c 33 c2 10 bd ff 7d 4b 3d
       0.03985125 0.016396767 -0.035341453 0.049680706
000220 1d ed a3 bc 42 48 91 3d fe 20 06 bd c8 38 3e 3c
       -0.020010525 0.0709386 -0.032746308 0.011610217
000230 9c 30 3e 3d 87 04 8e bd aa d2 30 3e e6 fb 8c 3d
       0.046433076 -0.06934457 0.17267862 0.06883983
000240 9d 84 8b 3d dc 7a 8e 3d ef a8 7f 3d a2 b8 9e 3d
       0.06812403 0.06957027 0.062416967 0.0775006
000250 e9 68 eb bc a7 fd a7 3d 47 e5 0e 3d b6 f8 86 bd
       -0.028736548 0.08202677 0.034886625 -0.065904066
000260 2f 64 1f bb d8 f5 39 3e ed d8 02 3c f8 da 2f 3d
       -0.0024321189 0.18160188 0.007986289 0.042933434
000270 65 74 17 3d f6 4c f0 ba 16 96 19 3e bf 97 40 bd
       0.036976237 -0.0018333483 0.1499866 -0.047019716
000280 7d 43 a4 bd 7d 40 8d bb 80 8a 42 bd 30 da 4a 3d
       -0.08020685 -0.004310666 -0.047495365 0.049524486
000290 e1 10 c4 bc 00 18 05 3d 94 d3 f3 bd e6 26 0b be
       -0.02393383 0.03249359 -0.1190559 -0.13589057
0002a0 f3 6c 4a 3c b3 52 11 bd 1e 03 01 bd 78 cf 45 bd
       0.012355077 -0.03547926 -0.031497113 -0.04829356
0002b0 a0 e3 a2 3d 98 fa be bc 14 85 cb bd ee bb 97 3d
       0.07953572 -0.023312852 -0.09937492 0.074088916
0002c0 7b 00 0a be 99 3e 8f bd 42 0c 38 bd 07 5a 25 be
       -0.13476746 -0.069943614 -0.044933565 -0.16147624
0002d0 76 f1 20 bb 0e b3 9b bd a1 c0 1a bd 93 02 a4 ba
       -0.0024557984 -0.07602511 -0.03778136 -0.0012512974
0002e0 30 56 66 3c 02 2c c5 3c 4b 2b 77 bd 95 6e dd bd
       0.014058635 0.024068836 -0.06034402 -0.108121075
0002f0 3d 02 52 3c 60 d0 1b 3d 5d 78 d3 ba ce 81 2c bb
       0.012817916 0.03804052 -0.0016133894 -0.0026322487
000300 d5 81 2a bd d9 ab ea bd e6 cc 8b 3d 8f d8 b2 bd
       -0.041627724 -0.114585586 0.06826191 -0.087327115
000310 0b de 65 3d ea 77 8b bd 76 ee 85 3c 3b 33 86 bc
       0.05611996 -0.06809981 0.016349059 -0.01638185
000320 18 21 96 bb 6d a8 e8 bc 96 fd c7 bd a1 f5 c3 bc
       -0.004581582 -0.028400624 -0.097651646 -0.023920836
000330 84 71 e7 3d bc c7 62 3d f4 33 cb 3c 20 bc 36 3d
       0.11300948 0.055366263 0.024805047 0.044613004
000340 c3 c5 0d be af 4d 9a 3b ea 20 01 3d ee 29 99 bd
       -0.13844971 0.0047089676 0.03152553 -0.074787006
000350 8e db a1 bd 3c 84 b9 3a c1 e6 d2 bd 09 db 52 bd
       -0.07903205 0.0014153789 -0.10297919 -0.05147842
000360 6e 4e 56 3a 14 77 b7 bd d9 73 c4 3d f5 c0 2b 3b
       0.0008175139 -0.08958259 0.09592409 0.002620754
000370 74 54 d1 bc 63 65 d3 3b 9d 69 b8 bd 72 18 a5 3d
       -0.025552966 0.006451295 -0.09004519 0.08061303
000380 08 b8 85 3a 82 ed 38 bc b8 b5 b6 3c fc 13 9a bb
       0.001020194 -0.011287095 0.022303447 -0.0047020894
000390 ee 18 c8 bc 79 12 a0 bb bd f9 8a bc b8 e4 a7 bd
       -0.02442595 -0.0048850146 -0.016964788 -0.081979215
0003a0 b5 76 3d bd 24 9a 94 3d ad 09 9c bb 9c 1a 54 bd
       -0.046255786 0.072559625 -0.0047618956 -0.05178319
0003b0 d4 fa ab bc f8 b6 67 bb 6b e3 3d bd 1a 19 20 bd
       -0.020993628 -0.003535686 -0.04635946 -0.03908644
0003c0 f6 15 90 3c fc c4 9e 3d 19 d9 fd bd aa 6a 06 bc
       0.017588597 0.077524155 -0.12394924 -0.008204142
0003d0 d0 a3 df bd 70 6b 83 bd 0a e0 19 3c 19 76 0f bc
       -0.10919917 -0.064169765 0.009391794 -0.008756184
0003e0 d0 6e 81 bd ff 5e a0 3c a9 90 ec 3d b6 20 30 bd
       -0.06319964 0.019576548 0.11551029 -0.042999946
0003f0 8c 21 7a bd 90 c4 99 3c 4f 55 2f bd 90 73 4e bc
       -0.06106715 0.018770486 -0.042805966 -0.012600794

network.5.weight f4 [256]
000000 0b 68 80 3f 2f 4f 70 3f b9 e7 7a 3f 4c ef 7e 3f
       1.0031751 0.93870825 0.9800983 0.9958389
000010 8f 9d 75 3f be 27 7f 3f 60 2b 74 3f dd 0d 81 3f
       0.9594354 0.99670017 0.95378685 1.0082356
000020 d0 79 7e 3f 3f c5 85 3f 93 2f 7f 3f 8f 45 77 3f
       0.9940462 1.045082 0.9968197 0.96590513
000030 58 73 84 3f 77 1e 87 3f 51 94 78 3f 2f d6 77 3f
       1.03477 1.0556172 0.9710131 0.96811193
000040 f5 8f 7f 3f 36 46 71 3f 66 a8 7c 3f 8a e5 80 3f
       0.99829036 0.9424776 0.98694456 1.007005
000050 f7 d5 81 3f d3 a0 78 3f 43 44 85 3f 68 c0 7c 3f
       1.0143422 0.971204 1.0411457 0.9873109
000060 f6 03 7a 3f 86 29 83 3f 90 60 82 3f 6b 39 75 3f
       0.97662294 1.0247047 1.0185719 0.9579074
000070 03 78 82 3f 26 97 78 3f ac 62 7e 3f d5 c3 71 3f
       1.0192875 0.97105634 0.9936931 0.9443944
000080 b5 3a 84 3f 81 b8 82 3f 72 63 85 3f ae 4c 75 3f
       1.0330416 1.0212556 1.0420973 0.9582013
000090 4c 80 83 3f d1 21 76 3f 3e 72 75 3f b8 dd 81 3f
       1.0273528 0.9614535 0.95877445 1.0145788
0000a0 2b d0 81 3f 54 09 7d 3f 3c 1d 86 3f 29 69 7a 3f
       1.0141653 0.9884236 1.0477672 0.9781671
0000b0 13 12 84 3f d8 85 7f 3f 3f 51 7b 3f f5 3f 77 3f
       1.0318016 0.99813604 0.98170847 0.96581966
0000c0 6a 06 85 3f d2 aa 82 3f c2 63 78 3f 26 66 86 3f
       1.0392582 1.020838 0.9702722 1.0499923
0000d0 2f d0 81 3f 54 84 86 3f 0d b8 78 3f 79 e3 82 3f
       1.0141658 1.0509133 0.9715584 1.0225669
0000e0 92 cd 84 3f 9a c1 86 3f 30 27 80 3f af 56 77 3f
       1.0375235 1.0527833 1.0011959 0.96616644
0000f0 5f 0b 86 3f 66 98 85 3f 65 d8 80 3f cd 94 73 3f
       1.047222 1.0437133 1.0066038 0.95148927
000100 be 41 88 3f d8 5e 7a 3f 08 33 83 3f d4 e0 7c 3f
       1.0645063 0.9780097 1.0249949 0.9878056
000110 53 50 7c 3f 6e 15 75 3f 4f c1 71 3f a7 c3 74 3f
       0.98560065 0.95735824 0.9443559 0.9561104
000120 e6 05 80 3f 9e 68 83 3f ae a8 74 3f 90 c0 86 3f
       1.00018 1.0266302 0.95569885 1.0527515
000130 f0 c6 6c 3f 20 d4 80 3f 74 12 87 3f 76 d1 87 3f
       0.92491055 1.0064735 1.0552506 1.0610797
000140 27 96 7d 3f 45 24 83 3f 8f 07 7d 3f fe 73 73 3f
       0.9905724 1.0245444 0.9883966 0.95098865
000150 69 ee 7a 3f c8 5e 82 3f 8a 92 82 3f 47 7f 71 3f
       0.98020035 1.0185175 1.020097 0.94334835
000160 97 de 72 3f e9 e5 7d 3f b3 95 85 3f 83 97 80 3f
       0.94870895 0.9917894 1.043631 1.0046238
000170 7c 31 82 3f 0c 72 85 3f b2 01 81 3f 6c c5 81 3f
       1.0171351 1.0425429 1.0078642 1.0138373
000180 88 6a 78 3f 8b 80 7e 3f 6f 46 7f 3f ec 85 69 3f
       0.97037554 0.9941489 0.9971685 0.91219974
000190 ae 20 7d 3f aa 85 71 3f 5e 90 75 3f 58 6f 80 3f
       0.9887799 0.9434458 0.9592341 1.003398
0001a0 22 c3 7b 3f b0 6a 83 3f 49 47 7a 3f cb 9c 78 3f
       0.98344624 1.0266933 0.9776502 0.9711425
0001b0 a3 e9 7d 3f 81 96 74 3f 2b 96 80 3f 40 49 83 3f
       0.99184626 0.9554215 1.0045828 1.0256729
0001c0 71 83 6f 3f 22 11 82 3f b2 de 81 3f cd 7d 87 3f
       0.9355994 1.0161479 1.0146086 1.0585266
0001d0 c6 98 83 3f fe 66 85 3f a2 7b 82 3f 84 c0 7d 3f
       1.0280998 1.0422056 1.019398 0.9912188
0001e0 3a bd 75 3f e2 3a 87 3f 1e 08 77 3f 4a 32 8f 3f
       0.9599186 1.0564845 0.9649676 1.1187222
0001f0 2f e4 72 3f 83 c8 81 3f e2 5e 80 3f 39 d5 80 3f
       0.9487943 1.0139316 1.0028956 1.006507
000200 25 50 7c 3f 7a 6d 67 3f 48 22 7d 3f 5f e6 74 3f
       0.9855979 0.9040142 0.98880434 0.9566402
000210 55 36 7a 3f ca 43 82 3f dc 27 83 3f ad b2 82 3f
       0.97739154 1.0176938 1.0246539 1.0210778
000220 f3 f0 80 3f 45 33 6a 3f a5 e1 7e 3f 65 98 79 3f
       1.0073532 0.9148448 0.99563056 0.9749816
000230 e1 87 7f 3f 05 47 81 3f 50 42 76 3f 4a 0f 81 3f
       0.9981671 1.0099798 0.96194935 1.0082791
000240 5f d7 81 3f 76 79 7b 3f 57 28 81 3f c5 93 7c 3f
       1.0143851 0.9823221 1.0090436 0.9866298
000250 24 de 82 3f 89 dd 76 3f c1 ec 85 3f 58 17 77 3f
       1.0224042 0.96431786 1.0462877 0.96519995
000260 b0 d3 88 3f d9 45 79 3f 8d b5 7d 3f f8 24 82 3f
       1.0689602 0.97372204 0.9910515 1.0167532
000270 37 54 81 3f 56 39 74 3f 96 95 78 3f 4c 98 83 3f
       1.0103825 0.9539999 0.9710325 1.0280852
000280 64 82 7a 3f a7 88 81 3f db a3 83 3f f4 2c 77 3f
       0.9785521 1.0119828 1.028438 0.9655297
000290 31 f1 78 3f 55 31 76 3f 46 36 81 3f 5b f3 89 3f
       0.9724303 0.96169025 1.0094688 1.0777391
0002a0 c4 17 85 3f 4a e7 82 3f 53 89 84 3f c1 3b 75 3f
       1.0397878 1.0226834 1.0354408 0.957943
0002b0 bb c0 77 3f 17 c3 81 3f 7c e6 80 3f cb 96 74 3f
       0.9677846 1.0137662 1.0070338 0.9554259
0002c0 a1 f2 7d 3f f9 1f 84 3f ba 87 7f 3f 38 d9 87 3f
       0.9919835 1.0322257 0.9981648 1.0613165
0002d0 65 6e 7f 3f 55 a5 80 3f 9d 9a 76 3f 07 5c 78 3f
       0.99777824 1.0050455 0.9632967 0.9701542
0002e0 a0 fa 78 3f 90 7a 82 3f 25 b9 69 3f a3 92 81 3f
       0.97257423 1.0193653 0.91298133 1.0122875
0002f0 f6 af 7d 3f a0 78 7c 3f 5f bd 7b 3f 27 68 68 3f
       0.9909662 0.9862156 0.9833583 0.90783924
000300 59 cb 71 3f 1b f6 86 3f 50 b9 74 3f 6a 13 83 3f
       0.9445091 1.0543855 0.95595264 1.02403
000310 72 04 83 3f 74 20 81 3f 6d 1f 78 3f 13 05 75 3f
       1.0235732 1.0088029 0.9692295 0.9571087
000320 36 6e 7b 3f 95 e0 6e 3f f6 cb 81 3f 7a 68 6b 3f
       0.98215044 0.93311435 1.0140369 0.91956294
000330 d0 92 7e 3f f9 c9 89 3f c1 43 7b 3f 05 01 6b 3f
       0.9944277 1.0764762 0.9815026 0.9179843
000340 a1 6e 89 3f d0 8f 78 3f 53 9c 80 3f 52 e0 7c 3f
       1.0736886 0.9709444 1.0047706 0.98779786
000350 d3 41 77 3f 20 58 82 3f 63 d6 81 3f 91 bf 85 3f
       0.96584815 1.0183144 1.0143551 1.0449086
000360 92 d5 6f 3f 02 af 7a 3f 9a 29 81 3f a2 64 7e 3f
       0.9368526 0.9792329 1.0090821 0.99372303
000370 c2 c9 82 3f 30 93 83 3f 48 82 84 3f 75 e9 79 3f
       1.0217822 1.0279293 1.0352259 0.9762185
000380 e6 2b 7b 3f 1c fa 76 3f 3a e2 82 3f 2b 4f 83 3f
       0.9811386 0.96475387 1.0225289 1.0258535
000390 46 3d 7b 3f 47 e3 70 3f 60 f8 80 3f 7c 2e 83 3f
       0.9814037 0.940968 1.0075798 1.0248561
0003a0 5f 95 72 3f fe e2 7c 3f d3 f3 82 3f 22 e8 7e 3f
       0.9475917 0.9878386 1.0230659 0.99572957
0003b0 0a 72 80 3f b0 83 83 3f f4 f0 76 3f 38 33 75 3f
       1.0034802 1.0274563 0.96461415 0.9578128
0003c0 72 32 78 3f eb aa 85 3f fa 44 7a 3f 78 0e 76 3f
       0.96951973 1.0442785 0.977615 0.9611583
0003d0 f0 dc 7e 3f 62 c9 77 3f fd 50 84 3f 4f 58 81 3f
       0.99555874 0.9679166 1.0337216 1.0105075
0003e0 dd f7 76 3f d2 ca 80 3f 5a 7b 7a 3f 3f 75 77 3f
       0.9647196 1.0061896 0.9784447 0.9666328
0003f0 63 29 7b 3f 4a 08 74 3f 55 fe 81 3f 38 7a 86 3f
       0.98110026 0.9532515 1.0155741 1.0506048
