models/final/discriminator.pth (torch, 420232 bytes, 7 tensors)

network.0.weight f4 [256, 20]
00000000: 518e 3ebc 6a6b 6abc 1896 1abd d645 3e3e
00000010: e7ed 263e 1d6e b8bd 3f21 7b3d dc7c 7cbd
00000020: a0bd 68bd fe35 cb3c aae2 48bd fdfe 8e3e
00000030: d7cc 0a3d cbd2 653c afc4 98bd bcaa d5bd
00000040: 91d7 e7bd 1b51 3cbd fc39 3f3d 11a0 99be
00000050: 8f6a e23c 8d11 2cbd 24fd 9c3c a0c9 b13b
00000060: 3140 e73b 61a1 17bd d6f8 4bbe 8851 b13d
00000070: e8f8 3f3d 3c75 ae3b d688 64bd 8a68 40bd
00000080: c017 b53d 006b 823d 651a d83c 36d8 b9bd
00000090: 8c54 203d 4574 b73e 9bdb 333e 9f51 83bc
000000a0: f553 d5bb 40b4 2d39 56f5 0b3b 7886 183c
000000b0: 30c2 293c 049e 123a 0a75 863a 6848 803b
000000c0: 7ec3 34bb e2e2 f83a ead9 19ba 8a0e 0d3f
000000d0: 3d8c 9dbb e538 91ba 94ca 073b 6192 543b
000000e0: ee3d ebb9 6ed2 fdb8 167b e039 9ca1 3cbe
000000f0: b1f1 30bc f567 83bd 79ee 303c ac50 aebd
00000100: ac6a 35bd ee3a b13d 038b 3b3d b310 833e
00000110: edc9 8abd d861 343d f2ca 4a3e 28d5 693d
00000120: f131 5f3b d144 9fbd 3573 9b3d 451c 9abb
00000130: f972 263e b241 cbbd 3caa 9d3e 3c71 153e
00000140: 6c15 2fbc 8fb8 c13c 2840 ca3b d45a e1bd
00000150: d524 d2bd b33c a1bd 210b f53d aa49 8c3e
00000160: 07d0 383e 3cc3 8fbd a8c1 87bd cbfb 5fbc
00000170: d925 e8bd 46e2 db3d 01a0 513e ce9d 99bd
00000180: c15b a3bd 110d a0bd fc38 27be 9088 f63d
00000190: 069c e1bc 5e8d 113c b10e 13bd 1895 113d
000001a0: abed a73d 8592 c13c 8edc 693c 7d21 b0bd
000001b0: 7898 bc3c 163a 4cbd f5e5 64bd ce47 74bb
000001c0: 5053 f43e d560 cbbd c8ef 9bbd 8b2b cc3c
000001d0: 0c2b edbb e73c 8a3d c438 9dbd 6e49 03bc
000001e0: aa68 ae3d d662 fe3c 65f1 c53c d7f2 013e
000001f0: 070a dc3d 822a 6e3d 1754 7abd b6b3 cdba
00000200: 6618 8e3a 869d aa3b bb66 bebc 6a7e bcbc
00000210: 7452 ae3b 108a 54bc be8f 073f dab7 ba3b
00000220: 3194 7cbc a939 09bd 2623 413c 5b04 ba3d
00000230: 2663 3fbd 54f2 8f3d 38df 6abd 43b8 6abc
00000240: cfdf 28bd 918f 4d3d cf81 51be a01c 473d
00000250: 625a 45bd 23cf ed3c 32cb 18bd 2bda d9bd
00000260: 54ba 883d cb19 c63c abcf d93d c454 353e
00000270: de18 03be dc21 713d e148 42bd 043d a33d
00000280: 62fa babd bd84 e9bc f284 513c a7f7 293e
00000290: 71dd 0c3d dc3b 1a3d e9e0 b03d e131 19be
000002a0: 8eb5 a7bd a54f 3c3e 76f7 2d3d 49ec 03be
000002b0: 4682 90bd aa5a 80bc 2fc4 7abd 1a04 c3bd
000002c0: 933a 013d 8ba3 8ebd ba6d 3abd 9d25 80be
000002d0: 6df1 ff3d b24a 093d 09e1 713d 32f8 1f3e
000002e0: d1d3 983d ed37 9b3d edec 0a3f 94ec a1bc
000002f0: 48fe 8dbc c160 8ebc 0c86 26bb 81ef c4bc
00000300: df6d dcbc 2ca6 a63c 9d57 e9bb b1c5 dcbc
00000310: 462f b4bc 7344 0dbd a46e b2bb 987c debb
00000320: a54e cebb 4f00 2abd 2825 3a3d ceb2 d3bc
00000330: 5586 833c c775 1ebd 6b18 a1be 095d 0e3e
00000340: 9c52 3f3e d114 953d 3721 193e c988 9d3d
00000350: 7a32 13be 6e52 88bd c0dd 8dbd eb2e 8e3d
00000360: 7335 503d 36b1 5b3d 43b8 9a3d c1dc 8cbe
00000370: b218 b03d 4ed6 643e 284a d23d f907 5bbd
00000380: 536c 333e a656 2b3e 5257 dcbd b8cb 4dbd
00000390: 4b3f 1dbd d6c2 753d 85cc 30bd 2b47 67bd
000003a0: 39d7 693d f810 5c3d aa2f 1fbd e3f7 bfbd
000003b0: 8ce7 6f3d ffd5 8d3d 4e5b 5b3c 5edd 87be
000003c0: 1ffc 21bb 3363 d63d 59c5 b13c 9dcb 863c
000003d0: d516 cc3d d55f 51bc a4d1 05bc 7f43 1fbb
000003e0: 5586 96bc e1e7 3e3b e45e 9c3c 3f1f fd3e
000003f0: 1ada b63a 2cd7 10bd 892d 823a 6d2a 9f3b
-0.011630611 -0.014307836 -0.037740797 0.18581328 0.1630169 -0.090053774 0.061311003 -0.061642513
-0.056821465 0.024806019 -0.04904429 0.27928916 0.033886757 0.014027308 -0.074593894 -0.104329556
-0.11320413 -0.045975786 0.046686158 -0.30004933 0.027638702 -0.042008925 0.019163676 0.005425647
0.0070572128 -0.037019137 -0.19919142 0.08658129 0.046868235 0.005324034 -0.05579456 -0.046974696
0.088424206 0.06368065 0.026379773 -0.09074442 0.03914313 0.35830894 0.17564242 -0.01603013
-0.0065102526 0.00016565714 0.0021355948 0.009309404 0.010361239 0.0005593004 0.0010258269 0.0039148815
-0.0027582343 0.0018988515 -0.00058689585 0.5510031 -0.0048079775 -0.0011079578 0.0020720111 0.0032435881
-0.00044868834 -0.00012103176 0.00042816316 -0.18421024 -0.010799811 -0.064163126 0.010799044 -0.08511481
-0.044291183 0.08653818 0.04578687 0.25598678 -0.067767955 0.044038624 0.1980398 0.057088047
0.0034056867 -0.077767976 0.07590333 -0.004703077 0.16254796 -0.0992464 0.3079394 0.14593977
-0.01068626 0.023647575 0.006172199 -0.11003652 -0.102609314 -0.078729056 0.11965013 0.2739995
0.18048106 -0.0701966 -0.06628734 -0.013670872 -0.11335344 0.107365176 0.20471193 -0.07500802
-0.07976485 -0.07814992 -0.16330332 0.12037766 -0.027540218 0.008883802 -0.035902683 0.035542578
0.081996284 0.023629436 0.014273776 -0.086001374 0.023021922 -0.049860083 -0.055883367 -0.0037274244
0.47719812 -0.099305786 -0.07614094 0.024923107 -0.0072377976 0.067498975 -0.07676843 -0.0080131125
0.08516057 0.031052988 0.024162957 0.12690292 0.107441 0.058146007 -0.06111535 -0.0015693817
0.0010841012 0.0052067665 -0.023242345 -0.023009498 0.005319888 -0.01297237 0.5295371 0.0056981863
-0.015416191 -0.033502255 0.011788165 0.09082862 -0.046725415 0.07028642 -0.057341784 -0.014326158
-0.041229066 0.050185744 -0.20459674 0.048611283 -0.0481819 0.029029435 -0.037303157 -0.10637315
0.06676164 0.02418222 0.10635313 0.17708117 -0.12802455 0.05887018 -0.047432784 0.07970622
-0.09129788 -0.028505677 0.012788044 0.16598378 0.03439087 0.037654743 0.08636648 -0.14960434
-0.08188926 0.18389757 0.042472325 -0.12883104 -0.07056098 -0.015668232 -0.06122225 -0.09522267
0.03155 -0.06964787 -0.0455148 -0.25028697 0.1249722 0.0335185 0.0590525 0.15622023
0.07462276 0.07579026 0.5426777 -0.01976613 -0.017333165 -0.01738012 -0.0025409488 -0.024039986
-0.02690786 0.020342909 -0.00712104 -0.026949735 -0.021995198 -0.034489106 -0.0054453183 -0.006789755
-0.0062959963 -0.0415042 0.04544559 -0.025842097 0.016055265 -0.03868654 -0.31463942 0.13902678
0.18683857 0.07279361 0.14954077 0.07692105 -0.14374724 -0.06656347 -0.06927061 0.06942543
0.050832223 0.0536358 0.075546764 -0.27512172 0.0859846 0.22347376 0.102680504 -0.0534744
0.17521791 0.16732273 -0.107588425 -0.05024311 -0.03839044 0.060000263 -0.043163795 -0.056464355
0.057090018 0.05372712 -0.038863815 -0.093734525 0.05857043 0.06925582 0.013388468 -0.26536077
-0.0024716926 0.104681395 0.021700548 0.016454512 0.09965292 -0.012779196 -0.008167658 -0.0024301705
-0.018374601 0.002912991 0.019088216 0.494379 0.0013950497 -0.035361454 0.0009931783 0.0048573525

network.0.bias f4 [256]
00000000: 0d15 823e 454a 8dbe 85bf f4be 1c8c ffbd
00000010: 46c2 acbe 8a9b 9dbe 30de 1fbe 8065 10be
00000020: ae41 4f3e e88d 90be 11d0 51be 1200 883e
00000030: 625e 24be c9c8 f3be 5ef1 82be f20a 0e3e
00000040: 0619 8e3b 3f38 80be 9a7a 55be 4c5f bdbe
00000050: 3747 473e 411a 75be 4d36 84be 35d1 87be
00000060: b1a8 8cbe c75a 0d3e 10fe 363e 5448 29bd
00000070: f236 63be 21fc babe 4554 86be f496 48bc
00000080: a2f9 97be 806c 953e 6b5d 92be c983 223e
00000090: 0c56 b0be 4bbe b3be 221f b4bc d02c 8bbe
000000a0: 77aa a3be a66f 823e 4510 c7be 6dde 4cbe
000000b0: f32d 2dbe 2ffc 70be 79e4 623e 03a7 093c
000000c0: b339 693e 7d2a 783e 2084 83be da9d a1be
000000d0: e1b6 80bd 0625 88be d89c a8be 0352 27be
000000e0: cb5d 2abe 5d18 043e 3fec 98be 2b2f 24be
000000f0: 19da d8be 90c0 cfbc 9028 a0be cdd1 10be
00000100: 071b 29be 9859 f3bd fc48 c4bd b2ba 5abe
00000110: 8581 d83d ba65 99be 7723 99be 3400 753d
00000120: 551f c43d 6209 8fbe 4a34 a0be 82f5 3abe
00000130: ed43 43be ef57 afbe 1b1c 2d3d 8c2e a53b
00000140: 837a 56be ecef 78be f446 48be 548d ffbd
00000150: 191d 27be 1225 553e 76a6 ccbe a6af 95be
00000160: e632 92be 3345 58bd 63bc a6be dea3 343e
00000170: 9a77 e7be 4cb9 7dbe 1a6b 23be 96c5 25be
00000180: f26d 683e de21 b03d d70b 83be 1d39 883e
00000190: 419f 193e 4fcd a5bd 6609 f53c bc88 bbbe
000001a0: ebdc 513e 7089 b8be 7117 96be d7d5 90be
000001b0: a5f7 8dbe f9ce 37be 740f 09be 06bb bfbe
000001c0: 6b88 25be 49e0 d8bd 3bae cdbe d554 c1be
000001d0: 115d 0d3e 199d 83be 6611 7abe 941d 4cbc
000001e0: da17 a3be c9e3 893e 58ea 76be af52 9bbe
000001f0: 9fb6 99be c14d e9bc 0faf 063c 4ad9 cfbe
00000200: 6963 53be ae09 e5bd 2a95 1cbe cc79 52be
00000210: e457 99be f409 c9be 5601 82be 9480 25be
00000220: 3633 19bd 0898 8abe f0b4 2abe 781a 6fbe
00000230: 19b5 4dbe dd59 a3be e48b cabe 7bda 3abe
00000240: 63ed 65be 73a0 e3bd 9cf1 5abe 0f52 35be
00000250: 5fe4 63be 8502 0ebe b620 3cbe 34d3 403e
00000260: d147 45be 2e82 86be 0073 a0be 350c 7f3e
00000270: a6b0 3cbe 7b19 a5be 0e1b aa3d ecc9 97be
00000280: f532 5fbe 2fc0 be3b c63b 3e3e c727 b2be
00000290: 4c4b 713e a208 00bf f0dc a8bd 742b d0be
000002a0: b004 41be 2415 96be c030 eebe 010e 2abd
000002b0: 33df 87be 52af a4be a6da aabe f9c5 2bbd
000002c0: b2f1 b53c 3199 a8be 87ce afbe e704 8f3c
000002d0: fcbf ccbd d420 56be cf44 5ebe c8d4 b0be
000002e0: e28e 293e bbfc a7be facc e1bd 5627 423d
000002f0: 0476 b1be 147b eabe e985 03bf 5607 5cbd
00000300: 4667 e7be d810 b3be 0716 63be 05be b2be
00000310: a7c8 8fbd 7975 e6bd e8d4 a0be 8c39 bbbe
00000320: a2a6 9c3e 9117 b3be beb1 cb3d d058 d6be
00000330: cd3e 5c3e 4c2e 8ebe f781 edbb 0dae 95bd
00000340: 0211 16bd 9216 673e 063b f13d 73f9 05be
00000350: 8ee1 debd 6993 b1be e818 a8be 3575 4abd
00000360: 245b 32bd a4b0 573e c45e f1bd 8b18 48be
00000370: d832 b2be 7224 cebe de22 1cbe cc2b 84be
00000380: 2db5 93be f6b7 453e b643 09be bc9b 33be
00000390: c96a 16be 3197 02be 0211 3fbe 5afd ab3d
000003a0: 104d 54be c25f a73b e763 f6bd 191a bbbc
000003b0: 4ed2 01be 1350 f9bd 5a9a 8d3e 1177 61bd
000003c0: 82bc 88be fae1 7bbe c29e 9ebd 3899 00bf
000003d0: 56a9 803e bead acbd e574 013e 0663 3e3e
000003e0: f7d1 acbe de1f 64be 3085 cfbe ebda 9cbe
000003f0: 99f7 efbe 1ec1 2ebd b80c dabe 1289 a5be
0.25406685 -0.27595726 -0.47802368 -0.124778956 -0.3374197 -0.3078273 -0.15612102 -0.14101219
0.20239899 -0.28233266 -0.20489527 0.26562554 -0.16051629 -0.47614124 -0.25574774 0.13871363
0.004336479 -0.25042912 -0.2084755 -0.36986768 0.1946076 -0.23935796 -0.25822678 -0.265268
-0.2747245 0.1380416 0.17870355 -0.041328743 -0.22188929 -0.36520484 -0.26236168 -0.012243021
-0.29682642 0.2918434 -0.28586897 0.15870585 -0.3444065 -0.3510612 -0.021987502 -0.27182627
-0.31965992 0.25475806 -0.388796 -0.20006724 -0.1691206 -0.235337 0.22157468 0.008401635
0.22775917 0.24234958 -0.2568674 -0.31565744 -0.062848814 -0.26590747 -0.32932162 -0.16339879
-0.16637342 0.12899919 -0.2986774 -0.16033618 -0.42353895 -0.025360376 -0.31280947 -0.14142533
-0.16514216 -0.11882323 -0.09584233 -0.21360281 0.10571579 -0.29960424 -0.2990987 0.059814647
0.095762886 -0.27936846 -0.31289893 -0.18257716 -0.1906888 -0.34246776 0.04226313 0.005040949
-0.20945172 -0.24310273 -0.19558316 -0.12478128 -0.16319694 0.20814922 -0.3997075 -0.29235572
-0.28554457 -0.05280037 -0.32565603 0.17640635 -0.45208436 -0.24777716 -0.15958825 -0.16188654
0.22698191 0.0860021 -0.2559497 0.26606074 0.15002157 -0.080958 0.029911708 -0.36627758
0.2049443 -0.36042356 -0.2931476 -0.28288147 -0.27728 -0.17950048 -0.13384801 -0.37447375
-0.1616532 -0.10589654 -0.4017199 -0.37760034 0.13805033 -0.25705793 -0.244207 -0.012458224
-0.31854135 0.269316 -0.24112833 -0.3033652 -0.3002214 -0.028479459 0.008220448 -0.40595466
-0.2064339 -0.11183487 -0.15291277 -0.20554274 -0.29949868 -0.39265406 -0.25391644 -0.1616233
-0.037402354 -0.27069116 -0.16670585 -0.23349941 -0.20088615 -0.31904498 -0.39559853 -0.18247406
-0.22453837 -0.11114588 -0.21381229 -0.17707084 -0.22255085 -0.13868149 -0.18371853 0.18830568
-0.19265677 -0.26271194 -0.31337738 0.24907 -0.18426761 -0.32246003 0.083059415 -0.29646242
-0.21796782 0.00582125 0.1857749 -0.34795973 0.2356388 -0.5001317 -0.082452655 -0.40658152
-0.18849444 -0.29313004 -0.46521568 -0.04151726 -0.26537475 -0.3216501 -0.3336994 -0.04193685
0.022209976 -0.32929376 -0.34337255 0.017458392 -0.099975556 -0.2091096 -0.21705936 -0.3453734
0.16558412 -0.32810006 -0.11025424 0.047400795 -0.3466035 -0.45797026 -0.51376206 -0.053717934
-0.4519598 -0.34973788 -0.22176372 -0.34910598 -0.07020693 -0.11252875 -0.31412435 -0.36567342
0.3059588 -0.34978917 0.09946011 -0.41864634 0.21508332 -0.27769697 -0.007248159 -0.07308588
-0.036637314 0.22567204 0.11778836 -0.13083439 -0.10882865 -0.34682778 -0.32831502 -0.049428184
-0.04354395 0.21063477 -0.11785653 -0.19540612 -0.34804416 -0.4026218 -0.15247676 -0.25814664
-0.28849164 0.19308457 -0.13404736 -0.17539877 -0.14689173 -0.12752987 -0.18658832 0.08397932
-0.20732522 0.005107851 -0.120307736 -0.022839593 -0.12677881 -0.12173476 0.27656823 -0.05504519
-0.2670632 -0.24597922 -0.077451244 -0.50233793 0.25129193 -0.08431576 0.12642248 0.18592462
-0.3375394 -0.22277781 -0.40531301 -0.3063577 -0.4686859 -0.04266464 -0.4258783 -0.3233114

network.3.weight f4 [256, 256]
00000000: 3a5b 91bd 6f26 9fbd 57c5 0bbd ea27 5ebc
00000010: d60f 6dbc 808f 43bb 0363 b5bc 5a9e 053b
00000020: 95d1 45bd 0e39 08bd f3be 0fbd 33e9 893a
00000030: f5f3 433d fa37 28bd 123f 3bbd 627b 72bd
00000040: 6ca8 97bc fd3a acbc d9d4 84bd 317c 9f3b
00000050: 7853 b7bc 3fa5 abbd fa05 8cbd ea75 abbd
00000060: 347c b0bc 26bf 4fbd 4cbe 44bd abd6 453d
00000070: 3b34 e9bd 7e43 71bd 95dd 19bc 11f4 7fbd
00000080: 839c 57bd 2f4a 273c e3e2 e93c 276b 31bd
00000090: b78b f7bc d2b3 01bc 81f7 a9bc 55b9 c83c
000000a0: 8072 e8bc 50e1 73bd c3f7 14bd 8b57 1c3d
000000b0: 35f1 55bc e122 aa3c de6a a1bc e14a 08bd
000000c0: 73de c4bc 8d1c c2bc 48f0 2ebd 155c 773d
000000d0: 4602 7fbc 244d 1fbd 413f c1bc 9a28 87bc
000000e0: 532c 34bd 0be5 f4bc dd03 3abc 392c b0bd
000000f0: 75b8 45bd c221 91bd 098f b9bd 5d4c b0bd
00000100: ee0c 6cbd d6ed b0bb 6d4b 7dbc f3b4 01bd
00000110: 2f8d a4bd 382d a4bd fc19 2cbd 015d b5bd
00000120: 6f81 e7bc 6804 dd3c ba51 b13c d5d8 b3bc
00000130: 7fa7 0f3d 93c1 23bd 55f6 1ebc 0b3b 5e3d
00000140: d137 473d a5b2 8fbd ada7 3cbd 0ab5 94bd
00000150: 8519 84bd e460 9bbb be43 b2bd 9f6e 7fbd
00000160: 21cc fcbd 75dd 663d 2c5a d4bc a5a1 5abd
00000170: 4bdd d6bc 1eec 5dbd 7589 9cbc e4c2 2abd
00000180: 0b2e 99bd cab6 993b 79b3 993d 83a0 ffbc
00000190: 259f 1fb9 6881 48bd 2de9 01bd ab2b 993a
000001a0: 2fd1 e93b 75f4 73bd b06f 27bd 5a41 a6bd
000001b0: 18e7 023d 8f77 abbd 11a0 adbc c66d c23d
000001c0: c24e abbc 9c6a 9fbd b081 10bb 479f ffbc
000001d0: 0288 e0bc e96e 59bd bdcb 4ebd 32f8 903d
000001e0: 9eaf 9a3c afe9 0b3d 8bf5 a53d b3f7 fbba
000001f0: 64a4 91bd 1435 3cba fa21 97bd dee7 9bbd
00000200: 0404 a6bc 21fb 123d 57f2 95bc 4bba 3f3d
00000210: e00b 5bbb 5ac1 2fbd c5d1 9cbd d53e 013d
00000220: c770 b4bb bd6b 97bc e568 81bd d03f 9b3c
00000230: 31b3 8abc a1b3 f6bc 7cfd d53c 062e 3f3b
00000240: 19d2 78bd 7c19 33bd d452 6a3d b3ab d63b
00000250: 012a 72bd 8ff1 0bbd b056 533d 3925 98bd
00000260: d172 a1bd 25f8 443c 7cf7 9ebd fe63 29bd
00000270: 6768 1bbd 9ff0 77bd ce14 34bd 8ecf 3cbc
00000280: c794 253c a39a 52bd b875 8fbd 8b14 2abd
00000290: 501a 223d bac7 66bb 391c 493c db96 5cbd
000002a0: 58ce e2bc e17b 88bc be07 c1bc b224 663d
000002b0: 3f6f 08bd 22bd e03c d42f b03a 53fe 413d
000002c0: 8b90 603c daf8 023c d8ac e139 fd4c 963c
000002d0: 67dd 06bd a31b 9ebd 71b3 12bc 3028 e0bc
000002e0: 50ee 263d f25c d8bd b63b 813c 7d46 b5bb
000002f0: 7196 d7bc 5370 b1bd 83db ae3c a8f6 1ebc
00000300: 0ace d2bd b7eb a2bd 5cd0 7bbd c968 aebd
00000310: c059 9e3b f1b0 45bd 294e 19bd dc0f f1bc
00000320: fe55 aabc 0280 7ebd 573d 62bc 7293 48bd
00000330: facf 06bd fccd 84bd fecd 08bd aad0 aabc
00000340: 70ec 37bc c845 82bd 380b 81bc 55b7 243c
00000350: 4cc3 463c b625 56ba d1a1 b2bb 7638 e43c
00000360: 6942 513b 0444 b6bc d871 7fbd 92e5 cfbd
00000370: 55e2 34bd 0583 1ebd 81ab 95bd e941 2ebd
00000380: c131 bdba afe7 7b3b 48d1 aebc f774 4abd
00000390: 54d7 4b3b 6ab2 88bd 2ce9 b2bd dd91 f7bc
000003a0: 96d9 0fbd 455a dc3c 0a10 92bd 6ac2 12bc
000003b0: 60a8 b43c 6a3b b0bd 1a81 49bc e990 d3bc
000003c0: 5862 e2bc 10ce a8bd 8b8d 09bb 37a7 10bb
000003d0: 7c50 36bd a498 44bc 08e2 ddbc a1fb c4bc
000003e0: 3da4 dabd 3723 9abd 4d79 8bbd b013 b8bc
000003f0: 7b85 5abd 10d8 84bc 0b16 ffbc 5fc9 82bd
-0.07097478 -0.077710025 -0.034123745 -0.013559321 -0.014469108 -0.0029840171 -0.022141939 0.0020388574
-0.048295576 -0.033257537 -0.035094213 0.0010521769 0.047840077 -0.04106901 -0.045714445 -0.0591997
-0.018512927 -0.021024222 -0.0648591 0.0048670997 -0.022378668 -0.083811276 -0.068370774 -0.083721
-0.0215436 -0.050719403 -0.048033044 0.048300426 -0.11386915 -0.058902256 -0.009391208 -0.06248862
-0.052639496 0.010210558 0.02855057 -0.04331508 -0.030217988 -0.007916408 -0.020747902 0.024502436
-0.02837491 -0.059541047 -0.036369096 0.038169425 -0.0130579965 0.020768585 -0.019704279 -0.033274535
-0.024031853 -0.023695255 -0.04270962 0.06039055 -0.015564507 -0.038891926 -0.023589732 -0.016498853
-0.043987583 -0.029894372 -0.01135346 -0.08602185 -0.048271615 -0.07086517 -0.09060485 -0.08608315
-0.05762952 -0.005399446 -0.015459877 -0.031666707 -0.08034741 -0.08016437 -0.042016968 -0.0885563
-0.028259961 0.02697964 0.021645416 -0.02195398 0.035071846 -0.03997953 -0.009702285 0.054255527
0.048637215 -0.070164956 -0.046058346 -0.07261093 -0.0645018 -0.004741775 -0.08704327 -0.062361356
-0.12343622 0.05636354 -0.025921904 -0.053376812 -0.026228568 -0.054180257 -0.019108513 -0.04168977
-0.07479485 0.0046909796 0.07504935 -0.031204468 -0.00015222708 -0.048951536 -0.031716514 0.0011685988
0.0071355323 -0.059559304 -0.040877998 -0.081179336 0.03195867 -0.08372413 -0.02119449 0.09493594
-0.020911578 -0.07784006 -0.0022049956 -0.031203879 -0.027408604 -0.053084288 -0.05048727 0.070785895
0.018882569 0.034158405 0.08103474 -0.00192236 -0.07111433 -0.000717954 -0.073795274 -0.076125845
-0.020265587 0.035884026 -0.018304033 0.046808522 -0.0033423826 -0.042909004 -0.07657198 0.031554062
-0.005506608 -0.01848399 -0.06318835 0.018951327 -0.016931148 -0.03011495 0.026121847 0.002917172
-0.06074724 -0.043725476 0.057207897 0.00655123 -0.05912209 -0.034165915 0.051596344 -0.07428975
-0.078832276 0.012022053 -0.07762048 -0.041355126 -0.037941363 -0.06053221 -0.043965153 -0.011524094
0.010106272 -0.051417004 -0.07004875 -0.041523498 0.039575875 -0.003521426 0.012274795 -0.053854804
-0.027686283 -0.016660633 -0.023563262 0.05618734 -0.033309218 0.027433936 0.0013441988 0.047361683
0.013706337 0.007993901 0.00043044123 0.018347258 -0.03292599 -0.07720115 -0.008953915 -0.027362913
0.040754616 -0.10564603 0.015775543 -0.0055320845 -0.026316853 -0.08664002 0.021344906 -0.009702362
-0.10293205 -0.07955115 -0.061478004 -0.0851608 0.0048324764 -0.048264448 -0.037428055 -0.029426508
-0.020792957 -0.062133797 -0.01380857 -0.04896874 -0.032913186 -0.06484601 -0.033399574 -0.020851452
-0.011225805 -0.06360966 -0.01575242 0.010053475 0.012131523 -0.00081690715 -0.005451419 0.027858954
0.0031930453 -0.02224923 -0.06236443 -0.10151209 -0.04416116 -0.03869917 -0.073081024 -0.042543326
-0.0014434383 0.0038437655 -0.021340027 -0.049427953 0.0031103687 -0.06674655 -0.0873588 -0.03022092
-0.035119615 0.026898513 -0.071319655 -0.008957485 0.022052944 -0.08605082 -0.012298847 -0.025825934
-0.027634785 -0.08242428 -0.0020988907 -0.0022072324 -0.04451035 -0.011999283 -0.02708532 -0.024045767
-0.10675857 -0.07526248 -0.06810246 -0.022470325 -0.053349953 -0.016216308 -0.03113844 -0.06386065

network.3.bias f4 [256]
00000000: d015 f23d 58c5 5ebe b86c babd 2fb2 7dbe
00000010: a4af 3ebe 2333 81be 5959 21be 61ea 603d
00000020: b8f5 27be d8ce 6ebe 019d 613d 17fc 0abc
00000030: 0fdd 503d d1f0 ca3d fde7 90bd f8b1 75be
00000040: 54c8 223e 7f4b 6a3d 00c0 35be 476c 47be
00000050: 6b8c 4bbe 5e2d 3abe f2e2 83be b6c5 60be
00000060: 3416 7abe 312d e4bd 85df 36be d167 66be
00000070: e84a 24be 47ca 21be 1f95 f5bc 0680 073e
00000080: 7985 9dbd ad1a eebd 7ef6 3c3d f2f7 d23d
00000090: 97d8 b23c 4bef 1abe 8f38 62be 0653 b6bd
000000a0: 88c4 e0bb 0361 ef3c 20b3 50be 9e05 42be
000000b0: aa4a a13d 7d1f 3cbe dd60 70be b0d3 99bd
000000c0: f759 79bd c6de 843c 4ced a13d 401b bdbd
000000d0: c170 83be 62b2 ce3c ba0c 7cbc 827f 91bc
000000e0: 0b5c 27be ac70 063d c0cb f7bc 7bb4 26be
000000f0: 4658 21be 9b96 083d d930 04be 45d3 64be
00000100: d528 9d3d cad1 113d 6982 71be 0575 82be
00000110: 63f5 a1bd b9ae 3fbd c5b7 0bbe 4fc0 60bd
00000120: fb5f be3d 58ac 133d 1749 aabd 5687 2ebe
00000130: 414a 06be 4dc6 8f3c 8273 ebbd 7ae6 70be
00000140: 2348 523d 65f3 7abe e107 8abd ac67 60be
00000150: 43b6 883d 8404 343d bb54 203d efae 53be
00000160: 5b9d 8dbe 3c5a 31be f8b1 20be 30b0 07be
00000170: c612 38be 14e6 a5bd c933 d2bd 36c9 a5bd
00000180: 5526 37be 76e1 c83d 8134 8bbe 3d87 88be
00000190: 7c31 1dbe 5ff6 a3bd 58fd 58be fe45 4a3d
000001a0: f61c 3cbc cb60 63bd b51a 3f3d bbaa 89be
000001b0: 2c9a 68be 048f fbbc 0aba 6ebe 6cfb 20bd
000001c0: 38e4 1fbe eadb afbd 5d08 96bd 6777 b9bd
000001d0: 9d0c 35bd c823 4ebd 97d0 bc3d d41e 83bd
000001e0: e0d1 0e3d 8575 79bc 8910 98bd df36 4ebd
000001f0: 9d19 91bd 0ab9 de3c 1bfb a4bd 77b6 26be
00000200: 9aca 4a3c b4c0 48bd b756 163d c541 53be
00000210: 7889 1cbe 9581 3abe bea2 e1bd 0aed 0ebe
00000220: e099 c13d 6290 163d 4da2 07be dcc9 cc3c
00000230: b4a6 b4bd b86c 51be d0ae 94bd b3b6 b83d
00000240: ea83 d33b bf73 10be 1f0c f2bd 1c71 82be
00000250: df37 78be a4dc 09bd 56ea 1b3d 0bbc 923d
00000260: aee5 d73b 661e 6b3d 472c 1dbe 0014 64be
00000270: 0a24 1cbe 71e8 1e3d dea3 00be ea3a 273b
00000280: 0671 39be af0b e8bd 7846 2c3d 0529 07be
00000290: 6cc5 d83c c81f 19be be0a 21be 8625 afbd
000002a0: aa75 6ebe 3b91 20be c38e 883d d851 31be
000002b0: c8d8 09be 9181 21be 6aa6 82be 7670 5ebe
000002c0: 97d9 2e3d 135d 81bd c7d2 2ebe 3b8a bf3c
000002d0: 8e83 2ebe 9621 d83d 0056 5dbe 4220 72be
000002e0: 9225 23be fb50 49be fde8 a5bd 655d 42be
000002f0: 8f3d 0c3e c403 47be 8310 fdbd 9334 763d
00000300: 6234 44be c62f ebbd 742d 10be 15fd 1cbe
00000310: b20f 8ebd 20a4 12be 5ae3 983d 5963 93be
00000320: 8859 95bd e1f3 523d 1e25 75be e4b8 423d
00000330: b13c ddbd 0351 cdbd e565 6e3d 4c69 573d
00000340: 1ca9 f13d cfb9 16be 2954 45be 907c 85bd
00000350: 2cb9 0dbe 6466 2abe 8d70 61bc 67ed 9e3d
00000360: ec81 ebbd 7bdc d03c 0a7a a6bd 9ce9 073e
00000370: ae56 3bbd 6744 06be d040 1fbd 2d9c 0dbe
00000380: 8395 14be 4a6c fcbd d07f a9bd 5fb3 41be
00000390: d49c 21be ff6c 003d f6e8 84be eb99 e5bd
000003a0: ffb8 0dbe 622e 923d 86f9 dcbd a161 c3bd
000003b0: 844f 79be aa46 55be e4dc a43d 2c10 5cbe
000003c0: 0aaf 6abe 76cb b23d 7c6a 41be 2bed 123d
000003d0: c2b6 68be bab9 76be 035a 22bd 2c89 78be
000003e0: 4d40 38be 2704 12be 294c 22bd 03e5 87be
000003f0: 224f 68be 88bc 3f3d 8fa2 04be cf16 953d
0.11820567 -0.21754968 -0.09102768 -0.24775003 -0.18621689 -0.25234327 -0.1575674 0.05491102
-0.16402328 -0.23321092 0.05508137 -0.008482954 0.050992068 0.09909213 -0.07075498 -0.23993671
0.15896732 0.057200905 -0.17749023 -0.19474898 -0.19877784 -0.18181369 -0.25759083 -0.2195042
-0.24422532 -0.11141432 -0.17858703 -0.2250054 -0.160442 -0.15799819 -0.029978333 0.13232431
-0.076914735 -0.11626182 0.04613351 0.10301198 0.021831794 -0.15130346 -0.22091888 -0.08902554
-0.006859366 0.029221063 -0.20380831 -0.18947455 0.07875569 -0.18371387 -0.2347445 -0.07511079
-0.060876813 0.016219508 0.07906589 -0.09233713 -0.25671962 0.025231544 -0.015383894 -0.017760996
-0.16343705 0.032822296 -0.030248523 -0.16279785 -0.1575633 0.033346754 -0.12909259 -0.22346218
0.07673804 0.03560046 -0.23584904 -0.25479904 -0.07908132 -0.046797488 -0.13644321 -0.0548709
0.092956506 0.03605303 -0.08314722 -0.17043814 -0.13114263 0.017550612 -0.11496641 -0.2352542
0.051338326 -0.2450691 -0.06739784 -0.21914548 0.06675389 0.04394962 0.039143305 -0.206722
-0.27659115 -0.17319578 -0.1569289 -0.13250804 -0.17975911 -0.081005245 -0.102637835 -0.080950186
-0.17885716 0.09808628 -0.27188495 -0.2666568 -0.15350908 -0.08005976 -0.21190393 0.049383156
-0.011481514 -0.05551223 0.04665633 -0.2688807 -0.22715062 -0.030707844 -0.23313156 -0.039302275
-0.15614402 -0.08586867 -0.07325814 -0.09055977 -0.044201482 -0.050327092 0.09219473 -0.064023644
0.03486812 -0.015225773 -0.07425029 -0.050345298 -0.070849635 0.027187843 -0.08055707 -0.16280542
0.012377406 -0.0490119 0.03670379 -0.20630558 -0.15286815 -0.18213494 -0.11017369 -0.1395761
0.094531775 0.036758788 -0.13245507 0.024998598 -0.088208586 -0.20451629 -0.07259905 0.09019222
0.0064549344 -0.14106654 -0.11818718 -0.2547692 -0.24240063 -0.033657685 0.038065277 0.071647726
0.0065886592 0.057402037 -0.15348922 -0.22273254 -0.15248123 0.038795892 -0.1256251 0.0025517293
-0.18109521 -0.113303535 0.04205939 -0.13199241 0.026461326 -0.1495353 -0.15726754 -0.08552079
-0.23287073 -0.15680401 0.06667855 -0.17316377 -0.13461602 -0.15772082 -0.2551759 -0.21722588
0.04268798 -0.063165806 -0.17072593 0.023381343 -0.17042372 0.10553281 -0.21614838 -0.23645118
-0.159323 -0.19659798 -0.081010796 -0.1898094 0.13695358 -0.1943503 -0.12356665 0.060108732
-0.19160607 -0.114837214 -0.14079839 -0.15330918 -0.069365874 -0.14320421 0.07465239 -0.28786734
-0.07292467 0.051502112 -0.2393994 0.047539607 -0.108025916 -0.100252174 0.058202643 0.052590653
0.11799833 -0.14719318 -0.19270386 -0.06517899 -0.13840169 -0.16640621 -0.013759744 0.07760125
-0.1149939 0.025495758 -0.08128746 0.13272709 -0.04573696 -0.13112031 -0.03888017 -0.13829108
-0.14510159 -0.12325342 -0.082763314 -0.18916081 -0.15782481 0.031353947 -0.25958985 -0.11210998
-0.13840102 0.07137753 -0.1078978 -0.095401056 -0.24346739 -0.20827737 0.08049944 -0.21490544
-0.22918335 0.08730213 -0.18888277 0.035870712 -0.22725967 -0.24094287 -0.039636623 -0.24271077
-0.17993279 -0.14259396 -0.039623413 -0.2654191 -0.22686437 0.046810657 -0.12952636 0.07279741

network.6.weight f4 [128, 256]
00000000: 1e65 0ebd 48b8 d1bb cba2 753d 3675 413e
00000010: a7cb 913c e4f2 123c 22c2 50bd cde6 71bd
00000020: 9401 5e3d b359 393e f660 ae3c 8d81 0f3d
00000030: 4729 933c f453 d33b 3bee 393c c657 9ebd
00000040: 53df f2bd cc49 dcbc fda3 4bba 1de9 703d
00000050: 433c 55bd dd4d 3f3e ec70 4a3e c5f2 583d
00000060: de4b f93c 9603 2c3d 648b 0b3d 8caa db3c
00000070: ee36 d53b 8cbc a63d 00d8 aabc 24f4 b0bd
00000080: 546c c13b 5cdd 9bbb 9835 d1bc 8ddf 803c
00000090: b1a9 60bd 60bf 883c dbd8 32bd 41aa c2bc
000000a0: c6e8 ee3c 30e9 eabc b462 133d 5b5a ae3d
000000b0: 0ed9 f2bc be4a 423d 2246 713e 2678 0bbc
000000c0: ff17 c73d d62b e1bc a730 8dbb b959 cbbb
000000d0: ec27 923e 1d2f dcbc 6540 85bd 4813 52bd
000000e0: b5b9 ef3c 4c72 8f3c 4097 bb3d 8f4d 213d
000000f0: 9d86 923c 63f6 a9bc b4ee d1bc d4bd 723d
00000100: a846 a03c 9b7e 683c 8752 acbb fa05 11bd
00000110: 08af b33d 5077 95bc 4c4a fe3c d070 693d
00000120: 8fa4 45bd e9eb 403c 64bb bc3d e90a 913c
00000130: fb00 82bd 8679 3ebd aa38 de3c fc51 8f3e
00000140: d0b7 94bd 7b54 813e 50b3 ba3d 65c9 163d
00000150: f843 a0bd 6d1a 62bc 0f65 833d b40c b9bd
00000160: 4414 1abe cba7 803d 8bca 0bbe 3edc 0e3e
00000170: c6d0 69bd 8006 d33b 3396 283d 4032 633d
00000180: 68a6 57bd f075 c13c 501d ae3d c669 693e
00000190: b66f 233e 8749 a53c 829d a0bd dc48 81bd
000001a0: 05e9 c5bb 8820 063d 39b2 9f3d b829 5c3e
000001b0: df9f 8abc 5e83 393b 7d29 5e3e 77c7 65bb
000001c0: cf4f 1b3d d6da 81bd 4de8 673d f0e3 f5bc
000001d0: 4145 4dbd 6eab 973d 507f a6bd fe6b 9c3c
000001e0: 5281 c0bc 5841 9cbd cc7a 3c3d 20a6 8abb
000001f0: 1638 2bbd ed2a d8bb d501 0cbd 9f7a ee3d
00000200: 3fdc 00bd 94e5 0d3e 4ac4 fa3d 3a56 e8bd
00000210: a133 373e 1931 e5bc 7111 ee3c 9321 b3bb
00000220: 3d8e e8bc 3ac8 f03b 9b3b 25bb 81b8 6bbc
00000230: 2fa5 223d e921 f1bd dda8 6cbd c66e a33d
00000240: 1d67 0abd 0320 8d3d 0b20 cd3c 2198 0a3e
00000250: 90c1 6ebd 214c c7bd d871 3cbd 6875 5dbd
00000260: 3ad5 80bd 8d29 ffbc 28b5 013e c23d ea3d
00000270: 39a9 ecbb 196a ae3b 64b8 343d a4b7 b03b
00000280: 5a2e 713d 392c 313d 6f95 763b 3c2f 583d
00000290: 16e7 8ebd a1ba 033d 9325 7d3c f040 043d
000002a0: 7939 3b3e 8c55 b9bc 65a8 07bd da89 d53c
000002b0: f016 9f3d 8f7f 1f3c 30fb 65bd b4bb 233d
000002c0: 790f 5ebd ad69 773d bd0e 1c3d da21 8ebd
000002d0: 133c 143e 57ac cd3c 08d3 833e 6495 be3c
000002e0: 15c7 883d 9bb1 28bd 2cec 85bd ab0a 16be
000002f0: eb18 913d 43fc 553c 3c60 5a3d 208e a6bd
00000300: c1be b43b 086c cd3d 585b 863d b177 1d3d
00000310: dfa2 a23d 64fc a53c 8f00 bcbd 3caf 673e
00000320: 2875 f43d 1a8a 88bc 7f8e c93d 7ac7 85bd
00000330: e10c b63d 9a25 e43d b941 a8bc b44a 09bd
00000340: 540b cfbd 6ad0 843c a35e d13b 8f1d 233b
00000350: 23ca bb3d a8d7 873d 1cf8 7a3d 4239 bfbc
00000360: d231 dc3c f2de 19bd 2fa2 a33d ccf5 833b
00000370: e465 61bd 3ea9 703c 8cdd 463b 18eb 3a3c
00000380: e658 073e 4bff df3d d7b2 263e 9833 ae3d
00000390: 46cf 293d 73ca 8cbd 2a9b 17bc df4d 1c3d
000003a0: 1aa6 873e be80 8d3c fbf8 d13d c32d 923d
000003b0: b1b7 05bd 21c9 f6bd 7e95 b1bd 614f d73d
000003c0: efe0 8bbd 2093 26bd 7d6b 083b 565f 9cbd
000003d0: 4e96 1f3e ce06 aebd dc3a 04bc b49c 763e
000003e0: 565b 153e d6e9 6b3c 6b53 733d 94c2 84bd
000003f0: 3656 7b3e 558b 9dbd b4be 103d 9df6 a63b
-0.0347644 -0.006400142 0.059969705 0.18892369 0.017797304 0.008969042 -0.05096639 -0.059058
0.054200724 0.18100624 0.021286469 0.03503566 0.017964019 0.006449217 0.0113483025 -0.07731585
-0.11859002 -0.026890658 -0.00077682716 0.058816064 -0.052059423 0.18682046 0.19769639 0.052965898
0.030431684 0.041995607 0.03406848 0.026814722 0.0065067923 0.08141431 -0.02085495 -0.08640316
0.0059028063 -0.0047566127 -0.02553825 0.015731597 -0.05484933 0.016692817 -0.04366384 -0.023762824
0.02916373 -0.028675646 0.035982803 0.08513328 -0.029644515 0.04743456 0.2356191 -0.008512532
0.09721374 -0.027486723 -0.0043087783 -0.006205764 0.28546083 -0.026877934 -0.06506423 -0.05128792
0.029263357 0.017510556 0.09159708 0.039380606 0.017886454 -0.02074737 -0.025626518 0.059263065
0.019564942 0.014190341 -0.0052588615 -0.03540609 0.08773619 -0.01824537 0.031041287 0.056992352
-0.04825264 0.011774995 0.092154294 0.017705398 -0.06347843 -0.046502613 0.027126629 0.27992237
-0.07261622 0.25259766 0.091162324 0.03681316 -0.07825464 -0.013800246 0.0641576 -0.09035626
-0.15046793 0.06282004 -0.13651483 0.13951203 -0.057083867 0.006439984 0.041158866 0.055467844
-0.05264893 0.023615807 0.08501685 0.22794256 0.15960583 0.020176662 -0.07842542 -0.06312725
-0.006039741 0.032745868 0.07797665 0.2150029 -0.016921936 0.002830706 0.21695514 -0.0035061517
0.03791791 -0.06340568 0.056618024 -0.030015916 -0.050114874 0.074057445 -0.08129752 0.019094463
-0.023499165 -0.07629651 0.046015546 -0.0042312294 -0.041801535 -0.006596914 -0.034181435 0.11644482
-0.031460043 0.13857108 0.122444704 -0.113445714 0.17890789 -0.027977513 0.029061051 -0.005466649
-0.028388137 0.0073480876 -0.002521253 -0.014387251 0.039708313 -0.11774046 -0.057778228 0.07980113
-0.033789743 0.068908714 0.025039693 0.13534595 -0.058290064 -0.09731317 -0.046007007 -0.054067045
-0.0629067 -0.031147743 0.12666762 0.114375606 -0.0072223214 0.0053227064 0.04412116 0.0053929854
0.058882095 0.043255065 0.003762569 0.05277942 -0.0697767 0.032160405 0.015450853 0.03228849
0.18283643 -0.0226238 -0.033119578 0.02606671 0.07768047 0.009735002 -0.056147754 0.03997393
-0.054213975 0.060403515 0.038099993 -0.069400504 0.14476041 0.025106592 0.25746942 0.023264594
0.06678597 -0.041185003 -0.06539187 -0.14652507 0.07084831 0.013060632 0.053314433 -0.08132577
0.0055159037 0.10030371 0.06560391 0.038444225 0.079412214 0.02026195 -0.09179794 0.2262544
0.11936408 -0.016667414 0.09841632 -0.06532188 0.08889175 0.111399844 -0.020539152 -0.033518508
-0.101095825 0.01621266 0.0063894554 0.0024889444 0.09169414 0.0663293 0.06127177 -0.023342732
0.026879225 -0.037566133 0.079899184 0.004027104 -0.05502881 0.014688788 0.0030344455 0.01140859
0.13217506 0.10937365 0.1627916 0.085059345 0.041457437 -0.068745516 -0.009253303 0.0381602
0.26493913 0.017273303 0.102525674 0.071376346 -0.032645885 -0.12050081 -0.086710915 0.10513187
-0.06830012 -0.040667653 0.002081602 -0.076353714 0.1558468 -0.08497392 -0.008070674 0.24083215
0.14585623 0.014399013 0.059405725 -0.06482425 0.24544606 -0.07692591 0.03533812 0.0050953166

network.6.bias f4 [128]
00000000: ba2a f2bc 572f 87bd e0cc 43bd 8a70 39bd
00000010: 2108 863c 1017 bd3b ed35 8dbc 02bb 33bd
00000020: b7da 80bd a856 2abe 3d39 06bd 8618 1ebd
00000030: 86dd 2fbd 02e3 bebc a3b0 15bd ab94 aebc
00000040: 2c7e efbb 57e1 ccbc 7894 78bd 9611 73bb
00000050: 69e4 9fbd bbf2 a1bc 06eb fc39 7f93 77bd
00000060: 3129 3b3d ea30 9bbc ca5b 82bd 2c2f e4bc
00000070: 6555 2dbd 2fa3 f63b 92ed dfbb 0492 89bc
00000080: 2c5e 37bd 4b2e 7bbd 5528 7cbc b210 193d
00000090: 8600 a3bc 7f15 72bc 65e9 71bc 093c 99bd
000000a0: 6fa3 29bd 63e6 86bc 55ea 2a3d 5bf0 833d
000000b0: 29bf 7dbd c084 3abe 2c90 843c 5303 4f3b
000000c0: e5c7 0c3d 8a94 dcbc 635f 743d 3860 c93d
000000d0: bd9b f23c 6ae0 deb9 0a83 2abd e96e 78bc
000000e0: 7fe5 c03a 4084 02bb 9a72 04bb 1a54 13bc
000000f0: f78b 91bd b65f 053d 331e 07bd b5e1 433d
00000100: 8568 0bbd 9707 a0bc 7e26 9dbd ae8e a5bb
00000110: cbb3 9abc c877 16bc 25ca c2bc 7115 88bb
00000120: 4d63 92bc f95d 083d f71f 12bb cbc9 65be
00000130: 99d7 82ba 222f 553d e4e6 1abc 2075 6fbb
00000140: 4a52 10bc 7eef 45bd 0ea2 c6bc 2c65 d3bd
00000150: 9c7b 40bd a207 9cbd 8d65 4abb 2592 bfbd
00000160: e346 49bd 6cac c5bd 4fab 21bc 3141 a4bc
00000170: dfa5 96bd 1114 abbc dd85 38bd aa6c 45bd
00000180: 2205 53bd 4bec 8e3d a503 08bc 686b 853d
00000190: 1b8a ad3c fcb1 7a3d 0a23 523d 0f42 acbd
000001a0: 57cc c9bd 2083 02bd ff77 c13b b85d c7bc
000001b0: 5dda 92bc fe20 63bd f445 0dbd 829b 773d
000001c0: 539f 9bbd 9f1f 9bbc a56c 93bd fabb aa3c
000001d0: 68b8 54bd a06f 6dbc d347 8b3b a1c9 efbc
000001e0: f1fa 373d 30f5 853c 4f30 b0bd 0d64 0dbd
000001f0: 9cb7 15bd c39d e83d 195f 18bd 4550 cd3c
-0.02956139 -0.06600826 -0.047802806 -0.04527334 0.016361298 0.0057705715 -0.017237628 -0.043879516
-0.062917165 -0.16634619 -0.03276943 -0.038597606 -0.04293587 -0.023301605 -0.036545407 -0.021311125
-0.007308742 -0.025009794 -0.060688466 -0.003708934 -0.07807238 -0.019769063 0.00048240292 -0.060443398
0.04569358 -0.018944222 -0.063651636 -0.027854525 -0.042317767 0.007526777 -0.0068337405 -0.016793258
-0.044767544 -0.061323445 -0.015390475 0.037369438 -0.01989771 -0.014775633 -0.014765118 -0.07482154
-0.041415628 -0.016467279 0.041727383 0.064423285 -0.061949883 -0.18214703 0.016182028 0.0031587675
0.03437032 -0.026926298 0.05966128 0.098328054 0.029615277 -0.0004251034 -0.041628875 -0.015163162
0.0014716833 -0.0019915253 -0.002020991 -0.008992219 -0.07106774 0.03256198 -0.032987785 0.047822673
-0.034035224 -0.01953487 -0.076733574 -0.005052409 -0.01888456 -0.0091838315 -0.02377803 -0.0041529466
-0.017869616 0.033292744 -0.0022296885 -0.22440259 -0.0009982466 0.052046902 -0.009454463 -0.0036538318
-0.008808682 -0.0483241 -0.024247196 -0.103220314 -0.046992883 -0.07618643 -0.0030883283 -0.09354047
-0.04913987 -0.096520275 -0.009867503 -0.020050617 -0.07355856 -0.020883592 -0.045049537 -0.048199333
-0.051518567 0.06978663 -0.00830165 0.06514627 0.021184018 0.061204895 0.051302947 -0.08411037
-0.09853428 -0.03186333 0.005904197 -0.02433668 -0.01792639 -0.055451386 -0.03449054 0.06045104
-0.07598748 -0.018935977 -0.07198457 0.020841587 -0.051933676 -0.0144919455 0.0042505055 -0.029270949
0.04491705 0.016352266 -0.08602964 -0.034519244 -0.036552057 0.11358216 -0.037200067 0.02506269

network.9.weight f4 [1, 128]
00000000: 3550 e53e fbae 35be 1228 ea3e c070 f6bd
00000010: d94f d83e cbc9 87bd abae ec3e b3d9 e13e
00000020: c71f 0cbe 0259 38be 73e7 86be 468e 043f
00000030: 676c 6cbe c6d0 ffbd d67e b4bd c2b3 d7bd
00000040: 2c61 aebd c695 95bd b3c0 ea3e 6d1a b3bd
00000050: 8e7b 043f 5854 ec3e 6302 a3bd b07d a5bd
00000060: d167 033f 9ae8 f23e dded f63e ca44 f93e
00000070: 45ee b6bd f4d4 043f 4d8d f33e 2a0a f03e
00000080: 3003 d8bd 5b63 8cbe f0f3 a6bd a18b f53e
00000090: 15e0 023f 5de6 a5bd 673e a2bd 4a5c cabd
000000a0: dc42 0e3f 61a3 f03e d429 0b3f 2940 0c3f
000000b0: df53 fd3e 743d 4bbe 5448 0c3f 9ea3 0c3f
000000c0: 5efe acbd 2e09 c0bd 80bc 123f d8e9 183f
000000d0: dedc 96bd a707 e8bd f09c 013f 9ed1 053f
000000e0: c843 e23e 324d 083f 48b8 f83e 9070 1f3f
000000f0: 7121 39be bf2a ff3e 4424 053f 3aeb 1c3f
00000100: cdf2 fe3e 21f2 033f b3d8 bebd be30 0f3f
00000110: aeba 113f 70f6 0e3f 41e7 9abd 09d5 f43e
00000120: ee7c 96bd 70e7 f23e 432b 9fbd 2822 39be
00000130: 3b51 9bbd 66e8 053f 10f9 99bd 8bf7 fa3e
00000140: abf7 053f a825 8dbd 4037 ecbd 5616 a4bd
00000150: b301 85be efea 3fbe 496f fc3e 746e fcbd
00000160: 8dfc 033f c964 f33e 06fd cdbd d882 81bd
00000170: 3af2 e6bd 79bb 73be 6293 f73e ee59 d6bd
00000180: 6730 053f 3b34 0d3f 76d3 a2bd 8fa6 063f
00000190: c954 043f aed9 c93e 696c 2b3f 832b f73e
000001a0: e685 8dbe 88eb aebd 8c96 013f babe 023f
000001b0: 9688 f13e 4b52 cd3e 0d99 dabd 3012 1b3f
000001c0: 4a3b 37be 4537 9ebd 34e1 24be 122d a9bd
000001d0: ad57 e93e 1a2f d6bd 2d6f fabd c21d 013f
000001e0: e698 0b3f 9ccb ec3e 390c 0e3f 7ba8 ed3e
000001f0: 6fa0 f33e 9370 d43e 5d5c f03e 2d67 a3bd
0.44787756 -0.17742531 0.45733696 -0.12033224 0.4224842 -0.06630286 0.4622701 0.44111404
-0.13683997 -0.18002704 -0.26348457 0.5177959 -0.23088227 -0.12490992 -0.088132545 -0.10532333
-0.08514628 -0.07303958 0.45850143 -0.08745275 0.5175103 0.461581 -0.079594396 -0.080806136
0.51330286 0.47443086 0.4822835 0.48685294 -0.08932165 0.5188744 0.4756874 0.46882755
-0.10547483 -0.27419552 -0.08151996 0.4795809 0.5112317 -0.08100579 -0.079220586 -0.09880884
0.5557077 0.46999648 0.543607 0.547854 0.4947805 -0.19847661 0.54797864 0.5493716
-0.08446954 -0.09376751 0.5731888 0.5973182 -0.07366346 -0.113295846 0.5063009 0.52272975
0.44192338 0.5324279 0.48578095 0.6228113 -0.18079163 0.498373 0.5200846 0.6129643
0.49794617 0.51541334 -0.09318676 0.5593375 0.56925476 0.55844784 -0.075636394 0.47818783
-0.07348047 0.47442198 -0.077719234 -0.18079436 -0.07583853 0.52307737 -0.07518208 0.49016985
0.52331036 -0.06891948 -0.115339756 -0.08012073 -0.2597786 -0.18741964 0.49303654 -0.12325755
0.51557237 0.4753783 -0.10058026 -0.063237846 -0.1127667 -0.23801984 0.48354632 -0.104663715
0.5202698 0.5515782 -0.07950489 0.525979 0.5169187 0.3942389 0.66962296 0.48275384
-0.2764122 -0.08541018 0.5062034 0.51072276 0.4717452 0.40101847 -0.10673723 0.60574627
-0.1789371 -0.077253856 -0.16101533 -0.082605496 0.45574704 -0.10458203 -0.12228236 0.5043603
0.5453018 0.46249092 0.554874 0.46417603 0.4758334 0.41492137 0.46945468 -0.079786636
