models/final/generator.pth (torch, 485191 bytes, 20 tensors)

network.0.weight f4 [128, 100]
00000000: b83f bcbd 1809 2c3d e147 8d3d ac96 fabc
00000010: 7c28 4abc 48b3 173d 123f 8fbd 573f 92bd
00000020: 15a0 6dbd f0d4 923c 2c03 96bc 8e5a 59bd
00000030: d3e7 79bd de9f 0cbb 5cb8 38bd 4d41 3fbd
00000040: a053 babd 6879 83bd dd4d 983d 714c 26bd
00000050: d0a7 21bd 1ea3 0cbd 6552 cfbb d16e 60bd
00000060: 5f9c 2f3d cb42 9ebc 8cdf 96bd 5345 91bd
00000070: d9fc e5bc 601b 8fbd d7e2 debd 3a11 33bc
00000080: 0281 b2bc 76fc d93d d644 eabb 1a28 5bbd
00000090: 3b3d 38bd ed55 d43c 6a92 26bd 9a63 d6bd
000000a0: dd82 a43c 60c9 7c3d bcbd c0bd ac2e 07bd
000000b0: 1f0c 463c a429 b23d 1452 0c3d 069f 5b3b
000000c0: eb43 70bd 5d4f e53d f709 c03c 29d4 da3b
000000d0: a6c8 65bd 443f debd 1470 7cbd 2d57 ff3c
000000e0: 2423 043b e81e ae3d 0fce 0abe f1b4 073e
000000f0: 2385 b3bc 72f6 42bd 43b1 11bd c5d8 2ebd
00000100: 3c66 5abd 1d3c 5a3d 7b29 bd3d 935d 963d
00000110: 342d df3b 32f4 b63d 9236 0fbe c120 22bd
00000120: 3d8e a03d 3bec 88bd 0c23 353c b70d 013e
00000130: 9b09 79bd 346e ddbb 5c43 7f3d ea12 673d
00000140: 2bed b5bc 8c49 fc3d d272 90bc 6d1b 91bc
00000150: af9c c2bd 8b3b 9e3d 678a 06bc fe3b e33d
00000160: 4a5d e13a b1e9 253c d4bf ddbd ea80 e33d
00000170: b325 64bc e7ac 1bbd 7604 4e3d 99f0 2fbd
00000180: 7825 7d3c 10e4 c7bd a8bf 803d 87c9 9e3d
00000190: b20f 683d 0367 00bd 041a 8bbd d58b 9bbc
000001a0: 78e0 863c 652a 4abd 9399 563d c485 c3bd
000001b0: 7d15 4d3d 1912 0bbc 5272 eb3d 96af e5bd
000001c0: ff86 ce3c 6b5b dc3d 8cb1 46bc ae36 25bd
000001d0: c331 79bd 2a99 883d 4c53 95bb 179a d2bb
000001e0: 27e4 68bd c6d0 79bd 4aba 53bd f425 63bd
000001f0: 16e7 453d 6093 323d cf92 50bc 3844 263c
00000200: 694e c03d 0344 a33d 59a8 ae3d 96ef 9abd
00000210: c843 ca3d 0586 3c3d 85c6 d03b 4eda 7b3d
00000220: bf1b a1bd 9638 56bc b12b aa3d 7046 e3bb
00000230: 8c83 173d f013 abbd 076c ccbb 0c69 2cbd
00000240: b8a9 a73d 8b07 06be 011c 673c 97eb c6bd
00000250: 99c6 c13d af92 db3d 6e13 903d 0f40 603b
00000260: 6084 803d d486 2cbd f62e a63d 1f3e 643d
00000270: 9190 9bbd 8ea5 e23d 6aa7 02bc 0809 903d
00000280: ba52 41bd a6c9 e8b8 d099 d8bd b442 a5bb
00000290: aa80 903c bdc6 cdbd 59a3 9d3c e1ca 39bd
000002a0: fcf9 233d 08a8 1f3d 7cea 033e 1210 1dbe
000002b0: 901d 56bd 4d64 553d 8aa9 b63a 7ad9 993d
000002c0: e036 993c c30f a8bd 5c64 373d ef01 78bc
000002d0: 844f 183d 2f65 d53c 79ac c23d f5bc 7abb
000002e0: ef9b 67bd b3f4 cabd 56e6 61bb 1fde 6c3d
000002f0: d393 8cbd 910a abbd f8c8 18bd 03f4 5f3d
00000300: e500 a6bd d2ec bf3d 69ef cebd 6853 08bd
00000310: d992 d23c 45b2 e13d 06c6 0a3d 643b f5bc
00000320: c242 e2bb fa08 413d 6aa1 60bc beca dfbd
00000330: 29e6 0dbd 064e 42bc 8648 6c3d 5882 843d
00000340: 7fb9 acbd e8a8 583c 0d0c 19bd d5a4 d53c
00000350: 5de1 c43d 6b0f c03d 4616 913b a801 f93c
00000360: bec6 073b 197f 04be f418 cfbb a953 f1bb
00000370: e7b5 b2bd 1603 ce3c e4a7 c1bd 4010 d63d
00000380: 5b2e c73d d634 93bd fb76 2dbe d158 cdbd
00000390: 9423 db3d a89d 983b 224e 5e3d 2e8a 4ebd
000003a0: 755a 633c 4903 dfbc 0162 d1bd f4f7 653d
000003b0: 931e 0a3d 90c7 d3bd 765c 3bbd e0ff 473d
000003c0: 7025 3e3d 10f4 0cbd f4e0 a5bc 2017 c3bd
000003d0: 2123 913c b650 b2bd 00b5 b5bd 8c70 ec3d
000003e0: d27c 553d ba5c a53c 1269 f6bc c323 60bd
000003f0: 8b64 17bd 0d8f 0dbd 059d 9f3d 83a4 f73d
-0.09191841 0.04200086 0.068984754 -0.030589424 -0.012338754 0.03703621 -0.069944516 -0.07140987
-0.058013994 0.017923802 -0.01831206 -0.053064875 -0.0610121 -0.0021457593 -0.045097694 -0.046693135
-0.090979815 -0.06419641 0.07436726 -0.040600244 -0.03946668 -0.03433525 -0.006326961 -0.054793183
0.042873736 -0.019318959 -0.07366857 -0.07093301 -0.028074669 -0.06987643 -0.1088311 -0.0109294
-0.021790031 0.10643856 -0.007149319 -0.05350504 -0.04498027 0.025919879 -0.040666975 -0.10468216
0.020081932 0.061715484 -0.09411189 -0.033003494 0.012087851 0.086993486 0.034257963 0.0033511533
-0.05865852 0.11196778 0.023442252 0.0066781235 -0.056099556 -0.10851911 -0.061630324 0.031169498
0.0020162547 0.08501989 -0.13555168 0.13252617 -0.02191407 -0.04759831 -0.03556944 -0.042687196
-0.053320155 0.053279985 0.092364274 0.073420666 0.0068108086 0.08933295 -0.1398566 -0.039582018
0.0783963 -0.066856824 0.011055719 0.12602888 -0.060800176 -0.006757522 0.0623201 0.056414522
-0.022207817 0.123187155 -0.017632876 -0.017713273 -0.09502541 0.07726201 -0.008211709 0.11095427
0.001719394 0.010126517 -0.10827604 0.11108573 -0.013925004 -0.03800669 0.050297223 -0.04295406
0.015450828 -0.09760296 0.062865555 0.07753282 0.056655593 -0.03134824 -0.067920715 -0.018987576
0.016464457 -0.049356837 0.052392554 -0.09546998 0.05006932 -0.008488202 0.11496414 -0.11215131
0.025210856 0.10759624 -0.012127291 -0.04033535 -0.060838472 0.06669839 -0.004557049 -0.0064270603
-0.056858208 -0.060990117 -0.05169133 -0.055456117 0.048316084 0.04359758 -0.012730314 0.010148101
0.093899556 0.079719566 0.085282035 -0.07565229 0.098762095 0.04602625 0.0063713216 0.06148749
-0.0786662 -0.013075015 0.08309115 -0.006935887 0.036990687 -0.08353412 -0.006238464 -0.042092368
0.08186668 -0.13088815 0.014105798 -0.09712904 0.094617076 0.10721337 0.07034956 0.003421787
0.062752485 -0.04212077 0.08114426 0.055723306 -0.07595933 0.11066733 -0.007974485 0.070329726
-0.047198035 -0.00011100182 -0.105762124 -0.005043352 0.017639477 -0.10047672 0.01924293 -0.045359496
0.040033326 0.038978606 0.12882417 -0.15338162 -0.052274287 0.052097607 0.0013936025 0.075121835
0.018702924 -0.08206131 0.044773445 -0.01513718 0.037185207 0.026049225 0.09505553 -0.00382596
-0.056545194 -0.09909954 -0.0034469566 0.05782902 -0.06864133 -0.08351625 -0.037301034 0.054676067
-0.08105639 0.09371342 -0.101042576 -0.033282667 0.025704788 0.1102033 0.033880256 -0.029935546
-0.006904931 0.0471277 -0.013710359 -0.10927342 -0.034643326 -0.011859423 0.05768635 0.064701736
-0.08433818 0.013223864 -0.03736501 0.026079575 0.09613297 0.09377941 0.004427704 0.030396298
0.0020717825 -0.12939109 -0.0063201133 -0.0073647094 -0.08726101 0.025147956 -0.09455851 0.10452318
0.097256385 -0.07187812 -0.16939919 -0.10026706 0.10700145 0.004657466 0.054273732 -0.050424747
0.013876547 -0.027223246 -0.10223771 0.05614467 0.033720564 -0.10340798 -0.045742474 0.048828006
0.046422422 -0.034412444 -0.020248868 -0.09525895 0.017716946 -0.08706801 -0.08872414 0.11544904
0.05212099 0.020185817 -0.030079398 -0.054721605 -0.03696112 -0.034560252 0.07793621 0.12091925

network.0.bias f4 [128]
00000000: 0a0d bdbd 8f01 c33d 4961 5d3d 38aa 933c
00000010: 6d02 183d 6a9f 503d b490 b63d 4cd3 e13d
00000020: 8586 eb3c ab52 36bc 082a c5bd 0e88 f1bb
00000030: bc50 d93c e730 f93d 8fe1 3b3d 2778 b33d
00000040: b37a 99bd 9beb ac3a 5fdd 8ebc e032 393d
00000050: 357b c7bc b4f9 35bd e19c 133d ad6e 25be
00000060: fd29 9f3c 9caf 78bd 25e7 60bd c865 0fbd
00000070: bdfa bcbc 2956 f7bd 8353 a0bb 4655 c7bd
00000080: 9ef7 37bd b6d7 693d bf2f 813d 3adb f53d
00000090: ea52 7bbc f0a8 9ebd 8973 113e ce8d c9bd
000000a0: ee5a 53bd aa77 01bd 71c0 9bbd d502 8b3a
000000b0: 388b 11bc e2cc 76bc a83c 223d 09ff 71bc
000000c0: 0cd2 88bd a944 df3c c26a a13d cf3a d53d
000000d0: d453 443d f78f 19be 56ea 6d3d af29 2c3c
000000e0: 205a c8bb 17bb 8fbc 7232 333c 7bc7 933c
000000f0: 4d6e b53d 40a7 8bbd 6994 8a3d 8407 dbbd
00000100: 0923 a1bc 9007 c2bd 413d 35bd 3ddd b7bc
00000110: 2492 c6bd de02 7f3c 8b10 d03d 961e 09bd
00000120: fcb6 323d d6f0 bdbd aec5 933d 4193 66bd
00000130: cc98 5b3c d5b5 4abd b801 e9bd 86ed a8bd
00000140: 0e6a 9cbd 9a03 af3d 94c8 ef3b 0aed a0bc
00000150: f6c0 6c3d 865b c53c 59ec c13d 945f 6ebc
00000160: d861 e7bb 26ae 76bd 511d 5abd 54c4 903d
00000170: 6ff8 553d ff7a 63bd 7c0c bebd 009e 1bbb
00000180: 6cc7 b5bc 3962 f0bc f09a 5abd d500 933d
00000190: 5d9d 92bb ee19 86bd 2be3 12bd 2c80 aebd
000001a0: 136f 49bc dd05 5c3d 531c afbd c807 86bd
000001b0: fe40 dcbc 651a 1abe 993e 82bc 150b 3b3b
000001c0: 6687 94bd a4c4 b2bd b580 94bd ec92 a13d
000001d0: 494b fbbc 341b 4d3d 337f 493d 75a8 183c
000001e0: 0278 043d 3cdd afbd a028 c0bd 03e9 8f3c
000001f0: 9803 fc3d c4cb e43d 7ed7 d03b 42d4 6b3c
-0.09231003 0.09521782 0.054047856 0.018025503 0.03711169 0.05093328 0.08914319 0.1102663
0.028750667 -0.011128108 -0.096271574 -0.0073709553 0.026527755 0.121675305 0.045869406 0.087631516
-0.07494106 0.0013192774 -0.017439542 0.045214534 -0.024350742 -0.04442759 0.036038283 -0.161555
0.019429201 -0.06071435 -0.054907937 -0.035009176 -0.02306878 -0.120769806 -0.004892768 -0.097330615
-0.04491388 0.057090484 0.06307935 0.12004705 -0.0153395925 -0.07747066 0.1420423 -0.098415
-0.05160039 -0.03160826 -0.07605065 0.0010605702 -0.00888329 -0.015063496 0.039608628 -0.014770278
-0.06680688 0.02725442 0.078816906 0.104116075 0.047931507 -0.14996324 0.05808481 0.010507985
-0.0061142594 -0.017545266 0.01093732 0.018039456 0.08858929 -0.0681901 0.06766588 -0.10694793
-0.019670026 -0.09474099 -0.04424787 -0.022444362 -0.09695843 0.015564648 0.10159405 -0.033476435
0.04363154 -0.092744514 0.07215439 -0.056292776 0.013403129 -0.049489815 -0.11377281 -0.08248429
-0.07637416 0.08545609 0.007317612 -0.019644279 0.05780121 0.024091493 0.09468908 -0.014549155
-0.0070612244 -0.060224675 -0.053250615 0.070686966 0.052238878 -0.05553722 -0.09279725 -0.0023745298
-0.022189818 -0.029343711 -0.053370416 0.07177893 -0.0044743256 -0.065479144 -0.035861176 -0.085205406
-0.012294549 0.05371653 -0.08550324 -0.06544453 -0.02688646 -0.15049131 -0.01589899 0.002854054
-0.07252388 -0.087289125 -0.072511114 0.07889351 -0.030675547 0.05007477 0.049193572 0.009317507
0.03234101 -0.08587119 -0.093827486 0.017567163 0.12305373 0.11171678 0.006373345 0.014393868

network.2.weight f4 [128]
00000000: 5791 723f 18f7 813f fbba 733f baf3 793f
00000010: 477c 6d3f 1593 833f 972c 843f d0ff 833f
00000020: 427c 703f 2dd1 783f ce60 773f f354 793f
00000030: be5d 743f c270 7f3f 3569 7c3f 1283 7b3f
00000040: eb17 803f 0e0e 823f 5699 783f 54dc 863f
00000050: ec95 793f 4c87 703f cd50 713f bcc8 763f
00000060: 0f15 7e3f a42e 803f ac67 7c3f 0877 733f
00000070: 86ca 713f e728 863f f107 813f 827b 6a3f
00000080: 2135 783f afa4 803f f5a6 833f 66b3 813f
00000090: ca22 7a3f 7742 853f 6634 6e3f 60fc 7d3f
000000a0: 1e6d 803f 1381 773f 3a9f 723f ef77 773f
000000b0: 9bbf 823f 8079 713f 55a1 953f caeb 803f
000000c0: 7851 7b3f d76f 803f bb37 803f 2a0d 813f
000000d0: 3bf5 863f e66b 7b3f 665a 7c3f f7e7 883f
000000e0: 4bf8 803f af47 813f 0c1a 843f 8c54 7d3f
000000f0: e712 823f 4259 743f e72f 8a3f 17f3 6a3f
00000100: 3284 7c3f b4c8 853f fa74 753f da0f 7d3f
00000110: 6b1e 803f 3a62 743f 0fa4 7c3f e256 7c3f
00000120: 3f14 833f 3304 763f 48cb 6e3f e53d 753f
00000130: d4eb 6a3f b3b2 843f b60d 803f ddd2 853f
00000140: 5e5f 6e3f 76af 803f 8f17 793f 6eb1 7b3f
00000150: f1d6 803f ed8d 823f f1aa 7b3f 293e 7a3f
00000160: 5a2b 7b3f 919f 8a3f 4838 773f cde8 833f
00000170: dffe 7f3f a972 7a3f 3451 783f 7c58 7f3f
00000180: b73a 703f 8256 953f 0eb6 823f 6f11 783f
00000190: 9302 863f a587 913f 2592 6f3f 77be 773f
000001a0: 043d 683f ed87 813f 0ced 6b3f c943 843f
000001b0: f397 893f 10ff 863f fa77 7b3f 06bc 7e3f
000001c0: c67a 723f cc62 763f 4988 863f 8bd6 833f
000001d0: 74ab 7d3f 220e 723f 4258 793f c108 813f
000001e0: 24a7 7a3f feae 7a3f 8bc2 823f 4d64 8a3f
000001f0: 1bc2 813f 4025 7b3f ea46 853f 8c2d 7f3f
0.9475302 1.0153532 0.95207185 0.9763752 0.9276776 1.0279261 1.0326108 1.0312443
0.939396 0.97194177 0.9663209 0.9739525 0.9545554 0.9978143 0.98598033 0.9824687
1.0007299 1.0160539 0.9710897 1.0535989 0.9749439 0.93956447 0.9426392 0.96400046
0.9925088 1.0014234 0.9859569 0.951035 0.9444965 1.0481232 1.0080549 0.9159471
0.9695607 1.0050257 1.0285326 1.0132873 0.97709334 1.0410908 0.93048704 0.9921322
1.00333 0.96681327 0.9477421 0.9666738 1.0214723 0.9432602 1.168986 1.0071957
0.98171186 1.0034131 1.0017008 1.0082142 1.0543588 0.98211515 0.9857544 1.069579
1.0075773 1.0100001 1.0320449 0.98957133 1.0162019 0.95448697 1.0795869 0.91777176
0.98639214 1.0451875 0.9588162 0.9885231 1.0009283 0.9546238 0.98687834 0.9857007
1.0240554 0.9610016 0.9327893 0.9579757 0.91766095 1.0367035 1.0004184 1.0454975
0.9311427 1.0053546 0.9730157 0.9831761 1.0065595 1.0199562 0.9830771 0.977511
0.98113024 1.0829946 0.96570253 1.030542 0.9999828 0.9783121 0.96998906 0.9974439
0.9383959 1.1667025 1.0211809 0.969016 1.0469536 1.136952 0.93582374 0.96775
0.907181 1.0119606 0.9215858 1.0333186 1.0749496 1.0546589 0.98229945 0.9950565
0.9471859 0.962445 1.0510341 1.0299848 0.9908974 0.94552815 0.97400296 1.0080796
0.97911286 0.97923267 1.021562 1.0811859 1.0137361 0.98103714 1.0412266 0.99678874

network.2.bias f4 [128]
00000000: 9b7c 58bd 4d75 ba3d ffd9 d7bd a7c8 2dbe
00000010: ce13 98bc 66f4 a5be 3da2 49be 2413 243e
00000020: cf3a 0f3e b561 0bbe 208f d33b 8099 8cbc
00000030: 49ea 82bc d149 813e cec7 903d 0f46 b8bd
00000040: c470 a9bc 42a0 ba3c fa9e 753e 90b2 96be
00000050: 21d4 1dbe 7c51 04be 7e0c e0bd d4a0 14be
00000060: 7b10 0a3e e46e 71bd 6927 fe3b e8a6 abbc
00000070: e9fe 20be edfd f1bd ddfe 59be 8f7a 993d
00000080: 089d d9bd 807b f2bd 5617 0a3e 98fa 0d3d
00000090: 5133 9f3e 3797 00be af67 bb3b 3623 50bd
000000a0: a7f4 91be a9be 883d 9767 4dbe 7f02 9dbc
000000b0: f2f4 dfbc 1e0b 2dbe c32b d63e fb52 65be
000000c0: d85a 88be 9045 f23b 7e7d 5abe 119d fbbd
000000d0: da83 4dbe e8e3 3bbe 4289 54bd 5775 653e
000000e0: 30a7 f8bd 2cbd 5abe 67a4 ab3d 07fa e5bd
000000f0: 07b8 233e 53d5 7abd 365c 333e a1f7 ef3d
00000100: f359 bd3d d22b 4dbe 95fe e03c 3180 a4be
00000110: 66e7 04be 778f 01bd eb2a 5f3e 03f7 9d3e
00000120: 51a8 43be 9ff1 4f3e 9e65 523d 1404 8f3b
00000130: dd51 55be 4b93 2ebe d1cd 7a3d 2118 3dbe
00000140: 8767 80be 9e1f c53c 751b 563e 7910 1f3e
00000150: d665 2ebe 3476 de3c 481e f03c 088c 2abc
00000160: 2194 9a3c b49e 07be 2551 25be 2fd9 4abd
00000170: 82ff 913e e0df 8abd 0a32 533e d160 1f3d
00000180: 8bd1 d3bb 4f92 bc3d 748b a6bd 5af3 80be
00000190: d65e 9cbe b476 a6be 5977 a0bd 100e 2abe
000001a0: a76b 653e 18e7 a83e 689b 463d e411 40be
000001b0: fdcc 67be a7f6 01be a5fa fb3d bc75 343e
000001c0: c77d 8e3d fc05 3ebe 542d 38be 03ec 3fbe
000001d0: 46af e5bc b70d 12bd f1d2 9ebd c5fc febd
000001e0: 684b 5ebe 409c 613e fd5c 22be 51eb 74be
000001f0: 49f2 a63e 8b14 01be 007c 37be ef82 e9bd
-0.052853208 0.091044046 -0.10539626 -0.16971074 -0.018564131 -0.32413024 -0.19690795 0.16022927
0.13987277 -0.13611491 0.006456271 -0.017163038 -0.015980856 0.2525163 0.0706936 -0.089977376
-0.020683654 0.022781495 0.23986426 -0.29433107 -0.15412952 -0.12921709 -0.10939883 -0.14514476
0.1348285 -0.058943644 0.007756163 -0.02095361 -0.1572224 -0.118160106 -0.21288629 0.07494079
-0.106256545 -0.11839962 0.13485464 0.034662813 0.3109384 -0.12557684 0.005719147 -0.05081483
-0.28506967 0.066769905 -0.20059048 -0.01916623 -0.027338479 -0.16898772 0.41830263 -0.22394936
-0.26631808 0.0073935464 -0.21336934 -0.122858174 -0.20069829 -0.18348658 -0.05188871 0.22408043
-0.121412635 -0.21361226 0.08380967 -0.112293296 0.1598817 -0.061238598 0.17515644 0.11717153
0.09245672 -0.20036247 0.027465144 -0.32129052 -0.12978896 -0.03163096 0.21793716 0.30852517
-0.19107176 0.20307015 0.05136644 0.0043645 -0.2083201 -0.17048375 0.061231438 -0.18466236
-0.25078985 0.024062928 0.20908912 0.15533628 -0.17031035 0.027155973 0.029311314 -0.010409363
0.018869461 -0.13244134 -0.16144235 -0.04952353 0.2851525 -0.06780982 0.20624557 0.03891069
-0.0064641885 0.09207594 -0.08132067 -0.25185663 -0.30541104 -0.32512438 -0.07835264 -0.16606927
0.22404347 0.3298881 0.04848805 -0.18756825 -0.2263679 -0.12691747 0.12303666 0.17623037
0.06957584 -0.1855697 -0.17986041 -0.18742375 -0.028037678 -0.03565761 -0.07755078 -0.12450556
-0.21708453 0.22032261 -0.15855785 -0.23917891 0.32606724 -0.12605493 -0.17918396 -0.11401927

network.2.running_mean f4 [128]
00000000: ae4f 203e e72b 893e 734f 803e e516 633e
00000010: bbe9 673e 4561 793e 02c0 8b3e 2dc6 793e
00000020: 8e71 643e d282 1f3e 3b32 183e 94fb 4d3e
00000030: c825 6e3e 7340 8a3e d734 6d3e 44db 923e
00000040: 1bef 2e3e e95a 513e bf8d 473e 6935 843e
00000050: b16c 4d3e 084c 2f3e 96ec 6e3e 496b c93d
00000060: d9ae 503e 6688 343e b90b 283e 88a5 2e3e
00000070: d9da 7f3e 8ff9 f03d 3946 753e 8998 0c3e
00000080: 1d51 373e 85d9 803e 9ca1 6f3e da13 963e
00000090: c060 373e d9c5 333e e7bd 913e 98c3 f93d
000000a0: bf88 2f3e 1372 313e c13f 1c3e 4d27 623e
000000b0: dff5 523e 9861 453e 479a 583e 186d 673e
000000c0: eb58 243e c1a7 6c3e 8135 803e 25ac 873e
000000d0: f14e 7d3e 56d6 f13d d761 893e e723 4a3e
000000e0: bf90 573e e906 513e bd7f 573e a1d4 5c3e
000000f0: 8dc7 813e 177d 163e 535a 6b3e 31f3 133e
00000100: be62 353e 100f 1c3e 3691 443e c8ed 413e
00000110: 02d3 163e 072f 563e 03b7 8a3e 746e 343e
00000120: faf4 803e 2562 183e 8c34 773e b650 373e
00000130: 3b57 6c3e d6ed 393e b648 003e 1205 1f3e
00000140: 16dc 203e 4ebc 833e 52b1 653e d792 2b3e
00000150: 902c 653e f51a 623e cba9 863e 8f69 3e3e
00000160: 647b 5d3e 1415 2c3e cf90 303e 5cf2 6f3e
00000170: 2182 6a3e 9a55 4e3e acfb 2f3e e9ce 4d3e
00000180: 95c7 3d3e 3445 443e 301c 3a3e 68e9 823e
00000190: 5b33 633e 310f 2f3e 7a70 533e 55ff 263e
000001a0: 9fa5 403e 3ee8 613e 539c 1b3e ff44 373e
000001b0: e9c1 453e b58d 033e 956c 5a3e 1229 563e
000001c0: 5011 153e dfba 163e 244e 3a3e eb04 873e
000001d0: 1053 433e 33b5 6b3e 6f3c 853e aeea 653e
000001e0: aa51 763e f2c4 333e 402b 293e 778c 5c3e
000001f0: dafa 893e 2c1f 943e d21e 6d3e 1564 573e
0.15655395 0.26791307 0.25060615 0.22176702 0.22647755 0.24353512 0.27294928 0.24392004
0.22308943 0.15577248 0.14862911 0.201155 0.232566 0.27002296 0.23164688 0.2868291
0.17083399 0.20444836 0.19487666 0.25822 0.20060994 0.17118847 0.23332438 0.09834916
0.20379199 0.17630157 0.16410722 0.17055333 0.24985828 0.117663495 0.23952569 0.13730063
0.17902036 0.25165954 0.23401493 0.2931202 0.17908001 0.17555942 0.28465196 0.1219551
0.17142008 0.17328672 0.15258695 0.22085305 0.20601605 0.1927551 0.21152602 0.2260021
0.16049545 0.23110868 0.2504082 0.26498523 0.24737145 0.118084595 0.26832458 0.19740258
0.2105131 0.20412792 0.21044822 0.21565486 0.25347558 0.14696155 0.22983675 0.14448239
0.17713448 0.15240121 0.19196019 0.18938363 0.1472893 0.20916377 0.27092752 0.1762026
0.25186902 0.14881189 0.24141139 0.17901883 0.23080151 0.18157133 0.12527737 0.15529278
0.15708956 0.25729603 0.22430924 0.16755234 0.2238028 0.22080596 0.26301417 0.18594955
0.21629101 0.16804916 0.1724274 0.23432297 0.22901203 0.20149842 0.17185849 0.20098461
0.18533166 0.19167024 0.18174815 0.255687 0.2218756 0.17095639 0.20648375 0.16308339
0.1881318 0.2206125 0.15196352 0.17897414 0.19312252 0.12847026 0.21330483 0.20914105
0.14557385 0.14719723 0.18193871 0.2637094 0.19074655 0.23018341 0.2602267 0.22452804
0.2405459 0.17555597 0.16520405 0.21537958 0.26949197 0.28930032 0.23156288 0.21034272

network.2.running_var f4 [128]
00000000: 13fc 163e 9905 573e 67c1 363e f4ad 473e
00000010: 9dcc 3f3e 20e5 433e c99b 573e 42bd 483e
00000020: 2452 2f3e d69a fc3d 6812 203e ed86 263e
00000030: cffd 403e 9fa4 4d3e 56bf 3d3e 4104 643e
00000040: d79c 2d3e 7d6c 2a3e 235b 393e 9751 553e
00000050: 5ee1 373e 0156 193e c6f6 493e 033e fa3d
00000060: b589 353e c954 313e a87d 193e e6c5 163e
00000070: 4f5a 693e 195a e13d c2a4 563e f66c 123e
00000080: 3d6d 223e fd34 583e 5e01 363e fd71 5b3e
00000090: 4f82 303e 7ffb 273e 9592 553e 3a03 053e
000000a0: b60e 1c3e 647e 163e 7370 093e 253c 433e
000000b0: 9956 303e 9b3e 323e 44d3 223e 8da7 463e
000000c0: 18f1 113e 27f4 483e ddcd 303e af40 523e
000000d0: e240 583e 206c 0b3e e679 4f3e 556a 353e
000000e0: 50b6 403e 7136 473e 9d2c 243e 93b2 283e
000000f0: baa9 4f3e 904f 0b3e cc10 343e 359e 223e
00000100: 1bc5 193e 46a6 1a3e 05ae 2a3e 77fb 1e3e
00000110: 005f 1d3e 3c65 3a3e 4386 583e 9455 293e
00000120: 9484 473e 05ca 113e a085 4d3e 4216 283e
00000130: f068 283e 0581 223e 58be f73d 337d 123e
00000140: b75f 193e 2c18 473e dcf8 463e dfc7 183e
00000150: a541 3b3e eeac 363e 69ca 443e fefe 263e
00000160: 29e7 3c3e 65db 103e 6eff 1a3e a79e 173e
00000170: 0e55 323e 1911 4d3e fc92 393e 3910 273e
00000180: f852 293e 055a 2f3e dd0f 253e d292 4d3e
00000190: 891c 453e 8f68 253e 1588 263e 5280 1f3e
000001a0: dfa4 1f3e f27b 2c3e 4afb 1b3e c4ca 2d3e
000001b0: 6d54 253e d547 113e a9ca 3e3e bf41 333e
000001c0: cb99 0c3e e7a4 143e 5e2d 383e a9de 5f3e
000001d0: 1d00 283e cc71 323e 3d27 5d3e baaf 483e
000001e0: 88ec 323e 04f6 333e 50ec 1e3e 1d51 233e
000001f0: 3a32 473e b8e3 603e 6f75 453e 1bbc 1f3e
0.14744596 0.20998229 0.17847215 0.19499952 0.18730398 0.19130373 0.21055521 0.19603446
0.17121178 0.1233422 0.15632021 0.16262408 0.1884682 0.20082329 0.1853002 0.22267248
0.16954361 0.16642947 0.18101172 0.20831905 0.17957065 0.14974214 0.19723043 0.12218859
0.17728312 0.17317499 0.1498934 0.1472393 0.22788356 0.11003513 0.20961288 0.14299378
0.15861984 0.21113963 0.17773959 0.21430202 0.17237209 0.16404532 0.20856698 0.12989512
0.15239987 0.14696652 0.13421802 0.19065912 0.17220534 0.17406695 0.15900904 0.19399853
0.14252126 0.19624387 0.1726603 0.20532487 0.21118501 0.13615465 0.20261344 0.17716344
0.18819547 0.19454361 0.16032644 0.1647437 0.2027959 0.1360457 0.17584532 0.15880664
0.15016596 0.15102491 0.16667946 0.15525614 0.15368271 0.1820268 0.21144967 0.16536552
0.19484168 0.1423722 0.20070505 0.1641474 0.1644628 0.1586953 0.12096852 0.14305572
0.14977919 0.19442815 0.1943087 0.14919995 0.1828676 0.17839405 0.19217838 0.1630821
0.18447556 0.14146192 0.15136501 0.14806615 0.17415258 0.20026053 0.18122476 0.16314782
0.16535556 0.17124183 0.16119333 0.20075539 0.19249167 0.16153167 0.16262849 0.15576294
0.15590237 0.16844156 0.15232578 0.1697188 0.16145487 0.14187558 0.18631996 0.17505549
0.13730542 0.1451603 0.17986056 0.21862282 0.16406293 0.17426223 0.21597 0.19598284
0.17473042 0.17574316 0.15519834 0.15948911 0.19452754 0.21961868 0.19283079 0.155991

network.3.weight f4 [256, 128]
00000000: 5faf a9bb 1545 9b3d 7929 3c3b 4d1a 0e3d
00000010: 10f3 b3bd 1445 8d3d 0772 db3d fbae 8dbc
00000020: 083c 8cbc 5489 ae3d f323 163d 70ff c3bc
00000030: 037b a9bb 01b4 4ebd 1446 893d 6d20 3a3d
00000040: fbe4 973d 7434 643c 66be debc 3fbe 803d
00000050: 0cd9 85bc 3220 39bd b4a5 b6bd 467b 4abd
00000060: 3f54 1ebd e802 7e3d 52fe abbd 9134 c8bd
00000070: d5d3 00bc 953e f6bb 159c 393d d40e 373d
00000080: 930a 413d 22ca 593d 1e22 54bd 9dbb 97bd
00000090: 6fbd 253d 5f4f 5cbc f24e f23b 7221 92bd
000000a0: 4d01 b93d 2a79 cbbc ba78 c0bb ae1f fc3c
000000b0: 3e7e d33d 8f3d e83d baa8 b9bd 1e82 d83c
000000c0: cd94 6abd c566 83bd 113e f53a d543 133c
000000d0: 04df 553d cd05 653c 343f 07bd 398f 8abd
000000e0: cb8c d03c a850 0c3e dd30 8bbd d2ab 35bd
000000f0: 72b8 83bd 8a12 4dbc b043 28bd c70d 2f3c
00000100: d030 69bd b755 d53c e987 1dbd 603b 0a3d
00000110: 7373 6c3d eb58 983a b55d 793d 3add 00bd
00000120: d909 b3bc de1e 253d e4ed 443d 1fa9 a8bd
00000130: f157 a6bc 6122 24bc 182e fe3b dddb 55bc
00000140: 98a6 98bd c924 4cbc d657 4cbc f704 ebbc
00000150: e335 873d 4936 b53d 6e46 b0bd 4fa9 cfbc
00000160: 58f5 57bc a984 c1bd cba6 663d 7608 a23d
00000170: 5dbe 2dbd 7079 d13c 5ec1 543d 05b6 7c3b
00000180: 1e2b 243d b82e 00be 06e9 1b3d 2b93 d33c
00000190: 1be0 843d 9af1 eb3d 4704 75bc 8d6b 883d
000001a0: 2a04 0abd 0828 cc3b 4e77 41bc 36f3 3d3d
000001b0: 2670 8bbd 03e7 39bd 91bb 99bc 2302 933d
000001c0: e6c8 a2bc d21e fc3c d1df 003e 889f b4bd
000001d0: 85c0 fbbc 9170 31bd 5e5a 963d 5fb3 3b3c
000001e0: 617f 123d a22e a2bd 7e80 d13d c858 8fbc
000001f0: 5a35 4a3c 4632 a4bd 87f0 18bd ab10 24bd
00000200: f403 723b 3325 253d f6a0 9c3d b80c 513d
00000210: 7f6b 6dbd 40f9 2abb c8f0 3e3d fb29 293d
00000220: 8b8f b53d df3d e03d 8373 3fbd 03c8 223d
00000230: 9162 f13d b43e 85bd 5ee7 2e3d 440f 9e3d
00000240: 029b 43bc f722 3e3d e20c b6bc 9bb1 6cbd
00000250: 0d00 afbc deea 243d aa09 58bb cbc0 ef3d
00000260: 37e5 993d 0a13 d33d 1174 bfbd 4c8c 153d
00000270: 49b1 c8bd e212 83bd 3693 7e3d ab91 6fbc
00000280: 1bf6 eabc bb36 43bc 17ac 82bd cab1 863d
00000290: 0a93 413d b90a d13c 31f6 3a3d a38f 1ebc
000002a0: 3507 76bd 9b27 283c 6753 943c 7e3f 623d
000002b0: 088a 223d 462e 623d 591a 46bd 2aea 13bc
000002c0: 5d85 79bd 7646 07be c088 56bd 0c91 a53c
000002d0: 615f 653c c14c 303d b29e 1f3d 5956 29bd
000002e0: 1457 833d f43e 163d 75f4 9d3d 12cf 30ba
000002f0: 8411 013b 31b6 0ebc 9326 4b3d d23d b73d
00000300: e589 09be 9e76 063b 8522 c5bc 147b 8abd
00000310: 13a0 373d 5bcc 3b3d c279 0ebd fcff 79bd
00000320: b971 a03d a8e5 c03d f97a 8a3d 983d 2bbd
00000330: 2d0f cf3c d6c8 723c feb5 913c f99d d83d
00000340: 6a49 fc3c c42a 3a3d 4fcb 7dbd 83e2 8abd
00000350: 6f3d 58bc 4717 b73d 601b 1dbd 9aee d2bc
00000360: d019 9cbc eadf 933d 4e28 5c3d a2e6 0c3a
00000370: 4eaf 9f3d eb1b b13d bfb9 bfbd 8d6b d1bc
00000380: fa90 fcbc 4d74 0b3d 42f1 ddbd b233 c7bd
00000390: 0a4c 983c c4a7 9c3d 4089 94bd 0b17 f9bc
000003a0: ede1 98bd 2046 62bc 296e 38bc eec0 d8bd
000003b0: 8b40 75bc 7f5a 843d 1e2d 4d3d 9080 b43d
000003c0: ea5a 383d 4eff d2bd 10bb d13d ab1d 313d
000003d0: 3fa0 84bc e552 ee3d b62a 8fbd 4260 bdbc
000003e0: 872f 66bd 6b2c f1bc a3c7 8fbc 794a adbc
000003f0: 4e49 01be 1089 de3c 7103 803d 71d4 95bd
-0.0051783766 0.07581536 0.0028711243 0.03469305 -0.08786595 0.06897941 0.10715108 -0.017295351
-0.017118469 0.08522287 0.036655378 -0.023925513 -0.005172135 -0.050464634 0.067028195 0.04544108
0.074167214 0.013928521 -0.027190398 0.062862866 -0.016338848 -0.04519672 -0.08918324 -0.04943397
-0.038654562 0.06201449 -0.08398117 -0.09775651 -0.007863005 -0.0075147846 0.045314867 0.044691876
0.047129225 0.053171284 -0.05179035 -0.07408831 0.04046386 -0.013446658 0.007394665 -0.071352854
0.09033451 -0.024838049 -0.0058737667 0.030776825 0.10326813 0.11339866 -0.09065385 0.026429232
-0.057270814 -0.06416086 0.0018710514 0.00898834 0.052214637 0.013978434 -0.03301926 -0.06765599
0.02545776 0.13702643 -0.06796429 -0.044353314 -0.064316645 -0.012516627 -0.041080177 0.010684437
-0.056931317 0.026041849 -0.038459692 0.03374803 0.05772729 0.0011623179 0.06088038 -0.031460978
-0.021855282 0.04031264 0.048078433 -0.08235382 -0.020305606 -0.010017962 0.0077569596 -0.013052908
-0.0745365 -0.012459942 -0.012472114 -0.02868889 0.06602075 0.08848245 -0.086071834 -0.025349287
-0.013181053 -0.09449131 0.05631141 0.0791177 -0.042417873 0.025570601 0.05194222 0.003856064
0.040080182 -0.12517822 0.038064025 0.025827011 0.06488057 0.11520691 -0.014954633 0.06661139
-0.033695377 0.006230358 -0.01180823 0.046374522 -0.068085 -0.045386326 -0.018766196 0.07178142
-0.019871186 0.030776415 0.12585379 -0.08819491 -0.030731449 -0.043320242 0.07341455 0.01145634
0.03576601 -0.07919051 0.10229586 -0.017498389 0.012341822 -0.080174014 -0.03733876 -0.04005496
0.0036928626 0.04031868 0.07647888 0.05103752 -0.057963844 -0.0026088506 0.046616346 0.0412998
0.08865269 0.10949301 -0.04674102 0.039741527 0.11786378 -0.065061 0.042701118 0.077177554
-0.011938812 0.046420064 -0.02222294 -0.057786565 -0.021362329 0.04026305 -0.0032964745 0.11706694
0.075144224 0.10306366 -0.0934831 0.03651075 -0.097994395 -0.06400086 0.06215211 -0.014622132
-0.028681805 -0.011914904 -0.0638048 0.06576879 0.047259368 0.025517808 0.045644943 -0.0096778
-0.060065467 0.010263349 0.018106176 0.055236332 0.039682418 0.05521991 -0.04836497 -0.009027997
-0.0609182 -0.13210472 -0.05237651 0.020210765 0.013999791 0.04304195 0.038969703 -0.041342113
0.06413093 0.03668113 0.07712642 -0.0006744723 0.0019694278 -0.00871043 0.049597334 0.08947338
-0.13431509 0.0020517479 -0.024064312 -0.067617565 0.044830393 0.045849185 -0.034784086 -0.06103514
0.07834191 0.094188035 0.067617364 -0.041806787 0.025275791 0.014818391 0.017786976 0.10577006
0.030796725 0.04545094 -0.06196147 -0.06781485 -0.013198241 0.08939987 -0.038356185 -0.02574854
-0.019055277 0.072204426 0.053749375 0.0005374943 0.077971086 0.08647903 -0.093616 -0.02556398
-0.030830849 0.03404646 -0.10837032 -0.09726657 0.018590946 0.07649186 -0.07252741 -0.030406496
-0.07464967 -0.013810664 -0.011256733 -0.105836734 -0.0149690015 0.06462573 0.050091855 0.08813584
0.045008577 -0.10302602 0.102407575 0.043241184 -0.016189693 0.116369046 -0.06990568 -0.023117188
-0.05619767 -0.029440125 -0.017551249 -0.021153675 -0.1262562 0.027164966 0.062506564 -0.073159106

network.3.bias f4 [256]
00000000: afab 08bd 246e 9dbd 6893 29bc 1a40 8fbc
00000010: 2f69 b13d 9941 4ebc c984 02be 2380 63be
00000020: 620c d8bd fe83 31bd 0650 ef3c 7296 30bc
00000030: bb0c b83b a567 ebbc 3ea6 22bd 2f57 9e3d
00000040: 314b d2bb cfa1 bbbb ca29 473d 5dd8 49bc
00000050: ebcf ac3d 412c e2bd 81ae 04be 38ac c4bc
00000060: 7af7 0cbe 6edb 4b3d 3bc4 1cbe 1c69 feba
00000070: 6ef7 c5bc fce5 c0bc c169 b7bb a126 e03d
00000080: c3d2 8d3d df12 57bc b8af 0ebe 883e 44bd
00000090: 6e8b d8bc 235c e6ba c72e ddbc f18c 913b
000000a0: ea6b 48bd 6005 403b 8b7d cdbc b644 9d3c
000000b0: 4b2e 25be 55ea 8ebd 5375 1ebe d0ee fabd
000000c0: fdc1 9e3d c21a 85bc 2797 723d e74f 43be
000000d0: c1cc 16be 4b88 9cbc 6923 543d a595 93bd
000000e0: b72c 78bd f613 0cbe 2572 09be 3f44 4dbe
000000f0: b981 a4bd efb1 bbbd 8a8d a2bd 28fa cfbc
00000100: 149e b1bb fe29 d53c 07d1 cd3d e524 843c
00000110: 1817 98bd 8d42 8a3d fffa 92bd d7e3 263c
00000120: 3173 44bd 6a70 adbd baf0 01be ce04 d1bd
00000130: 82f2 71bd 9df0 27bd 972a 64bd c81a 43be
00000140: 3a13 803d b37c 87bd f641 c03d 1f07 f0bd
00000150: e828 3ebd b377 00be 0c5e 013d 3654 d33d
00000160: 42f3 b2bd 05c8 31bd cf25 903c c4ec 77bc
00000170: 637b 0cbc 8d7f f33c 1f0b 88bd 0252 96bc
00000180: fb3a 703d 2800 ef3d 139e 7f3c 9f60 363d
00000190: f020 92bc b7d8 2a3d 7b7c a73c 38ff 563d
000001a0: 0556 afbd 8c73 23bd 6686 463c 3d75 1a3d
000001b0: 5c9e 89bc 5056 cfbd 24db aa3d 0605 033c
000001c0: 5eb9 173d 69f0 973c b1a0 cabd 324a d0bd
000001d0: 23a5 eebc 4786 0cbe 37a9 73bd 2944 79bd
000001e0: 824e c3bd 11c6 353d f2b5 86bd bef6 6ebe
000001f0: 9b18 cabd 3b42 a6bd 84c3 d2bc 507f 2dbc
00000200: a659 c2bc 0016 8abc ad80 173d 1474 e7bd
00000210: 6981 553d b827 103b 07bf 9cbd fc8e f93c
00000220: 0347 bebc df7c b93d 9805 5bbd d8bd de3c
00000230: e0c8 30bd 754c 50bd 657e 1a3e 660e f03c
00000240: efe4 ba3c f5c0 9d3d aa89 7bbc cbaf e93d
00000250: 7721 cebd d6b9 5d3d 644c 0b3d 36df a5bd
00000260: d3d4 95bc f427 3b3e 905e 19b8 2ed8 ff3a
00000270: d9e2 3e3d 317d 9439 6ad2 143e 7800 92bd
00000280: acb4 e4bd a276 09b9 8c0f d4bd c4e0 3e3d
00000290: feae 90bc a2db 48bc 0b91 09be 8d62 39be
000002a0: 7f37 6abc fda9 83bd 0482 33bd a9fc 60bd
000002b0: d7b1 983d b84c e1bd 2ecd dabd 73d6 c43d
000002c0: e99b 01be b242 9abd 28f4 51bd b233 98be
000002d0: 5698 7abc 1b72 f7bd 6fab 63bd 389a 13bd
000002e0: 842c 7f3c cf04 803b 68be d2bc dda9 15be
000002f0: 2c19 0b3c 2c92 a7bc eae7 353c 9c22 723b
00000300: 676f 34bd b07c 5cbe f40a 663d 1312 a9bd
00000310: 5c6f be3c c830 b3bd a4d4 903c 4b69 f43b
00000320: 3493 94bc ef09 e4bc b3f9 4bbe 7a4f d5bc
00000330: 120d a73d 43e8 9a3d 00f4 1ebd 744a 033b
00000340: da27 80be a696 353b 19e4 a43d 3136 c2bd
00000350: b66c 91bd 772a afbd 82c0 ffbd c2eb 62bd
00000360: 55c7 43bd aec8 a4bd 4b9f cf3d 6e50 e4bc
00000370: 119e 4cbd bb0b 9abc f6f2 e2bd 67b1 6a3d
00000380: 5dcb ce3b 1a6d fabc 3ba5 2e3d c194 62bc
00000390: 336c 9bbb ffd1 a13c c981 c8bc cfbf ffbd
000003a0: 79aa 2abd 61fc 7c3d f4a3 babc 2031 a0bd
000003b0: e418 75bd 96af a23b 7c4b 46bd dbce 04bd
000003c0: c8dd 973c a099 833d a16d e2bd 9237 eaba
000003d0: 3c8d d9bd e345 edbd 7276 a9bd 3bdd 1ebd
000003e0: ecd9 a0bd ee26 1abd bd67 463d f30b cbbd
000003f0: c7e7 9cbd dea4 c839 c0b1 29bd 79c7 1dbd
-0.033366855 -0.07687023 -0.010350086 -0.01748662 0.0866264 -0.012588882 -0.12745966 -0.22216849
-0.10549237 -0.04333877 0.029212963 -0.010778056 0.005616752 -0.028735945 -0.039709322 0.07731473
-0.006417655 -0.005726076 0.048623838 -0.012319651 0.08438095 -0.11043597 -0.12957193 -0.024007902
-0.1376628 0.04976981 -0.15309231 -0.0019409987 -0.024165835 -0.023547165 -0.0055973236 0.10944868
0.06924965 -0.013127058 -0.13934219 -0.047911197 -0.026433673 -0.0017575066 -0.026999844 0.0044418504
-0.04893104 0.0029300079 -0.025084278 0.019197803 -0.1613094 -0.06978289 -0.15474443 -0.12252581
0.07751844 -0.01624811 0.05922618 -0.19073449 -0.14726545 -0.019107958 0.051791582 -0.07206277
-0.06058952 -0.1367949 -0.13422449 -0.20045565 -0.08032555 -0.091647975 -0.07937153 -0.025387838
-0.0054204557 0.026021 0.100496344 0.016130874 -0.0742628 0.06750975 -0.0717678 0.010186157
-0.047961418 -0.08468707 -0.12689486 -0.102059945 -0.059069164 -0.04100095 -0.05570468 -0.19053185
0.06253667 -0.06615581 0.09387581 -0.11720108 -0.04642573 -0.12545662 0.03158383 0.10318796
-0.08737804 -0.043403644 0.017596154 -0.015132133 -0.00857434 0.029723907 -0.06642746 -0.018349651
0.05865 0.11669952 0.015601653 0.04452574 -0.017837971 0.04171058 0.0204451 0.05248949
-0.08561329 -0.039905116 0.012117004 0.037709463 -0.016799144 -0.10123885 0.08342579 0.007996803
0.037042014 0.018547254 -0.09893931 -0.10170402 -0.029131478 -0.13723098 -0.059487548 -0.06085602
-0.095364586 0.044378344 -0.06577672 -0.23336312 -0.09867974 -0.08118101 -0.025727995 -0.010589436
-0.023724388 -0.016856194 0.03698795 -0.11301437 0.05212537 0.002199633 -0.07653623 0.030463688
-0.02322722 0.090570204 -0.05347213 0.027190134 -0.04316032 -0.050854165 0.15087278 0.02930374
0.022814242 0.07702819 -0.015352646 0.11410483 -0.10064977 0.054132305 0.0340084 -0.08099215
-0.018289959 0.1827696 -3.656611e-05 0.0019519383 0.046603058 0.00028322035 0.14533392 -0.07128996
-0.11167273 -0.00013109532 -0.10354528 0.046601072 -0.017661568 -0.012259396 -0.13434236 -0.18104
-0.014295458 -0.06428907 -0.043825164 -0.054928456 0.07455795 -0.11000961 -0.10683666 0.096112154
-0.12657131 -0.07532252 -0.051258236 -0.2972694 -0.015295109 -0.12082311 -0.055583414 -0.036035746
0.015574578 0.003906823 -0.025725558 -0.14615579 0.008489888 -0.020455442 0.011102656 0.0036946898
-0.044051554 -0.2153194 0.05616279 -0.082554005 0.02324646 -0.08749539 0.01767952 0.007458841
-0.018136598 -0.027836768 -0.19919471 -0.026038874 0.0815679 0.07563832 -0.038806915 0.0020033391
-0.25030404 0.0027708202 0.08051319 -0.094829924 -0.07100813 -0.085530214 -0.1248789 -0.055400617
-0.04779752 -0.08046089 0.101378046 -0.027870383 -0.04995543 -0.018804422 -0.11081497 0.05729809
0.006310864 -0.030569602 0.042638045 -0.013829411 -0.004743123 0.019753454 -0.024475949 -0.124877565
-0.04166648 0.061764125 -0.022783257 -0.0782187 -0.05983819 0.004964779 -0.04841183 -0.032423835
0.01853837 0.06425786 -0.11056066 -0.0017869344 -0.106226414 -0.115855955 -0.08274545 -0.0387852
-0.07854065 -0.037634782 0.048438776 -0.099143885 -0.076613955 0.00038269808 -0.04142928 -0.03852031

network.5.weight f4 [256]
00000000: 27e8 7c3f 92c1 6c3f 79e8 7b3f 7dbb 7e3f
00000010: b630 763f 2b4f 7b3f 6e25 743f a523 823f
00000020: e24f 743f 8063 823f ca74 783f 464b 6d3f
00000030: f650 823f 27a4 883f 279c 813f 3ded 733f
00000040: 660b 733f 2bec 723f b45d 793f 55d0 803f
00000050: e427 853f 1256 713f 46c4 833f 392a 7a3f
00000060: 2701 7c3f 96e5 7f3f b084 823f 4d02 703f
00000070: 4c9a 7a3f 444f 7b3f fe8f 7e3f 8a76 793f
00000080: 0afa 843f e2d6 813f 4d89 833f 98f5 773f
00000090: e50b 813f 65ac 743f 85c1 773f 34db 7c3f
000000a0: d6ab 7f3f 4771 793f 1ac6 843f fb4d 733f
000000b0: 8d62 853f 0105 813f b5d6 723f c85f 773f
000000c0: a4f2 863f 5c98 813f 4c1c 743f 9e6c 8c3f
000000d0: 4a78 813f b56e 853f f812 763f 7fc2 7e3f
000000e0: ed55 833f 019f 833f 3404 7a3f 0d1f 7b3f
000000f0: cd5a 843f 7823 853f 72a5 7e3f 5db0 703f
00000100: 53fe 873f c33a 733f 7e75 7e3f 819e 7a3f
00000110: db53 743f 4e6a 713f 866b 6e3f 5544 763f
00000120: 614b 813f 66ef 803f 1f1e 703f f0e9 893f
00000130: 3f39 6d3f 3227 803f fa1a 893f baf0 8b3f
00000140: 6d40 723f 72b3 823f 4dea 7c3f a3e1 6d3f
00000150: 741e 743f 421e 823f 2eac 7e3f 328d 743f
00000160: 588f 743f 21d2 7b3f 96fc 833f 8a38 7d3f
00000170: 0691 803f 6d90 833f bcac 803f b3ff 823f
00000180: 0513 763f 2b22 7a3f 30ee 7d3f 01a2 653f
00000190: 5d1d 753f c9c5 733f 0975 7d3f 2a04 7c3f
000001a0: 37af 783f 1e4d 813f 8f7f 743f 2a3e 6f3f
000001b0: 0739 7b3f 1d04 733f 0a19 7d3f a0e8 803f
000001c0: 2336 6c3f 87c4 803f 07f1 7c3f 6c5a 883f
000001d0: 029a 803f 8e28 893f 6350 7c3f bc84 753f
000001e0: 3560 753f 75f4 823f c665 723f 7fa9 983f
000001f0: 88c5 6f3f 3d4f 803f 08dc 7c3f f57b 813f
00000200: 7705 753f ace9 633f aeea 803f a64c 7d3f
00000210: 3b8c 723f bcea 7d3f e320 833f 8598 7d3f
00000220: b53e 7a3f 2472 5c3f 4806 7c3f 1ab2 6f3f
00000230: d390 7c3f 97c5 7f3f 3ba5 723f c4c5 7c3f
00000240: 09bc 7e3f ef1f 7c3f 7c6d 873f 3a0a 733f
00000250: 9d5e 863f 20d5 793f f2bf 823f 93c9 6f3f
00000260: aca5 863f b10c 7b3f 1e7b 7c3f a917 863f
00000270: 3cc3 753f 895a 723f e54a 713f 6e49 823f
00000280: e5bd 753f fd92 7f3f d3b7 833f 9ba8 703f
00000290: 8a51 733f c051 6f3f 3b98 7a3f e3f3 923f
000002a0: 3aee 833f 34a4 7f3f c9a5 853f fb8a 6f3f
000002b0: fe81 783f f89d 7e3f cc40 7c3f 30de 6e3f
000002c0: 9274 783f d125 843f 983c 7c3f 7bc0 8f3f
000002d0: 74dc 723f 8d20 803f 2fc9 6d3f 4e3b 763f
000002e0: c6b6 723f 6259 803f d618 683f f788 7e3f
000002f0: 1545 7e3f 60a5 7d3f 4549 713f 61cf 663f
00000300: 36c1 723f 11c4 863f 5531 723f 0077 803f
00000310: 2646 813f 7c3e 7c3f 852c 6f3f 7dd0 783f
00000320: a3bd 783f 6552 6d3f 3123 863f 91a3 613f
00000330: 1a31 803f 63d9 873f 4643 723f a35f 603f
00000340: 5124 8c3f 59cb 723f 52c4 7e3f d926 793f
00000350: bb3a 793f a637 833f 3d7d 823f fe40 863f
00000360: 4d6d 703f bc1f 763f a5d5 7f3f 8c26 7d3f
00000370: 5cba 7f3f 0d84 803f a6e1 823f b991 7a3f
00000380: 2fbc 6f3f 7796 703f 1452 7a3f e14b 7d3f
00000390: 5785 753f 7383 703f 543f 7c3f 42f6 813f
000003a0: 9192 813f 8fd6 753f 16b7 7b3f b19b 7f3f
000003b0: 3908 833f acba 803f 3b4d 743f a2ef 733f
000003c0: 05c4 743f 0750 853f 1a88 723f 8673 6c3f
000003d0: a494 783f cf27 723f a6ef 833f 82fd 7b3f
000003e0: b825 683f 5ccb 7f3f 0d8f 7b3f 6fd7 783f
000003f0: b001 7e3f f6f7 743f 458d 7d3f 42e4 833f
0.98791736 0.92482865 0.984016 0.99504834 0.96168077 0.98167676 0.95369613 1.0167128
0.9543439 1.0186615 0.97053206 0.92692983 1.0180957 1.0675095 1.0125779 0.9528387
0.9493927 0.94891614 0.97408605 1.0063578 1.0402799 0.9427196 1.0294273 0.97720677
0.9843926 0.99959695 1.0196743 0.9375351 0.9789169 0.98167825 0.99438465 0.974465
1.0388806 1.0143702 1.0276276 0.9685912 1.0081755 0.95575553 0.9677966 0.9877198
0.99871576 0.9743847 1.0372956 0.95040864 1.04207 1.0079652 0.94858867 0.96630526
1.0542798 1.0124621 0.9535568 1.0970647 1.0114834 1.042441 0.96122694 0.9951553
1.0260597 1.0282899 0.97662663 0.98094255 1.034021 1.0401449 0.994712 0.9401911
1.0624489 0.9501154 0.9939803 0.9789811 0.95440453 0.94302833 0.9313282 0.96198016
1.0101129 1.0073059 0.9379596 1.0774517 0.92665476 1.0011961 1.0711358 1.0932839
0.94629556 1.0211012 0.98795015 0.9292242 0.9535897 1.0165484 0.99481475 0.95527947
0.95531225 0.98367506 1.0311458 0.98914397 1.0044258 1.027845 1.0052714 1.0234283
0.9612277 0.97708386 0.9919157 0.89700323 0.9574793 0.9522367 0.99006706 0.98443854
0.97142357 1.0101659 0.9550714 0.9345423 0.9813389 0.9492815 0.9886633 1.0070992
0.92270106 1.0059975 0.9880528 1.0652595 1.0047 1.0715501 0.9856016 0.9590566
0.95849925 1.0230852 0.94686544 1.1926726 0.93660784 1.0024182 0.9877324 1.0115954
0.95711464 0.8902843 1.0071619 0.9894508 0.94745225 0.991863 1.0244411 0.9906085
0.97751933 0.86111665 0.98447084 0.93631136 0.98658484 0.99910873 0.9478337 0.98739266
0.9950567 0.98486227 1.0580287 0.9493748 1.0497624 0.9759083 1.0214827 0.9366695
1.0519309 0.9806624 0.9862536 1.047597 0.9600103 0.94669396 0.94254905 1.0178659
0.9599288 0.9983366 1.0290474 0.9400727 0.95046294 0.93484116 0.97888535 1.1480678
1.0307076 0.9985993 1.0441219 0.9357144 0.9707335 0.9945979 0.9853637 0.9330778
0.9705287 1.0324041 0.9852996 1.1230615 0.94867635 1.0009934 0.92885107 0.9618424
0.9481014 1.0027277 0.90662897 0.9942774 0.9932416 0.9908047 0.94252425 0.90160185
0.94826066 1.0528585 0.94606525 1.0036316 1.0099533 0.98532844 0.93427306 0.9719313
0.9716436 0.9270385 1.047949 0.8814021 1.0014985 1.0613216 0.946339 0.8764593
1.0948583 0.94841534 0.9951831 0.973249 0.9735524 1.0251358 1.019447 1.0488584
0.9391678 0.9614217 0.9993537 0.9888694 0.99893737 1.0040299 1.0225112 0.97878605
0.9364652 0.9397959 0.9778149 0.9894391 0.95906585 0.93950576 0.9853413 1.0153277
1.0122854 0.96030515 0.9832624 0.9984694 1.0236884 1.0056968 0.95430344 0.95287526
0.956116 1.0415047 0.94738925 0.92363775 0.9710181 0.94591993 1.030751 0.984337
0.90682554 0.99919677 0.98265153 0.97203726 0.99221325 0.9569086 0.99043685 1.0304034

network.5.bias f4 [256]
00000000: f1d3 eebd 427a 5ebd 650a b83e 8373 c7bc
00000010: 30e1 fd3e 7987 90be 50d4 6fbd 752d 4e3e
00000020: 5c47 c1bd 8bfc 44be 8fdb 7e3e 9351 b13e
00000030: cedd a1be 5836 17be bee4 343c 1a18 9ebe
00000040: 6b77 a33e abe5 8ebe 460c 43be c1e8 3a3e
00000050: 127a c43e 259c 9e3d 255c 303d 8c36 c5bd
00000060: 713f 59bd 3b85 ef3d 7065 903d d25e 2f3e
00000070: e263 07bf 910d ebbd 5e5b f63e eaef 9f3e
00000080: 96d5 593d 5f17 2ebe 6b84 d7be fa9d b53d
00000090: 83a2 2cbe c65a ac3e ff12 e03e 8961 8cbe
000000a0: 279a 11bf 6cab 4a3e cb79 d7be 1c43 9cbd
000000b0: c900 a0be 3ae6 6bbe ffc1 08bf 7d7f 93be
000000c0: 581d 1f3e 704f 3d3e 9aee dc3e adcc 40be
000000d0: 9607 583d 9216 0abe 86ff 23be 9061 debe
000000e0: d08f 9cbd a9a6 89be 3b0e 933e df56 d7bd
000000f0: bb17 8bbd 5d49 c1be 4ec0 cabd a255 f43e
00000100: d788 5dbd 4122 113e 73bb 60be b6e6 ef3e
00000110: e153 35be 6783 a63e 652e dcbd 4123 e8bd
00000120: 58ff fe3d 0b2f 59be 70a5 d8be 87e2 5cbd
00000130: c4ad 0a3e 59ee 12bd f63f 2bbd dfdc 92be
00000140: 4a6a e23e 71e8 f0bc 0c01 553e 640f c73c
00000150: 8e94 2bbe de6a 2a3e b023 3fbe a84d 933e
00000160: 0bd9 843e db83 f8be 915c edbd 50a7 2cbe
00000170: 49d5 15be 339a 35be ceb7 14be b5d5 8d3e
00000180: 8c4b 483e 74f9 7d3e a266 233e 9db7 823e
00000190: b6ec 833e 09d6 c03d 9c23 6f3e 26d0 38bd
000001a0: 5dda 9b3e 3d70 5dbe e134 033e 10d0 66bd
000001b0: 9640 d1be a06f b23d 66a4 f23e 0494 8abe
000001c0: a049 ee3d 7368 a3be ac41 1ebf 778b bcbd
000001d0: abac 0b3f d5e0 45be 8577 69be fe4c 4ebe
000001e0: f842 953e 772e cabe bdbe d23d 3a22 8cbe
000001f0: 07c0 14be 83e8 c53d 25e3 47be 374d 983e
00000200: bf77 ca3b c14c 843e 6330 643d 3d8a 10be
00000210: 81f9 f6bd 1239 2bbc b987 b4be ba61 eabd
00000220: 989c 5bbe 48b7 553e 2715 f53d fa7a 4c3d
00000230: 9856 14bf 1d5f 2e3e 1390 3c3e 8bdd 35be
00000240: 798a 91be 9f7f 4e3e 0e54 95be a6ef 933e
00000250: f51d 8fbe b51b 9ebd e62c 603d 29b8 c2bd
00000260: 32df f0be 98a4 d53e d8b7 d33d b443 3abd
00000270: 6280 0dbe e395 ba3d 3111 4f3e a49b b3be
00000280: b0e0 d9be e8e4 ecbd 1738 abbe b48e 2fbe
00000290: 625b b13e 78be edbc bb46 4cbe d63f cdbd
000002a0: cd65 58be 3e15 d8be 47d4 11be 8d9a 583e
000002b0: cde4 cd3e 5a6e 0abd 93e1 c7be afd5 a83d
000002c0: c845 963d 8d87 59be 4c80 0cbe ff7a 31be
000002d0: bd40 693e 647c e9bd 0392 8fbe 9c2f 82be
000002e0: 713d 873e 4d4b 90be 6114 2ebd c8c9 5fbe
000002f0: d6fc 36be 769a 993d 380c e2bd 302f d03e
00000300: 1149 1b3c e62e 373d 9311 8a3e 61d1 c63c
00000310: b78a 2ebe 62bf a3be 500d d53d 79ca cb3e
00000320: 2d6b ba3c 4317 e33e 48fa c13d faa6 273e
00000330: 3c51 e53d 453e e53e e781 d2be 0a01 37be
00000340: b5ff b2bd c9de 5fbd 142d 13bc 9119 98bd
00000350: 847c 3fbe 8c78 24bf 48c9 8dbe 3350 4dbe
00000360: e6a1 183e 491a 993d 017c 0c3e cb20 4dbe
00000370: f4e5 cb3d eb4a ecbd a463 9dbe 1865 4a3e
00000380: 49e0 8ebe 300f 70bd dde7 90bd 6021 7ebe
00000390: c3f2 623e 8e48 813e 0c45 b2bd 9cd6 023d
000003a0: 11b3 4e3d dd73 1c3e 6d87 e3be 1317 d9bd
000003b0: c9a7 60be 7d5b b73e dfb1 b43e 8095 e53d
000003c0: 4496 b53c d6c1 04bf 244d 68be 46a5 133e
000003d0: ea17 9f3e 23b4 2bbe afba dc3e 01ff 15bf
000003e0: f17f f5bc 3e7f df3d 0337 843e 6007 503d
000003f0: 1d59 28bd ecdb 803e 43d7 63bc 6186 91be
-0.11661518 -0.054315813 0.3594543 -0.024347072 0.49585867 -0.28228357 -0.058552086 0.20134528
-0.09437439 -0.19236962 0.24888442 0.3463255 -0.31614536 -0.14766824 0.0110408645 -0.30877763
0.31927046 -0.27909598 -0.1904765 0.18252851 0.38374382 0.07744626 0.043056626 -0.096295446
-0.053039018 0.116953336 0.07050598 0.17126015 -0.52886784 -0.11477197 0.48116583 0.31237727
0.053182207 -0.17001103 -0.42093214 0.08868022 -0.16858868 0.33663005 0.43764493 -0.27418163
-0.5687584 0.19791955 -0.42085108 -0.076299876 -0.312506 -0.23037043 -0.53421015 -0.28808203
0.15538538 0.18487334 0.4315079 -0.18828078 0.05274161 -0.13485172 -0.16015443 -0.4343381
-0.076446176 -0.26884964 0.28721794 -0.10514616 -0.067916356 -0.37751284 -0.098999605 0.47721583
-0.05408558 0.14173223 -0.21946506 0.46855706 -0.17707779 0.32522127 -0.107510366 -0.11334849
0.12451047 -0.21209352 -0.4231372 -0.05392697 0.13542849 -0.035871837 -0.041809045 -0.28684136
0.44221717 -0.029407712 0.2080118 0.024299331 -0.16755888 0.16642329 -0.18665957 0.28770185
0.2594684 -0.48538098 -0.11589921 -0.168607 -0.14632143 -0.17734604 -0.14523241 0.27702108
0.19560069 0.2480219 0.1595712 0.2553071 0.25766534 0.09415824 0.23353428 -0.04512038
0.30440035 -0.21624847 0.1281314 -0.056350768 -0.40869588 0.08712697 0.4739105 -0.27066052
0.116351366 -0.31915626 -0.6181896 -0.09206288 0.54560345 -0.19324048 -0.227995 -0.20146558
0.29152656 -0.39488575 0.10290287 -0.27369863 -0.14526378 0.09663489 -0.19520243 0.2974641
0.0061788256 0.2583981 0.055710208 -0.14115234 -0.12059308 -0.010450618 -0.35259798 -0.11444421
-0.21446455 0.20870697 0.11966925 0.049921967 -0.5794463 0.1702847 0.18414335 -0.17760293
-0.2842596 0.20165871 -0.2916569 0.28893775 -0.27952543 -0.077201284 0.05473032 -0.09507782
-0.47045285 0.41727138 0.103378 -0.045474723 -0.13818505 0.0911062 0.20221402 -0.35079682
-0.42554235 -0.11567098 -0.3344123 -0.1714428 0.34640032 -0.029021487 -0.19948857 -0.10021941
-0.21132584 -0.42203707 -0.14241134 0.21152706 0.40213624 -0.033796646 -0.39039287 0.08243882
0.073375285 -0.21243115 -0.13720816 -0.17332076 0.22778602 -0.11400679 -0.28041086 -0.25426948
0.26414064 -0.2818245 -0.042499904 -0.21854317 -0.17869887 0.07500164 -0.11037487 0.40661
0.00947787 0.04472246 0.26966533 0.024269762 -0.17045103 -0.3198195 0.1040293 0.39802912
0.022756184 0.44353685 0.094715655 0.1637229 0.11197135 0.4477407 -0.41114733 -0.1787149
-0.087401785 -0.054655824 -0.008982915 -0.074267514 -0.18699843 -0.6424644 -0.27692628 -0.20050125
0.1490551 0.074757166 0.13719179 -0.20032041 0.099559695 -0.11537727 -0.30740082 0.19765127
-0.2790549 -0.058608234 -0.070754744 -0.24817419 0.22162919 0.25250667 -0.08704576 0.03194295
0.05046374 0.15278573 -0.4443926 -0.10600104 -0.21939005 0.35811988 0.35291955 0.112101555
0.022166379 -0.5185827 -0.22685677 0.14418516 0.31072932 -0.16767935 0.43111178 -0.5859223
-0.029968234 0.109129414 0.2582322 0.050788283 -0.04110061 0.25167787 -0.013906303 -0.28422835
