models/epoch_10/discriminator.pth (torch, 420232 bytes, 7 tensors)

network.0.weight f4 [256, 20]
000000 07 ee 50 bd e5 b9 4d 3d ec 2c cd bd 73 49 66 3e
       -0.05100825 0.05022611 -0.10018334 0.22488956
000010 65 77 4a 3e 74 c9 4b be 71 f4 e7 3d 08 56 f3 bc
       0.19772108 -0.19901067 0.113259204 -0.029704109
000020 e5 dc 30 be 90 4c e4 3d 01 03 0f be 4f 39 31 3e
       -0.17271765 0.11147416 -0.1396599 0.17307018
000030 ec 5e 61 3d a5 84 88 bd 55 52 15 bd 59 61 ff bd
       0.055022165 -0.06665925 -0.03645547 -0.124697395
000040 f8 04 86 bd d2 77 95 bc e5 51 23 3c 1d c5 39 be
       -0.065439165 -0.018245611 0.009968256 -0.18141599
000050 33 0f a1 3d 09 78 cb bd c2 be aa 3d c4 fd 9b 3c
       0.07864227 -0.09935004 0.083371654 0.019041903
000060 71 12 0b 3e b3 fe e7 bd e3 0c 2e be 38 42 1d 3e
       0.13581254 -0.11327877 -0.16997103 0.15357292
000070 cf e2 c4 3d b3 e8 ee 3c b7 d8 96 bd 62 7b 21 be
       0.09613573 0.029163694 -0.07365554 -0.15769723
000080 ff 39 20 3e 85 3d 3a 3e c9 c0 8e 3d 4a ed 3a be
       0.15647124 0.1818753 0.069703646 -0.18254581
000090 02 b7 2d 3d 9f 93 6a 3e c9 2b 44 3e 8f d6 81 bc
       0.042410858 0.22907875 0.19157328 -0.01584938
0000a0 95 e6 65 3e 71 02 f8 3b 2e 5a 97 bc c9 51 f9 bd
       0.22451241 0.0075686504 -0.018475618 -0.121738024
0000b0 fc 40 90 3c fa c4 31 be 6b e3 3e bc bf 1a c1 bd
       0.017609112 -0.17360297 -0.0116509 -0.094289295
0000c0 70 96 54 be 03 29 e8 bd 62 58 09 3d 64 0c 6b 3e
       -0.20760512 -0.11335947 0.033531554 0.22953945
0000d0 b1 d3 32 3d 29 08 c2 3b ae 3f 05 3a 27 48 49 3d
       0.043658916 0.005921383 0.00050830364 0.049141075
0000e0 42 5f 0b 3e 92 14 46 3d 2e 3d ba bc fa 6f 0c be
       0.13610557 0.04835946 -0.02273425 -0.1371459
0000f0 91 f0 73 bb 9a f0 87 bd 86 ee a5 bb aa 29 1e be
       -0.0037222246 -0.06637688 -0.0050638346 -0.15445581
000100 35 30 74 bd 95 6b 43 3e cd c6 bb 3d db fa 54 3e
       -0.059616286 0.19084008 0.091687776 0.20798819
000110 be 5f 2d be 7b 7c 31 bd 7f e5 68 3e a7 88 30 3d
       -0.16931054 -0.043331604 0.22743796 0.04309907
000120 cf ef 89 3d c3 d7 17 be 1a 0f e1 3d a9 8c 1a 3d
       0.06735193 -0.148284 0.109892085 0.0377318
000130 74 4b 45 3e 42 fc 2f be e7 4b 67 3e e4 db 02 3e
       0.19267064 -0.17186072 0.22587548 0.12779194
000140 25 c5 3c 3c 3d af e6 3d aa 7b af 3d 78 34 0f be
       0.011521612 0.11263893 0.08568509 -0.13984859
000150 60 a1 08 be 02 43 33 be 7f 63 48 3e 88 74 4a 3e
       -0.1334281 -0.1750603 0.19569205 0.19771016
000160 cf e2 81 3e 31 43 1f be d9 94 07 be 89 e5 92 bc
       0.25368354 -0.15552975 -0.13240375 -0.017931717
000170 02 7e e6 bd 10 ae 7c 3d 14 3c 56 3e 1a 03 53 bd
       -0.11254503 0.061689436 0.20921355 -0.05151663
000180 8f 0b 3e bd 1b 3f 9e bd 7c 9f 2c be 82 6e 8d 3d
       -0.046397742 -0.0772688 -0.16857713 0.06905843
000190 ce 2e 21 be 12 a7 1d 3e f4 19 87 3c 72 f8 c3 3d
       -0.15740511 0.15395764 0.016491868 0.095688716
0001a0 e5 09 23 3e b3 63 dd 3d d5 42 01 3d 59 a2 21 be
       0.15921743 0.10810032 0.031557877 -0.15784587
0001b0 1e f8 19 3d a2 59 44 be 3d 9c 51 be 07 19 10 bd
       0.03759014 -0.19174817 -0.20469756 -0.035180118
0001c0 17 4b 3a 3e 36 e5 58 be f0 dd 01 be 1c c9 b5 3d
       0.18192707 -0.21181187 -0.12682319 0.08876249
0001d0 cb 83 b0 bc 49 01 16 3e 9b 53 f9 bd 73 96 14 ba
       -0.021547219 0.14648928 -0.121741496 -0.00056681706
0001e0 ec a6 07 3e c8 c9 4c bd 18 46 22 be 27 25 f3 3c
       0.1324727 -0.04999712 -0.15847051 0.029680802
0001f0 6a a2 ce 3d d7 82 1c 3e 3d b4 4b be 61 d1 19 3d
       0.10089572 0.15284286 -0.19892974 0.037553195
000200 0b 4d 70 bd fb dc 01 3d ce 26 bc bd d1 87 17 be
       -0.058667224 0.031704884 -0.09187089 -0.14797904
000210 f4 10 6c 3a 86 2c f8 bd 74 e7 67 3e c1 a7 d5 3d
       0.0009005212 -0.12117867 0.22646886 0.10432387
000220 20 03 76 bc ce 63 d4 bd 43 58 41 3e 3b e2 80 3e
       -0.0150153935 -0.10370599 0.18881325 0.251726
000230 03 ee 39 be a1 ed 35 3e 2e d7 c9 bd 54 d3 ab bd
       -0.181572 0.1776643 -0.098554954 -0.08389917
000240 2e 19 2d be 98 40 92 3d 01 e5 1b be 79 96 58 3d
       -0.16904137 0.071412265 -0.15224077 0.052877877
000250 18 54 d4 bd 5e 1f 49 3d 5f 62 c3 bd 82 db b5 bd
       -0.10367602 0.04910218 -0.09540247 -0.088797584
000260 8a 43 e6 3d 7c 53 6e 3d eb e0 ca 3d 93 4a 15 3e
       0.11243351 0.058185086 0.09906181 0.14579229
000270 1a 35 8d bd 4d 63 ad 3d 91 7f b2 bc 5e 62 c8 3d
       -0.06894894 0.08466206 -0.021789344 0.09784387
000280 03 52 50 be 9b 8e f1 bd bc 9e 1f bd cb 55 c5 3d
       -0.20343785 -0.11794778 -0.03896974 0.09635504
000290 5e 41 23 bd 01 79 b3 3b e7 9b c8 3d 6c fa 31 be
       -0.03985726 0.0054770713 0.09795361 -0.17380685
0002a0 64 97 3a be f7 68 35 3e 0c b0 2d 3e 39 a2 20 be
       -0.18221813 0.17715822 0.16961688 -0.15686883
0002b0 1f 40 a5 bd 1f 5d 3f bc 86 f0 8c bd ee d5 db bd
       -0.08068871 -0.011679917 -0.06881814 -0.10734163
0002c0 e6 0e da 3d 3e 35 87 bd 6a c6 7e bd 94 b3 3f bd
       0.10647373 -0.06601952 -0.06220094 -0.04680212
0002d0 1d e5 3d 3e 88 fe eb bc 7d 07 38 3e 43 f2 53 3e
       0.18544431 -0.028807893 0.17971607 0.20697884
0002e0 0d a2 8d bd 1a 9a 03 3e 98 b1 67 3e 7a e9 1a be
       -0.06915674 0.12851754 0.2262634 -0.15128127
0002f0 d1 55 88 3d 4f a3 4a bd 44 f3 19 3d 20 20 37 3d
       0.06656993 -0.04947215 0.03758551 0.04470837
000300 f5 14 18 be b6 9b 86 3d 4d 37 91 bc 52 1f f1 bd
       -0.14851744 0.06572668 -0.017726565 -0.11773552
000310 32 8a a3 3c 44 bc 0b be d1 bc 9b bd 4a 84 13 3e
       0.019963358 -0.13646036 -0.07604373 0.14405933
000320 14 ab 49 bd 61 24 62 bd 68 51 0e 3e ad 0c 9f bd
       -0.04923542 -0.055210475 0.13898242 -0.077660896
000330 7d 77 a0 3d ef be c7 bd c0 9e 80 be 03 5d 1a 3e
       0.078352906 -0.097532146 -0.25121117 0.15074544
000340 ec bb 49 3e 15 c9 9c 3d eb c9 5b 3e 44 58 0a 3e
       0.19700593 0.07655541 0.21463744 0.13510233
000350 cf c6 34 be 2d 9a 97 bd 13 2d 15 bd 71 32 c8 3d
       -0.17653964 -0.074024536 -0.03641994 0.09775246
000360 ec 79 7e 3d ca 09 9e 3c cd 69 83 3d b7 7e 50 be
       0.062127993 0.019291777 0.06416664 -0.20360838
000370 27 9c 79 3d 7e 27 53 3e bc 2b bd 3d 57 9d 9c bd
       0.060939934 0.20620534 0.09236857 -0.07647198
000380 8c 99 24 3e 38 cb 39 3e 28 71 ec bd d7 9f f0 bc
       0.16074198 0.18143928 -0.1154502 -0.029373093
000390 8e 95 0f bd 4c 77 8c 3c 29 76 a0 bd 19 5c cb bd
       -0.035054736 0.017146729 -0.07835037 -0.099296756
0003a0 7c fd 6d 3d b5 c7 19 3e 5a 52 3a 3d 39 d4 a5 bd
       0.05810307 0.15017588 0.045488693 -0.08097119
0003b0 f2 c4 ec 3d 1b f6 24 3e 94 2f 4b 3d ff a8 bb bd
       0.11561002 0.16109507 0.04960592 -0.09163093
0003c0 be c0 ad bd e8 33 73 3e bf 0c bd 3c 2c e2 d9 bd
       -0.08484028 0.2375027 0.023077367 -0.10638842
0003d0 dc 93 41 3e 9d fb 07 be 65 20 2d bd a6 f1 6a bc
       0.1890406 -0.13279577 -0.042267222 -0.01433984
0003e0 ce bb 3c be 48 64 8c 3d e3 0a 33 3d 9a bb 42 3e
       -0.18431017 0.06855065 0.043711554 0.19016877
0003f0 49 ea 04 3e d6 11 26 be ec 59 4c 3d 6e d2 40 bd
       0.12979998 -0.16217741 0.049890444 -0.04707568

network.0.bias f4 [256]
000000 8b 5c 60 3e 95 c3 40 be c3 a1 1c be e0 d7 0d bb
       0.21910302 -0.18824609 -0.15296082 -0.0021643564
000010 87 bf 80 be 17 d9 81 be e5 67 d1 3d 69 d4 90 3c
       -0.25146124 -0.2536094 0.102248944 0.01767941
000020 3c c9 63 3e d0 7b d6 3c b8 46 ad bd 55 7a 6e 3e
       0.22244734 0.026182085 -0.08460754 0.23288853
000030 b3 05 cd 3c 73 9c 93 be 88 0a 05 be 2e 69 26 3e
       0.025027132 -0.288303 -0.12992299 0.1625106
000040 22 63 c5 3d bd bc 22 be d3 32 1d be 4c 33 64 be
       0.09638049 -0.1589231 -0.15351419 -0.22285193
000050 cc 5c 87 3e de f2 8a bd 3c 62 9a bd e3 aa 07 be
       0.26437986 -0.067846045 -0.07538268 -0.13248782
000060 56 ed 74 be 0b 9c 01 3e c7 95 54 3e 04 35 42 3d
       -0.23918661 0.12657182 0.2076026 0.04741384
000070 e8 2c f2 bd c1 a8 85 be 17 94 73 bd 85 d8 8e 3d
       -0.118249714 -0.26105312 -0.0594674 0.069748916
000080 52 36 18 be eb 4f 83 3e 89 2a 67 be eb be 5e 3e
       -0.14864472 0.2564691 -0.2257482 0.21752517
000090 d2 5b 85 be af b0 8c be c5 f3 12 3e 8b 8c 5e be
       -0.26046616 -0.2747855 0.14350803 -0.217333
0000a0 20 de e3 bd 04 d0 81 3e e3 39 5f be da 9d 2f bd
       -0.11126351 0.25354016 -0.21799426 -0.04287515
0000b0 b5 36 00 3b b3 b6 b2 bd 26 cd 70 3e 02 0b fc 3d
       0.0019563858 -0.08726253 0.23515758 0.12306787
0000c0 25 b0 51 3e 06 e8 5a 3e 98 1a 1a be a7 7f 68 be
       0.2047735 0.21377572 -0.15049207 -0.22704946
0000d0 a4 52 89 3b 1e 8a 7d bd 75 e7 80 be c7 8b ff bd
       0.0041907597 -0.061899297 -0.25176588 -0.12477832
0000e0 94 99 c7 3c e3 b4 16 3e 5b 7a b8 bd 7f 50 c3 bd
       0.024365224 0.1471744 -0.090077125 -0.09536838
0000f0 47 d1 79 be 65 63 44 3d df c7 7d be b8 62 64 bd
       -0.24396239 0.047946353 -0.24783276 -0.055758208
000100 a3 32 95 bd 0b 20 1c bd df d0 a3 3d e7 79 02 be
       -0.07285049 -0.038116496 0.079988234 -0.12741815
000110 e0 a6 5b 3e 88 11 82 be 20 a2 1c be be fe 16 3e
       0.21450377 -0.25404 -0.15296221 0.14745614
000120 fc 80 0c 3e 62 b1 16 be 0b be 12 be 3f 7f dd bd
       0.13721079 -0.14716104 -0.14330308 -0.10815286
000130 6c 6d ba bc 92 3c 2d be 38 e0 00 3e 55 76 55 3d
       -0.022757255 -0.16917637 0.12585533 0.052114803
000140 d5 b4 db bd b1 c9 1d be 9c 32 25 be 69 24 d7 3b
       -0.1072785 -0.1540897 -0.16132587 0.0065656197
000150 c2 04 20 3e e2 96 95 3e 70 df 25 be 73 de 4e be
       0.15626815 0.29216677 -0.16198516 -0.20202045
000160 51 5f a6 bc 01 00 8b 3d 8b b2 7b be af 1d 78 3e
       -0.020309122 0.0678711 -0.24579827 0.24230073
000170 56 b3 6a be 19 09 1d be f9 d6 6d bd c2 ab 4a bd
       -0.22919974 -0.15335502 -0.058066342 -0.049480207
000180 53 e7 38 3e 57 3e 0f 3e 01 02 21 be ed 86 66 3e
       0.18056993 0.13988625 -0.1572342 0.22512408
000190 64 b6 4f 3e d6 05 a2 3c cf dc 93 3d 7b 04 04 be
       0.2028442 0.019778173 0.0721985 -0.12892334
0001a0 b4 2a 5b 3e 79 e8 95 be be 3d 0c be c0 d0 59 be
       0.21403009 -0.29278925 -0.13695428 -0.21271038
0001b0 4f 20 36 be b6 24 e5 bd 4a ad b2 bc cf 2c b9 bd
       -0.17785762 -0.11188643 -0.021811146 -0.0904175
0001c0 d1 12 03 bc 98 9b 49 bd cb 18 64 be ef dd 8b be
       -0.008000092 -0.04922065 -0.22275083 -0.2731776
0001d0 b4 e0 40 3e ff 31 ba bd f1 43 25 be 9b 5c 9e 3d
       0.18835717 -0.09091567 -0.16139199 0.07732507
0001e0 8b 08 25 be 5f f5 8d 3e c4 f4 54 be f6 13 7b be
       -0.1611654 0.27726266 -0.20796496 -0.24519333
0001f0 de 66 43 be 30 79 95 3d b6 d9 9d 3d 85 fb 1f be
       -0.1908221 0.07298505 0.07707541 -0.15623291
000200 8c cd 16 be 54 46 22 bc 32 da e3 bc 34 82 15 3d
       -0.14726847 -0.009904463 -0.027814005 0.036501125
000210 7c d5 3e be 36 7b 87 be 88 e2 c8 bd 41 07 ad 3d
       -0.18636125 -0.2646119 -0.098088324 0.08448649
000220 0f a8 2b 3d e3 a1 1d be a4 f7 c4 bd 6c 7f 56 be
       0.04190832 -0.15393786 -0.09617546 -0.20947045
000230 64 76 d3 bd 5a 09 44 be 23 7b 77 be c3 19 77 3d
       -0.103253156 -0.19144192 -0.24168067 0.060327303
000240 88 8a 3e be 42 6d 0c 3b 37 e7 42 be a2 13 cd bd
       -0.18607533 0.0021427427 -0.19033514 -0.1001351
000250 23 69 3d 3d fc b5 11 3e 84 45 cb bd d4 86 30 3e
       0.046242844 0.14229578 -0.099253684 0.17238933
000260 b3 b7 19 bd c4 65 67 be b7 59 5b be 15 b9 5e 3e
       -0.037528705 -0.22597414 -0.21420942 0.2175029
000270 43 f5 95 bd ea 44 26 be 53 49 3a 3e 07 ea 32 be
       -0.073221706 -0.16237226 0.18192033 -0.17472087
000280 da 5b ea bd 2e 7f 28 3e e9 f2 11 3e b2 d7 30 be
       -0.114433005 0.16454765 0.14252819 -0.17269781
000290 9c 43 61 3e 54 91 6b be c7 f9 43 3d a6 84 40 be
       0.21998447 -0.23004657 0.047845628 -0.18800601
0002a0 b4 26 be bd c7 78 4b be 26 28 17 be 00 b3 b1 3d
       -0.09284726 -0.19870292 -0.14761409 0.0867672
0002b0 ac fe da 3c 54 6a bc bd d8 fd 8c be 71 4d 17 bd
       0.026732765 -0.09199968 -0.27537417 -0.03693909
0002c0 0c 2f d2 3d 42 1f 77 be 95 83 88 be a6 04 81 3e
       0.1026288 -0.24133018 -0.2666289 0.2519886
0002d0 a0 de 3f 3d 61 75 a5 bd e8 a1 19 be 44 61 4d be
       0.04684317 -0.08079029 -0.15003169 -0.20056635
0002e0 32 3b 35 3e f8 f7 ff bd 6e 88 18 bd c0 a0 8a 3d
       0.17698362 -0.12498468 -0.037239484 0.06768942
0002f0 f7 6b 73 be 0b 1d 8d be 25 5d 8f be da 1d c7 bb
       -0.23771654 -0.2756122 -0.2800075 -0.0060765566
000300 ce 11 8b be 28 12 75 be 77 1a 84 bd b1 1f 88 be
       -0.2716202 -0.23932707 -0.0645036 -0.2658668
000310 f4 5b 57 bc 6d 2f 96 bd b4 19 fa bd e0 6e 6e be
       -0.013144482 -0.073332645 -0.12211934 -0.23284483
000320 c5 0a 93 3e 0b 8f 7f be d2 05 5f 3e 79 3b 78 be
       0.28719154 -0.2495691 0.21779564 -0.24241437
000330 9c 31 ea 3d 7c 9e 13 3c 41 fa 13 3e c6 60 93 3d
       0.114352435 0.009009954 0.14450933 0.071961924
000340 00 eb 38 3d 7e 8a 49 3e 61 92 4e 3e 72 2a 02 3d
       0.04514599 0.19681737 0.20173027 0.03177876
000350 e9 40 e7 3d 27 4f 8d be b1 0c 7d be 51 c1 e5 3d
       0.112916775 -0.2759945 -0.24711873 0.11218513
000360 3f d7 84 3d 7f f5 81 3e 8d b9 c0 3b 26 6f f6 bc
       0.064863674 0.2538261 0.0058814944 -0.030082297
000370 69 87 6f be dd 97 22 be 15 45 38 bd 6f b4 7d be
       -0.23391499 -0.15878244 -0.044987757 -0.24775861
000380 47 58 25 be 66 af 4c 3e a4 29 f5 bc 76 52 63 3d
       -0.16146956 0.19988784 -0.029927082 0.055498563
000390 08 11 96 bd eb e9 29 bc b7 27 14 be e5 20 53 3e
       -0.07327467 -0.010370712 -0.14468275 0.20618017
0003a0 35 6f 15 3d b7 a3 5d 3d f9 39 38 3d 3f 35 1b 3e
       0.03648301 0.05411121 0.044977162 0.1515703
0003b0 c3 ba 1f 3c 19 5d 93 3b 05 43 91 3e d6 a1 b5 3d
       0.009749117 0.004497182 0.28371444 0.088687584
0003c0 d4 20 21 be be 86 0b be 33 6b 15 3d 22 67 85 be
       -0.15735179 -0.13625619 0.036479186 -0.26055247
0003d0 2e c3 67 3e e9 b1 cd 3c 47 43 4e 3e 41 43 44 3e
       0.22633049 0.025109248 0.20142852 0.1916628
0003e0 c0 c3 65 be bc 95 26 be 06 17 91 be 70 f6 08 be
       -0.22437954 -0.16268057 -0.28337878 -0.13375258
0003f0 59 36 80 be a2 f6 f0 3d 95 4c 49 be 04 c6 7f be
       -0.25041464 0.117657915 -0.1965812 -0.2497788

network.3.weight f4 [256, 256]
000000 af f9 be 3c b0 fc 56 bd 11 71 94 bd 09 2f 35 3d
       0.023312418 -0.052487075 -0.07248128 0.04423431
000010 13 51 a0 3c 8c de e3 bc c9 bb aa 3b 8e 9f 18 3d
       0.01956991 -0.02781608 0.005210374 0.03726154
000020 92 59 0e bd a4 2d b4 bc 5e c5 48 bd ce 6d 7f ba
       -0.03475339 -0.02199442 -0.04901635 -0.000974384
000030 f6 fe 39 3d c0 62 48 bc b8 21 96 bc 35 4f dc bb
       0.045409165 -0.012230575 -0.018326625 -0.0067233094
000040 99 f6 ef 3c 00 5a 26 3d c7 7c 6d bd 3a 38 69 3c
       0.029292392 0.040613174 -0.057980325 0.014234597
000050 a1 ae 0a 3d 39 06 3f bc b9 fc 3c bd 87 aa 5f bd
       0.033857945 -0.011659198 -0.046139453 -0.054605987
000060 b0 9d 92 bc ab a2 7a bc 11 7a 13 3b cb 37 51 3d
       -0.017897457 -0.015297572 0.0022503177 0.0510786
000070 81 0f 22 bd dc 47 42 bd ff 81 13 3c e2 ef 5d 3c
       -0.039565567 -0.04743181 0.009003161 0.013545962
000080 b2 6f 4a 3d f9 91 56 3d 70 5e 04 bb a8 0e ec bc
       0.049422927 0.052385304 -0.002019789 -0.028815582
000090 64 ab de bc 27 b3 e3 3b ee d9 e0 bc eb e7 2e 3d
       -0.027181335 0.006948847 -0.027447667 0.042701643
0000a0 47 90 6f bd 95 88 ee bc ce f9 97 bd 23 44 4d 3d
       -0.058487203 -0.029117862 -0.07420693 0.05011381
0000b0 27 eb 78 3c 2b 87 2b 3c a0 64 c9 bc a0 15 a1 3c
       0.015192783 0.010469238 -0.024584115 0.019663632
0000c0 f5 12 8e bb c1 82 8f 3c 3e db 67 bd 5d 71 99 3c
       -0.004335756 0.017518403 -0.05660557 0.018730814
0000d0 b0 8d 1e bc 0b e9 e5 3c 71 97 9f bc a2 96 7c 3c
       -0.009677336 0.028065225 -0.019481393 0.015416773
0000e0 06 20 0b bd 11 4a ef 3c ef d5 1d bd db ed 84 bd
       -0.033966087 0.029210122 -0.0385341 -0.0649068
0000f0 0d 83 c1 bc 3b b9 96 bd 12 07 98 bd 20 ac 9c bc
       -0.02362206 -0.07359549 -0.074232236 -0.019125044
000100 9b d0 09 bc 48 ad 04 3c 50 59 48 bd d3 ef 75 bd
       -0.008411552 0.008097954 -0.0489133 -0.060043167
000110 97 da c1 bc 27 1e 8b bd be 0e 00 bd 2b ce 65 bd
       -0.023663802 -0.067928605 -0.03126406 -0.05610482
000120 dc 18 c9 3c 39 f9 99 bc 26 d1 8f 3c b6 26 b2 bb
       0.024547987 -0.018795596 0.017555784 -0.0054367436
000130 74 8f b7 3c 1e 18 74 bc 8e bd 2c 3d 4f c8 55 3d
       0.022407271 -0.014898328 0.04217296 0.052192982
000140 55 95 a1 3b c0 3b 80 bd b2 3e e3 3c 50 fd 88 3b
       0.004931132 -0.062613964 0.027739856 0.004180588
000150 25 98 64 bc 0c fd 34 bc fb 44 4d bd c4 fa 41 bd
       -0.01395229 -0.011046659 -0.050114613 -0.04735829
000160 b4 3c 09 bd f7 45 00 3d 85 44 02 3d e3 a1 96 bc
       -0.033505157 0.031316724 0.031803627 -0.01838774
000170 f8 f4 e4 bb 0f 73 6c bd 4c 78 f0 3c 67 01 c4 bc
       -0.0069872104 -0.057726916 0.029354237 -0.02392645
000180 d8 38 03 3d 06 33 2b 3d 94 ed db 3c 10 d5 1f ba
       0.032036632 0.041796707 0.026846685 -0.00060971174
000190 05 f9 2e 3d 79 98 0e bd e0 24 49 3c 52 a8 14 3d
       0.042717952 -0.034813378 0.012276858 0.036293335
0001a0 84 2f 46 3d ae a7 30 bd 8f 88 aa bc b1 1f 94 bc
       0.04838516 -0.04312866 -0.02081707 -0.018081518
0001b0 f8 d0 05 3d 95 3b 47 bd 5f 9d 96 bb 2f 89 02 3d
       0.03266999 -0.048640806 -0.004596397 0.03186911
0001c0 68 0c 74 bc 83 29 2c bd e6 f9 a9 3c d3 e4 a1 bc
       -0.014895536 -0.042031776 0.020749044 -0.019762432
0001d0 21 cc 9f 3c a6 9d 6f bd c7 3e 5b bd d7 a5 8c 3d
       0.019506516 -0.058499955 -0.053526666 0.06867569
0001e0 c0 7e 0c 3d d9 e1 34 3d fb 75 65 3d d6 58 0d 3c
       0.034300566 0.044160698 0.056020718 0.008627137
0001f0 1e 81 5a bd d6 d0 d7 3c fc 90 0a bd 69 a9 54 bd
       -0.053345792 0.026344698 -0.033829674 -0.051919375
000200 8c 6f ed 3b 2a 4e 58 3c b7 e0 24 bd 91 c2 5e 3d
       0.0072459634 0.0132022295 -0.040253367 0.05438477
000210 90 fd 05 3d 7d a1 23 bd f9 22 06 bd 14 99 1f 3d
       0.03271252 -0.03994893 -0.032748196 0.038964346
000220 e8 b3 32 3d e0 a8 b3 bc 07 a4 2b bd 6a cb 59 3c
       0.043628603 -0.021931112 -0.041904476 0.013293127
000230 31 2a ee 3c 61 c2 51 bd 4d 85 ed 3c a0 df 2b 3d
       0.029072853 -0.051210765 0.028994227 0.041961312
000240 63 e0 e6 bc 29 f1 51 bd 95 95 47 3d 2d 6e c6 3b
       -0.028183168 -0.05125538 0.048726637 0.0060556144
000250 9e 42 c6 bc 2f d3 26 bd 83 5f 0c 3d 15 6e 19 bd
       -0.024201687 -0.040728744 0.034270775 -0.037458498
000260 af 7d 48 bd f7 e4 33 3d da 42 fa bc d0 7f ef bb
       -0.048947986 0.04391953 -0.030549455 -0.0073089376
000270 b4 2c 3e bc f7 18 7f bd ee 2d 03 3b f6 8b 1e 3d
       -0.011607338 -0.062279668 0.002001639 0.038707696
000280 2b a2 93 ba 84 0f 27 bd 9c cc ed bc 51 5a c1 3a
       -0.001126354 -0.04078628 -0.02902823 0.0014751648
000290 7f 84 2a 3d 60 fe 28 3c ed 36 6b 3d a2 0c 02 bd
       0.041630264 0.010314554 0.05742543 -0.03175033
0002a0 b6 9a ab 3c e2 dc 1c 3d 9e 4c be 3c ed 2a 80 3d
       0.020947795 0.038296588 0.023229893 0.062581874
0002b0 08 18 19 bd b5 c8 28 bc cd 65 3e bc 41 dc 46 3d
       -0.037376434 -0.010301759 -0.011620951 0.048549894
0002c0 03 61 7f bc dd cd e8 ba 60 fa 86 bb 8e 1b 98 3d
       -0.015587094 -0.0017761547 -0.0041192025 0.07427131
0002d0 f0 97 f6 3c 2e 2a 4b bd 4e e3 ab 3b 3b 67 d1 bc
       0.030101746 -0.049600773 0.0052456027 -0.02556192
0002e0 31 32 7a 3d 6c 8d d9 bc 54 f4 47 3d a1 95 5a 3d
       0.061083023 -0.026556693 0.048816994 0.053365353
0002f0 9c de f6 3b 48 8c 52 bd 42 6d 04 3c ca 82 f4 3c
       0.0075338613 -0.051403314 0.00808269 0.029847521
000300 0c 74 48 bd cc e5 c4 bc c6 70 e9 bc fc de 17 bd
       -0.048938796 -0.024035357 -0.028496157 -0.03707789
000310 18 fa 9c 3c 61 c5 14 bd e3 2b 67 3c 91 1a 57 bc
       0.019162223 -0.036321048 0.0141095845 -0.0131288925
000320 26 46 2e bc 50 1f 86 bd ab cf d4 bb c7 c3 4e 3a
       -0.010636842 -0.06548941 -0.0064944825 0.00078874495
000330 30 16 00 3d a3 45 07 bd b2 20 16 bd 3b bb 05 bd
       0.03127116 -0.033025395 -0.036652274 -0.03264926
000340 d3 15 13 3d 82 4d 3f bd f7 05 82 3c 14 89 56 3d
       0.035909485 -0.046704777 0.015871985 0.05237682
000350 83 ba 1b 3b 08 fa aa 3b 5b 3a 91 bc cc 5c 28 3d
       0.0023762293 0.0052177943 -0.017728021 0.041104123
000360 07 b9 36 3d dd 6b 17 3d 6d 38 24 3c ab d4 46 bd
       0.04461005 0.0369681 0.010023219 -0.04854266
000370 0e ce cd bc c2 6f 81 3c 7c e5 7b bd 54 26 93 bd
       -0.025122669 0.01580036 -0.06149815 -0.07185045
000380 60 70 e1 3c 3c c3 fd 3c 8b da 1c bd a6 d8 4c bd
       0.027519405 0.030976884 -0.038294356 -0.0500113
000390 aa df b4 ba 74 32 0b bd ca 39 15 bd 06 5e 0a bd
       -0.0013799567 -0.033983663 -0.036432065 -0.033781074
0003a0 c3 b5 30 bb a4 4b 05 3a 00 fb 83 bd 89 2d 03 3d
       -0.0026963807 0.00050848187 -0.06444359 0.032025848
0003b0 37 00 2b 3d 49 15 56 bd 50 12 75 3b de 2e bf bc
       0.04174825 -0.052266393 0.0037394948 -0.023337778
0003c0 18 56 2b 3d 95 b5 d8 bc 47 2f 80 bc 43 5e 54 3d
       0.041830152 -0.026453773 -0.015647544 0.051847707
0003d0 ba 7b 1a 3c fb 70 86 bb 1f cc 5f 3d 12 38 31 3d
       0.009428913 -0.004102824 0.054638024 0.043266363
0003e0 4a 1b a8 bd a0 f9 83 bd b7 56 47 bd 21 e7 0d 3d
       -0.0820833 -0.064440966 -0.048666682 0.03464425
0003f0 ce 46 9b bd f2 40 39 bd 57 0d bb 3c ea d4 0c bc
       -0.07581864 -0.045227952 0.02283351 -0.008595685

network.3.bias f4 [256]
000000 ee 70 e7 3d 8f 32 09 be bf 5d a6 3b af 57 d1 bd
       0.113008365 -0.13398193 0.0050770934 -0.102218024
000010 06 31 02 be e2 84 db bd 73 b1 49 bd 33 45 8e 3d
       -0.12714013 -0.10718705 -0.049241494 0.069467925
000020 e3 bd 9b bd 80 37 46 bd 09 65 97 3d 3b fc 57 bb
       -0.076045774 -0.048392773 0.07392318 -0.0032956738
000030 fe 45 8c 3d b1 cf d9 3d 65 24 85 bc 05 15 28 bc
       0.068492875 0.10635317 -0.016252706 -0.010258918
000040 29 18 dd 3d c1 44 b9 3d 8a 81 db bd 5e a7 f2 bd
       0.10795624 0.09046317 -0.10718067 -0.11848329
000050 f5 76 42 bd 78 84 a0 bd c7 ab f8 bd ea 28 09 be
       -0.047476728 -0.078377664 -0.12142139 -0.13394514
000060 77 75 03 be 3e 88 d4 bc df 17 c6 bd 70 71 05 be
       -0.12837778 -0.025943872 -0.09672522 -0.13031554
000070 6e 35 07 be 80 ee a5 bd 56 85 87 bb d5 a3 f8 3d
       -0.13203976 -0.08102131 -0.004135768 0.121406235
000080 e4 8e c6 bc f6 aa 74 bd 1c 65 a0 3d 35 35 c9 3d
       -0.024238057 -0.059733354 0.07831785 0.098246016
000090 df 0d 08 3c 12 52 05 be 5c e0 ab bd 3a e5 dd bc
       0.008304088 -0.13019589 -0.083924025 -0.027086843
0000a0 f9 20 1c 3d b2 30 d3 3c 06 ce bb bd 3d 08 b8 bd
       0.038117383 0.025780056 -0.09170155 -0.08985946
0000b0 65 6b c8 3d 7d 11 18 be 34 b5 9d bd 53 f0 e0 bd
       0.09786109 -0.14850421 -0.077005774 -0.10983338
0000c0 af 86 01 bd 43 34 43 3c 0c de dc 3d c9 d1 1d 3b
       -0.031622585 0.011914316 0.107845396 0.002408134
0000d0 76 a3 e4 bd 38 f3 42 3d 3f 09 ca bb 03 5a 78 3c
       -0.1116399 0.047595233 -0.006165653 0.015158179
0000e0 a0 1b 0d be d1 ad 81 3d a0 22 90 bc 8f 3e de bd
       -0.1378007 0.06331981 -0.017594635 -0.10851776
0000f0 6d a1 cc bd 1f 1c 92 3d 75 60 d9 bc 3f e9 04 be
       -0.09991727 0.0713427 -0.026535252 -0.12979601
000100 c6 86 8e 3d 75 96 5a 3d 1c a7 d1 bd dc 09 e4 bd
       0.069593 0.053366143 -0.10236952 -0.11134693
000110 d5 69 43 bd 52 94 c4 3c d8 ac cd bd 87 b5 b3 bb
       -0.04770835 0.023996506 -0.10042733 -0.005484286
000120 f8 c3 a1 3d ac df 40 3c af 55 3f bd 0a 10 bb bd
       0.07898706 0.0117720775 -0.046712574 -0.091339186
000130 d3 d6 5f bd 09 1d 1c 3d de 60 7e bd fe 1a 8e bd
       -0.05464823 0.038113628 -0.0621041 -0.06938742
000140 5f de e4 3c 91 f8 9f bd 6e 9e 82 bc 8a 65 f9 bd
       0.027938066 -0.07811082 -0.015944686 -0.1217757
000150 fc 3f 74 3d 87 8c 60 3d c5 7b e7 39 fa cf 90 bd
       0.059631333 0.054821517 0.0004415197 -0.070709184
000160 58 2e ad bd 12 1e da bd 45 ab d5 bd 68 92 ae bd
       -0.08456105 -0.10650267 -0.10433058 -0.085240185
000170 2f 34 88 bd 77 78 1b bc f7 4a 15 bd 3f cb d8 bb
       -0.06650578 -0.00948917 -0.036448445 -0.0066160257
000180 00 3d ce bd 3e e6 f1 3d fb 60 01 be 3d d6 ef bd
       -0.100702286 0.11811493 -0.12634651 -0.117107846
000190 f9 d3 a4 bd 69 b3 24 bd cb b2 9a bd 86 37 66 3d
       -0.08048243 -0.04021016 -0.07553633 0.056205295
0001a0 10 90 1b bb b4 19 67 3c 3e ee 88 3d 4c 99 03 be
       -0.002373699 0.014105249 0.06686066 -0.12851447
0001b0 1e 2a 0c be 9c a2 6c bb 0c cc a2 bd 99 5e 59 3d
       -0.13687941 -0.0036107665 -0.07949075 0.05306873
0001c0 24 5b d6 bd 7b 2f 8a bc c9 40 0e bd c9 35 16 bc
       -0.104666024 -0.016868344 -0.034729753 -0.009168097
0001d0 fe ec 4d 3b ac f0 83 3c c3 ed b6 3d 0a f0 9d 3c
       0.0031421776 0.016105972 0.08932068 0.019279499
0001e0 82 3f 9b 3d 61 be 3b 39 2a 39 50 bb 0a 14 51 3c
       0.075804725 0.00017904631 -0.0031772354 0.012761125
0001f0 e6 3e fd bc 73 28 58 3d 6b 78 c4 bc c2 62 e8 bd
       -0.030913781 0.05277295 -0.023983201 -0.113469616
000200 95 4c a0 bc 42 ac fd bc 9e c3 8f 3d a4 66 35 bd
       -0.019567767 -0.030965928 0.07019733 -0.04428734
000210 ce b0 03 3c f7 77 c3 bd 93 0a b5 bd 9a 99 c7 bd
       0.008037759 -0.09544366 -0.088399075 -0.09746094
000220 f9 fa ad 3d 4f 6a 63 3d 7a a4 8f bd 11 d1 a1 bc
       0.08495135 0.055521306 -0.07013793 -0.019753011
000230 c9 09 92 bd be a3 ae bc e7 7e 2b 3d 56 38 b1 3d
       -0.071307726 -0.021318313 0.04186907 0.08653323
000240 5b 83 cf 3c 0a f2 36 bd 05 78 a0 bd e1 41 eb bd
       0.02533119 -0.04466442 -0.07835392 -0.11487175
000250 3c 16 c0 bd 4b bd 4c bd 29 96 17 3d 72 69 9f 3d
       -0.09379241 -0.04998521 0.03700844 0.07783784
000260 e5 df d9 3b 60 39 99 3d 4e 0a dc bc 8e d3 8e bd
       0.0066490048 0.074816465 -0.026860382 -0.069739446
000270 26 d2 c9 bd 33 fe 94 3d 58 2d a8 bd 2d a8 0c bb
       -0.09854536 0.07275047 -0.08211774 -0.0021462545
000280 e1 dc f2 bd 03 dd 7b bd 5c 83 83 3d c8 b4 56 bd
       -0.118585356 -0.06149007 0.06421539 -0.0524185
000290 6f a5 b7 3c eb a4 aa bd de d7 c1 bd 82 6a 32 bd
       0.022417752 -0.08332237 -0.094650015 -0.043558605
0002a0 83 2f a2 bd 80 ac b6 bd 48 ce be 3d 0d 4b c8 bd
       -0.079192184 -0.089196205 0.09316689 -0.0977994
0002b0 21 a9 6d bd 1b dc a8 bd c6 65 fa bd 4c bb 01 be
       -0.058022622 -0.08245107 -0.12226443 -0.12669104
0002c0 56 cc 37 3d fc ca 7d bd 38 32 ef bd eb d5 8f 3c
       0.044872604 -0.06196116 -0.116795 0.017558059
0002d0 58 17 84 bd 0f a8 c3 3d 39 6e 21 bd 46 92 b2 bd
       -0.06449765 0.09553539 -0.039411757 -0.08719306
0002e0 ee 12 eb bd 2e 7c 8c bd f3 1b ed 3c e5 74 27 bd
       -0.1147822 -0.06859623 0.028943991 -0.040882964
0002f0 57 eb f4 3d 0f 88 06 bd 54 c1 67 bd 8d 92 95 3d
       0.1195895 -0.0328446 -0.056580856 0.07303343
000300 70 b8 ca bd 1a 59 2b bd ad 20 ab bd 96 70 c9 bd
       -0.0989846 -0.04183302 -0.08355842 -0.09835927
000310 0d 98 d9 bc 80 d6 b6 bd b7 91 c3 3d 0b f1 09 be
       -0.026561761 -0.089276314 0.09549277 -0.13470857
000320 d6 27 12 bd c1 41 cc 3d 4f 37 0d be 42 c8 19 3d
       -0.03568252 0.09973479 -0.1379063 0.037544496
000330 d7 a8 06 bd ed ac d1 bc ca 1d 50 3d 7d 87 79 3d
       -0.032875862 -0.025595153 0.05080966 0.060920227
000340 7f ab e0 3d 26 61 58 bd d1 bb cc bd 19 b1 96 bd
       0.1097021 -0.052827023 -0.09996761 -0.073579974
000350 c8 73 7c bd 90 44 c1 bd 3b 83 1d 3c 18 7c c2 3d
       -0.061633855 -0.094369054 0.009613807 0.09496325
000360 c5 6d 29 bc df dd e2 3c 81 67 87 bd be 31 bb 3d
       -0.0103411125 0.027693687 -0.06611539 0.09140347
000370 d4 58 ef ba a3 48 83 bd 2c f0 23 bd fc dc 9c bd
       -0.0018260726 -0.06410339 -0.040023968 -0.07659337
000380 e9 a9 42 bd db 81 2e bd 4f f9 9c bd 2a ef e5 bd
       -0.04752532 -0.04260431 -0.07664739 -0.112272575
000390 2f a9 d7 bc 63 9b a7 3c 5b 7e f8 bd 0c c5 56 bc
       -0.02632579 0.020459836 -0.121334754 -0.013108503
0003a0 32 8b 80 3c 03 1f ab 3d 3a 26 41 bd fb ef bc bd
       0.015691373 0.083555244 -0.047155596 -0.0922546
0003b0 93 6c 24 be 7f 1a d6 bd 5f 75 96 3d 00 fe 02 be
       -0.16057043 -0.104542725 0.073466055 -0.12792206
0003c0 b8 36 00 be 7a 0f a7 3d ed dd c7 bd 9d 91 a2 3c
       -0.12520874 0.08157249 -0.09759126 0.019844824
0003d0 8b 4d ee bd 07 0b f9 bd ac 70 81 bd 7a 83 d7 bd
       -0.11635884 -0.121603064 -0.063203186 -0.10523124
0003e0 65 78 fa bd 6a 4f 04 be 16 5b 0c bc f0 6a 06 be
       -0.12229995 -0.12920919 -0.008566638 -0.13126731
0003f0 c0 23 d4 bd 68 8a a0 3d c9 13 20 bd 26 08 df 3d
       -0.10358381 0.07838899 -0.03908137 0.10890226

network.6.weight f4 [128, 256]
000000 d6 b6 fd bb b8 96 58 bb 16 93 1a 3d 98 20 46 3d
       -0.007742743 -0.003304882 0.03773793 0.048370928
000010 b9 6a b8 3d d0 7e 6c 3d cb 0d 90 3a 0e 95 13 bd
       0.09004731 0.057738125 0.0010990439 -0.03603082
000020 4b 60 ea 3c f1 59 e0 bc 1f 10 eb 3b 8f bb 2b 3d
       0.02861037 -0.027386637 0.0071735526 0.041926917
000030 5f 02 6c 3c 63 65 5f bd 12 06 c0 bb 00 46 0e 3d
       0.014404862 -0.05454005 -0.0058600986 0.034734726
000040 ba 85 a5 bd 5a 5d 1e bd c4 54 28 bb 6c af 90 3d
       -0.08082147 -0.038663246 -0.002568529 0.07064709
000050 d2 36 0e 3d 9f e9 d7 3b de cf 9c 3d 90 79 a3 3d
       0.03472025 0.006589129 0.07656835 0.079821706
000060 87 15 7f 3d 90 f1 05 3d 90 a2 64 3d 90 96 b0 3d
       0.06227639 0.032701075 0.055819094 0.086224675
000070 d7 23 6a 3d 1b ef 89 3d 90 52 28 bc 47 4d 21 bd
       0.057163086 0.06735059 -0.010273591 -0.039380338
000080 6d 1d 33 bd 22 48 80 3c a7 df af bc 5e 60 03 3d
       -0.043729234 0.015659396 -0.02146895 0.032074325
000090 7f c2 95 bd 57 d7 81 3c e6 17 0c 3d bb 9c 3b bd
       -0.07312488 0.015849752 0.03420248 -0.045803767
0000a0 68 75 f3 3c 5e 88 6f bd d4 f1 97 3d 74 18 3b 3d
       0.02971907 -0.05847966 0.07419172 0.045677617
0000b0 91 17 fd bc 03 57 5f 3d 8e 6e 9a 3d a3 43 4e 3d
       -0.030895026 0.05452634 0.07540618 0.050357472
0000c0 7b cd 0f 3d 5e 03 8e bd db 7b 80 3b e6 59 5d 3c
       0.03510807 -0.06934236 0.0039210147 0.013510203
0000d0 37 f4 63 3d f1 3b b1 bc a8 72 66 bd 47 73 27 bd
       0.055652823 -0.021635028 -0.05626169 -0.04088142
0000e0 bd 62 9e 3d db f5 ed bc 36 57 10 3d 45 3f c5 bb
       0.077336766 -0.029047897 0.03523942 -0.006019505
0000f0 7e 5d d6 bb f7 a7 73 3c 96 97 d3 bc 84 a0 a1 3d
       -0.006541907 0.014871589 -0.025829118 0.07891944
000100 22 58 c9 3c 49 41 f6 3c d9 23 44 3d 99 bd 86 bb
       0.024578158 0.030060427 0.04788575 -0.0041119573
000110 7a 7a 02 3d 68 78 c8 bc e2 9d a9 bb ec 6d 37 3d
       0.031855084 -0.024471477 -0.005176292 0.044782564
000120 2d d7 2d 3c fe 59 31 bb fe da 47 3d 1f 7b 9c 3d
       0.010610384 -0.0027061696 0.04879283 0.07640671
000130 6b cd 1c bc a2 b1 1b bd 69 e8 85 3d 27 34 b4 3d
       -0.00957046 -0.0380112 0.06538469 0.0879901
000140 23 03 75 bd 06 1a 84 3d 85 89 0e 3d 11 ce fe 3c
       -0.059817445 0.06450276 0.034799118 0.03110412
000150 4e 12 60 bd 63 26 a5 3b 3f 90 26 3c 5c 89 28 bb
       -0.054704957 0.0050399764 0.010166227 -0.0025716638
000160 ef 82 da 3b 0e bc 02 3d 1e e2 c9 bc 24 2e 93 3d
       0.0066684405 0.031917624 -0.024643954 0.07186535
000170 40 09 dc bc 5d 1d 4c 3d ef 63 0f 3c 2d d4 6c bb
       -0.02685988 0.04983269 0.008751853 -0.0036137209
000180 ff 26 01 bd 07 1c 02 bc c9 f1 bc 3d db 1f ab 3d
       -0.03153133 -0.007941253 0.09225804 0.08355685
000190 26 da f7 3c b6 e1 1a 3d d4 2b fb bc 8d 30 a5 3b
       0.030255388 0.03781291 -0.030660547 0.005041188
0001a0 b5 c0 a7 bc f3 26 75 3d 22 bb 34 3d 62 d4 4c 3d
       -0.020477632 0.059851598 0.044123776 0.05000723
0001b0 a3 48 8d bb e7 d1 c3 3c 4c 8b aa bb 0f 43 a5 bc
       -0.0043116375 0.0239038 -0.0052045938 -0.020173578
0001c0 35 65 36 3d bc a7 3e bc 60 9d 09 3d ff a5 13 bc
       0.044530112 -0.011636671 0.03359735 -0.0090117445
0001d0 4c 08 75 bc 4a 7b 2d b9 b6 78 12 bd b9 7f 0a 3d
       -0.014955591 -0.00016544494 -0.03575965 0.033813212
0001e0 bc a9 a8 bc 6a 32 4a bd 4d 52 69 3d fe 12 8a bc
       -0.020588748 -0.049364485 0.056963254 -0.01685476
0001f0 64 0a 07 bd d7 e4 4f bc c0 6e 52 bc f2 7f cc 3d
       -0.032968894 -0.012688837 -0.012843788 0.09985341
000200 48 b1 02 3c 62 14 9a 3d 74 43 2f 3d 64 0c 7e 3b
       0.007976837 0.07523419 0.042788938 0.003876471
000210 85 ad cb 3c 27 1f 0a ba a2 6a 4c 3c 79 58 f0 bc
       0.024863014 -0.0005268924 0.012476595 -0.029339062
000220 82 53 72 3c 00 40 6a 3d 94 3a 3d bc 7a 12 4a 3d
       0.014790418 0.05718994 -0.011549611 0.049334027
000230 95 82 0e 3d 42 a1 d6 3a 0a 4b 50 bd e4 a3 bd 3c
       0.0347925 0.0016374963 -0.050852813 0.023149438
000240 1d 1b 85 bd 92 cd 3d 3d 52 9c 18 3b 28 55 ad 3d
       -0.06499312 0.046338625 0.0023286534 0.08463508
000250 3d 15 75 3d fe 72 10 bd 12 6a 15 bd 69 fe 7f bc
       0.059834708 -0.035265915 -0.03647811 -0.015624621
000260 a1 6f 29 bd 54 dd 86 bd 63 85 78 3c 12 07 a2 3d
       -0.041366223 -0.06585184 0.015168521 0.07911505
000270 14 37 85 bc 43 f2 83 bb 15 8d cb bc a6 08 61 3c
       -0.016261615 -0.0040266826 -0.024847547 0.013734972
000280 f4 97 b1 3d 72 c3 7b bc 0d 11 42 bd a6 6b 30 3a
       0.08671561 -0.015366422 -0.047379542 0.0006729908
000290 f0 28 9b 3c c1 bd af 3c 4e a7 b1 3c e8 13 7c 3d
       0.018940419 0.021452786 0.021686222 0.06154242
0002a0 ff 1a 8c 3d b2 95 0c bc 97 66 23 bd cf 82 ea 3c
       0.068410866 -0.008580612 -0.03989276 0.028626828
0002b0 8a b4 88 3d 3a cb 68 3d f0 6e a4 3c 32 47 c6 3c
       0.0667506 0.056834437 0.02007243 0.02420387
0002c0 68 66 bc bb f8 f6 5a 3d f5 9d 24 bc f4 c1 87 bd
       -0.0057495125 0.053458184 -0.0100474255 -0.066287905
0002d0 f2 2a b9 bc 80 d4 1f bb 39 bd be 3d 35 ca 57 3c
       -0.022603486 -0.0024388134 0.09313435 0.0131707685
0002e0 fc 04 ae 3d 75 e4 05 3d 80 e6 3d bd 74 16 40 bc
       0.084970444 0.032688577 -0.0463624 -0.011724103
0002f0 f2 f3 f9 bc e5 13 32 3d 32 2e 59 3d b0 a8 d9 3b
       -0.03051183 0.043476004 0.05302257 0.0066424236
000300 5e d4 88 bc df d7 38 3d 3b d9 1b bc d2 09 05 3d
       -0.016702827 0.045127746 -0.009512241 0.03248007
000310 a5 8d 18 3d ef 8b 94 bc 46 41 97 bd 20 75 91 3d
       0.037244458 -0.018133132 -0.07385497 0.07102418
000320 82 ad a0 3d 8a d4 e3 3c b7 b3 b2 3d 36 3e 73 bb
       0.07845594 0.027811307 0.08725684 -0.0037115938
000330 c1 b0 22 bd d9 28 8c 3d 60 0b 30 bd 0c a4 9c 3c
       -0.039719347 0.068437286 -0.042979598 0.019121192
000340 42 da a9 bd 2c 34 5f bb 05 ef 1b 3d e7 b2 0b 3d
       -0.082935825 -0.0034058196 0.038069744 0.03410616
000350 17 9c 5a 3d d9 57 ae 3d 87 72 4d 3d 98 07 bd bc
       0.053371515 0.08512849 0.05015805 -0.02307491
000360 0e 4d 00 3d 63 9f bd bc 4c 70 28 3a 12 c4 e9 3c
       0.031323485 -0.02314729 0.0006425425 0.028535876
000370 e0 6d 14 bd 15 a9 10 bc 65 e5 3a 3d 1b b4 24 bb
       -0.036237597 -0.008829375 0.045628924 -0.0025131765
000380 45 81 04 3d 30 e8 86 3d ea aa b0 3d 30 8f cc 3d
       0.032349844 0.06587255 0.08626349 0.09988248
000390 52 8e 00 3d f0 e5 fd bc c5 f4 66 3d 9c b6 dd bc
       0.031385727 -0.030993432 0.056385774 -0.027064614
0003a0 7c 4a 4a 3d 45 37 39 3c 50 cd a5 3d e8 b1 8e bc
       0.04938744 0.011304681 0.08095801 -0.017418817
0003b0 ae 45 fd 3c 4e 8f 11 bd f1 d1 57 bd 8a cd eb 3c
       0.030917015 -0.035537057 -0.05269045 0.028784532
0003c0 45 5e fc bb 03 eb 4d bd c1 cb 8f 3d 0c 91 c6 ba
       -0.0077016675 -0.050272953 0.07021285 -0.0015149429
0003d0 06 cd 52 3c e0 ae a1 3c 7c 56 18 bd 58 4a b1 3d
       0.012866264 0.019736707 -0.037191853 0.08656758
0003e0 63 bc 9f 3d d3 85 3f bb ce 02 26 bd a6 29 9e 3d
       0.07799604 -0.0029224053 -0.04053002 0.077227876
0003f0 47 2b 7c bb 31 5a ac bd c9 03 9d bc 9d c8 27 3c
       -0.0038477944 -0.0841564 -0.019166844 0.010240701

network.6.bias f4 [128]
000000 8d 94 eb bd 16 fa 65 3b a6 89 e7 bd 40 b7 9b bb
       -0.11502943 0.003509169 -0.11305551 -0.0047520697
000010 52 da 47 bd 48 cd b2 3d e8 df ac bd b9 33 3c bd
       -0.04879219 0.087305605 -0.08441144 -0.045947764
000020 65 d7 66 3c 14 37 84 bb fd 8a da 3a 1e 1b da bd
       0.01408944 -0.004034886 0.0016673502 -0.106497034
000030 c9 8d 6e 3b 06 e7 53 3d 30 6e 9b 3d 5b 97 bd 39
       0.0036400429 0.051733993 0.07589376 0.00036161658
000040 8d 5b 99 3d 3d fb 7b 3d fb c4 ee bd 58 1c db 3c
       0.07488165 0.061518896 -0.11658665 0.026746914
000050 3b 8f 1b be 40 90 8d bd c4 5b 98 3d 16 32 27 bc
       -0.15191357 -0.06912279 0.07439378 -0.0102048125
000060 ef 9c 3f bd e0 2a a6 bd fa 12 04 be a4 59 b8 bd
       -0.046780523 -0.081136465 -0.12897864 -0.090014726
000070 f5 cf 2c 3d 94 ac 14 bd 57 cb b5 bd 23 a1 c8 bd
       0.04219051 -0.036297396 -0.088766746 -0.097963594
000080 27 53 36 3c b0 ee 44 bc b4 ac 2b 3c 1c 9b 9d bc
       0.0111282235 -0.012019798 0.010478187 -0.019239001
000090 7e 2a ad bd 43 c8 2f 3d 61 9e a8 3d 92 0d 06 bd
       -0.0845537 0.042915594 0.082333334 -0.032727785
0000a0 56 a6 f8 bd f8 38 a5 bd dd 55 b6 bc ab 12 c3 bb
       -0.12141101 -0.080675066 -0.02225774 -0.005953153
0000b0 0f a8 db bd 4d cf ef bc 15 e8 5e bd c7 da 53 bd
       -0.10725414 -0.029273653 -0.05442055 -0.051722314
0000c0 69 e7 96 3d 74 78 1c 3c 1d 9a db bc 08 57 14 bb
       0.07368357 0.009550203 -0.026806885 -0.0022634882
0000d0 77 c4 9e 3d ae fb 37 3d 8a 17 eb bd dc 03 90 bd
       0.077523164 0.044917755 -0.11479099 -0.07031986
0000e0 49 28 46 bd b7 b1 9c bd 03 2f 42 bd 25 1c f5 bd
       -0.048378263 -0.07651084 -0.047408115 -0.11968259
0000f0 c4 69 bb bc 83 52 33 bd 84 9c 00 be 9f d6 d5 bc
       -0.022877581 -0.04377986 -0.12559706 -0.026103316
000100 10 46 5c bd 97 76 9b bd 1c fe a2 3c 9d fb 9c bd
       -0.053777754 -0.075909786 0.01989656 -0.07665179
000110 c3 5a c2 bd 59 f4 4e bd d3 25 36 3d c8 30 a4 bd
       -0.09489968 -0.050525997 0.044469666 -0.08017117
000120 e7 d2 b9 3d 00 78 53 bd cc 1f 8a 3d b8 fe 4a bd
       0.090734296 -0.051628113 0.06744346 -0.049559325
000130 94 cf 88 3d 5c b9 9c bc 08 33 47 3d 6b f4 c6 bd
       0.066802174 -0.019131355 0.04863265 -0.09714588
000140 fa 34 a4 bd 1a 75 78 3d df eb 8c 3c 0b 21 cd bc
       -0.08017917 0.06065855 0.017202316 -0.02504017
000150 4f d8 88 3c ea 47 94 bc 49 fe 7a bd cb 23 ab 3c
       0.016704706 -0.018100698 -0.06127766 0.02089109
000160 1e d1 a3 bd 34 fd 0d be 34 25 b0 3c 0f f9 0f 3d
       -0.0799887 -0.1386612 0.021502115 0.03514963
000170 6d 8c a3 ba 8d ff 50 3d fe aa ea bd 9b 3d 62 3d
       -0.0012477763 0.051024962 -0.114583954 0.055234533
000180 3a 52 a4 bd 02 e1 d2 bc 2d 47 fb 3c 20 20 de bc
       -0.08023496 -0.025742058 0.030673588 -0.027114928
000190 a9 65 36 bd 3d de 11 3d 2e 9e 6c bc b4 12 10 be
       -0.044530544 0.035612334 -0.01444201 -0.14069635
0001a0 d2 48 ab 3b fe 66 63 3d 8a 3d 70 bc 25 f2 84 bd
       0.0052271867 0.055518143 -0.01466311 -0.06491498
0001b0 da 56 c8 bd dc 3a ef bd 41 61 f6 3c 3e 04 fb bc
       -0.097821906 -0.116811484 0.030075671 -0.030641671
0001c0 b9 15 13 3d 17 69 9d 3d 90 27 91 3b ff 40 92 3d
       0.03590939 0.0768606 0.004429765 0.07141303
0001d0 d0 05 ea bd 69 82 89 3d 4d bf c4 3d 42 c4 b3 bd
       -0.1142689 0.06714327 0.096068 -0.087776676
0001e0 98 24 45 bd 02 d7 5b bd 35 a3 fc bd d3 3d f9 bd
       -0.0481306 -0.053671844 -0.12335817 -0.12169995
0001f0 54 4f fb bd 72 fd 13 bb 46 9e a2 bd fa cb 8f 3d
       -0.1227099 -0.0022581485 -0.079403445 0.07021327

network.9.weight f4 [1, 128]
000000 0c ec b5 3d 52 6e b7 bd 7f d7 14 3e 30 4e 8b bd
       0.08882913 -0.08956589 0.1453533 -0.068020225
000010 92 e8 98 3d 09 2b c9 bc 49 d8 96 3d b8 d7 f3 3d
       0.07466234 -0.024556654 0.07365472 0.119063795
000020 c4 09 f7 bd 16 ed 63 bd be f0 96 bd e9 26 97 3d
       -0.120624095 -0.055646025 -0.07370137 0.073804684
000030 d0 50 9c bd 12 63 31 bd 65 53 3c bd 55 29 fb bc
       -0.07632601 -0.04330737 -0.04597797 -0.030659357
000040 4d d2 a7 bd 68 54 06 bd 12 68 e1 3d 87 3d 8f bd
       -0.081944086 -0.03279534 0.11006178 -0.06994157
000050 0e 11 b0 3d 2b 4e 6a 3d f0 1f 30 bd ad 57 a0 bd
       0.08597003 0.057203453 -0.042999208 -0.07829223
000060 6e 5f f2 3d cc 33 83 3d 11 1d 00 3e a1 9f c7 3d
       0.11834608 0.06406364 0.12511088 0.09747244
000070 63 ab cb bd 03 fe 02 3e 25 26 db 3d 41 40 78 3d
       -0.09944799 0.1279221 0.10700635 0.060608152
000080 81 03 6e bd d2 dd c3 bd 54 52 2f bd 47 cf a8 3d
       -0.05810881 -0.09563793 -0.042803124 0.0824266
000090 5a e5 cb 3d 4f 84 1c bd 88 1e 47 bd df 52 83 bd
       0.09955855 -0.038212117 -0.0486131 -0.06412291
0000a0 01 46 18 3e 4a 21 8f 3d 8a ee 05 3e 86 35 c2 3d
       0.14870454 0.06988771 0.13079277 0.09482865
0000b0 31 55 0e 3e ae 1c 9f bd e6 e2 b1 3d e9 69 c1 3d
       0.13899685 -0.07769142 0.086858556 0.09444029
0000c0 36 9e 7a bd 66 42 61 bd 78 ae a5 3d 6c 5e a6 3d
       -0.061186038 -0.054994963 0.08089918 0.08123478
0000d0 82 15 7b bd 27 8c 84 bd c9 bb a0 3d 9d 01 12 3e
       -0.06129981 -0.064720444 0.07848317 0.14258428
0000e0 5a de 8f 3d bd 9c d4 3d 3f 95 07 3e 6b aa 00 3e
       0.07024832 0.10381458 0.13240527 0.1256501
0000f0 99 41 ae bd d8 da 00 3e de fe ac 3d 3f c9 4e 3d
       -0.085086055 0.12583482 0.084470496 0.050484892
000100 d6 72 18 3e e3 10 1b 3e 15 82 44 bd da 07 d5 3d
       0.14887556 0.1514316 -0.04797562 0.10401888
000110 35 ff f0 3d 8e cf dc 3d f8 d7 65 bd f3 65 11 3e
       0.11767427 0.107817754 -0.056114167 0.14199047
000120 e4 bd 13 bd 96 a8 fd 3d 06 82 93 bd 39 32 04 bd
       -0.036069766 0.12385671 -0.072025344 -0.03227446
000130 92 75 c6 bd 0a ae 1a 3d 3b dd 88 bc ee 6c c8 3d
       -0.096903935 0.037763633 -0.016707053 0.09786402
000140 52 fa 14 3e fe 56 1e bd 8a ef bc bd 60 6e 54 bd
       0.14548615 -0.03865718 -0.09225376 -0.051863074
000150 1e 4c c9 bd 03 a9 a5 bd 80 46 b6 3d aa 54 9b bd
       -0.09828971 -0.08088877 0.089001656 -0.07584508
000160 35 1b 25 3e 0a 73 9b 3d 3b d2 1f bd 9f 92 03 bd
       0.1612366 0.07590301 -0.03901885 -0.03212225
000170 1d 42 a2 bd c6 a1 c8 bd fc 84 fc 3d ef bd c4 bd
       -0.07922766 -0.09796481 0.12330052 -0.096065395
000180 af 52 c0 3d a0 c0 57 3d bd 95 5e bd 79 3d af 3d
       0.09390771 0.052673936 -0.05434202 0.08556647
000190 41 26 0a 3d 58 8e 38 3e 53 08 c1 3d f8 b9 bf 3d
       0.033727888 0.1802305 0.09425416 0.093616426
0001a0 7d 0a 5a bd b3 0c 84 bd d9 61 9e 3d 13 e5 cd 3d
       -0.05323266 -0.06447735 0.07733507 0.10053458
0001b0 62 a0 02 3e e9 1d c8 3d d3 9f 67 bd 68 81 c1 3d
       0.12756494 0.0977133 -0.056548905 0.094485104
0001c0 e1 73 ea bd 1c 1a 70 bd 16 a7 fc bd e3 d8 5e bd
       -0.114478834 -0.05861865 -0.123365566 -0.054406058
0001d0 ce a9 c1 3d 80 91 a2 bd b4 c2 15 be 0c 09 15 3e
       0.09456216 -0.07937908 -0.14625055 0.14554232
0001e0 ea 9d bc 3c 8b 95 63 3d a7 ed 18 3e ab 1e b2 3d
       0.023024518 0.055562537 0.14934407 0.08697256
0001f0 5b 26 b0 3d 35 3a eb 3c 71 49 82 3d d0 2a dd bc
       0.08601066 0.028714279 0.06361664 -0.026997954
