models/epoch_10/generator.pth (torch, 485191 bytes, 20 tensors)

network.0.weight f4 [128, 100]
0	0xbda6f5ac	-0.08152327
1	0x3cda891b	0.026676705
2	0x3d85583f	0.06510972
3	0xbcb1f2d8	-0.021722242
4	0xbd7d94bd	-0.061909426
5	0x3d259c9c	0.040432557
6	0xbd606f98	-0.054793924
7	0xbd682775	-0.056678254
8	0xbcdbb2e8	-0.026818708
9	0xbc39790d	-0.011320365
10	0xbd74eeea	-0.05979816
11	0xbd422764	-0.047400847
12	0xbdacceb8	-0.08437866
13	0x3d24fd48	0.04028061
14	0xbd26a95d	-0.04068886
15	0xbc78fec3	-0.015197459
16	0xbda2ca25	-0.07948712
17	0xbd8ea43b	-0.06964918
18	0x3ccf7f7a	0.02532934
19	0xbd9d36ad	-0.07676444
20	0xbdb1088d	-0.08644209
21	0xbd76f124	-0.060288563
22	0x3c7aac79	0.01529991
23	0xbdaee448	-0.08539635
24	0x3d16858b	0.03674845
25	0xbd0977db	-0.03356157
26	0xbd892aff	-0.06697654
27	0xbdd521f3	-0.10406866
28	0x3b855a1d	0.00406958
29	0xbdaa0e7b	-0.08303543
30	0xbd639bcf	-0.055568513
31	0xbbadb6a8	-0.0053013153
32	0xbc173d58	-0.009230934
33	0x3dc2ffd5	0.09521452
34	0xbd672924	-0.05643572
35	0xbd064f6e	-0.032790594
36	0xbd80432a	-0.062628105
37	0xbbb1cc99	-0.0054260013
38	0xbd0db284	-0.034594074
39	0xbdae9fb2	-0.08526553
40	0x3da12a7e	0.07869433
41	0x3da4d955	0.08049265
42	0xbdb7c01c	-0.08972189
43	0xbc32808c	-0.010894906
44	0x3cd7ba65	0.026333997
45	0x3d90cf18	0.0707075
46	0x3da7081e	0.08155845
47	0x3b51ddf4	0.0032023164
48	0xbb205958	-0.0024467316
49	0x3d9dabb8	0.076987684
50	0xbc6c74f3	-0.01443218
51	0xbc9940de	-0.018707689
52	0xbd6b9677	-0.05751654
53	0xbdb68279	-0.089116044
54	0xbda922cd	-0.08258591
55	0x3d5dc02b	0.054138344
56	0xbd24737d	-0.0401492
57	0x3d74d9ff	0.05977821
58	0xbd86ee78	-0.06588453
59	0x3d9a42b2	0.07532252
60	0xbd044ad2	-0.032297917
61	0xbd3b3eae	-0.045714073
62	0xbd028696	-0.031866632
63	0x3ba58268	0.005050946
64	0xbd15d432	-0.03657932
65	0x3cc7920e	0.024361636
66	0x3d94f6b5	0.07273618
67	0x3d9b3d77	0.07580083
68	0x3a127088	0.00055862265
69	0x3d890ec3	0.06692269
70	0xbdcfd634	-0.10148278
71	0xbbc697ec	-0.006060591
72	0x3d766a52	0.06015999
73	0xbd93c21b	-0.07214757
74	0x3b811deb	0.003940334
75	0x3de31f4a	0.11089952
76	0xbd624b27	-0.055247452
77	0x3d49c5ef	0.04926103
78	0x3d2b9aa5	0.041895527
79	0x3d9933ef	0.07480609
80	0xbd1a0c2c	-0.037609264
81	0x3db499cf	0.08818399
82	0xbd6829a3	-0.056680333
83	0xbc8f9569	-0.017527299
84	0xbdc2e8b9	-0.095170446
85	0x3d88ce20	0.0667994
86	0xbcca74b5	-0.024713853
87	0x3dddf439	0.108375974
88	0x3c2c9238	0.010532908
89	0xbaeeaf78	-0.0018210253
90	0xbd7e7e55	-0.0621322
91	0x3ddd463c	0.10804412
92	0xbbb3a07c	-0.0054817777
93	0x3d2102ac	0.03930919
94	0x3ce37776	0.027766924
95	0xbc11a09d	-0.008888391
96	0xbc6bb397	-0.014386079
97	0xbdc4016e	-0.09570585
98	0x3d670450	0.056400597
99	0x3d8b9bee	0.068168506
100	0x3d5ce6ab	0.05393092
101	0xbd668c3e	-0.05628609
102	0xbd4d5c07	-0.050136592
103	0xbd5d5096	-0.05403193
104	0x3b88cd4f	0.0041748653
105	0xbd7c8a05	-0.061655063
106	0x3d0922a4	0.0334803
107	0xbdb88e5b	-0.09011527
108	0x3c8a5361	0.016885461
109	0x3d38184e	0.044945054
110	0x3dbdce4e	0.09267865
111	0xbd803107	-0.06259351
112	0x3d835460	0.06412578
113	0x3da42608	0.080150664
114	0xbcc1126f	-0.02356836
115	0xbd02f4d1	-0.031971756
116	0xbd9c5767	-0.07633858
117	0x3da4349c	0.08017847
118	0x3d307617	0.04308137
119	0x3cc7c8e0	0.024387777
120	0xbca60eec	-0.020270787
121	0xbd7cc6e8	-0.06171313
122	0xbd312a53	-0.043253254
123	0xbd5f2e9e	-0.054487817
124	0x3c8a9a7b	0.016919365
125	0x3c3e96f0	0.011632666
126	0xbd3be164	-0.045869246
127	0x3d338f4d	0.043837834
128	0x3d88a830	0.06672704
129	0x3dbca3fa	0.092109635
130	0x3dbb132b	0.091345154
131	0xbd7bd79a	-0.06148491
132	0x3dbc259d	0.09186862
133	0x3d866059	0.065613456
134	0xbc2ef38b	-0.010678182
135	0x3d8fd790	0.07023537
136	0xbd77f6ca	-0.06053809
137	0x3c581bfc	0.013190266
138	0x3d6de1ae	0.058076553
139	0xbc5338c4	-0.012891952
140	0x3cb89f6d	0.022536958
141	0xbdca90c9	-0.09890897
142	0xbc3b51ab	-0.011433045
143	0xbcd1b147	-0.025597228
144	0x3d9a8bd6	0.07546203
145	0xbddbc71a	-0.10731335
146	0x3b606268	0.0034238342
147	0xbd7f340c	-0.062305495
148	0x3da3c6aa	0.079968765
149	0x3d743188	0.05961755
150	0x3da89066	0.08230667
151	0xbd0b27a2	-0.033973344
152	0x3daf07b4	0.08546391
153	0xbd66c60f	-0.056341227
154	0x3d8b646c	0.06806263
155	0x3d66ca36	0.056345187
156	0xbd91c4ca	-0.07117613
157	0x3da80f96	0.08206098
158	0xb9d42213	-0.00040461178
159	0x3d4ce1c9	0.050020013
160	0xbd8f38c2	-0.069932476
161	0xbbce8f6f	-0.0063037197
162	0xbd8a8f5e	-0.06765626
163	0xbc30cc06	-0.0107908305
164	0xbcbde78d	-0.023181701
165	0xbdaac8d6	-0.08339088
166	0x3c8b9b5b	0.017041853
167	0xbd02b744	-0.031913057
168	0x3d6f669f	0.058447476
169	0x3d74c518	0.059758276
170	0x3db45baa	0.08806546
171	0xbda5dc1a	-0.08098622
172	0xbd2aaaa6	-0.04166665
173	0x3d9ce544	0.076609164
174	0xbabcce6e	-0.0014404783
175	0x3d52462a	0.051336445
176	0x3d9b5b28	0.07585746
177	0xbd6603ea	-0.056156076
178	0x3d7e4d59	0.062085483
179	0xbd317566	-0.04332485
180	0x3d4d475d	0.050116885
181	0xbbf98149	-0.007614289
182	0x3db82afe	0.08992575
183	0xbd05291b	-0.032509904
184	0xbd3b7839	-0.04576895
185	0xbd9dd3f9	-0.07706446
186	0xbcac9950	-0.021069199
187	0x3d823f59	0.06359739
188	0xbda33110	-0.07968342
189	0xbdd2fa55	-0.10301653
190	0xbd3212f1	-0.043475095
191	0x3d85307f	0.065033905
192	0xbd8e85f3	-0.069591425
193	0x3d3e3ab7	0.046442714
194	0xbdde266d	-0.10847173
195	0xbcb60b53	-0.022222197
196	0xbc34d511	-0.011037127
197	0x3df13014	0.11776748
198	0x3cc68d77	0.024237378
199	0xbc74b238	-0.014935069
200	0x3c362de0	0.011119336
201	0x3d853fca	0.065063074
202	0xbbc0ef79	-0.0058879224
203	0xbd4c806a	-0.049927153
204	0xbdc4f5b9	-0.096171804
205	0x3b48a6ef	0.0030617078
206	0x3d35e41b	0.04440699
207	0x3dac6355	0.084173836
208	0xbd9ef2c5	-0.07761148
209	0x3b2cd6b5	0.0026373093
210	0xbd8f4c98	-0.06997031
211	0x3cf618b6	0.03004108
212	0x3db53f2b	0.08849939
213	0x3dc27219	0.09494419
214	0x3cd46c0a	0.025930423
215	0x3d758325	0.059939522
216	0x3d2d7e5c	0.042356834
217	0xbdb23915	-0.08702294
218	0x3c48335a	0.012219274
219	0x3bb80e56	0.0056169434
220	0xbd94b71d	-0.072614886
221	0xba699552	-0.0008910495
222	0xbd947a3c	-0.07249877
223	0x3d340ce1	0.043957595
224	0x3d6c3169	0.05766431
225	0xbd927dcd	-0.07152901
226	0xbdefac70	-0.11702812
227	0xbdae89e8	-0.08522397
228	0x3d903101	0.07040597
229	0x3b3cab2f	0.0028788557
230	0x3d8d03a2	0.068854585
231	0xbd2cfc7d	-0.04223298
232	0x3d927a20	0.071522
233	0xbc7a40f7	-0.015274278
234	0xbdc332d8	-0.09531182
235	0x3d036502	0.03207875
236	0x3cf3f0da	0.029777933
237	0xbd4f7bd4	-0.0506552
238	0xbdbc9444	-0.09207967
239	0x3d03a527	0.032139923
240	0x3d7edbc6	0.06222131
241	0xbb9dfe67	-0.004821587
242	0xbbac15e0	-0.005251631
243	0xbd9b8f34	-0.07595673
244	0x3c4334de	0.01191446
245	0xbda10069	-0.07861406
246	0xbdd528a6	-0.10408144
247	0x3ddea1e4	0.10870722
248	0x3cc1930d	0.02362969
249	0xbb1ff31b	-0.0024406377
250	0xbcc605ca	-0.024172682
251	0xbda272a9	-0.07932026
252	0xbd1d35e4	-0.038381472
253	0x3d141b48	0.03615883
254	0x3d7e7fc9	0.062133584
255	0x3dcae290	0.099064946

network.0.bias f4 [128]
0	0xbda0b539	-0.078470655
1	0x3dc990f0	0.09842098
2	0x3db01645	0.085979976
3	0x3c9af7c1	0.018916966
4	0x3d929e8c	0.07159147
5	0x3ce221b8	0.027603969
6	0x3dd00061	0.10156322
7	0x3dbfeef7	0.09371751
8	0xbbac0e04	-0.005250694
9	0x3da3e240	0.08002138
10	0xbda9bbdd	-0.08287785
11	0xbbfdd4da	-0.007746321
12	0x3d7fa9d4	0.06241782
13	0x3dc462ed	0.09589181
14	0x3ca7424a	0.020417351
15	0x3d7ca60a	0.061681785
16	0xbd60104f	-0.054703053
17	0xbca566bb	-0.020190587
18	0xbd911c1f	-0.07085442
19	0x3da3761c	0.07981512
20	0x3be39a68	0.006945897
21	0xbda310a2	-0.07962157
22	0x3ca144e9	0.01968618
23	0xbdcea8f4	-0.10090819
24	0x3cc25530	0.023722261
25	0xbd3fb7a5	-0.046805996
26	0xbd731639	-0.059347365
27	0xbca3537c	-0.01993727
28	0xbd25af6f	-0.04045051
29	0xbd0acd9e	-0.033887498
30	0x3d0d5bfa	0.034511544
31	0xbd9fb7fe	-0.077987656
32	0xbd6b7ca3	-0.05749191
33	0x3da12430	0.0786823
34	0x3c956e03	0.018240934
35	0x3dc41c43	0.09575703
36	0xbc74f646	-0.014951294
37	0x3c78c8c4	0.015184585
38	0x3dc0d6b6	0.09415953
39	0xbda53411	-0.080665715
40	0x3ccfa276	0.025346022
41	0xbd3fe7ac	-0.0468518
42	0xbda287dc	-0.07936069
43	0x3ce39467	0.027780725
44	0x3bdb09fb	0.0066845394
45	0x3bd5d2a1	0.006525353
46	0x3be7377e	0.0070561757
47	0x3c4b50e6	0.012409424
48	0xbd68bb2a	-0.05681912
49	0x3ce82db1	0.0283421
50	0x3db0051a	0.08594723
51	0x3dbab8ff	0.091173165
52	0x3db6eb2e	0.08931576
53	0xbd9c42ca	-0.076299265
54	0x3d51413a	0.051087596
55	0xbc5d71a9	-0.013515868
56	0xbcc3399d	-0.023831183
57	0xbc24f8ef	-0.010069116
58	0x3c411467	0.011784649
59	0x3c4cb97d	0.012495396
60	0x3db83d1e	0.08996032
61	0xbd3d9050	-0.046280205
62	0xbc767126	-0.015041625
63	0xbda3f970	-0.08006561
64	0x3c2f3b4c	0.01069529
65	0xbd865964	-0.06560019
66	0xbd4f2f1e	-0.050582044
67	0xbcba9d22	-0.022780005
68	0xbda8a411	-0.08234418
69	0x3c80a49c	0.015703492
70	0x3d4ad7d4	0.049522236
71	0xbc44d367	-0.012013293
72	0x3d1ea6d0	0.038733304
73	0xbd27d384	-0.0409732
74	0x3cddf072	0.027092192
75	0xbcda4c72	-0.02664778
76	0x3d2a909c	0.041641816
77	0xbd2b9916	-0.04189404
78	0xbdb22ae0	-0.08699584
79	0xbd829dc2	-0.06377746
80	0xbdac5ca9	-0.08416111
81	0x3d955dd1	0.07293285
82	0x399c4a8d	0.00029810183
83	0xbd8ff509	-0.070291586
84	0x3de7c204	0.113163024
85	0x3c8ed33f	0.017434714
86	0x3da3e9e8	0.080035985
87	0xbd2e2797	-0.042518225
88	0xbcabc35e	-0.020967182
89	0xba88fcb0	-0.0010451283
90	0xbd44f436	-0.04808446
91	0x3c25cdd6	0.010119876
92	0x3ca5d194	0.020241536
93	0xbd69e13a	-0.05709956
94	0xbd9261cb	-0.07147559
95	0xbb01032f	-0.0019685735
96	0xbce26902	-0.027637962
97	0xbca178d5	-0.019710938
98	0xbd53dc37	-0.051723685
99	0x3d8319c6	0.064014
100	0x3b92c4b0	0.0044790134
101	0xba3da89d	-0.0007234903
102	0xbd2d52de	-0.042315356
103	0xbce8cb99	-0.028417395
104	0xbd17b0fd	-0.037034024
105	0x3d8e4e1a	0.069484904
106	0xbd66f38d	-0.056384612
107	0xbd130ae5	-0.03589906
108	0xbcd08d8d	-0.025458122
109	0xbd7bf83b	-0.061516028
110	0x3b34309b	0.0027494791
111	0xbd06703f	-0.03282189
112	0xbcfc2355	-0.030778566
113	0xbda18823	-0.07887294
114	0xbd9af8e5	-0.07567004
115	0x3dacb39a	0.08432694
116	0xbd30c54b	-0.043156903
117	0x3cc47988	0.023983732
118	0x3dc36f74	0.09542742
119	0xba41af6a	-0.00073885045
120	0x3d537f4b	0.051635068
121	0xbd4fc8d0	-0.05072862
122	0xbd914bfb	-0.0709457
123	0x3d8a111a	0.06741543
124	0x3da1a96e	0.07893644
125	0x3dd07bff	0.101799004
126	0x3ce5877a	0.028018702
127	0xbd317a2d	-0.043329407

network.2.weight f4 [128]
0	0x3f806415	1.0030543
1	0x3f7f534e	0.9973649
2	0x3f80e871	1.0070935
3	0x3f821207	1.0161752
4	0x3f793aa4	0.97355103
5	0x3f80fc27	1.0076951
6	0x3f813520	1.0094337
7	0x3f8181a9	1.0117694
8	0x3f78bc69	0.9716249
9	0x3f835975	1.0261675
10	0x3f785f1a	0.97020113
11	0x3f802bd4	1.0013375
12	0x3f8202df	1.0157126
13	0x3f833b58	1.0252485
14	0x3f81781d	1.0114781
15	0x3f7ebc1e	0.99505794
16	0x3f802ad5	1.0013071
17	0x3f8205a7	1.0157975
18	0x3f809eb3	1.0048431
19	0x3f816fa5	1.0112196
20	0x3f803c59	1.0018417
21	0x3f7e15f1	0.9925223
22	0x3f7acb15	0.9796613
23	0x3f7ff248	0.99979067
24	0x3f8325fc	1.0245967
25	0x3f8202a4	1.0157056
26	0x3f7cfe00	0.98825073
27	0x3f827e91	1.0194875
28	0x3f7d68d5	0.98988086
29	0x3f7f02ee	0.99613845
30	0x3f7a3142	0.9773141
31	0x3f786d3e	0.9704169
32	0x3f8197bd	1.0124432
33	0x3f7bfab3	0.9842941
34	0x3f7fe585	0.99959594
35	0x3f81f50c	1.0152907
36	0x3f81e63a	1.0148385
37	0x3f848510	1.0353107
38	0x3f81a909	1.012971
39	0x3f7b8113	0.98243827
40	0x3f77ba6d	0.9676884
41	0x3f7c56d5	0.98569995
42	0x3f7afeaf	0.98044866
43	0x3f7d9218	0.99051046
44	0x3f821642	1.0163043
45	0x3f7ca4a1	0.98688704
46	0x3f7f2962	0.9967252
47	0x3f827a0c	1.0193496
48	0x3f7e9cf7	0.9945826
49	0x3f7bea0f	0.9840402
50	0x3f7cc019	0.9873062
51	0x3f804c10	1.0023212
52	0x3f7cbc80	0.9872513
53	0x3f7a11cb	0.976834
54	0x3f81882b	1.011968
55	0x3f808bc1	1.004265
56	0x3f80042a	1.0001271
57	0x3f8143d6	1.0098827
58	0x3f81d93b	1.0144418
59	0x3f7b6594	0.9820187
60	0x3f817cdb	1.0116228
61	0x3f7a5347	0.9778332
62	0x3f8311c2	1.0239794
63	0x3f7695ca	0.9632231
64	0x3f7f5324	0.9973624
65	0x3f7b2d17	0.98115677
66	0x3f7f5ddc	0.99752593
67	0x3f7cb557	0.987142
68	0x3f830ebb	1.023887
69	0x3f7e76af	0.99399847
70	0x3f806073	1.0029434
71	0x3f8184b8	1.0118628
72	0x3f81ae78	1.0131369
73	0x3f8197ee	1.012449
74	0x3f7d4ab4	0.9894211
75	0x3f803719	1.0016814
76	0x3f80a90a	1.0051587
77	0x3f7fe242	0.9995462
78	0x3f81fcd0	1.0155277
79	0x3f7d8c33	0.9904205
80	0x3f7f4212	0.9971019
81	0x3f80d7ca	1.0065854
82	0x3f7d3ac8	0.9891782
83	0x3f7ff30c	0.99980235
84	0x3f7e98aa	0.99451697
85	0x3f7bbc57	0.9833426
86	0x3f82e6be	1.0226667
87	0x3f7d265c	0.98886657
88	0x3f7e8ebf	0.99436563
89	0x3f828ea5	1.0199782
90	0x3f788228	0.970736
91	0x3f7d2119	0.9887863
92	0x3f7e0134	0.99220586
93	0x3f803fc0	1.0019455
94	0x3f7b3928	0.9813409
95	0x3f7d9af0	0.9906454
96	0x3f7f5bd5	0.997495
97	0x3f8472e7	1.0347565
98	0x3f813fca	1.0097592
99	0x3f7de7ac	0.9918163
100	0x3f7c670c	0.9859474
101	0x3f80d751	1.0065709
102	0x3f7e07cc	0.9923065
103	0x3f7f7ba1	0.9979802
104	0x3f787001	0.97045904
105	0x3f8212c3	1.0161976
106	0x3f7fc18e	0.99904716
107	0x3f7e0af7	0.9923548
108	0x3f7cff79	0.9882732
109	0x3f816a06	1.0110481
110	0x3f81fc8f	1.01552
111	0x3f814099	1.0097839
112	0x3f7f9c19	0.9984756
113	0x3f7c5008	0.9855962
114	0x3f7fc983	0.9991686
115	0x3f7f7764	0.9979155
116	0x3f8280c9	1.0195552
117	0x3f7d6fc7	0.98998684
118	0x3f8171b0	1.011282
119	0x3f8387a1	1.0275766
120	0x3f8103a7	1.007924
121	0x3f7f31e2	0.9968549
122	0x3f805581	1.0026094
123	0x3f80666c	1.0031257
124	0x3f7f5e2d	0.99753076
125	0x3f808885	1.0041662
126	0x3f8072d8	1.0035048
127	0x3f80c2cc	1.0059447

network.2.bias f4 [128]
0	0x3bf23c50	0.0073924437
1	0x3bc981cd	0.0061495067
2	0xbc04db6b	-0.008108954
3	0x3b7fbf10	0.0039023794
4	0xbc3e773b	-0.011625106
5	0x3c960880	0.0183146
6	0xbc2d53de	-0.0105790775
7	0xbc16c6af	-0.009202643
8	0x3be69db0	0.007037841
9	0xbc12f66b	-0.008969883
10	0x3ce49706	0.027904045
11	0x3c7e536d	0.01552282
12	0xba916872	-0.0011093749
13	0xbadbee9c	-0.0016779485
14	0x3cd13028	0.025535658
15	0x3cce43d1	0.025178822
16	0x3c58e294	0.013237614
17	0x3c074701	0.008256675
18	0xbd15dfbb	-0.03659032
19	0x3c8158fa	0.015789498
20	0xbc53b903	-0.012922528
21	0xbb1c6070	-0.0023861192
22	0x3c57a3a4	0.013161574
23	0xbb898fd8	-0.0041980557
24	0xbc3a95f8	-0.011388294
25	0x3c23c652	0.009996014
26	0xbd1c8cdc	-0.03822027
27	0x3b9f28eb	0.0048571727
28	0x3bdccac8	0.0067380406
29	0x3a0e47fe	0.0005427598
30	0x3c7200c8	0.014770694
31	0x3c07508c	0.00825895
32	0x3c2d0c97	0.010562084
33	0xbca0b373	-0.019616818
34	0xbcacf4a6	-0.021112751
35	0xbbb2024e	-0.0054324036
36	0xbca75987	-0.020428432
37	0xbc6e2c7b	-0.014536972
38	0x3c7ef2b5	0.015560796
39	0xbcaf529a	-0.021401692
40	0x3ba17654	0.004927436
41	0xbc4cecfa	-0.0125076715
42	0xbae4448c	-0.0017415448
43	0x3cb93f45	0.022613177
44	0x3c3477f1	0.011014924
45	0xbb6a14da	-0.0035717995
46	0x3b6c7575	0.0036080752
47	0x3c5651d0	0.013081029
48	0x3b1c1b1c	0.002381987
49	0x3b048805	0.0020222676
50	0xbc6e09ac	-0.014528673
51	0xbc634f3f	-0.013873874
52	0x3c323933	0.010877895
53	0xbbdcc893	-0.0067377775
54	0xbbd1bb6c	-0.0064005163
55	0xbd247f80	-0.040160656
56	0x3ca62cfc	0.020285122
57	0x3c608b06	0.013705021
58	0x3b2e08ba	0.0026555494
59	0xbbeff147	-0.0073224637
60	0x3c94c2e5	0.01815934
61	0xba2eb663	-0.0006664751
62	0xbc34fd26	-0.011046683
63	0x3ca74b90	0.020421773
64	0xbce19104	-0.02753497
65	0x3c2976c4	0.010343257
66	0xbc7d0dc8	-0.01544518
67	0x3c9c1c6f	0.019056527
68	0x3cce871d	0.025210911
69	0xbc537a5d	-0.012907592
70	0x3c1f89b6	0.009737423
71	0x3c14d2da	0.009083474
72	0x3afdcfe3	0.0019364323
73	0xbd3a3f6c	-0.04547064
74	0x3d0ff950	0.035149872
75	0x3d3f60c7	0.046723153
76	0x3cf10555	0.029421488
77	0x3c81b6bc	0.015834205
78	0xbb78341f	-0.0037872863
79	0xbc2907e4	-0.010316823
80	0xbc88167c	-0.016612284
81	0xbd2b709e	-0.041855447
82	0xba116dfd	-0.00055477006
83	0xbca732d8	-0.020409986
84	0x3c38bf23	0.011276039
85	0x3d16410f	0.03668314
86	0xbc1b90aa	-0.00949494
87	0xbb76fa45	-0.0037685793
88	0xbc7e004d	-0.015503001
89	0x3b9821c3	0.0046426966
90	0xbcb7d3d1	-0.02243987
91	0xbd0346a7	-0.0320498
92	0x3bbf411d	0.0058366195
93	0xbbfadf6b	-0.007656028
94	0x3cb86f05	0.022513876
95	0x3a9103a6	0.0011063709
96	0x3c0b5b33	0.00850563
97	0xbbfdb633	-0.007742667
98	0xbcbbe8b1	-0.022938104
99	0x3b52415f	0.0032082421
100	0x3cafda2b	0.021466335
101	0x38ca1262	9.635535e-05
102	0xbbe7baff	-0.007071852
103	0xbcb2a408	-0.021806732
104	0xbc02c1f4	-0.007980812
105	0xbc238eb1	-0.009982751
106	0xbb80b750	-0.0039281026
107	0xbb645efb	-0.0034846652
108	0xbb1e9d9f	-0.0024202836
109	0x3c87656e	0.016527858
110	0xbc8e154a	-0.017344136
111	0xbd0f3186	-0.03495934
112	0x3c52b85d	0.012861338
113	0xbc05b825	-0.008161579
114	0x3a4a7179	0.0007722597
115	0x3c7f59f4	0.015585411
116	0xbbb6fe2f	-0.0055845003
117	0x3ab81b02	0.0014046135
118	0x3cda3e5a	0.02664106
119	0xbc49f677	-0.012326828
120	0x3b750f59	0.003739318
121	0x3c0cdd9b	0.008597757
122	0x3a216dc7	0.00061580207
123	0xbbe93063	-0.007116364
124	0xbc8e26d6	-0.017352503
125	0x3c5008c4	0.012697402
126	0xbb2b1534	-0.0026105167
127	0xbd3b0f77	-0.045669045

network.2.running_mean f4 [128]
0	0x3e084bd8	0.13310182
1	0x3e7cbe10	0.24681878
2	0x3e6a17bd	0.22860618
3	0x3e64f336	0.22358403
4	0x3e69ce9e	0.22832724
5	0x3e5459aa	0.20737329
6	0x3e7aca9e	0.24491355
7	0x3e7cd994	0.24692374
8	0x3e248efb	0.16070168
9	0x3e58b10c	0.21161288
10	0x3e1d7a60	0.15378714
11	0x3e315f35	0.17321475
12	0x3e4cefb2	0.20013312
13	0x3e70190a	0.23447052
14	0x3e5a8165	0.21338423
15	0x3e711c20	0.23545885
16	0x3e371ed1	0.1788285
17	0x3e40d419	0.18830909
18	0x3e2519d9	0.16123141
19	0x3e6f1d4e	0.23351023
20	0x3e3cb992	0.18430164
21	0x3e0732a6	0.13202915
22	0x3e429704	0.1900292
23	0x3e095a6d	0.13413401
24	0x3e4474e9	0.19185223
25	0x3e361d8a	0.17784706
26	0x3e09afbc	0.13445944
27	0x3e4999eb	0.19687621
28	0x3e21438a	0.1574842
29	0x3e273c04	0.16331488
30	0x3e5b49f5	0.21414931
31	0x3e1d3690	0.15352845
32	0x3e2cf2ff	0.1688957
33	0x3e6ccc80	0.23124886
34	0x3e518cb4	0.2046383
35	0x3e6c29e5	0.23062856
36	0x3e2fec03	0.17179875
37	0x3e4ea18c	0.20178813
38	0x3e81d509	0.25357845
39	0x3e177f99	0.14794768
40	0x3e2ab777	0.16671549
41	0x3e22c891	0.15896823
42	0x3e011be9	0.12608303
43	0x3e690aa6	0.22757968
44	0x3e3ca77e	0.18423268
45	0x3e6605b0	0.22463107
46	0x3e46d736	0.19418034
47	0x3e36dd12	0.17857769
48	0x3e1a5d27	0.15074597
49	0x3e63c5a4	0.22243363
50	0x3e7152a2	0.23566678
51	0x3e7bbc5e	0.24583575
52	0x3e74dde9	0.23912777
53	0x3e0f0f81	0.13970758
54	0x3e726e98	0.23675
55	0x3e3f6b95	0.18693383
56	0x3e3b11ff	0.18268584
57	0x3e42b914	0.19015914
58	0x3e3112a8	0.17292273
59	0x3e441a7e	0.19150731
60	0x3e68091b	0.22659723
61	0x3e1f793e	0.15573594
62	0x3e354c5e	0.17704913
63	0x3e2789b8	0.1636113
64	0x3e364564	0.17799908
65	0x3e0b9aa0	0.13633204
66	0x3e20f59e	0.15718696
67	0x3e2477fc	0.16061395
68	0x3e0b834a	0.13624302
69	0x3e72ad18	0.23698843
70	0x3e63c18a	0.22241798
71	0x3e338a43	0.17533211
72	0x3e728f54	0.23687488
73	0x3e1519fd	0.14560695
74	0x3e59beed	0.21264239
75	0x3e2e1fb5	0.17004283
76	0x3e4204ae	0.18947098
77	0x3e26f746	0.16305265
78	0x3e09266b	0.13393562
79	0x3e1399f0	0.14414191
80	0x3e14efbe	0.1454458
81	0x3e6271c1	0.22113706
82	0x3e47cf3d	0.19512649
83	0x3e18efcb	0.14935224
84	0x3e728c33	0.23686294
85	0x3e41b956	0.18918356
86	0x3e6a22d1	0.22864844
87	0x3e281fb6	0.16418347
88	0x3e47d8a8	0.19516242
89	0x3e391688	0.18075001
90	0x3e1e06d6	0.15432295
91	0x3e285017	0.16436802
92	0x3e5298e4	0.20566136
93	0x3e1f9067	0.15582429
94	0x3e07cde0	0.13262129
95	0x3e3649af	0.17801546
96	0x3e2a6a86	0.16642198
97	0x3e3d4f89	0.18487372
98	0x3e24006a	0.16015783
99	0x3e672d54	0.22575885
100	0x3e375e0c	0.1790697
101	0x3e3ee886	0.18643388
102	0x3e18557d	0.14876361
103	0x3e2c9353	0.16853075
104	0x3e20db82	0.15708736
105	0x3e4827aa	0.1954638
106	0x3e15b194	0.14618522
107	0x3e274e46	0.16338453
108	0x3e3d9d27	0.1851698
109	0x3e1a0d5f	0.15044163
110	0x3e4b610a	0.19861236
111	0x3e3ea9c2	0.18619445
112	0x3e2462b8	0.16053283
113	0x3e008d90	0.12554002
114	0x3e10ddab	0.1414706
115	0x3e8b8b2a	0.2725461
116	0x3e269602	0.16268161
117	0x3e536008	0.20642102
118	0x3e843eba	0.25829107
119	0x3e51c3d4	0.20484859
120	0x3e6c7162	0.23090127
121	0x3e37673f	0.17910479
122	0x3e1b9163	0.1519218
123	0x3e5e39de	0.21701762
124	0x3e6f7220	0.23383379
125	0x3e8c5e43	0.27415666
126	0x3e5c1634	0.21492845
127	0x3e245484	0.16047865

network.2.running_var f4 [128]
0	0x3df3a73e	0.11897133
1	0x3e23b669	0.15987553
2	0x3e1ae8ff	0.15127943
3	0x3e2530cd	0.16131897
4	0x3e23fba0	0.16013956
5	0x3e21fef8	0.15819919
6	0x3e30618e	0.17224714
7	0x3e33e19c	0.17566532
8	0x3e0aea16	0.13565859
9	0x3e041801	0.12899782
10	0x3e0b4c79	0.13603391
11	0x3e0d834a	0.13819614
12	0x3e1b230d	0.1515009
13	0x3e1f4578	0.15553844
14	0x3e257e84	0.16161543
15	0x3e2ec4ef	0.17067312
16	0x3e1b898f	0.15189193
17	0x3e17809d	0.14795156
18	0x3e143409	0.14472975
19	0x3e3e25f1	0.18569161
20	0x3e199aea	0.15000501
21	0x3ddc7c70	0.10765922
22	0x3e136224	0.14392906
23	0x3df389c9	0.11891515
24	0x3e1d9dfb	0.15392296
25	0x3e1f32c9	0.15546717
26	0x3dd81e29	0.105526276
27	0x3e0887d0	0.13333058
28	0x3e164b0a	0.14677063
29	0x3df2ff62	0.11865117
30	0x3e2c49af	0.16824983
31	0x3dfa4fa9	0.12222225
32	0x3e07e5b2	0.13271216
33	0x3e255246	0.16144666
34	0x3e1d50e4	0.15362889
35	0x3e23c653	0.15993623
36	0x3e0a2207	0.13489543
37	0x3e1a401f	0.15063523
38	0x3e3107f7	0.17288195
39	0x3deba310	0.11505711
40	0x3e013283	0.12616925
41	0x3e01f68e	0.1269171
42	0x3dda482c	0.10658297
43	0x3e358c2e	0.17729256
44	0x3e099df0	0.13439155
45	0x3e2c6fd4	0.16839534
46	0x3e0d6627	0.138085
47	0x3e0d6f24	0.13811928
48	0x3df28106	0.118410155
49	0x3e348bd0	0.17631459
50	0x3e0f7f07	0.14013301
51	0x3e27e271	0.16394974
52	0x3e2b63eb	0.16737334
53	0x3df08583	0.11744215
54	0x3e31a921	0.17349674
55	0x3e163010	0.14666772
56	0x3e289d8a	0.16466346
57	0x3e29c9e0	0.16580915
58	0x3df1539b	0.117835246
59	0x3e0803ae	0.13282654
60	0x3e223c04	0.15843207
61	0x3de473ef	0.11154925
62	0x3dfb6e85	0.12276939
63	0x3e1e4db3	0.15459327
64	0x3e0318f2	0.12802485
65	0x3df6adc4	0.12044862
66	0x3e0b14e2	0.13582185
67	0x3df69bde	0.12041448
68	0x3df749e8	0.120746434
69	0x3e3916a3	0.18075041
70	0x3e2b6e75	0.16741355
71	0x3e12ef2e	0.14349052
72	0x3e34e954	0.17667133
73	0x3e01486d	0.12625284
74	0x3e25077d	0.16116138
75	0x3e12381e	0.1427922
76	0x3dfd9634	0.123821646
77	0x3e0a8c64	0.13530117
78	0x3de463a7	0.1115182
79	0x3df86cf5	0.12130157
80	0x3e0aa0cb	0.135379
81	0x3e228e7a	0.15874663
82	0x3e1b7cfc	0.15184397
83	0x3df2b202	0.118503585
84	0x3e2078e3	0.15671115
85	0x3e109367	0.1411873
86	0x3e15ba9d	0.14621969
87	0x3e0d376d	0.13790675
88	0x3e214a31	0.15750958
89	0x3e00ddbc	0.12584585
90	0x3e02b56f	0.12764524
91	0x3de01380	0.10941219
92	0x3e15f9c6	0.14646062
93	0x3e09b1b2	0.13446692
94	0x3e07766e	0.13228771
95	0x3e1de57d	0.15419574
96	0x3e034b61	0.12821724
97	0x3e14af4a	0.14519992
98	0x3e0c23cc	0.1368553
99	0x3e276487	0.16346942
100	0x3e1c0502	0.15236285
101	0x3e1926bb	0.14956181
102	0x3e056ce4	0.1302982
103	0x3e0e5abd	0.13901801
104	0x3e03a580	0.12856102
105	0x3e113a9e	0.14182517
106	0x3e111a03	0.14170079
107	0x3e0c8bd6	0.13725218
108	0x3e115999	0.14194335
109	0x3e094281	0.13404275
110	0x3e2b5f73	0.1673563
111	0x3e1cc684	0.15310103
112	0x3e06add3	0.13152246
113	0x3dea2ed2	0.114347115
114	0x3df9c652	0.1219603
115	0x3e4b3616	0.19844851
116	0x3e0267b2	0.12734869
117	0x3e12e15b	0.14343779
118	0x3e32717b	0.17426102
119	0x3e339775	0.17538245
120	0x3e205305	0.1565667
121	0x3e20be53	0.15697603
122	0x3e0ea1f1	0.13928963
123	0x3e188295	0.14893563
124	0x3e233101	0.15936662
125	0x3e3a9360	0.18220282
126	0x3e2dedbd	0.16985221
127	0x3de41515	0.111368336

network.3.weight f4 [256, 128]
0	0xbd6b023b	-0.057375174
1	0x3da26efc	0.07931325
2	0xbd5850cf	-0.05281144
3	0x3a219abd	0.00061647204
4	0xbd9d41d8	-0.07678574
5	0x3d16aa5c	0.03678356
6	0x3d89e36e	0.06732832
7	0xbcb3c177	-0.021942837
8	0x3cf98217	0.03045754
9	0x3d3145f4	0.043279603
10	0x3d8fe765	0.07026557
11	0xbd1eb755	-0.038749058
12	0xbd2b2cd5	-0.041790802
13	0xbbb15915	-0.0054122307
14	0x3d40fe0b	0.047117274
15	0x3cf554d6	0.02994768
16	0x3d8555c4	0.06510499
17	0xbc14e9a4	-0.009088907
18	0xbca9c787	-0.020725025
19	0x3d2b4166	0.041810416
20	0xbcd25cd7	-0.025679035
21	0xbdbb6e64	-0.09151915
22	0xbda43146	-0.08017211
23	0xbdbdd73c	-0.09269568
24	0xbcc1ace1	-0.023642005
25	0x3c8267ae	0.015918579
26	0xbd5fb501	-0.05461598
27	0xbd993fe6	-0.07482891
28	0x3c97ae7a	0.018515814
29	0x3c084d7d	0.008319256
30	0x3d8615ce	0.06547128
31	0x3d5af4fc	0.05345629
32	0x3d818d0f	0.06325733
33	0x3bda6ee1	0.00666605
34	0x3aaa0af3	0.0012973234
35	0xbda8f602	-0.08250047
36	0x3d290709	0.041266475
37	0x3cbafbae	0.022825088
38	0x3d27cd6b	0.040967386
39	0xbd5278ca	-0.051384725
40	0x3ceb49dc	0.028721742
41	0x3c0cc8f7	0.008592836
42	0xbd79d3fc	-0.06099318
43	0x3cb958c6	0.022625338
44	0x3d7e9878	0.062157124
45	0x3da1739e	0.0788338
46	0x3bfeeb6d	0.00777953
47	0xba3ca0ba	-0.0007195581
48	0xbdcceef6	-0.10006516
49	0xbd446d3c	-0.047955737
50	0xbccc243e	-0.024919625
51	0x3a462095	0.00075579557
52	0x3ca7afc4	0.020469554
53	0x3cb35ae3	0.021893924
54	0xbd093dc4	-0.03350617
55	0xbd0621f7	-0.032747235
56	0xbd046c35	-0.032329757
57	0x3dae2260	0.0850265
58	0xbd83b982	-0.06431867
59	0xbd5af233	-0.053453635
60	0xbd3c2823	-0.045936715
61	0x3c9842e9	0.018586593
62	0xbc3204d3	-0.010865408
63	0xbcfc80ca	-0.03082313
64	0xbd31cf96	-0.04341086
65	0x3afffd2f	0.0019530411
66	0xbd022f86	-0.031783603
67	0xbcd74cb2	-0.026281688
68	0x3d1befb1	0.038070384
69	0x3d241bce	0.04006558
70	0x3d828b82	0.06374265
71	0xbcee51a1	-0.029091658
72	0xbd3021f3	-0.043001126
73	0x3d2b3e49	0.041807447
74	0x3d0004fd	0.031254757
75	0xbdad6b2a	-0.084677055
76	0xbd29bb79	-0.041438553
77	0xbd1c0b16	-0.03809651
78	0x3c57cca6	0.013171351
79	0xbd203c41	-0.039119963
80	0xbdc310b5	-0.09524671
81	0xbd5c996c	-0.053857252
82	0x3d394b48	0.04523781
83	0x3d2db386	0.042407535
84	0x3d3fe319	0.046847437
85	0x3d246f4a	0.040145196
86	0xbda1c1cf	-0.07898294
87	0xbc78883e	-0.015169201
88	0xbd38e8c2	-0.04514385
89	0xbd84ddd6	-0.06487624
90	0x3d1817cc	0.03713207
91	0x3d98ea8c	0.07466611
92	0xba651969	-0.0008739443
93	0x3be343ab	0.006935557
94	0xbb9843ae	-0.00464674
95	0x3a4f9bae	0.00079196214
96	0x3d0627ea	0.03275291
97	0xbdc772da	-0.09738703
98	0x3c4b9e4a	0.012427876
99	0x3d461ba6	0.04836621
100	0x3d70ef1e	0.05882179
101	0x3cdb476b	0.026767453
102	0x3c831d98	0.016005322
103	0x3d990b67	0.07472878
104	0xbaf264a7	-0.0018493132
105	0x3d41a1de	0.04727351
106	0x3c24afa6	0.0100516435
107	0x3c537d29	0.0129082585
108	0xbdae78ce	-0.085191354
109	0xbd7b5d12	-0.061368056
110	0xbd318c19	-0.0433465
111	0x3d968ba0	0.0735085
112	0xbd49438a	-0.049136676
113	0xbcc8a375	-0.024492005
114	0x3d108639	0.035284255
115	0xbde03cfe	-0.10949133
116	0xbd088f34	-0.033339694
117	0xbdbf458e	-0.093394384
118	0x3d8d04d5	0.06885687
119	0x3ceb69f7	0.028737051
120	0xbc1d9ddf	-0.009620159
121	0xbd8ae6fe	-0.067823395
122	0x3dac016e	0.0839871
123	0xbcb5d56f	-0.0221965
124	0x3d8a3d86	0.06750016
125	0xbd839c1f	-0.06426262
126	0xbd052b94	-0.032512262
127	0xbd05b45c	-0.032642707
128	0xbd26bf8e	-0.040710025
129	0xbb3afade	-0.0028530876
130	0x3d9b83bb	0.07593485
131	0x3c2c3db0	0.010512754
132	0xbce2dd0d	-0.027693296
133	0xbcf98d38	-0.030462846
134	0xbb4d86cc	-0.0031360863
135	0x3db1153f	0.086466305
136	0x3dae2d12	0.0850469
137	0x3d9469a2	0.0724671
138	0xbd34ab97	-0.044108953
139	0x3d60c56d	0.05487578
140	0x3dca3165	0.098727025
141	0xbcd52bdf	-0.026021896
142	0x3d55a17b	0.052155953
143	0x3d957c11	0.072990544
144	0xbcdb9752	-0.026805554
145	0x3d7b61e8	0.061372668
146	0xbcc90e79	-0.024543034
147	0xbdb3868a	-0.08765896
148	0xbb955b5c	-0.00455801
149	0x3c12a582	0.008950593
150	0xbd049015	-0.03236397
151	0x3d9606cc	0.07325515
152	0x3d9b0a34	0.075703055
153	0x3dc42cbb	0.09578844
154	0xbdb1244c	-0.08649501
155	0xbbaf42e3	-0.0053485497
156	0xbdd274d3	-0.10276189
157	0xbd2bc1cf	-0.041932877
158	0x3d4b102d	0.049575973
159	0xbc1da130	-0.00962095
160	0xbd37741a	-0.044788457
161	0x3a9ea83f	0.0012104585
162	0xbd0c903f	-0.03431725
163	0x3d4bccde	0.049755923
164	0x3c980760	0.018558204
165	0x3d85f4fd	0.065408684
166	0x3d64a0c7	0.05581739
167	0x3d39f655	0.045400936
168	0xbd578cbb	-0.052624445
169	0xbd40ab58	-0.047038406
170	0xbc294f40	-0.010333836
171	0x3d96ee46	0.07369666
172	0x3d8d437b	0.068976365
173	0x3d5b3818	0.053520292
174	0xbcdba3e4	-0.026811548
175	0xbc12edb0	-0.008967802
176	0xbd903886	-0.07042031
177	0xbd97deb4	-0.07415524
178	0xbceedc3b	-0.029157748
179	0x3d380f13	0.04493625
180	0xbd3d1328	-0.046160847
181	0x3d3e445d	0.046451915
182	0x3d2eb502	0.04265309
183	0xbc91208c	-0.017715715
184	0x3cd51dae	0.026015129
185	0x3cca12a6	0.024667095
186	0x3d9a6387	0.075385146
187	0x3d2874b7	0.041126933
188	0xbd26f7bf	-0.040763613
189	0xbb8efe82	-0.004363836
190	0x3d8170eb	0.063203655
191	0x3db439b7	0.08800071
192	0xbdc3836a	-0.095465496
193	0xbcd8af3b	-0.026450744
194	0x3c205380	0.009785533
195	0xbd88d836	-0.06681864
196	0x3d344c32	0.044017978
197	0xbc6bcc24	-0.014391933
198	0xbc967664	-0.018367
199	0xbd52fb65	-0.05150928
200	0x3d856a7e	0.065144524
201	0x3d8dd3ad	0.069251396
202	0x3d296052	0.041351624
203	0xbcdf544f	-0.027261881
204	0x3cabef1a	0.020988036
205	0x3a9a1e08	0.0011758218
206	0x3bb0c0fa	0.0053940983
207	0x3d64ea36	0.055887423
208	0xbcbde67b	-0.02318119
209	0x3d5de718	0.054175466
210	0xbd6bc04b	-0.05755643
211	0xbdad3e6c	-0.08459172
212	0xbd7d63f3	-0.061862897
213	0x3dc58892	0.09645189
214	0xbda21600	-0.079143524
215	0x3a9630d6	0.0011458646
216	0x3c90eb69	0.017690377
217	0x3d7b3fef	0.06134027
218	0x3cfe9a6b	0.031079492
219	0xbd504c41	-0.05085397
220	0x3d599c8d	0.053127814
221	0x3c9fa123	0.019486016
222	0xbd839096	-0.06424062
223	0xbd29527e	-0.041338436
224	0xbb482ce8	-0.0030544344
225	0xbd84340c	-0.0645524
226	0xbdc5403d	-0.09631393
227	0xbdd026b7	-0.10163634
228	0x3be5bd9b	0.007011128
229	0x3d9fc2b1	0.07800806
230	0xbd8528ed	-0.065019466
231	0xbcd62a53	-0.026143229
232	0xbd74b9b2	-0.059747405
233	0x3c4f76b3	0.012662577
234	0xbd936578	-0.07197088
235	0xbdbe64af	-0.092965476
236	0xbc6cbec0	-0.014449775
237	0x3d9d6bbb	0.076865636
238	0x3c4fd0dd	0.012684074
239	0x3daacd0e	0.08339892
240	0x3ca1acf1	0.019735785
241	0xbd8e36c7	-0.06944042
242	0x3d2b7729	0.041861687
243	0x3d62582d	0.055259872
244	0x3bf19f7d	0.007373749
245	0x3d3ef623	0.046621453
246	0xbdaffea3	-0.0859349
247	0xbc6a04ed	-0.014283401
248	0xbd6714b5	-0.056416232
249	0xbd90de58	-0.07073659
250	0xbcf029d3	-0.029316818
251	0xbc42f423	-0.011899027
252	0xbda18f55	-0.078886665
253	0xbafcea04	-0.0019295816
254	0x3d486611	0.048925463
255	0xbdba878e	-0.09107886

network.3.bias f4 [256]
0	0x3d3df743	0.046378385
1	0xbc331120	-0.010929376
2	0x3c5f44a1	0.013627202
3	0x3be47c16	0.0069728
4	0x3cc9237b	0.024553051
5	0x3d9a14a6	0.075234696
6	0xbd8651d8	-0.06558579
7	0xbd0db658	-0.034597725
8	0xbd954a58	-0.072895706
9	0x3d81c9e2	0.06337334
10	0x3d826216	0.06366365
11	0xb9f73a04	-0.00047154736
12	0x3dd91046	0.10598807
13	0x3d8dd8df	0.069261305
14	0x3dd07d9c	0.10180208
15	0x3d9e9f75	0.07745258
16	0xbd2ba052	-0.04190094
17	0x3cf60a67	0.030034257
18	0x3d92c2db	0.07166072
19	0x3d602d0f	0.05473047
20	0x3df32414	0.11872116
21	0xbd9cba4b	-0.0765272
22	0xbc1e8d04	-0.009677175
23	0x3dacf00c	0.08444223
24	0xbd788caa	-0.060681023
25	0x3d811e75	0.06304637
26	0xbd122ef1	-0.035689298
27	0x3d4a8482	0.049442776
28	0x3d05a134	0.03262444
29	0x3c0cec74	0.008601297
30	0xbc36e6ad	-0.011163396
31	0x3da42b97	0.080161266
32	0x3dc19aec	0.09453377
33	0x3aedde56	0.0018147926
34	0xbd835bf4	-0.06414023
35	0xbcb1c8a7	-0.021702124
36	0x3dafd748	0.085859835
37	0x3cd51bf1	0.0260143
38	0xbcb6988b	-0.022289535
39	0x3cd82e74	0.026389338
40	0xbcd1153b	-0.025522819
41	0xbc996e44	-0.018729337
42	0x3ce8264a	0.02833857
43	0x3de8d2d4	0.11368337
44	0xbd7eac41	-0.062175993
45	0xbc5513ce	-0.01300521
46	0xbd3f5000	-0.046707153
47	0xbc3caaa9	-0.011515298
48	0x3dd4cfae	0.10391174
49	0xbcfd99b4	-0.03095708
50	0x3d94e25a	0.07269736
51	0xbc1ff8f0	-0.009763941
52	0xbd64f6ae	-0.055899315
53	0x3da20002	0.07910158
54	0x3d7c1055	0.061539013
55	0xbd285cbb	-0.04110406
56	0x3d05bcee	0.03265088
57	0xbd776958	-0.060403198
58	0xbd8e802f	-0.06958043
59	0xbd6c81a2	-0.057740815
60	0xbd2d7af8	-0.0423536
61	0xbd05bce9	-0.032650862
62	0xbb1e301b	-0.002413756
63	0x3afc9515	0.0019270504
64	0x3cf5742f	0.029962627
65	0x3cab77b0	0.020931095
66	0x3db525a7	0.08845072
67	0xbbf5c794	-0.007500598
68	0xbd10d352	-0.03535778
69	0x3cd29834	0.025707342
70	0xbba6f437	-0.0050950306
71	0x3d85282c	0.06501803
72	0x3d35576d	0.04427283
73	0xbb1ae613	-0.002363567
74	0xbc6fe2b8	-0.014641456
75	0xbc09bfb9	-0.008407527
76	0x3c434415	0.0119180875
77	0x3cf21450	0.029550701
78	0xbcc8e68d	-0.024523998
79	0xbcab2b0c	-0.02089455
80	0xbb9f5db2	-0.0048634643
81	0x3d822386	0.06354432
82	0x3d8423e4	0.06452158
83	0xbd82db94	-0.063895375
84	0x3d111d97	0.03542861
85	0xbd8100e4	-0.06298998
86	0x3da48d2e	0.080347404
87	0x3d91154e	0.07084142
88	0xbd459d9f	-0.048246022
89	0x3d5e3327	0.054248
90	0x3d8fd797	0.070235424
91	0x3d0ab974	0.033868268
92	0x3dc40068	0.0957039
93	0x3db191b5	0.086703695
94	0xbcac4235	-0.021027664
95	0xbcad8a17	-0.02118401
96	0x3d9f160f	0.07767879
97	0x3d8a7861	0.06761242
98	0x3d8c5c02	0.068534866
99	0x3cac0f7f	0.021003483
100	0xb90224dc	-0.00012411497
101	0x3d93c9fd	0.072162606
102	0x3cf3b3c4	0.029748805
103	0x3d1daa69	0.038492594
104	0xbd6159f2	-0.05501742
105	0xbd0676ee	-0.032828264
106	0xbd0f1a7b	-0.034937363
107	0x3d9b1bc6	0.07573657
108	0xbcc90ef4	-0.024543263
109	0xbd81406c	-0.063111156
110	0x3d10f31a	0.03538809
111	0x3dc66af9	0.09688372
112	0x3d863ed8	0.06554955
113	0x3d0a2a16	0.033731543
114	0xbd7021fa	-0.058626153
115	0xbcf5c6d2	-0.030002031
116	0xbd4d0296	-0.050051294
117	0x3c3adb33	0.0114048
118	0x3d2ed5ca	0.042684354
119	0xbc955659	-0.01822965
120	0xbd950259	-0.072758384
121	0x3df7d7d1	0.121017106
122	0xbd137856	-0.036003433
123	0xbc02acea	-0.007975796
124	0x3c853bc9	0.01626386
125	0xbd1fae8f	-0.03898483
126	0x3d5bca03	0.05365945
127	0x3d19bd6b	0.03753416
128	0xbcd2fdd1	-0.025755795
129	0xbced65b5	-0.028979162
130	0x3d8822d6	0.066472694
131	0xbd93ec61	-0.0722282
132	0x3d6cdbfa	0.057826973
133	0x3c70f579	0.014706963
134	0x3ce18bd3	0.027532494
135	0x3dc235af	0.094828956
136	0xbd23454d	-0.039861012
137	0x3d8d51a5	0.06900338
138	0x3c41ab72	0.011820661
139	0x3cfb67dc	0.030689172
140	0x3d863eaa	0.06554921
141	0x3963c436	0.00021721501
142	0x3da6c777	0.08143514
143	0x3dc5f4f6	0.09665863
144	0x3dcbf009	0.099578924
145	0x3dde06ce	0.10841142
146	0x3d9ed294	0.07755008
147	0x3dc76663	0.097363256
148	0x3cc2b13f	0.023766158
149	0x3cd4a2c4	0.025956519
150	0x3d8f003a	0.06982465
151	0xbb8a0dd2	-0.0042130733
152	0x3d751de2	0.05984295
153	0x3dcb162d	0.09916339
154	0xbc858520	-0.01629883
155	0x3bc7c440	0.006096393
156	0x3ddb097e	0.1069517
157	0x3d5c4da5	0.053784985
158	0x3dc43f8f	0.09582435
159	0x3c5983e4	0.013276074
160	0xbd4f8646	-0.050665163
161	0x3d0987b9	0.0335767
162	0x3b91ca57	0.0044491696
163	0x3da0c4b6	0.0785002
164	0xbcecca70	-0.028905123
165	0x3d9bee15	0.0761377
166	0xbd5806e2	-0.05274094
167	0xbda79798	-0.08183211
168	0x3cd7f895	0.02636365
169	0xb9dd3d90	-0.00042198272
170	0x3d3cf2c2	0.04612995
171	0xbdb1e27d	-0.08685777
172	0x3d6a4b1d	0.05720054
173	0x3d54bc0f	0.05193716
174	0xbd819660	-0.0632751
175	0x3dc1003a	0.09423871
176	0xbdaf5a70	-0.085621715
177	0xbd6bf9dd	-0.057611335
178	0xbc996ada	-0.018727709
179	0xbd429678	-0.04750678
180	0xbce61d82	-0.028090242
181	0xbc97e0a2	-0.01853973
182	0xbd8878be	-0.06663655
183	0x3ca224d9	0.019792961
184	0x3d28fcee	0.041256838
185	0x3dbb2022	0.09136988
186	0xbd5872eb	-0.05284397
187	0xbd9088f9	-0.070573755
188	0x3d7426a3	0.05960716
189	0xbc8d599a	-0.01725464
190	0x3cbac278	0.022797808
191	0x3a00a62e	0.0004907575
192	0xbca05eb4	-0.019576408
193	0xbbf3a437	-0.0074353474
194	0x3d6a6c09	0.057231937
195	0xbcd7c919	-0.026341008
196	0x3da52a37	0.080646925
197	0xbd83ca97	-0.06435125
198	0x3d94d9f1	0.072681315
199	0xbcea73d8	-0.028619692
200	0x3d626824	0.055275097
201	0xbd0ba681	-0.034094337
202	0x3cd120bb	0.025528302
203	0xbd12554c	-0.035725877
204	0x3dbb3608	0.09141165
205	0x3ad823c6	0.0016490154
206	0x3d59aba7	0.053142216
207	0x3d8f804f	0.07006895
208	0x3ce83890	0.028347284
209	0x3c90ee67	0.017691804
210	0x3d350494	0.04419382
211	0xbd8de561	-0.06928516
212	0x3a0e513d	0.00054289756
213	0x3d62e4ac	0.05539386
214	0xbd895906	-0.06706433
215	0xbc64188a	-0.013921866
216	0x3875d426	5.861013e-05
217	0xbd823a51	-0.06358779
218	0x3d823617	0.06357973
219	0x3cc1e2d3	0.023667729
220	0x3cba97fd	0.022777552
221	0x3d2c3128	0.042039067
222	0xbd7897c8	-0.060691625
223	0x3ce86ea8	0.028373078
224	0x3d07feee	0.033202104
225	0xbcb26675	-0.021777371
226	0x3db63182	0.088961616
227	0x3c3051e0	0.010761708
228	0xbccd1eba	-0.025039066
229	0xbc36cc62	-0.011157127
230	0x3d807ab8	0.06273407
231	0xbd26266e	-0.040563993
232	0xbd7d35f7	-0.061819043
233	0x3daca221	0.08429361
234	0x3c288765	0.010286187
235	0xbce2198d	-0.027600074
236	0x3cb6fd0e	0.022337463
237	0x3db08403	0.08618929
238	0xbcd201b5	-0.02563558
239	0xbae08b0a	-0.0017131281
240	0x3d1bf74f	0.03807765
241	0x3dd80c99	0.10549278
242	0xbd915417	-0.07096117
243	0xbce9970e	-0.028514411
244	0xbd576a6c	-0.052591726
245	0xbc65b450	-0.014020041
246	0xbd2223d6	-0.039584957
247	0x3d26897e	0.040658467
248	0xbd61f205	-0.05516245
249	0x3dd15a76	0.10222332
250	0x3dd4bd72	0.10387696
251	0xbc5c01b9	-0.013428145
252	0xbc78ac31	-0.015177772
253	0x3d0ce10a	0.0343943
254	0xbcbf6849	-0.023365157
255	0x3999b777	0.00029319126

network.5.weight f4 [256]
0	0x3f81f60a	1.015321
1	0x3f7baa2f	0.98306555
2	0x3f807ef5	1.0038744
3	0x3f824dc1	1.0179979
4	0x3f7caa18	0.9869704
5	0x3f7e6769	0.9937654
6	0x3f79619d	0.9741457
7	0x3f8005ce	1.0001771
8	0x3f7daf01	0.9909516
9	0x3f838788	1.0275736
10	0x3f82aa5d	1.0208241
11	0x3f803e56	1.0019023
12	0x3f8174f8	1.0113821
13	0x3f82a79a	1.0207398
14	0x3f7b602f	0.9819364
15	0x3f7a8b2a	0.978686
16	0x3f7fb42d	0.998843
17	0x3f805107	1.0024728
18	0x3f7b344f	0.9812669
19	0x3f7f52ec	0.99735904
20	0x3f815333	1.0103515
21	0x3f7fa48a	0.9986044
22	0x3f80c050	1.0058689
23	0x3f7e477a	0.99327815
24	0x3f79bbcc	0.9755218
25	0x3f833c66	1.0252807
26	0x3f7f797b	0.9979474
27	0x3f801aeb	1.0008215
28	0x3f7d9628	0.99057245
29	0x3f8120c2	1.0088122
30	0x3f833d43	1.025307
31	0x3f7c01f3	0.98440474
32	0x3f838e07	1.0277718
33	0x3f7cb6fc	0.9871671
34	0x3f7ad91a	0.9798752
35	0x3f7edb36	0.9955324
36	0x3f7cac76	0.98700655
37	0x3f7b6841	0.98205954
38	0x3f82a203	1.0205692
39	0x3f819966	1.0124938
40	0x3f79fe3c	0.97653556
41	0x3f7bd50a	0.98371947
42	0x3f8395fd	1.0280148
43	0x3f81f2a6	1.0152175
44	0x3f7e9b2e	0.99455535
45	0x3f80a33f	1.0049819
46	0x3f7e4b3a	0.99333537
47	0x3f8100f9	1.0078422
48	0x3f803e04	1.0018926
49	0x3f828cb4	1.0199189
50	0x3f7dd009	0.9914556
51	0x3f82116c	1.0161567
52	0x3f7f6159	0.99757916
53	0x3f80599d	1.0027348
54	0x3f8190d3	1.0122322
55	0x3f7b2336	0.981006
56	0x3f84762c	1.0348563
57	0x3f7d32bf	0.9890556
58	0x3f7d4ee7	0.9894852
59	0x3f7e5b6d	0.99358255
60	0x3f835468	1.0260134
61	0x3f8013aa	1.0006001
62	0x3f801bda	1.00085
63	0x3f7ea7f6	0.9947504
64	0x3f810712	1.0080283
65	0x3f818451	1.0118505
66	0x3f7f19af	0.99648565
67	0x3f7ec0bb	0.99512833
68	0x3f829a52	1.0203345
69	0x3f80f263	1.007397
70	0x3f7be873	0.98401564
71	0x3f7dfc0c	0.9921272
72	0x3f8145db	1.0099443
73	0x3f81716c	1.0112739
74	0x3f7dac83	0.99091357
75	0x3f823dc9	1.0175105
76	0x3f797446	0.97443044
77	0x3f819801	1.0124513
78	0x3f7f4232	0.9971038
79	0x3f826a07	1.0188607
80	0x3f810c22	1.0081828
81	0x3f809f07	1.0048531
82	0x3f81a060	1.0127068
83	0x3f79ec94	0.97626615
84	0x3f79f347	0.97636837
85	0x3f7e11db	0.99245995
86	0x3f827e99	1.0194885
87	0x3f7cddc6	0.987759
88	0x3f7ae2b7	0.9800219
89	0x3f788c12	0.9708873
90	0x3f808986	1.0041969
91	0x3f8125d3	1.0089668
92	0x3f8019d8	1.0007887
93	0x3f8079d8	1.0037184
94	0x3f8163fa	1.0108635
95	0x3f7e9551	0.9944659
96	0x3f82735d	1.0191456
97	0x3f83e5a3	1.0304455
98	0x3f817d05	1.0116278
99	0x3f794789	0.9737478
100	0x3f8324fd	1.0245663
101	0x3f806824	1.0031781
102	0x3f80c109	1.005891
103	0x3f7b33a4	0.9812567
104	0x3f7f44b9	0.9971424
105	0x3f809674	1.0045915
106	0x3f8236cc	1.0172973
107	0x3f7cfaa1	0.9881993
108	0x3f7c6b8a	0.9860159
109	0x3f79520d	0.97390825
110	0x3f7f51a1	0.9973393
111	0x3f80edd5	1.007258
112	0x3f78ca35	0.97183543
113	0x3f7c02f8	0.9844203
114	0x3f7c4de6	0.98556364
115	0x3f813cfc	1.0096736
116	0x3f7da337	0.9907717
117	0x3f83d8d9	1.0300552
118	0x3f79792f	0.97450536
119	0x3f7a3cf5	0.97749263
120	0x3f7b22e2	0.981001
121	0x3f819080	1.0122223
122	0x3f7e815f	0.99416155
123	0x3f820e4d	1.0160614
124	0x3f7d814b	0.9902541
125	0x3f802e78	1.0014181
126	0x3f7ed8b4	0.9954941
127	0x3f810a2a	1.0081227
128	0x3f8219ae	1.0164087
129	0x3f7ddff1	0.9916983
130	0x3f7c34b6	0.9851793
131	0x3f8161f9	1.0108024
132	0x3f8132bb	1.0093607
133	0x3f80e2e6	1.0069244
134	0x3f813226	1.0093429
135	0x3f8189b2	1.0120146
136	0x3f81fa38	1.0154486
137	0x3f7c6150	0.9858599
138	0x3f7cc7a9	0.9874216
139	0x3f76a464	0.9634459
140	0x3f7e0cfc	0.9923856
141	0x3f8188ec	1.011991
142	0x3f78fbfb	0.9725949
143	0x3f810a2e	1.0081232
144	0x3f81eadd	1.01498
145	0x3f7fd602	0.99935925
146	0x3f7f4458	0.9971366
147	0x3f801edf	1.0009421
148	0x3f823aaf	1.0174159
149	0x3f7fb35b	0.9988305
150	0x3f82b6f4	1.0212083
151	0x3f8166ae	1.010946
152	0x3f7be974	0.98403096
153	0x3f7b3d8f	0.98140806
154	0x3f808ca9	1.0042926
155	0x3f851691	1.0397512
156	0x3f81c1f6	1.0137317
157	0x3f815250	1.0103245
158	0x3f82af32	1.0209715
159	0x3f7f99a6	0.99843824
160	0x3f80729d	1.0034977
161	0x3f7ffcea	0.9999529
162	0x3f7ba177	0.9829325
163	0x3f7efacb	0.9960143
164	0x3f81461d	1.0099522
165	0x3f800d12	1.0003989
166	0x3f81dba1	1.014515
167	0x3f800b70	1.000349
168	0x3f80f893	1.0075859
169	0x3f7734f0	0.9656515
170	0x3f8073ce	1.0035341
171	0x3f80251e	1.0011327
172	0x3f818ecb	1.0121702
173	0x3f80d835	1.0065981
174	0x3f80334a	1.0015652
175	0x3f7d44ba	0.98932993
176	0x3f7e0bb1	0.9923659
177	0x3f80bd20	1.0057716
178	0x3f81786e	1.0114877
179	0x3f7e5426	0.9934715
180	0x3f80c1e4	1.0059171
181	0x3f81b564	1.0133481
182	0x3f7fda4f	0.9994249
183	0x3f814760	1.0099907
184	0x3f80ec0a	1.0072033
185	0x3f804603	1.0021366
186	0x3f77d1ea	0.9680468
187	0x3f7bd54e	0.9837235
188	0x3f802890	1.0012379
189	0x3f848706	1.0353706
190	0x3f7bb385	0.983208
191	0x3f75408a	0.95801604
192	0x3f7d9195	0.99050266
193	0x3f7b567a	0.9817883
194	0x3f81ea95	1.0149714
195	0x3f82371f	1.0173072
196	0x3f82faf8	1.023284
197	0x3f7f9e81	0.9985123
198	0x3f7b0663	0.9805662
199	0x3f8185e3	1.0118984
200	0x3f8207f3	1.0158676
201	0x3f7da999	0.9908691
202	0x3f801921	1.0007669
203	0x3f767af8	0.96281385
204	0x3f82c340	1.0215836
205	0x3f7e862a	0.9942347
206	0x3f7d0c16	0.98846567
207	0x3f766456	0.9624685
208	0x3f80772c	1.0036368
209	0x3f811e34	1.0087342
210	0x3f8248ab	1.0178427
211	0x3f7cc16f	0.98732656
212	0x3f7dd3f2	0.9915153
213	0x3f7c9f71	0.9868079
214	0x3f801455	1.0006205
215	0x3f7e5557	0.9934897
216	0x3f7b4f87	0.98168224
217	0x3f7ac31a	0.9795395
218	0x3f80f0a9	1.0073444
219	0x3f7fbeb7	0.9990038
220	0x3f80a8b0	1.0051479
221	0x3f80e6eb	1.007047
222	0x3f804515	1.0021082
223	0x3f834e28	1.0258226
224	0x3f7943be	0.9736899
225	0x3f8190b3	1.0122284
226	0x3f80befa	1.0058281
227	0x3f80adf7	1.005309
228	0x3f81a476	1.0128314
229	0x3f7d0b95	0.988458
230	0x3f812c05	1.0091559
231	0x3f820119	1.0156585
232	0x3f7a6495	0.97809726
233	0x3f7f1bea	0.9965197
234	0x3f7c7fcf	0.9863252
235	0x3f80ffe4	1.0078092
236	0x3f7ebaff	0.99504083
237	0x3f84560f	1.0338763
238	0x3f7cd72d	0.9876583
239	0x3f7bd835	0.9837678
240	0x3f81170f	1.0085162
241	0x3f7e9939	0.9945255
242	0x3f77e6b7	0.9683642
243	0x3f804f9b	1.0024294
244	0x3f80e27f	1.0069121
245	0x3f7946b9	0.9737354
246	0x3f7e7475	0.9939645
247	0x3f7d8efd	0.9904631
248	0x3f800b51	1.0003453
249	0x3f8072d2	1.003504
250	0x3f817a36	1.0115421
251	0x3f80bd73	1.0057815
252	0x3f829aba	1.0203469
253	0x3f7ec8e8	0.9952531
254	0x3f803575	1.0016314
255	0x3f7e93a3	0.99444026
